TD3-conf1/preTrained/TD3_BipedalWalker-v3_0_actor_target_ep100.pth (torch_old, 526986 bytes, 6 tensors)

l1.weight f4 [400, 24]
00000000: da5b 08bd 80d2 98be 5bdc 9b3e 09bb ffbd
00000010: 0e4b 913e 870f 013e f262 1dbe ae2b b9be
00000020: 9866 d2bd 7038 a53d 8830 6dbd b94c 2cbe
00000030: d9e5 9bbe f768 483e 61fc 80be 7313 383d
00000040: d8b8 45be e359 83be b224 7cbe 3280 35be
00000050: 1b29 57be e55c 97bc 407f 303c de05 3cbd
00000060: f207 4dbe 1953 12bb 657e 0fbf 8e6f eabd
00000070: 2d67 253e 8194 94be acb8 8ebe 642f 82bc
00000080: 3922 8dbe 4add 673e 1cc4 2d3e 23e2 79be
00000090: b14a 99bd e2d9 debe 01de ad3d 5836 0abc
000000a0: 17c7 aa3d 48f5 1dbe 3ab9 92bc b592 92bc
000000b0: 9203 82bd 82c9 28be 43b4 563e 6021 793d
000000c0: 4851 813e 98af 153e f106 e5bd 0059 dd3d
000000d0: ed3f ae3e fdc8 2e3e 2fcf 40bd 2318 843d
000000e0: e86c 543d ad10 b03e 1469 603e c691 78bd
000000f0: a6a2 dbbd e92d a7bd 52ed 69be 17da e03c
00000100: 166f 87be 73eb 97be bca5 023d e606 94be
00000110: 19a2 c0bc d070 60be 65f4 80be 1151 043e
00000120: 7f3a 1f3e 916c c43e 5513 5d3e 1603 3fbe
00000130: 1f6c 3b3d c94f 53be dbbd 913e b27b 8b3e
00000140: 66b4 c4be 24bf 7ebe 1d7c 01bf 2180 a4be
00000150: 9f7f 953d 7622 313e 3733 08bc d677 b53d
00000160: 3c57 02be 44df ecbd 2c0c 49bd 70c1 92bd
00000170: 14f0 66bc a367 d3bd a189 463e 0fd7 cfbc
00000180: 5a48 343e e903 3dbe 3772 de3c 9d65 e1bd
00000190: 173e ce3d 0157 3fbd 5482 2a3e 5aee 683e
000001a0: 051d 49bd 9831 253e 92d5 083e 3d04 c4bd
000001b0: 5d78 df3e 418a 133e c6ae 97be 239d 8fbe
000001c0: 8711 88be a6d8 88be 732f bf3c d112 18be
000001d0: 46d9 963d 760d 28be af35 583d 39b0 ccbd
000001e0: 19b6 bd3d 1531 943d dad8 7cbe 6a63 c43e
000001f0: 3af4 0cbe f0ae 1a3d 00e2 8c3e 8712 eebd
00000200: f286 28be 2341 d93e 6a5a 4b3c a7f4 9b3d
00000210: 051f 0b3e 5a66 853e b976 233e f6ef 373e
00000220: 1089 003e 3784 a23d 619f 533e 894c fabd
00000230: 83a6 10be b114 b43d c255 543d cc94 d23c
00000240: 8cc2 a5be 8a57 ef3d 41f0 923e a20e 50be
00000250: bd98 89bc a3db 5bbe 8ef9 4cbc 6f83 763c
00000260: 6798 ba3d 0e98 0039 d993 5a3e 7129 0b3e
00000270: 45b9 ae3e 9e23 043e 66c9 c7bd a92b 90bd
00000280: 4e22 00bd 96ac 0f3d 6364 10bd b804 17be
00000290: 3326 4abd 0c1f 50be adfa 9abe af14 afbd
000002a0: 7bf1 ae3e 65ad 803e d34f 49bf 7750 0a3e
000002b0: 52d5 e3bd 1eeb 12be cb70 a13e ca76 773d
000002c0: fcbd fbbd c7d2 9f3e e0f4 5b3e 369b 023b
000002d0: 1b12 11be 00ff b13d 82cc 68bd 99aa 11be
000002e0: b061 863d 2351 283e 6a9f 08be a90b 08be
000002f0: db17 0cbc 6c55 1ebe 977d 21bd 0a87 45be
00000300: ede9 8a3e 089a 41bd 1d23 ccbe 2871 65bd
00000310: fb95 573e 203b 92be f027 463e 80d7 75be
00000320: 85b2 bbbe 4d87 103c cbc6 093f 7631 5bbd
00000330: e3b3 ae3e 0faf 873d 3fb8 6e3e 9dcf 4b3e
00000340: 4d0e 52bc 9f5f 26bd 9b0d ff3d 53f1 2b3e
00000350: 982c 42bd 1c9e 1b3e 18a2 073e 6702 d8bd
00000360: 8e51 2c3d 6c05 3dbe 15d1 6e3d df17 dc3c
00000370: 3dd6 5a3e 7f6f 043d 1088 4d3e a456 783d
00000380: 2850 84bd eaa9 f43d ecba 963e 15a4 153a
00000390: 9a15 d03e 98dd 3e3e 0f8f c4bd 8101 8fbd
000003a0: 6963 a53c 272e b13d 818e 41be a76b 4dbe
000003b0: e3ae f9bd 4ced cbbd 0c19 133e 52ea babb
000003c0: 4988 b13d d72a 47bd 7e90 bd3e fd28 1cbe
000003d0: 4327 a03d 9b08 29bd 81e8 c83d 61ec 2ebe
000003e0: 3ad4 0cbe c957 793e e1b8 dabe 4aa9 05be
000003f0: 85ac ea3d e6b0 a2bd 06e1 c2bd a5c9 bebc
-0.03329072 -0.298481 0.30441555 -0.12486846 0.28377575 0.1260358 -0.15369776 -0.36166137
-0.102734745 0.08067405 -0.05790761 -0.16826142 -0.30448797 0.19571291 -0.2519255 0.044940423
-0.19308794 -0.25654516 -0.24623373 -0.17724684 -0.21011774 -0.018476913 0.010772526 -0.045904033
-0.20022562 -0.0022327362 -0.5605224 -0.114470586 0.1615264 -0.2901955 -0.27875268 -0.015891738
-0.27565172 0.22643009 0.16969341 -0.2440267 -0.074849494 -0.43525606 0.084896095 -0.008435808
0.083387546 -0.15425599 -0.017910589 -0.017892221 -0.06348337 -0.16483119 0.20967202 0.060822845
0.25257325 0.14617765 -0.111829646 0.10807991 0.34033147 0.17068858 -0.047072586 0.06449916
0.051861674 0.34387723 0.21915084 -0.060685895 -0.10724382 -0.081630535 -0.22844437 0.027447743
-0.2645194 -0.2967182 0.031896338 -0.28911513 -0.023514794 -0.21918035 -0.25186458 0.1292155
0.15549658 0.3836408 0.21589406 -0.18653521 0.04575741 -0.20635904 0.2846516 0.2724281
-0.38418883 -0.24877602 -0.50580007 -0.32129005 0.072997324 0.17298302 -0.008312992 0.088607475
-0.1272859 -0.11566022 -0.049083874 -0.071658015 -0.014095325 -0.103225015 0.19388439 -0.025371103
0.17605725 -0.18458523 0.027154071 -0.11005709 0.100704364 -0.046713833 0.16651279 0.22747174
-0.04909994 0.161322 0.1336272 -0.09571121 0.43646517 0.14408208 -0.2962553 -0.28049573
-0.26575872 -0.2672779 0.023338055 -0.14850928 0.0736566 -0.16411385 0.05278557 -0.09994549
0.09263248 0.07235924 -0.24692097 0.38357097 -0.1376504 0.03776449 0.27516174 -0.116246276
-0.16457728 0.42432508 0.012411693 0.07615023 0.13586052 0.2605465 0.15963258 0.17962632
0.12552285 0.07935374 0.20666267 -0.12221629 -0.14126019 0.08793009 0.051839598 0.025705718
-0.3237499 0.116866186 0.28698924 -0.20318082 -0.016796464 -0.21470504 -0.01251067 0.015045985
0.091111 0.00012263676 0.21345462 0.13590027 0.34125724 0.12904212 -0.097552106 -0.070395775
-0.031282715 0.0350767 -0.035251986 -0.14747894 -0.049352836 -0.20324343 -0.30269375 -0.08548867
0.3416861 0.2513229 -0.7863743 0.13507257 -0.11124672 -0.14347503 0.31531367 0.06041602
-0.12292096 0.31215498 0.21480131 0.0019928939 -0.14167063 0.086912155 -0.05683566 -0.14225234
0.06561601 0.16437201 -0.13342062 -0.13285698 -0.008550609 -0.15462273 -0.039426412 -0.19289795
0.27131596 -0.047266036 -0.3987054 -0.056016117 0.21053307 -0.28560734 0.19351172 -0.24007988
-0.36659637 0.008821321 0.5381896 -0.053513967 0.34121618 0.06625187 0.23312472 0.19903417
-0.012820792 -0.040618535 0.12453767 0.16791277 -0.04740581 0.15197033 0.13245428 -0.10547333
0.042069964 -0.184591 0.058304865 0.026866851 0.21370788 0.032332893 0.20071435 0.060629502
-0.06460601 0.11946471 0.29439485 0.0005708349 0.4064148 0.18639219 -0.09597599 -0.06982709
0.020189004 0.08651381 -0.18902017 -0.20060597 -0.1219156 -0.0995737 0.14365023 -0.0057042027
0.086685725 -0.04862484 0.370243 -0.15250011 0.078199886 -0.041267972 0.098099716 -0.17082359
-0.13752833 0.24349894 -0.42719176 -0.1305286 0.11458687 -0.07943897 -0.09515576 -0.023289511

l1.bias f4 [400]
00000000: d85d 41be bd4b dabd 2120 2e3d fade 02be
00000010: 06ca 4c3d 6684 14be 1ac3 42be 1547 1b3e
00000020: a6db bb3b 40c3 9bbd ad24 1f3e 2840 04bd
00000030: c888 063c dc76 17be 9191 7fbe 216b 5abd
00000040: 848a ed3b eba8 5ebe 1c97 39be d57f 943d
00000050: 11f1 5c3d d3e0 ed3d dbf3 69be a07a 30be
00000060: 8142 873d 6c92 f5bd 1478 343b 0251 0abd
00000070: be21 fb3d 7817 893d c119 e5bd e7dd 38be
00000080: bf14 7c3d 3c35 80be 1cee 84bc cb7c d1bd
00000090: d77d a6bd 13ad fd3c 9f37 37be 4cab 1c3d
000000a0: 80f7 45be 987d 1bbe d027 dd3d 72d1 53be
000000b0: 79d8 6fbc 7c1d 0fbe fcf9 c63d 2cbe 053e
000000c0: ea37 13be 327f 15bd 672d acbd e3fb 4cbe
000000d0: df37 ceba 0c35 a8be c68b 9bb9 af94 28be
000000e0: 0523 12bd f7a1 53be 9ced 823d 0dad 25bd
000000f0: 3ad5 2f3d 650f 52be 9c3c c73d d33f 10bd
00000100: 3695 c93c 3af4 863d 9cbc 5fbd 797e a8bc
00000110: 50b1 18be 1341 413e c623 1a3e c482 d93c
00000120: eaf3 61bd 549a 8bbe 049b 72be 51fd e73d
00000130: caa1 dabd c551 a2bd ddc2 f7bd 98be 1bbe
00000140: 8f25 04bd edaa 99bd 1a43 9fbd a7f0 24be
00000150: 3f42 c7bd 4f31 35be bc78 fdbd 4507 8fbe
00000160: 4e9f 383d 3a74 52bd e1e2 92be c92a eabd
00000170: 9f67 273d 4b1d 81be f11b ac3d 813d 273c
00000180: 18d0 96bc 6230 d3bd f901 7f3c 70a3 7bbe
00000190: 4520 32be 20a5 ebbc 0642 b03d 9f30 f6bd
000001a0: 4a35 273d 6844 2bbe 0058 e23d 005a 39be
000001b0: d25a 693d c551 8dbe cba4 fa3c 4976 b83b
000001c0: 4930 2e3e be37 88bd ec34 593d ae53 1ebe
000001d0: 58a3 babc a1ea 41be 250c 76be 00c1 97be
000001e0: 163b 1e3e dabb 24be 51fb f53c d87c 89be
000001f0: 9d0c 0b3e 174c 683d 4987 c2bd 2852 8cbc
00000200: 2f87 163e a30c 46bd 59ac bbbc 1dbc 04be
00000210: 3c55 7cbd 3146 e53d 8420 a73d c5fd 81be
00000220: 6690 b7bd dc52 3dbc fe13 823c 7723 01bc
00000230: 5123 7ebe 80b8 e23d 022a 52be d63f f8bd
00000240: 36b8 783d 1f33 d73d 995c 693e 23e7 65be
00000250: 41aa 68be 71dc 3ebe bcfc 563e 180e d3bd
00000260: 2d44 893d 2345 513d df50 67bd 6feb bc3c
00000270: 2e6f 093e 182a ffbd 999e 40be 5a64 6a3d
00000280: 4559 c3bd 0f31 3bbe e4fa 28be bfb6 d13d
00000290: 28fb 30be 21a5 42be d672 03be 1b60 003e
000002a0: 8c45 153e 47ea a73d 1f85 22be e3d7 733d
000002b0: 97a8 a93d b130 6dbe 0c8e d83d 9f76 76bd
000002c0: b5e6 19bd d871 f73d b419 7bbe f5c5 1e3e
000002d0: e39f c43d 1903 cfbd 659b 5f3d 488f 433e
000002e0: a53d 9b3d 410a 86be f015 f2bd 0cba 69be
000002f0: 42e1 5abe 2a50 a9bc 27b1 20be 5539 c6bd
00000300: 879c c63d 5822 1c3e 16f2 97bd 99a9 14be
00000310: a824 a4be 2d07 95bd 74aa 7fbe 59fd c8bb
00000320: e7c1 a2bd 840c 093d e00f c13d 5f42 2abe
00000330: fd12 b13c 7f13 753d 174e 2fbc 1899 bd3d
00000340: 2625 b23c bfde 5a3d b653 0e3e 05dc 01be
00000350: 83b8 ad3d 8d4d 743c 5cf1 d33d 1657 9cbe
00000360: 3a87 76be 94ce 42be 3a75 56be 47cf c1bc
00000370: 598c f83d 3f57 26be ae85 1ebe 3412 36bd
00000380: a8e7 e33d 5391 94bd be6d 48be bbd9 2bbd
00000390: 405c c4bd 9ffd 653d 1d0d bdbd 0242 933d
000003a0: 531e 95bd 39f9 263d 11df 40be 9dd2 e83d
000003b0: 4326 1bbe 6b90 423b c1d6 04be 23dc 173e
000003c0: e192 adbd fbe1 a73c 07a2 d6bc 1f5f ef3d
000003d0: 9f14 063e f5fa 7c3d c892 c23c 2093 b33d
000003e0: 8664 a73d f230 4dbe 1904 15be f473 e3bd
000003f0: 0ba0 433e 8432 003d 9901 9bbe 104e 033e
-0.18883455 -0.10658977 0.04251111 -0.12780371 0.049997352 -0.14503631 -0.19019738 0.15163834
0.0057329712 -0.076056 0.15541334 -0.032287747 0.008211322 -0.14791435 -0.24957873 -0.053324822
0.0072491784 -0.21744125 -0.1812405 0.072509445 0.053940836 0.116151474 -0.2284693 -0.17234278
0.066044815 -0.119908184 0.0027537392 -0.03376866 0.12262295 0.066939294 -0.11186553 -0.18053399
0.061543223 -0.25040615 -0.01622682 -0.102288805 -0.08129471 0.030966317 -0.17892312 0.0382493
-0.19332695 -0.15184629 0.10798609 -0.20685366 -0.014639013 -0.13976091 0.097156495 0.13060826
-0.14376798 -0.036498256 -0.08407097 -0.20017962 -0.0015733204 -0.32852972 -0.00029668043 -0.16462968
-0.03567793 -0.20667253 0.06392977 -0.040448237 0.042927958 -0.20513685 0.09728357 -0.035217118
0.024607282 0.06589551 -0.05462323 -0.02056812 -0.1491139 0.1887248 0.15052709 0.026551612
-0.055164255 -0.2726618 -0.23691946 0.11327613 -0.1067539 -0.079257526 -0.12097714 -0.15209424
-0.03226238 -0.07503305 -0.077764705 -0.16107427 -0.09729432 -0.17694591 -0.12376544 -0.27935234
0.0450738 -0.051380374 -0.2868872 -0.11433942 0.040870305 -0.2521766 0.08403767 0.010207535
-0.018409774 -0.10311963 0.015564435 -0.24574065 -0.17395122 -0.028765261 0.08606343 -0.120209925
0.040822305 -0.16725314 0.11051941 -0.18100739 0.05697138 -0.27601448 0.030596158 0.005629335
0.17010607 -0.06651257 0.053028986 -0.15461609 -0.022782966 -0.1893716 -0.2402807 -0.29639435
0.15452227 -0.16087285 0.030027064 -0.2685306 0.1357903 0.05671319 -0.0949846 -0.017129019
0.14700006 -0.048351895 -0.02290933 -0.12962385 -0.061604723 0.111950286 0.08160499 -0.25388923
-0.08963089 -0.0115554 0.015878674 -0.007881991 -0.2481816 0.11070347 -0.20523837 -0.12121551
0.060722552 0.105077974 0.2278923 -0.22451453 -0.22721197 -0.18638779 0.20994848 -0.103054225
0.067024566 0.051091325 -0.05647361 0.023061482 0.13421318 -0.124592006 -0.188105 0.05722461
-0.09538511 -0.18280433 -0.16501957 0.10239934 -0.17283309 -0.19008304 -0.12836775 0.12536661
0.14577311 0.08198982 -0.15871094 0.059532057 0.08284109 -0.23163106 0.10573968 -0.06017172
-0.037573535 0.12082261 -0.24521524 0.15505202 0.096008085 -0.10108013 0.054591555 0.19097626
0.07580117 -0.26179698 -0.118205905 -0.22824878 -0.21374992 -0.020668108 -0.15692578 -0.09678904
0.09697824 0.15247476 -0.07419221 -0.14517821 -0.32059216 -0.07276759 -0.24967366 -0.006133717
-0.0794714 0.0334592 0.09426856 -0.16626881 0.0216155 0.059833046 -0.01069977 0.09257716
0.02174623 0.053435083 0.1389912 -0.12681587 0.084824584 0.014911068 0.1034877 -0.3053519
-0.24075022 -0.19024116 -0.20943156 -0.023658408 0.12136144 -0.16244219 -0.15480682 -0.044450954
0.11128169 -0.07254281 -0.19573113 -0.04195569 -0.09587908 0.056150075 -0.09231017 0.07190324
-0.072811745 0.04076502 -0.18835093 0.11368296 -0.15151314 0.002968813 -0.12972547 0.14830069
-0.084752806 0.020493498 -0.026200308 0.11688065 0.13093804 0.06176277 0.023751631 0.08768296
0.0817347 -0.20038202 -0.14552344 -0.11106101 0.1910402 0.031298175 -0.30274656 0.12822747

l2.weight f4 [300, 400]
00000000: 4773 2fbc 96e5 17bd 2402 073b a54e 0dbd
00000010: d2aa 5bbc 5b1a 6ebd ae25 95bc 5846 3dbd
00000020: acaa 033d 399f 4fbd 4df8 01bd 880b 39bd
00000030: a710 28bd e29f dbba 3f30 00bd fdf6 02bc
00000040: d56c 12bd 894d 47bd 7e0e af3c 2187 c3bc
00000050: 9155 cbbc 2ba9 263d 525b 623c 2a6b e63c
00000060: b5d5 963c 9f8c 27bd 1c40 083d 6dfb 81b8
00000070: c65d e73c 4908 c5bc c3c4 7e3a 449f febb
00000080: 437b ebbc 9a97 d6bc 7671 2e3d a60b 893c
00000090: 2083 f1bc 54dc 79bc 47d4 bc3c a828 34bd
000000a0: 0a8c e03c 6cf9 19bc 7a4e d1bc 9bce 11bd
000000b0: e049 0fbc 2846 36bd 0970 d43c 7469 0e3c
000000c0: 09a5 c7bc eba1 e0bb e2d5 eb3c ec34 873c
000000d0: 70bc 31bd 89b9 4ebd d30d f13c 18fc 43bc
000000e0: 0c5e 093d b0aa abbb 5d4f 933b dcfe fcba
000000f0: 6a8c 8abc f30d 65bd efdc 363c 6899 d73a
00000100: e76a 333c 9c72 8a3c 54e1 863c 03de 7f3c
00000110: a019 36bd 693e c9bc 2b06 7b3c 0025 3ebd
00000120: 7671 2e3c 2747 21bd 4003 173a efac 25bd
00000130: f2a0 d9bb ec6a 7ebc e831 30bd 1089 38bd
00000140: 76f8 243d 9854 c43c 29fe da3b 732d 36bd
00000150: e292 d9bb 6910 d93b 4960 2f3d 2465 033d
00000160: 316a 46bd e2ff d53c 1579 8e3c 2265 ea3c
00000170: 818b c8b9 70be b9bb 2262 e13c 63c0 e0bc
00000180: 864f 1dbb 9889 37bc d1b3 cdbc f01a 35bd
00000190: f7da 2bbb c3c7 f13c 9bc7 67bd 9084 3fbd
000001a0: 59f2 4abd f233 673b d096 3dbc cfd6 2abd
000001b0: f564 953b 50a8 b63b 02dc 5ebd 0a51 6e3c
000001c0: 486b c13b 68e2 7dbc c4fb f9bc 759e 1a3d
000001d0: e801 11bc fa0a ef3c 30ce 1dbb 3d7c 0bbd
000001e0: 8812 3cbd 9fda b33c 5d1f 82bc 3e86 1abd
000001f0: d59f 133c 2d9e 03bd 41d7 cbbc 7df1 9e3c
00000200: 98ee 3bbd 40ca 30bd 10ca 423c 32f2 aa3c
00000210: 6dbf 0bbd dd09 103d 14cc 5dbc 60fc 48bd
00000220: 0d07 8bba d82c 59bc 33ff f43c d72e eabc
00000230: 6044 f1ba 8b1b e0bc 5a49 9fbc 8546 923c
00000240: 12e2 d7bc 50e5 b2bc abb1 edbc 8804 cf3c
00000250: 21c5 41bd bddb 123c 114a cfbc 26c8 98bd
00000260: cfd6 2abd 25e2 83bc f26d ee3a c729 353c
00000270: a97a 393d d960 dc3c 4290 dbbc c644 243d
00000280: 7d4b 22bd 60d4 45bc a83f a0bb c4c0 873c
00000290: 352d 973a fc26 fbbc 1f46 00bd 2f23 a4ba
000002a0: c1fb 47bc 517a 48bd 8959 de3a 0647 2d3c
000002b0: 2006 d3bc 8044 82bb 0901 41bc 7e7d 90bc
000002c0: 1424 ffbb dd5e 1f3b 0362 eabb 0583 0abd
000002d0: f65c 273d 3dde 83bb 0965 41bd b971 c8bc
000002e0: 00b6 6f3a 83e8 3ebd e3ae 65bc 5caa 083d
000002f0: 86ea 983c a1c9 d33c 9eed bd3c 1a5c 623c
00000300: 14e6 803c 54c5 fabc fda6 07bc 9d1a 08bc
00000310: a7d2 a9bc e690 1cbd 1d1f 01bc 0f97 25bd
00000320: e85a bebc 4a12 45bd 94eb fdbc 76b3 e53c
00000330: dc7a 79bd 18c0 c93c f99b 42bc 602c 4f3c
00000340: a6f6 233d 581a bcbc 02a3 dbbc fe4b 92bc
00000350: a656 2d3d f51f 943b 1e68 92bd ba2c 803c
00000360: 036e 68bc 9f61 2abd 3b98 65bd 99de 46bd
00000370: 60e1 35bd f4df 75bc 9ddf febc e2b6 53bc
00000380: 00d6 04bb 256c 9f3c e826 4f3c ea5f 52bd
00000390: 85d9 1f3c 9cbe 8e3c 31a5 d13c a24c aa3c
000003a0: ebd0 ed3c b9f9 5b3c 3af9 59bd 553e 1d3d
000003b0: addc 3a3d eeec ab3c 5a05 e53c f475 0e3d
000003c0: 3bb7 7d3c de81 95bd 41df 523c 1dbc 84bd
000003d0: bac0 58bd a67b 2b3c 2553 06bd 8997 5c3b
000003e0: a052 39bd 820e cc3c b4f8 f3bc 0f24 b43b
000003f0: d237 51bd 10f0 13bd 8af0 3abd 43ec 6dbc
-0.010708637 -0.037084185 0.002060064 -0.03449883 -0.013407426 -0.058130603 -0.018206444 -0.046209663
0.032145187 -0.050688956 -0.03173094 -0.045177013 -0.041031506 -0.0016756023 -0.03129601 -0.007993457
-0.03574832 -0.048657928 0.021369215 -0.023868145 -0.024821075 0.040688675 0.013815718 0.028127272
0.01841245 -0.04090559 0.033264264 -6.198031e-05 0.028242957 -0.024051802 0.0009718651 -0.007770451
-0.0287453 -0.026195336 0.042588674 0.016729187 -0.02948147 -0.015250284 0.02305044 -0.043984085
0.027410526 -0.009397846 -0.025550116 -0.035597425 -0.0087456405 -0.0445005 0.025932329 0.008692134
-0.024370687 -0.0068552396 0.02878851 0.016504727 -0.0433926 -0.05046991 0.029425537 -0.011961959
0.033536956 -0.0052388534 0.004495545 -0.0019302028 -0.016912658 -0.055921506 0.011161073 0.0016448917
0.0109507805 0.016900353 0.016464867 0.015616897 -0.04445803 -0.024565892 0.015321295 -0.046422005
0.010647168 -0.039374497 0.0005760677 -0.040448125 -0.0066415006 -0.015528422 -0.043016344 -0.045052588
0.040276013 0.023966119 0.0066831303 -0.044476938 -0.0066398242 0.0066242707 0.042816434 0.032078877
-0.048441116 0.026122991 0.01739172 0.028612677 -0.0003825091 -0.005668454 0.027512614 -0.027435487
-0.0024003698 -0.0112022385 -0.025110157 -0.044215143 -0.0026223043 0.0295142 -0.056586843 -0.04675728
-0.049547527 0.0035278765 -0.011571601 -0.041708764 0.004559154 0.0055742636 -0.054409035 0.014545688
0.0059026815 -0.015495874 -0.030515559 0.037748773 -0.008850552 0.029180039 -0.0024079196 -0.03405403
-0.04591611 0.021954833 -0.015884096 -0.03772568 0.009010275 -0.03213327 -0.024882914 0.01940226
-0.045881838 -0.04316163 0.011888996 0.02086744 -0.034118105 0.035165656 -0.013537426 -0.04906881
-0.001060696 -0.0132553205 0.029906845 -0.028586788 -0.0018407218 -0.027356884 -0.019444156 0.017855892
-0.026352916 -0.02183786 -0.029015383 0.025270715 -0.047307137 0.0089635225 -0.025303872 -0.0746005
-0.041708764 -0.016099045 0.0018190725 0.011057324 0.045282993 0.02690165 -0.026802186 0.04010465
-0.039622772 -0.01207456 -0.004890401 0.01657141 0.0011533858 -0.030658238 -0.031316873 -0.0012522693
-0.012206019 -0.048944775 0.0016963939 0.010576015 -0.025759757 -0.003975451 -0.011780032 -0.017637964
-0.0077862833 0.0024318018 -0.007152797 -0.033816356 0.04086014 -0.0040242956 -0.047215495 -0.02446829
0.00091442466 -0.04660846 -0.014018747 0.033365592 0.018666517 0.02585298 0.023184594 0.013815904
0.01573471 -0.030611672 -0.008279559 -0.008307126 -0.02073033 -0.038224123 -0.007880953 -0.040427264
-0.023236707 -0.048113145 -0.030996121 0.028039675 -0.060908183 0.02462773 -0.011878007 0.012644857
0.040030144 -0.02296178 -0.026811127 -0.017858502 0.042318963 0.004520411 -0.07148765 0.015646327
-0.014186385 -0.041597005 -0.05605338 -0.04855213 -0.044404387 -0.015007008 -0.031112486 -0.012922021
-0.0020269156 0.019460747 0.012643553 -0.051361002 0.009756451 0.017424874 0.025591465 0.020788494
0.029030284 0.013426238 -0.053216197 0.038389523 0.04562061 0.020987 0.027956653 0.034780458
0.01548558 -0.07300161 0.012870611 -0.06481192 -0.052918173 0.010466492 -0.032794137 0.0033659658
-0.045244813 0.024909262 -0.029781677 0.0054974626 -0.051078625 -0.036117613 -0.045639552 -0.014521661

l2.bias f4 [300]
00000000: 164e 11bd 864b 203d 72c5 b3bd 9ee6 98bd
00000010: 9b28 753b 9729 2ebd fe4b 92bd 95de 7d3d
00000020: 7378 66bc 0624 1ebd a772 a0bd ffa7 fabc
00000030: fd92 02bd adde 8bbc 7811 06be 3efd 1bbd
00000040: 9ac1 e83c beb7 9abd 22f5 693d 0c1f b3bd
00000050: 70ca 9c3d b5d5 80bc 4c78 c9bd f812 8bbc
00000060: bd63 8dbd d379 f83c ec13 31bd 619e a53d
00000070: 4faf bb3c 047e 76bd c626 90bd b5a6 963b
00000080: 436d 65bd b20e 97bd f938 1dbd c1a3 abbd
00000090: 1358 eebc 95f4 88bc 361a cfbc dc08 0c3d
000000a0: da9a 893c 7112 d7bd 3ea7 12bd 3095 0c3e
000000b0: b7e0 a9bb 6d1c 4b3d 23a5 9fbd 8636 1dbd
000000c0: 3568 30bd 30a5 38bd e0bd 4d3d 076b a7bb
000000d0: 71e7 c7bc cc79 fbbc d354 213d 5d8a 85bd
000000e0: 3a1d 54bd 177e a2bc 8b3f e7bc 7428 6bbd
000000f0: 0be1 13bd 9a59 c53c c896 403c d250 d1bd
00000100: 93a6 e3bc 8fb9 a6bd 4196 41bd fd3f cc3c
00000110: d66d 2c3d 88d3 39bd a6a0 90bd a36e 31be
00000120: 0965 5d3d 92d1 e03b 8f1b 80bd 0653 c5bd
00000130: 68b2 3ebb 8245 e8bc bcf9 c4bd 4d3d 03bd
00000140: de0b 18bd a8a0 6dbd 680f 2e3e 92fb d9bc
00000150: 831e 8a3d b4dd 043a 367f 9abd 82ad 53bd
00000160: 8800 3fbd 363f 14bc 75ab 03bd 1264 bc3c
00000170: 400d 25be 4756 15bd 40d7 b2bc 1e32 1bbd
00000180: f4d5 43bd 6821 39bd e6af 35be 1600 9ebd
00000190: b62f 213c 7d51 3fbd b351 61bc 92e0 b1bc
000001a0: 4706 a4ba 4c74 7ebd feb0 96bc 7db6 933c
000001b0: 94f5 f3bc 642b 9abd 3c53 fdbd 5839 bbbb
000001c0: 665d 96bd 9647 10bd 9447 37be bdac 8ebb
000001d0: a906 4bbd 45df 54bd 1b65 6dbd 1f87 d4bd
000001e0: ecd0 4bbd f6b2 08be a5f4 133d 7162 3e3d
000001f0: c274 0cbd 466e 1bbc eebd 9ebd a01a ccbd
00000200: 457b 7b3d 6543 81bc fb7f 68bd 0cf7 7cbd
00000210: bb5b edbb 45a0 27bd b9d3 35be ecc5 21bd
00000220: 582d bdbc 51ef 41bd 10c8 cf3d 18e8 3abd
00000230: 85ae 09bd 9c11 333c c890 413a df5b 4d3c
00000240: fde1 923c 1862 ccbb 418e c43d 056d 9338
00000250: 7e34 18bd 7328 ebbc a83a 783d be39 14bd
00000260: 65f0 8abd 1ab6 53bd 8f3f cabc 615b 43bd
00000270: c079 b3bd cd6e f4bc c907 02be afce 303d
00000280: ace4 0a38 fe9b 24bd 9fef a3bd 45f3 89bd
00000290: 5dce 82bd 1c81 f3bb 0c35 7cbd 1a39 d3bb
000002a0: 1bfb b13c 7d8c 01bd a31f 6f3d 55aa 353e
000002b0: 73b1 c1bd aae8 683c ba96 cd3d d4fe ffba
000002c0: db13 edbc 7d13 8d3c 81c9 46bd b99d 49bd
000002d0: 5b61 92bd 7bc9 62bc b969 f3bd 7b70 9fbd
000002e0: a89e 503c 0f83 20bd 411a 863d 2ad8 f1bd
000002f0: 036c 60bd 63c7 63bd 0f9d 24bc 8797 2abd
00000300: 8d5d a5bd 7eb6 13bd 8731 a2bd c344 76bd
00000310: 275b 26bd 9f3c acbc c1c6 25bd 065b 99bd
00000320: 2c93 f7bd c93a 113a e4c1 7fbc 6fed 39bd
00000330: 730f 6bbc b152 4cbd e063 99bd 7646 18bd
00000340: 3fee 2abd 44ec e03d 9609 12bd 7eaa f0bd
00000350: 29f4 253e 78d7 b6bc adc0 103d 7a30 85bd
00000360: b164 edbd 2d9f 07bd b89b 3c3c 6671 1bbd
00000370: d476 053b af7a e93b bd4b b4bd ef11 2abd
00000380: bce6 f3bc 65b7 87bd cebf 743d 197c ccbd
00000390: f785 ef3c 2cae f8bc da5e d4bd cfb6 a7bb
000003a0: d6e3 10bd fcd4 f7bc 0221 003d 5989 8b3d
000003b0: 990c c03d cfab 2dbc faca 4d3d 185a 413b
000003c0: 85e5 84bd be15 9abc 48ee 07be b3d0 1fbd
000003d0: a8c4 3cbd 89a6 b4bd 2370 17bd 0af9 d2bd
000003e0: b1fb 4dbd a0a1 30bc e413 833c 8eb3 5a3d
000003f0: 1c2a fbbc 4c45 71bd 2351 65bd 1e4b 9bbd
-0.03547486 0.039134525 -0.08777894 -0.07465862 0.0037408236 -0.042520132 -0.071434006 0.06197985
-0.014066803 -0.038608573 -0.07834368 -0.030597685 -0.03187846 -0.017073954 -0.13092601 -0.038083307
0.028412629 -0.07554577 0.057118542 -0.08746156 0.076557994 -0.015726903 -0.09837398 -0.016976818
-0.06903789 0.030331528 -0.04323189 0.08086849 0.022910742 -0.06017877 -0.070386454 0.0045975097
-0.056012403 -0.0737585 -0.03838441 -0.08380843 -0.029094731 -0.016718188 -0.025281053 0.034188136
0.016797472 -0.10501564 -0.035804026 0.13728786 -0.005184259 0.049587656 -0.07795169 -0.038382076
-0.04306813 -0.04507941 0.050229907 -0.005109194 -0.024402352 -0.030697726 0.039387535 -0.06520531
-0.051785685 -0.019835515 -0.028228542 -0.057411626 -0.03610329 0.024090577 0.011754699 -0.102204934
-0.02778939 -0.08140861 -0.047262434 0.024932856 0.042096935 -0.045367748 -0.07061891 -0.17327361
0.054051433 0.00686092 -0.062552564 -0.09634976 -0.0029098038 -0.028353456 -0.096179456 -0.032040883
-0.037120692 -0.058014542 0.16998065 -0.026609216 0.06744101 0.0005068437 -0.07543795 -0.05167914
-0.046631366 -0.009048274 -0.032145936 0.022996936 -0.16118336 -0.036459234 -0.021831155 -0.037889592
-0.047811463 -0.045197874 -0.17742881 -0.0771486 0.009838035 -0.046708573 -0.013752389 -0.021713529
-0.0012514078 -0.062122628 -0.018394943 0.018031353 -0.029780187 -0.07527807 -0.12369391 -0.005713623
-0.07342033 -0.03522452 -0.17898399 -0.004354088 -0.0495669 -0.05197074 -0.05795775 -0.10377335
-0.04975979 -0.13349518 0.036121983 0.0464806 -0.034291036 -0.00948674 -0.0775107 -0.09966016
0.061396856 -0.015779207 -0.056762677 -0.06175904 -0.007243601 -0.04092433 -0.17756547 -0.039495394
-0.02309291 -0.04734737 0.10145581 -0.045631498 -0.0336137 0.010929491 0.000738394 0.012534111
0.017930025 -0.0062372796 0.09597445 7.029813e-05 -0.037159435 -0.028705811 0.060602814 -0.03618788
-0.06784133 -0.051687337 -0.02468851 -0.047694568 -0.08763456 -0.02983799 -0.12698282 0.04316586
3.311473e-05 -0.04018783 -0.080046885 -0.06735853 -0.06387017 -0.0074311625 -0.061574027 -0.006446016
0.021726182 -0.03162812 0.05837978 0.17740758 -0.09457674 0.014215628 0.100385144 -0.0019530901
-0.028940132 0.017221207 -0.048532013 -0.04922268 -0.07147475 -0.013841982 -0.11885399 -0.07785126
0.012733139 -0.039187487 0.06547976 -0.11808808 -0.054790508 -0.055610072 -0.010047211 -0.041648414
-0.08074484 -0.03606271 -0.07919603 -0.06012417 -0.040614273 -0.021025 -0.04047275 -0.074880645
-0.12088618 0.00055400707 -0.015610192 -0.04539245 -0.014346945 -0.04988355 -0.07489753 -0.03717657
-0.041731115 0.10982564 -0.035653673 -0.11751269 0.16206421 -0.02231954 0.03534 -0.06503387
-0.11591471 -0.033110786 0.011511736 -0.037949942 0.0020365017 0.0071252207 -0.088035084 -0.04152101
-0.029773109 -0.066267766 0.05975323 -0.09984607 0.029238684 -0.03035649 -0.10369654 -0.005118228
-0.03537353 -0.030252926 0.03128148 0.06813306 0.09377403 -0.010600044 0.0502424 0.0029503163
-0.0648909 -0.018809196 -0.13274491 -0.03901739 -0.046085984 -0.088208266 -0.036972176 -0.10301407
-0.05028886 -0.010780722 0.016000696 0.053393893 -0.030659728 -0.058903977 -0.05598558 -0.07582687

l3.weight f4 [4, 300]
00000000: 8e94 1bbd 58f2 e5bc 9fc4 b9bc 0e74 2fbc
00000010: 3a31 d93c c4de 023c 7549 0b3d 28b5 a2bd
00000020: d6a6 163b 7da2 0ebc 81f0 cc3c a2b5 0c3e
00000030: 20c1 31bd ec09 8abb fdd2 00bd 8d2e 93bc
00000040: e6b4 2f3d 302b b0bc 5714 c1bc b673 1e3b
00000050: c92c c03c f51f 58bd c84e a1bd 1074 15bd
00000060: 41d6 47bb 81c4 4b3b 41be 28bd f5da e5bd
00000070: 7f1e bdbc 17ef bd3c 288a 4c3c f56a d6bc
00000080: aa97 e9bc 6523 f33c 9122 4f3e bf5c 11bd
00000090: cd9f 163a ba33 e33c 9da9 c8bd c8d5 c23c
000000a0: 96ab 0a3c e0db 7e3d 977e 193e cdc2 e13d
000000b0: 69a5 d5bc d957 69be 7252 ca3c c09f cebc
000000c0: 56a3 c13d b001 cd3c 60fd 4fbd 5507 093c
000000d0: 919e c33c 4a38 efbb 3c43 4bbd c7a3 a93c
000000e0: aaec df3c 7194 c0bb dee5 ae3b 4cb0 0d3d
000000f0: f132 ffbd d1a6 b33c b57f 833c cd93 983b
00000100: 77be b63c 0be1 22bd 2a9d 66bd 60dc 5dbd
00000110: 31ca 4f3c 49fb 42bc c933 ddbb 41bf 64bd
00000120: 1861 e3be e16a cfbc 4f28 0a3d 0e27 543d
00000130: 9b69 ff3c 901c 463e e220 f13b 907e 403d
00000140: 9e85 24bd 45be d3bc 1579 093e f54b 153c
00000150: 2c60 b0be 736f 743c 5ccd fe3c 2871 4c3c
00000160: b685 1bbc ece4 8bbc ec4f 76bc 08d9 96bd
00000170: d84f 753b 3174 423c b24c e6bb 584e 44bc
00000180: 0735 51bd 0c31 84bc 41a6 e3bd 060d a6bb
00000190: ee62 10bb 52ef 3a3d 1557 1cb9 1995 113d
000001a0: 7827 b23c c68b 94bd a228 d9bb d553 8fbc
000001b0: ee7c 14bc f0e2 c3b9 4d82 84bc afa0 a63c
000001c0: 6b6c eb3b 085c 333c c1be 553d 830a 0cbe
000001d0: 4d6c 903c 40f8 f8bc b30d fd3b 8c07 ea3e
000001e0: a0cb 923d f7fb 9ebe be5a 263e 8d5a 173c
000001f0: 5b99 3d3d 4ad5 d9bc 4eac 963c cd6e 423d
00000200: f828 063e 6f9a 223d 0890 be3c cabb d73b
00000210: 47cd 20bb d886 c5bb 41f8 043e 5783 d93c
00000220: 1f54 26bc 8276 583c fe98 e43b ac7e 023d
00000230: afcf 33bd ebfb ce3b ebf9 e239 d2e9 0bbc
00000240: 5e23 abbb fa1b dabc 7e20 23be 9333 873e
00000250: f605 103d c729 35bc d54f 5c3d b8e5 bd3c
00000260: ab59 6bbd 77fc b43c 627a a13d 7e01 ad3c
00000270: 4489 0abc e314 01bd 7c1a b6be 4396 38be
00000280: 15ce 04bd 6812 813d 7054 babc 2dbd 9b3c
00000290: c4c7 713d f272 8dbc be20 603d e9fe dd3d
000002a0: 8084 c43d 3e5f 94bd 2031 5abc 5831 2fbe
000002b0: 7395 eabe 34bf 07bc 9e3b 6cbe e037 32bd
000002c0: 8fe0 b83a 99bd 25bb 01d7 cabd 745a 04bc
000002d0: b3b9 783c 2952 4d3b 875a 303c 1077 313d
000002e0: 4a76 c73e 3611 a43c d7b5 1fbf 5ec6 a5bd
000002f0: 6013 b6bc be52 94bd c813 c13b cda9 8c3a
00000300: 73b5 2fbd f43a 833b f93f 49bd 6675 61bd
00000310: 9de6 183d ccac 7f3d 2958 313e 5dd0 0a3d
00000320: 1fc3 a03e 37e6 bf3c 38ab cdbc 36cc 7fbb
00000330: 3866 b33c 215c c6bb 50ef a93d 50a7 cd3c
00000340: 47ff 393d c98c a23d 95f9 83bc fe35 ef3d
00000350: f9e0 48bd 9d7f 0cbc dc2c 063d daa3 adbd
00000360: 113b a2bc 8858 413d b710 81be 4f4c a6bc
00000370: ce59 91bb cadd e2bd 6cee db3c 7971 c7bb
00000380: 515d d13c dae1 533d 55da 333c b59f 863d
00000390: fc8e 3bbe 4d53 103d 3df1 043d b300 7b3c
000003a0: e3c0 fbba 45df 1d3d 0863 39bd 920a f43d
000003b0: cd48 e0bc 9a52 d53c 8f1b 893d d15e d73c
000003c0: 0db9 173d 5dec 163c 10f0 6abc 1d0c 19bd
000003d0: e604 92bc 9370 81bd be54 663d 21f1 db3c
000003e0: cc3d 05bd 22d4 64ba d3be 79bc c069 d23c
000003f0: 96e8 233c 1e6b 1ebd 0dac 153b 424c 5eba
-0.03798347 -0.02806966 -0.022676764 -0.010708822 0.02651273 0.007987682 0.0340056 -0.07944709
0.0022987626 -0.008705732 0.025017025 0.13741162 -0.04339707 -0.0042126086 -0.031451214 -0.017966533
0.042897128 -0.021504968 -0.02356927 0.0024177856 0.023458855 -0.05276485 -0.078763545 -0.03648764
-0.0030492696 0.0031092467 -0.041197065 -0.11223403 -0.02308583 0.023185296 0.012484111 -0.026174048
-0.028514702 0.029679963 0.2022803 -0.03548884 0.0005745858 0.027734626 -0.09797976 0.02378358
0.008463761 0.062221408 0.14989696 0.110234834 -0.02607985 -0.22787417 0.024697516 -0.02522266
0.09454982 0.025025219 -0.050778747 0.0083635645 0.023879321 -0.0073004114 -0.049624667 0.020707978
0.02733453 -0.0058770706 0.005337461 0.034591958 -0.12460888 0.02193013 0.016052106 0.004656291
0.022307618 -0.0397654 -0.056302227 -0.054165244 0.0126824835 -0.011900731 -0.006750558 -0.055846456
-0.44410014 -0.025319519 0.033729848 0.051795058 0.031178286 0.19346833 0.0073586563 0.0469957
-0.04016649 -0.025847564 0.13425095 0.009112348 -0.34448373 0.01491915 0.031103782 0.01247815
-0.009492328 -0.017076932 -0.015033703 -0.07365614 0.0037431624 0.0118685225 -0.0070281858 -0.011981569
-0.05107596 -0.016136669 -0.11115695 -0.0050674705 -0.0022031623 0.04563839 -0.0001490976 0.03554258
0.021747336 -0.07253222 -0.0066271583 -0.017496029 -0.009062989 -0.0003736238 -0.016175414 0.020340292
0.0071845553 0.010947235 0.05218387 -0.13675885 0.017629767 -0.030391812 0.0077225803 0.45708883
0.07167745 -0.3105161 0.16245553 0.009237898 0.04628883 -0.026590962 0.018392708 0.04746895
0.13101566 0.03969806 0.023262039 0.0065836655 -0.0024536417 -0.0060280375 0.12985326 0.026551886
-0.010151892 0.013211848 0.006976246 0.031859085 -0.043899234 0.006316652 0.00043292282 -0.008539634
-0.005222722 -0.026624668 -0.15930364 0.26406536 0.035161935 -0.011057324 0.05378707 0.023180827
-0.05745856 0.02209304 0.07884671 0.021118876 -0.008455578 -0.03151406 -0.3556708 -0.1802607
-0.032423098 0.06302339 -0.022745341 0.019011104 0.059028402 -0.017266724 0.054718725 0.10839636
0.09595585 -0.072447285 -0.013317376 -0.17108667 -0.45817146 -0.0082853325 -0.23069617 -0.043510318
0.001410501 -0.002529001 -0.0990429 -0.008078206 0.015180993 0.003132949 0.010763771 0.043326437
0.38957435 0.020027738 -0.6238684 -0.08094476 -0.022226036 -0.07242344 0.0058922507 0.0010731757
-0.042897653 0.0040048305 -0.049133275 -0.0550436 0.037329305 0.06242065 0.17318787 0.033890117
0.31398866 0.023425205 -0.025106058 -0.0039031631 0.021899328 -0.006053463 0.08297598 0.025104195
0.045409467 0.07937009 -0.01611022 0.1168022 -0.049042676 -0.008575347 0.032757625 -0.08478518
-0.019803556 0.04720357 -0.25208065 -0.020300059 -0.0044357544 -0.11077459 0.026847087 -0.006086525
0.025557192 0.05172906 0.010977347 0.065734304 -0.18316263 0.03523569 0.032456625 0.015319991
-0.0019207265 0.038543005 -0.04526046 0.119160786 -0.027378464 0.026040364 0.066947095 0.02629033
0.037041713 0.009211627 -0.014339462 -0.037365068 -0.017824601 -0.063203 0.05623316 0.026848378
-0.032529637 -0.000872912 -0.01524325 0.025685191 0.010004183 -0.038676374 0.0022838146 -0.0008479991

l3.bias f4 [4]
00000000: 2a50 38bd d247 0f3d 2da0 173d ea3f f7bc
-0.044998325 0.034980603 0.03701799 -0.030181844
