TD3-conf1/preTrained/TD3_BipedalWalker-v3_0_critic_1_target_ep200.pth (torch_old, 529768 bytes, 5 tensors)

l1.weight f4 [400, 28]
0.5022176 0.4673553 -0.1226214 -0.63598126 0.16332433 0.22323425 -0.047253896 0.032509916
-0.48146254 0.19579802 -0.094409935 -0.19437182 0.20806366 0.21455164 -0.2669162 -0.28514087
-0.17618439 -0.502859 -0.2891838 -0.22099859 -0.26357815 -0.24672401 -0.48163405 0.061063565
-0.10437647 -0.3495079 0.05057664 0.18829694 0.2794606 1.0124108 -0.4100711 0.20834428
-0.00054039084 0.23666903 0.080844514 0.07802167 -0.23955216 0.2016172 -0.05643125 -0.015282506
-0.19224557 -0.030580262 0.29846004 0.25954473 0.043446977 0.150552 0.105857454 0.19492602
0.19210882 0.22810534 0.11972603 0.23620321 0.18283786 0.0037025458 -0.10519025 -0.009504949
0.87885034 1.0143168 0.0787612 -0.6570387 0.24679022 -0.011499252 0.18691063 -0.08318852
-0.21497193 0.08691921 0.03932451 -0.12671676 -0.012163 0.033458788 -0.3121797 -0.40245193
-0.15049373 -0.119220376 -0.1629244 -0.33627287 -0.43047726 -0.21060708 -0.35237756 0.16751467
0.024047045 -0.13573954 0.05199876 0.028220238 -0.2259404 0.14838883 0.016251862 -0.31280893
-0.2161626 -0.40965557 -0.10741986 0.15121578 0.24917074 -0.5238322 -0.04771902 -0.023690777
0.3623618 0.06213256 -0.43521807 -0.36159745 -0.38162336 -0.36268488 -0.2670665 -0.23724554
-0.34168875 -0.3584793 -0.24328463 -0.3111427 -0.042576052 -0.22421078 0.14519127 -0.066669255
0.0347519 0.28827968 0.87634206 -0.38286525 -0.25630838 0.30431673 -0.28342697 -0.45677596
-0.6208425 -0.18426354 0.3476777 -0.37304235 -0.4287398 -0.4496361 -0.28685448 -0.42263874
-0.5311933 -0.5762951 -0.44045025 -0.6255763 -0.33999044 -0.57589746 -0.31999606 0.0510456
0.15483862 -0.0048377695 0.11721317 0.00050117716 0.15276806 0.5335106 0.23044881 -0.5489856
0.24304603 0.045518875 0.25807437 0.58444667 -0.6767781 -0.12126376 -0.09865047 0.17385939
0.3632065 -0.2508554 -0.4158372 -0.19818978 -0.15592238 -0.13998407 -0.17386593 -0.35481927
-0.35064828 -0.31317896 -0.11420694 0.0054734685 0.38247663 0.120631754 0.33670366 -0.01743821
0.25158656 -0.6252918 0.209661 -0.20570405 -0.23079446 0.2306934 0.119734816 -0.179495
-0.25108632 0.05125556 0.044180144 0.07907012 -0.15726663 0.07309059 0.13793345 0.10139808
0.015661314 0.288648 0.25478336 0.23965514 0.2244652 0.041957807 0.10113873 0.0077107516
0.13804674 -0.21056205 0.03745415 -0.06544523 -0.12457749 -1.2835922 1.4680393 -0.1186441
-0.025068212 -0.014055495 -0.06371582 -0.04804921 -0.045636557 -0.03483854 0.24393329 -0.1377074
-0.31171706 0.13461027 0.0669851 -0.19172037 -0.02827033 0.10114815 -0.19526662 -0.119789444
-0.20938262 0.14914325 0.11255707 -0.068491146 0.13227227 0.30307347 -0.1621617 -0.19838573
0.11393839 -0.424463 0.91748977 -0.20124812 -0.33824533 0.13461992 -0.058024563 0.04735273
-0.121179946 0.28004754 -0.49071836 0.28974533 0.48683447 -0.5142382 -0.2153118 -0.07169875
-0.3395283 -0.12810561 -0.27383888 -0.4226099 -0.14507513 -0.3519691 -0.054545525 0.030893529
0.30410475 -0.011503838 0.018737407 0.090884805 0.22808577 0.17186451 0.5729958 -0.22205657
00000000: 5591 003f 3249 ef3e ee20 fbbd abcf 22bf
00000010: 7e3e 273e 8597 643e 4d8d 41bd 1e29 053d
00000020: 4282 f6be 477f 483e ff59 c1bd 6809 47be
00000030: a40e 553e 6db3 5b3e 3da9 88be fcfd 91be
00000040: ae69 34be 5ebb 00bf e60f 94be 744d 62be
00000050: b7f3 86be 38a5 7cbe bd98 f6be ca1d 7a3d
00000060: 55c3 d5bd b3f2 b2be 7329 4f3d ead0 403e
00000070: 7615 8f3e ad96 813f d7f4 d1be 3458 553e
00000080: 04a9 0dba 5e59 723e cf91 a53d d3c9 9f3d
00000090: 294d 75be bd74 4e3e 7424 67bd 7a63 7abc
000000a0: 06dc 44be 7583 fabc c1cf 983e 0ce3 843e
000000b0: 75f5 313d 4e2a 1a3e cbcb d83d b09a 473e
000000c0: 2db8 443e 7294 693e ec32 f53d 41df 713e
000000d0: d939 3b3e 69a6 723b fc6d d7bd a5ba 1bbc
000000e0: 56fc 603f 22d5 813f 8d4d a13d b033 28bf
000000f0: 93b6 7c3e 5c67 3cbc 8065 3f3e be5e aabd
00000100: 9a21 5cbe b302 b23d bd12 213d 0ac2 01be
00000110: 5247 47bc 150c 093d 05d6 9fbe 2e0e cebe
00000120: 071b 1abe d029 f4bd a7d5 26be f52b acbe
00000130: 8467 dcbe 62a9 57be d56a b4be f788 2b3e
00000140: 4ffe c43c 4eff 0abe a7fc 543d 212e e73c
00000150: ec5c 67be 3ef3 173e a022 853c 7e28 a0be
00000160: bb59 5dbe 60be d1be f2fe dbbd 4fd8 1a3e
00000170: 9d26 7f3e de19 06bf 0575 43bd 2913 c2bc
00000180: 7c87 b93e b67e 7e3d e7d4 debe 4d23 b9be
00000190: 2364 c3be d5b1 b9be f1bc 88be 7ff0 72be
000001a0: d4f1 aebe 998a b7be 9b1f 79be 194e 9fbe
000001b0: 3a64 2ebd 8397 65be 05ad 143e e489 88bd
000001c0: 0258 0e3d 6599 933e f457 603f ea06 c4be
000001d0: da3a 83be 67cf 9b3e 571d 91be 8ade e9be
000001e0: 89ef 1ebf 95af 3cbe d002 b23e 68ff bebe
000001f0: c883 dbbe b436 e6be 97de 92be 1b64 d8be
00000200: 49fc 07bf 1388 13bf b282 e1be c525 20bf
00000210: 3a13 aebe 046e 13bf 86d6 a3be 3115 513d
00000220: 048e 1e3e 2786 9ebb 750d f03d 6e61 033a
00000230: 3b6f 1c3e 2794 083f c6fa 6b3e 528a 0cbf
00000240: 0fe1 783e 0072 3a3d 5322 843e 4c9e 153f
00000250: 5441 2dbf 2259 f8bd 4209 cabd 3208 323e
00000260: 34f6 b93e 1e70 80be 9de8 d4be 43f2 4abe
00000270: 1eaa 1fbe fc57 0fbe e909 32be dfaa b5be
00000280: 2c88 b3be fe58 a0be 54e5 e9bd c85a b33b
00000290: fad3 c33e c80d f73d 6c64 ac3e 94da 8ebc
000002a0: f4cf 803e 2013 20bf 60b1 563e 15a4 52be
000002b0: 6255 6cbe e43a 6c3e 8737 f53d 8acd 37be
000002c0: 638e 80be 5af1 513d 3df6 343d 84ef a13d
000002d0: 810a 21be 85b0 953d 6d3e 0d3e cca9 cf3d
000002e0: 284c 803c acc9 933e f772 823e 2868 753e
000002f0: 35da 653e f3db 2b3d d321 cf3d 79aa fc3b
00000300: 205c 0d3e 949d 57be 8669 193d 2608 86bd
00000310: 7c22 ffbd c04c a4bf b6e8 bb3f aefb f2bd
00000320: da5b cdbc 0549 66bc 717d 82bd 40cf 44bd
00000330: 66ed 3abd dbb2 0ebd a6c9 793e 2b03 0dbe
00000340: 6199 9fbe 46d7 093e 7c2f 893d 5852 44be
00000350: 2e97 e7bc c326 cf3d f9f3 47be 2b54 f5bd
00000360: 6668 56be 02b9 183e 5284 e63d 1645 8cbd
00000370: 6272 073e 722c 9b3e b70d 26be a125 4bbe
00000380: 8858 e93d 3753 d9be 9ce0 6a3f fd13 4ebe
00000390: 7e2e adbe ced9 093e 2aab 6dbd f0f4 413d
000003a0: 312d f8bd 6462 8f3e 703f fbbe 8059 943e
000003b0: 5e42 f93e 1da5 03bf b27a 5cbe cbd6 92bd
000003c0: a7d6 adbe 1e2e 03be 9c34 8cbe 5360 d8be
000003d0: 938e 14be 4b35 b4be 216b 5fbd 6d14 fd3c
000003e0: 9eb3 9b3e 987a 3cbc 317f 993c d021 ba3d
000003f0: 518f 693e 40fd 2f3e daaf 123f cc62 63be

l1.bias f4 [400]
0.0720425 -0.2581363 0.1715803 0.22899117 0.053712904 0.18925317 0.15811275 0.28925675
0.101110354 -0.24588542 0.008020427 0.076436624 0.23117435 -0.23957664 -0.20327452 0.22846404
-0.036363654 0.010197664 -0.046521418 0.35108998 -0.15389857 -0.23257904 0.041383855 -0.13359417
-0.08013295 -0.046089057 -0.19490469 0.23368633 -0.22786133 0.06611579 0.17552009 -0.21753931
-0.1069035 0.07244115 -0.17021918 -0.12618256 0.099133745 -0.2904019 0.2970594 0.23857875
0.3661938 0.3365115 -0.0886294 -0.25909957 0.11639645 -0.11926541 -0.3344092 0.002628037
0.11944664 -0.03664652 -0.00648884 0.1412409 0.47090408 0.2025958 -0.31931812 -0.114133276
-0.14929384 -0.03989495 -0.0575169 0.26223326 0.096422434 0.31938183 0.4706443 0.24568641
-0.09406846 0.16818793 -0.21912697 -0.23221226 -0.08410245 0.23048535 -0.29045415 -0.16153188
0.05759081 0.31168768 -0.16541816 0.1986289 -0.25212958 -0.13839154 -0.07735871 -0.12763223
0.008338521 -0.20353964 0.32942343 0.0045550703 0.25927752 0.36471444 0.024762958 -0.21528772
-0.1557521 0.04850386 -0.03729553 0.30031735 0.33827624 0.36385432 0.14924514 -0.23754555
-0.05870125 -0.143473 0.33343932 0.07224099 0.38160273 -0.17650388 -0.107973464 -0.033907805
-0.09612972 0.062194895 0.2092248 0.15156908 -0.12216143 -0.109515436 0.19879855 -0.12067766
0.034661993 0.42816415 -0.029122818 0.0771434 0.26444796 -0.06189162 0.10146257 0.3556498
-0.1357627 -0.14069985 0.05629577 0.031157142 -0.16368495 0.105527885 0.08599225 0.09989381
0.34177843 0.19067343 -0.20009582 -0.021794003 0.060992155 0.15262255 0.12366287 0.06758825
-0.11111326 0.24929659 -0.102010526 -0.28082037 -0.26463354 0.3199045 -0.22350472 -0.15397437
-0.24235797 -0.124050535 -0.042379595 -0.3349467 0.46016693 -0.16694015 0.19632977 0.42683095
0.17756945 0.1898792 0.021880582 -0.37516057 -0.036978155 -0.21417691 -0.0069901883 0.111191034
-0.066881694 -0.18718708 -0.21305254 -0.17667389 0.15755199 0.35490802 0.189225 0.025092049
0.14297985 -0.106632076 0.11629535 -0.24671245 -0.108301386 0.092327856 0.32101527 0.26724774
0.0036308893 0.11653185 0.10532647 0.116924636 -0.11978632 0.27363205 -0.21795206 0.40764946
-0.023247583 0.096631415 -0.043214954 -0.21282008 -0.17651378 0.14164272 0.23222652 0.20572066
-0.20339482 -0.2762231 -0.19875167 -0.13639182 -0.11100632 -0.0036541116 0.3495076 -0.13936259
0.02335474 -0.047375634 -0.020758811 0.43989536 -0.11571374 0.08404328 0.12167519 -0.3169001
-0.0721962 0.20717125 -0.09823199 0.22767484 0.18531355 -0.1509497 -0.039234314 0.34689417
0.049814623 0.19975346 -0.15063268 -0.15252201 -0.049605887 0.4241566 -0.19971295 0.1414527
-0.0003846615 0.3556589 -0.1983983 -0.19695033 -0.003094289 -0.1253718 0.052864406 -0.05817026
0.21719767 -0.22750668 0.01065765 -0.3704778 0.129051 0.011137214 -0.27518 0.060982227
-0.16945057 0.1998356 -0.05845031 0.2549736 0.025405347 0.056576353 0.081850395 0.13281086
-0.22731465 -0.17068985 0.10504956 -0.0062372764 0.10155799 -0.20948873 -0.10656873 0.0021899682
00000000: 058b 933d 712a 84be bfb2 2f3e a97c 6a3e
00000010: 1002 5c3d 95cb 413e 4fe8 213e 7619 943e
00000020: f212 cf3d 63c9 7bbe 1c68 033c ce8a 9c3d
00000030: f8b8 6c3e 9453 75be 3227 50be 7af2 693e
00000040: 0ef2 14bd 1a14 273c 3e8d 3ebd 11c2 b33e
00000050: 9697 1dbe 3329 6ebe 1e82 293d e9cc 08be
00000060: be1c a4bd e1c7 3cbd 1895 47be 784b 6f3e
00000070: 7b54 69be b767 873d 8abb 333e a0c2 5ebe
00000080: 39f0 dabd 075c 943d f04d 2ebe 0036 01be
00000090: a206 cb3d 8faf 94be 2b18 983e fd4d 743e
000000a0: c17d bb3e 3c4b ac3e 5583 b5bd b3a8 84be
000000b0: 4361 ee3d 6c41 f4bd af37 abbe 253b 2c3b
000000c0: 71a0 f43d a91a 16bd 56a0 d4bb 74a1 103e
000000d0: 571a f13e 4675 4f3e aa7d a3be b5be e9bd
000000e0: 7ce0 18be e368 23bd d796 6bbd 7043 863e
000000f0: 2079 c53d 0486 a33e 4af8 f03e 3895 7b3e
00000100: f7a6 c0bd 7539 2c3e d262 60be 0dc9 6dbe
00000110: e83d acbd 5a04 6c3e 68b6 94be 9d68 25be
00000120: 57e4 6b3d 8795 9f3e 6163 29be 6065 4b3e
00000130: 2117 81be 83b6 0dbe 3e6e 9ebd 06b2 02be
00000140: 4b9e 083c b26c 50be 30aa a83e b342 953b
00000150: 06c0 843e dabb ba3e b0db ca3c 6274 5cbe
00000160: 7a7d 1fbe fcab 463d 33c3 18bd 32c3 993e
00000170: 8b32 ad3e 1d4b ba3e b8d3 183e 243f 73be
00000180: b970 70bd 96ea 12be 8fb8 aa3e 16f3 933d
00000190: 6f61 c33e 6fbd 34be 3121 ddbd e9e2 0abd
000001a0: a9df c4bd 13c0 7e3d 073f 563e ed34 1b3e
000001b0: c62f fabd a149 e0bd d991 4b3e d925 f7bd
000001c0: bcf9 0d3d 5538 db3e fa92 eebc 5cfd 9d3d
000001d0: b965 873e 1182 7dbd 9ccb cf3d bb17 b63e
000001e0: 6105 0bbe 9f13 10be 6596 663d 433d ff3c
000001f0: 079d 27be 011f d83d b41c b03d 2095 cc3d
00000200: 95fd ae3e e53f 433e ebe5 4cbe 5689 b2bc
00000210: e9d2 793d 1649 1c3e f542 fd3d b56b 8a3d
00000220: 598f e3bd 9b47 7f3e e5ea d0bd b0c7 8fbe
00000230: 0c7e 87be 86ca a33e 6cde 64be 75ab 1dbe
00000240: b02c 78be 350e febd 3a96 2dbd 227e abbe
00000250: 009b eb3e 5cf2 2abe ac0a 493e 9689 da3e
00000260: c4d4 353e b16f 423e e83e b33c 0c15 c0be
00000270: 6876 17bd 3151 5bbe f30d e5bb 20b8 e33d
00000280: 45f9 88bd f8ad 3fbe 722a 5abe 00ea 34be
00000290: 4f55 213e 81b6 b53e 33c4 413e d78d cd3c
000002a0: 4f69 123e eb61 dabd 422c ee3d 30a2 7cbe
000002b0: 1ecd ddbd 6316 bd3d 1d5c a43e b2d4 883e
000002c0: 37f4 6d3b 40a8 ee3d 68b5 d73d 2f76 ef3d
000002d0: 8852 f5bd 8019 8c3e d32e 5fbe 6eb7 d03e
000002e0: b771 bebc b1e6 c53d 2a02 31bd 82ed 59be
000002f0: 07c0 34be ca0a 113e cacc 6d3e 70a8 523e
00000300: bb46 50be 1d6d 8dbe 8f85 4bbe 4caa 0bbe
00000310: 4857 e3bd d279 6fbb a9f2 b23e 11b5 0ebe
00000320: 7152 bf3c f40c 42bd 620e aabc f739 e13e
00000330: 53fb ecbd e21e ac3d d830 f93d bb40 a2be
00000340: 9adb 93bd b324 543e db2d c9bd 9823 693e
00000350: d6c2 3d3e 8f92 1abe 29b4 20bd 1d9c b13e
00000360: 6b0a 4c3d 2c8c 4c3e 743f 1abe bb2e 1cbe
00000370: 8b2f 4bbd 0e2b d93e 8d81 4cbe fad8 103e
00000380: 65ac c9b9 ec18 b63e ed28 4bbe 59ad 49be
00000390: 8ec9 4abb 7761 00be 5988 583d f043 6ebd
000003a0: 1169 5e3e 83f7 68be 6d9d 2e3c 44af bdbe
000003b0: f225 043e dc78 363c 65e4 8cbe 80c8 793d
000003c0: 7384 2dbe b4a1 4c3e 9869 6fbd e68b 823e
000003d0: e01e d03c 9bbc 673d 2ea1 a73d 92ff 073e
000003e0: 2cc5 68be 52c9 2ebe 3924 d73d 1162 ccbb
000003f0: a3fd cf3d 3784 56be b540 dabd 9285 0f3b

l2.weight f4 [300, 400]
-0.041337725 0.03104455 -0.043701053 0.012337148 0.006661058 -0.04988504 -0.0008721903 0.01104857
0.024055153 0.011971697 -0.015151203 -0.055336636 0.03683235 -0.0076557584 -0.04802761 0.05330933
-0.04830179 -0.0168333 0.012874895 -0.003139701 0.01570088 -0.0058435723 -0.053760834 -0.031625886
-0.06352893 -0.04206639 0.014963667 -0.044169694 0.04710013 -0.048784588 0.0058654286 -0.0027518198
0.015968287 0.037624348 -0.036666952 -0.04203659 0.0077296584 0.018056313 -0.03687408 -0.02827896
-0.021339415 0.010143137 -0.0071592233 0.03949892 0.0398938 -0.052909233 -0.04853723 -0.011946239
-0.01321278 0.02850129 0.013403327 0.027246239 -0.043670505 -0.06314746 -0.051750667 0.04528791
0.01827536 -0.050062362 0.028889839 -0.036736988 -0.011135183 0.025803806 -0.010773271 -0.05261717
-0.004044319 -0.009629419 0.029836811 -0.01764616 -0.03341477 0.016826592 0.06616346 -0.015503276
-0.012330257 -0.035207383 -0.015722046 -0.03871586 -0.04950059 -0.020852147 -0.049644385 0.0192946
-0.009766511 0.0033669658 -0.028924113 -0.057287943 0.019728225 -0.050684486 -0.04535061 -0.048010837
-0.024143072 -0.010466679 0.017604435 0.0065873903 0.0015030745 0.033564523 0.017730722 0.0055464134
-0.041687902 -0.006428414 -0.0449073 -0.0042314217 0.013289706 -0.013777721 0.021786822 0.032795623
-0.06877563 -0.02775549 -0.04193079 -0.041424897 0.00055548205 -0.023864793 -0.050388698 -0.040113594
0.01217065 -0.0461739 -0.056833457 0.0056436732 -0.041978475 0.011640518 -0.06350211 0.0028053557
-0.012630702 -0.037482046 -0.06391338 0.026512356 -0.04132208 -0.0066441083 0.03737699 -0.06619326
-0.041418936 -0.06194605 -0.044069856 -0.008237836 0.064959444 -0.010568938 -0.03746789 0.02577773
-0.03965017 0.009513934 -0.022182822 0.026490377 0.010157479 0.02188517 -0.03317337 0.007949311
0.0005365878 0.027049916 0.009132278 -0.045143485 -0.02888388 -0.0135042835 -0.024756255 -0.059482142
-0.0082214475 -0.039116707 -0.049366478 0.009238449 0.006659568 0.03119654 -0.024494367 -0.03934693
-0.04014265 -0.018179111 -0.058875665 -0.06848208 -0.0075021368 -0.06093873 -0.060575143 -0.04976014
-0.049250994 -0.05676044 -0.062618844 0.019383261 0.024802875 0.021535365 -0.04432839 -0.0056753457
-0.023500832 -0.04022759 -0.041079935 0.04180264 -0.060313627 -0.008114343 -0.018321436 0.015384252
-0.048330102 -0.03504272 -0.039896782 0.012638338 -0.0018769545 -0.015882976 -0.041607436 0.028875312
0.010711988 -0.005262676 0.0004453676 -0.010497226 -0.00730749 -0.038679354 -0.00662483 -0.049113903
-0.0075443257 -0.02018234 -0.0080720605 -0.017773192 0.009997105 -0.019818751 0.016708128 0.02684428
0.03724586 0.051758118 0.03267293 -0.05919008 -0.04416895 0.011131457 -0.02013783 0.0053720134
-0.028916383 -0.049867902 -0.04563746 0.028296772 -0.035715513 0.012007646 0.025491627 0.0076481677
0.011243216 0.0045266515 -0.011485547 -0.036134236 -0.03253411 -0.031865794 -0.0012972987 0.029204253
0.041358583 -0.023212641 0.03030694 0.049491648 0.022866411 -0.01459151 -0.024783822 -0.016757304
-0.016577372 0.022836609 -0.06859384 0.0061430563 -0.0134338755 0.036462057 0.0007041678 -0.01033201
-0.040920723 -0.059228078 0.026252704 -0.030520774 -0.051473506 -0.056512337 -0.05477188 -0.04125875
00000000: bf51 29bd 2451 fe3c e0ff 32bd c021 4a3c
00000010: 0145 da3b 4154 4cbd b3a3 64ba 1005 353c
00000020: 500f c53c f024 443c c03c 78bc aba8 62bd
00000030: 85dd 163d 28dd fabb 99b8 44bd e25a 5a3d
00000040: 19d8 45bd fde5 89bc 39f1 523c 71c3 4dbb
00000050: 229f 803c 707b bfbb 5234 5cbd 258a 01bd
00000060: 751b 82bd cf4d 2cbd 2b2a 753c 48eb 34bd
00000070: 11ec 403d 59d2 47bd c832 c03b e057 34bb
00000080: edcf 823c fd1b 1a3d 1630 16bd 8f2e 2cbd
00000090: 1349 fd3b d5ea 933c 4609 17bd 47a9 e7bc
000000a0: ffcf aebc 662f 263c eb97 eabb 9fc9 213d
000000b0: ae67 233d 5ab7 58bd f9ce 46bd 28ba 43bc
000000c0: 6a7a 58bc 8a7b e93c a199 5b3c 8133 df3c
000000d0: d8df 32bd 7553 81bd 82f8 53bd d17f 393d
000000e0: 35b6 953c 310e 4dbd 62aa ec3c 8679 16bd
000000f0: 5870 36bc 8162 d33c 6082 30bc 1a85 57bd
00000100: 3586 84bb b6c4 1dbc 546c f43c ae8e 90bc
00000110: eddd 08bd ecd7 893c b580 873d 7401 7ebc
00000120: d904 4abc 9e35 10bd 85cb 80bc 8694 1ebd
00000130: 21c1 4abd 1fd2 aabc e957 4bbd b50f 9e3c
00000140: b703 20bc 50a8 5c3b 43f2 ecbc c3a6 6abd
00000150: 169d a13c 899a 4fbd 90c1 39bd 03a7 44bd
00000160: b1c7 c5bc 6f7c 2bbc 2d37 903c 09db d73b
00000170: d002 c53a f47a 093d 0540 913c b0be b53b
00000180: efc0 2abd 72a5 d2bb b8f0 37bd bda7 8abb
00000190: 11bd 593c f3bb 61bc 477a b23c b454 063d
000001a0: 3dda 8cbd 7b5f e3bc 9fbf 2bbd 27ad 29bd
000001b0: c59d 113a 1980 c3bc 6164 4ebd 274e 24bd
000001c0: 6867 473c d820 3dbd 33ca 68bd 90ee b83b
000001d0: 9ff1 2bbd dfb7 3e3c 650d 82bd 0fda 373b
000001e0: 01f1 4ebc c686 19bd 05e5 82bd 7130 d93c
000001f0: 5741 29bd d2b6 d9bb 9d18 193d 5590 87bd
00000200: e7a6 29bd 24bb 7dbd 9882 34bd fdf7 06bc
00000210: 7509 853d 5729 2dbc ee77 19bd d12b d33c
00000220: 3768 22bd 55e0 1b3c c0b8 b5bc 5902 d93c
00000230: 8e6b 263c 8748 b33c cde0 07bd d43d 023c
00000240: cca9 0c3a c997 dd3c 8d9f 153c 60e8 38bd
00000250: e39d ecbc 1241 5dbc a1cd cabc 8ca3 73bd
00000260: 40b3 06bc d738 20bd 8134 4abd dd5c 173c
00000270: 8138 da3b e38f ff3c 69a8 c8bc 3f2a 21bd
00000280: 9f6c 24bd 5cec 94bc 9c27 71bd 5540 8cbd
00000290: 7cd4 f5bb e49a 79bd a41d 78bd 4ad1 4bbd
000002a0: 69bb 49bd a37d 68bd 4f3e 80bd a5c9 9e3c
000002b0: 662f cb3c ef6a b03c b091 35bd 40f8 b9bb
000002c0: d184 c0bc afc5 24bd 6f43 28bd 3f39 2b3d
000002d0: 6c0b 77bd 05f2 04bc d616 96bc 3b0e 7c3c
000002e0: c9f5 45bd f588 0fbd cf6a 23bd 0811 4f3c
000002f0: 2404 f6ba 041d 82bc 8f6c 2abd eb8b ec3c
00000300: 5681 2f3c 8772 acbb 3a80 e939 8ffc 2bbc
00000310: ab73 efbb 3e6e 1ebd 1a15 d9bb a92b 49bd
00000320: 6436 f7bb 6f55 a5bc ad40 04bc 1699 91bc
00000330: e6ca 233c ef5a a2bc 7cdf 883c 89e8 db3c
00000340: 1d8f 183d 5200 543d 0dd4 053d 4c71 72bd
00000350: 80ea 34bd b760 363c 17f8 a4bc b707 b03b
00000360: 0de2 ecbc 4942 4cbd 58ee 3abd a2ce e73c
00000370: 6e4a 12bd b8bb 443c d1d3 d03c 7b9d fa3b
00000380: 7735 383c 4e54 943b e02d 3cbc 7e01 14bd
00000390: 7d42 05bd b585 02bd 1f0a aaba c23d ef3c
000003a0: 9e67 293d 7028 bebc 4346 f83c c1b7 4a3d
000003b0: 5752 bb3c 3b11 6fbc 7107 cbbc 9d46 89bc
000003c0: 45cd 87bc d713 bb3c ed7a 8cbd b14b c93b
000003d0: c219 5cbc 3d59 153d e797 383a 9747 29bc
000003e0: 7d9c 27bd 2499 72bd e90f d73c b406 fabc
000003f0: e2d5 52bd 7b79 67bd 7b58 60bd effe 28bd

l2.bias f4 [300]
-0.057151597 -0.045912385 0.04340675 -0.025158627 -0.0709148 -0.102356926 -0.030724175 -0.025365528
-0.02784527 -0.023376778 -0.055306833 0.021525307 0.024628615 0.12623249 -0.0027068355 -0.018238109
-0.04694206 0.042259358 -0.05579559 0.04441407 -0.04565981 -0.035036016 0.050896827 -0.036808513
-0.026542533 -0.05259631 -0.0071444153 -0.04712758 0.33394474 0.022718517 0.05421755 0.13845839
-0.043382913 -0.04133459 -0.087285876 0.03112427 0.14500482 0.08599245 -0.0223445 0.083353445
0.0013507566 -0.045139015 0.019839238 0.08235656 -0.05834116 0.07391057 0.092887215 -0.025647718
-0.02193509 -0.026668448 -0.03537123 0.050141335 -0.052578848 -0.0350308 -0.026725445 0.02593978
0.05318192 -0.022060633 0.063240945 -0.045302182 0.24204709 -0.030131109 -0.06228356 0.33428732
-0.0063976804 -0.012072467 -0.017346501 0.04894924 -0.09763325 -0.018463964 0.016229428 0.0199469
-0.034493614 -0.24619298 -0.04803357 -0.049941663 0.033137605 0.01230716 -0.0792303 -0.06370626
-0.009644693 -0.061990842 -0.08276188 -0.07943296 -0.048278693 -0.030156814 -0.057932418 -0.011010572
-0.1303867 0.072028555 -0.07511459 -0.01757672 -0.07011271 -0.0479911 -0.08358889 0.009150718
-0.120574266 0.091718964 0.12519573 -0.0673877 -0.014557424 -0.009468673 -0.048770696 0.044370856
0.0073679923 -0.05962743 0.111074105 0.13425976 0.08263074 -0.059804752 0.29472935 0.3230256
-0.02817682 -0.069708444 -0.026588354 0.0025051902 0.056615897 -0.2312688 -0.068435885 0.14533563
-0.043122888 0.0647836 -0.013230661 -0.005731877 -0.056700837 0.045999553 0.034059986 -0.0847035
0.093482375 -0.008627978 -0.04830775 0.020025875 0.006807845 0.019175017 -0.03782704 -0.061835036
0.29762936 -0.06353638 -0.042385276 0.0062519275 -0.05116058 -0.05144147 -0.039133098 -0.012462505
0.04029017 -0.08621895 0.041135065 0.015604417 -0.0031982348 -0.034586746 -0.044461586 0.29802662
-0.051638164 -0.009326739 0.022866411 0.08089624 -0.03659021 -0.017994475 0.15051825 -0.0326414
-0.08308672 -0.022644386 -0.00043778316 -0.042934384 -0.086530484 -0.07199727 0.12697142 -0.05764259
-0.13059233 0.009472583 0.036781687 -0.09865051 0.040723793 -0.048460487 0.07193915 0.022416396
-0.06404302 0.09691224 0.12613696 0.085393414 -0.034231354 -0.076807365 0.13982815 -0.011326663
-0.040261116 0.29388332 0.007682813 -0.020267276 -0.045752704 -0.033412535 0.11561219 -0.04418087
0.108727165 -0.07328219 0.0019463376 -0.008574788 0.06361833 -0.010017223 -0.02911969 0.036359984
-0.078068 -0.045271635 0.033258304 -0.048481733 -0.04966933 -0.008347173 0.07538281 -0.08450829
-0.018733572 -0.03314059 0.06218372 -0.15119298 -0.011723594 0.05098698 -0.06773106 0.100384586
-0.009013256 -0.30777344 0.062233638 -0.004047672 -0.03617 0.2864043 0.033279166 -0.035680495
-0.01876114 0.025603386 -0.0055265203 -0.032364983 0.12537774 -0.084327996 -0.085175864 0.3086979
-0.08067273 0.07921014 0.050965372 -0.06613339 0.029533198 0.18102942 -0.01236453 0.31940424
-0.057201516 -0.03540408 0.5104385 -0.035188757 -0.041349474 -0.08367681 0.086466305 -0.032996047
-0.01694394 0.31634998 0.095623076 0.01563124 0.014545316 -0.0065575885 0.066355675 -0.05781731
00000000: cb17 6abd a00e 3cbd 47cb 313d 7719 cebc
00000010: c73b 91bd 82a0 d1bd 44b1 fbbc 5ecb cfbc
00000020: c31b e4bc a880 bfbc 6b89 62bd d755 b03c
00000030: f3c1 c93c 1743 013e 2a65 31bb 1668 95bc
00000040: 5146 40bd 2618 2d3d eb89 64bd 87eb 353d
00000050: c805 3bbd ed81 0fbd 3179 503d 86c4 16bd
00000060: ba6f d9bc 3a6f 57bd b31b eabb d908 41bd
00000070: cefa aa3e 2f1c ba3c 3913 5e3d 09c8 0d3e
00000080: 48b2 31bd 764e 29bd f0c2 b2bd 53f8 fe3c
00000090: 257c 143e cf1c b03d d00b b7bc 36b5 aa3d
000000a0: df0b b13a b0e3 38bd e685 a23c 8eaa a83d
000000b0: 24f7 6ebd 6d5e 973d a73b be3d 2a1b d2bc
000000c0: 38b1 b3bc ca77 dabc 6ce1 10bd 0061 4d3d
000000d0: eb5c 57bd 757c 0fbd 52ef dabc a97f d43c
000000e0: 49d5 593d 80b8 b4bc 7884 813d c88e 39bd
000000f0: 31db 773e 84d5 f6bc 0c1d 7fbd b527 ab3e
00000100: a2a3 d1bb 99cb 45bc 401a 8ebc 007f 483d
00000110: f1f3 c7bd bd41 97bc 94f3 843c ae67 a33c
00000120: 2d49 0dbd 031a 7cbe d9be 44bd a18f 4cbd
00000130: 4cbb 073d f8a3 493c 7f43 a2bd 6d78 82bd
00000140: c604 1ebc 1cea 7dbd 0f7f a9bd bfad a2bd
00000150: e1bf 45bd 6c0b f7bc 8b4a 6dbd b065 34bc
00000160: 1784 05be b583 933d aed5 99bd 0efd 8fbc
00000170: 4197 8fbd 5192 44bd a730 abbd e5ec 153c
00000180: a4ef f6bd 27d7 bb3d 4f33 003e 9002 8abd
00000190: 4382 6ebc 7e22 1bbc c8c3 47bd 37be 353d
000001a0: 336f f13b e43b 74bd d27a e33d 647b 093e
000001b0: 4e3a a93d d4f5 74bd c4e6 963e 9d63 a53e
000001c0: 13d3 e6bc 4dc3 8ebd d2cf d9bc 1e2e 243b
000001d0: 12e6 673d bad1 6cbe 1d28 8cbd ddd2 143e
000001e0: a0a1 30bd 44ad 843d 6ac5 58bc 78d2 bbbb
000001f0: 233f 68bd 076a 3c3d 7c82 0b3d 0779 adbd
00000200: b073 bf3d 5d5c 0dbc 59de 45bd 4e0d a43c
00000210: 5814 df3b ed14 9d3c 87f0 1abd bc46 7dbd
00000220: e062 983e 5d1f 82bd 2f9c 2dbd f8dc cc3b
00000230: c28d 51bd 4ab4 52bd 074a 20bd 892f 4cbc
00000240: 4e07 253d 9093 b0bd 3e7d 283d aba9 7f3c
00000250: 7a99 51bb d5aa 0dbd 5a1d 36bd f296 983e
00000260: 8a82 53bd 2ecf 18bc 5752 bb3c eeac a53d
00000270: 9edf 15bd 2669 93bc 7521 1a3e fdb2 05bd
00000280: 5f29 aabd b880 b9bc 4386 e5b9 f7db 2fbd
00000290: e536 b1bd 4e73 93bd cc04 023e a31a 6cbd
000002a0: ffb9 05be e532 1b3c 65a8 163d 4709 cabd
000002b0: fecd 263d 817e 46bd d554 933d 97a2 b73c
000002c0: fd28 83bd ed79 c63d 0c2a 013e bee2 ae3d
000002d0: 2d36 0cbd 2e4d 9dbd 1c2f 0f3e 7893 39bc
000002e0: d7e8 24bd e077 963e 1bc0 fb3b 8f07 a6bc
000002f0: 3067 3bbd 95db 08bd 15c6 ec3d 00f7 34bd
00000300: 59ac de3d f914 96bd 411c ff3a 457d 0cbc
00000310: 544a 823d 471f 24bc 6b8c eebc 35ee 143d
00000320: 1ee2 9fbd c06e 39bd dc39 083d c894 46bd
00000330: 1172 4bbd 95c2 08bc 4d62 9a3d af12 adbd
00000340: 2677 99bc 6dbe 07bd 5bb4 7e3d 55d2 1abe
00000350: 5114 40bc b9d7 503d 95b6 8abd 6f96 cd3d
00000360: 56ac 13bc 7b94 9dbe b3e8 7e3d 55a2 84bb
00000370: fe26 14bd 96a3 923e bc4f 083d b625 12bd
00000380: f6b0 99bc 31be d13c d017 b5bb 2591 04bd
00000390: 0663 003e 28b4 acbd af70 aebd a70d 9e3e
000003a0: bf37 a5bd ed38 a23d 11c1 503d f170 87bd
000003b0: 9bef f13c c75f 393e 9994 4abc f488 a33e
000003c0: 234c 6abd de03 11bd 19ac 023f 1622 10bd
000003d0: 115e 29bd bf5e abbd 3f15 b13d dd26 07bd
000003e0: 05ce 8abc a0f8 a13e 08d6 c33d 160d 803c
000003f0: 7a4f 6e3c 0ae1 d6bb 7ce5 873d d8d1 6cbd

l3.weight f4 [1, 300]
-0.01584386 -0.047316074 -0.2348917 -0.016539745 -0.0031025028 0.03121857 0.04565161 0.30326164
0.0060870834 -0.027515206 -0.023452403 -0.0022427898 0.27439746 -0.3241628 0.31463212 0.0042280685
0.0076760147 0.045029487 -0.0075780386 -0.20715763 -0.024122953 0.015771963 -0.22528341 -0.046469685
-0.031830773 -0.0033249878 0.0373226 0.030099442 -0.3872037 -0.016283445 -0.23768418 -0.42180425
-0.0055846344 0.018339641 -0.0048932205 -0.24101011 -0.2315866 -0.26033247 -0.00027009833 -0.21860768
0.04680496 -0.021037664 0.03390874 -0.19031632 0.0004370387 -0.33611983 -0.2359765 -0.023031441
-0.013649755 0.024377393 0.0059026442 -0.265077 0.4210272 -0.037674267 0.016965548 0.021280553
-0.0619602 -0.015365998 0.32555592 0.0095662745 -0.31193286 -0.04498851 0.008846735 -0.34072378
0.025420103 0.049746454 -0.03348031 -0.28302398 0.04596752 0.10696392 0.026232587 0.027581517
0.011957169 0.44374996 -0.03738146 -0.041348897 0.03733899 0.009392118 0.03698509 -0.028225994
0.058462895 0.017485417 0.0033606107 0.018220225 -0.005397718 0.016936116 0.096259356 -0.003954912
0.7070791 -0.20252633 -0.029886357 0.37444147 0.30002815 -0.00052540033 0.03888871 0.02342148
1.1551797 -0.21385123 -0.4837782 -0.022859234 0.027915675 -0.047544807 0.036978506 -0.19140112
0.46184406 0.030120676 -0.29433694 -0.36343873 -0.26284182 -0.0146649 -0.40375623 -0.36443913
-0.042832308 -0.020575356 0.019857492 -0.05082828 -0.38509107 0.43033412 -0.021184815 -0.37008858
0.03227036 -0.21713842 -0.018199366 0.0048187138 -0.014895867 -0.26903474 -0.24642222 0.010306677
-0.2747091 0.008501474 -0.0026112215 -0.021520836 0.36680135 0.0008459735 0.37684798 -0.022709206
-0.33827373 0.007200574 0.01650212 -0.044323172 0.025928978 0.0036766091 0.050249368 0.031477615
0.036701966 -0.009073233 -0.25484288 0.020941924 -0.27469122 -0.01824705 0.014407877 -0.41894507
-0.025880175 0.0050004157 -0.029711267 -0.18985736 -0.049610108 0.006492023 -0.26346767 0.02338758
0.060212296 -0.003344266 -0.028401455 0.02499281 0.024666082 -0.0115522295 -0.32072395 0.0031058006
0.7376816 0.034961507 -0.001397183 0.8946267 -0.20829608 -0.01712499 -0.23333302 0.040188096
-0.026710171 0.24874474 -0.29689398 -0.20855834 0.04744199 0.050200194 -0.35900208 -0.01968613
-0.031239383 -0.68879706 0.043311384 -0.026815597 0.39992994 -0.049051315 -0.37176672 -0.027653415
-0.23753516 0.012161984 -0.5353396 -0.012966164 -0.07234595 0.042124502 -0.03820922 -0.25714958
0.053576056 0.025931198 0.031762972 0.37051544 0.0027398658 -0.0050247232 -0.21324624 0.01451719
-0.0061070137 -0.19937325 -0.21594037 0.7899621 0.102860585 -0.2379971 0.024221675 0.20369965
0.026889356 0.7103751 -0.26781285 -0.015986167 -0.026626723 -0.40796265 -0.24765901 0.011675163
-0.10052705 -0.20461847 0.0048342673 0.0018123671 -0.3187868 0.2811573 -0.026870359 -0.39689642
0.0011622101 0.28542638 -0.24884515 0.04316927 -0.26178086 -0.24773164 0.071761824 -0.43997788
0.012040056 0.011969276 -1.0387583 0.018162483 0.3019037 0.029687798 -0.23944847 0.003955564
0.040302835 -0.42019394 -0.23895077 0.021860583 -0.21013786 0.02959988 -0.19944775 0.35541883
00000000: fcca 81bc 80ce 41bd 7387 70be 5c7e 87bc
00000010: 5c53 4bbb 16be ff3c 2ffd 3a3d 1c45 9b3e
00000020: 2876 c73b 9267 e1bc 411f c0bc c5fb 12bb
00000030: d37d 8c3e abf8 a5be 7617 a13e 9c8b 8a3b
00000040: 1487 fb3b d770 383d 3251 f8bb 2121 54be
00000050: 809d c5bc 3434 813c b2b0 66be ff56 3ebd
00000060: fc60 02bd 0ae8 59bb 95df 183d 1b93 f63c
00000070: 903f c6be dc64 85bc 7b63 73be baf6 d7be
00000080: 4fff b6bb 043d 963c 4f57 a0bb 5bcb 76be
00000090: 0a25 6dbe 4c4a 85be fc9b 8db9 b1da 5fbe
000000a0: 8fb6 3f3d 2e57 acbc e4e3 0a3d 48e2 42be
000000b0: 5722 e539 e617 acbe d3a3 71be 6fac bcbc
000000c0: 39a3 5fbc 19b3 c73c f86a c13b 2cb8 87be
000000d0: e190 d73e 5550 1abd 55fb 8a3c 8e54 ae3c
000000e0: fbc9 7dbd abc1 7bbc 44af a63e ddbb 1c3c
000000f0: aab5 9fbe df45 38bd e5f1 103c 5973 aebe
00000100: d23d d03c f0c2 4b3d a622 09bd 85e8 90be
00000110: 7048 3c3d e60f db3d b9e5 d63c a2f2 e13c
00000120: 00e8 433c 3233 e33e 4d1d 19bd 765d 29bd
00000130: c5f0 183d 66e1 193c ad7d 173d 333a e7bc
00000140: ca76 6f3d 943d 8f3c b13d 5c3b 9542 953c
00000150: 57df b0bb 9cbd 8a3c a023 c53d 3598 81bb
00000160: 2303 353f 1063 4fbe 3cd4 f4bc cbb6 bf3e
00000170: 4a9d 993e 05bb 09ba c549 1f3d 67de bf3c
00000180: eedc 933f d1fb 5abe c7b1 f7be 4a43 bbbc
00000190: 6aaf e43c 58be 42bd c676 173d a8fe 43be
000001a0: d376 ec3e a3bf f63c 55b3 96be a414 babe
000001b0: 3493 86be 0c45 70bc 23b9 cebe c497 babe
000001c0: ee70 2fbd a68d a8bc 2eac a23c 5131 50bd
000001d0: a82a c5be c154 dc3e c78b adbc 407c bdbe
000001e0: ed2d 043d 8959 5ebe d616 95bc 4de6 9d3b
000001f0: cb0d 74bc ecbe 89be 1b56 7cbe 56dd 283c
00000200: aca6 8cbe c449 0b3c 0721 2bbb 774c b0bc
00000210: 63cd bb3e 52c4 5d3a 38f2 c03e a808 babc
00000220: 3732 adbe cbf2 eb3b 742f 873c 378c 35bd
00000230: 0269 d43c 44f3 703b 48d2 4d3d acee 003d
00000240: cd54 163d e6a7 14bc c47a 82be 668e ab3c
00000250: 54a4 8cbe d67a 95bc 040f 6c3c f87f d6be
00000260: a902 d4bc 87da a33b 0b65 f3bc f869 42be
00000270: f833 4bbd 09bb d43b 3ce5 86be 4f97 bf3c
00000280: 2ba1 763d 792b 5bbb 2baa e8bc b9bd cc3c
00000290: 8610 ca3c 9045 3dbc ee35 a4be b08a 4b3b
000002a0: b4d8 3c3f cc33 0f3d af21 b7ba 4106 653f
000002b0: 914b 55be b549 8cbc daee 6ebe 469c 243d
000002c0: 4acf dabc f1b6 7e3e 7d02 98be 5190 55be
000002d0: 8852 423d b89e 4d3d 1fcf b7be cf44 a1bc
000002e0: bce9 ffbc 0155 30bf 4767 313d 62ac dbbc
000002f0: 9ec3 cc3e 08ea 48bd 3558 bebe 6a89 e2bc
00000300: 6b3c 73be 0f43 473c 040c 09bf 0970 54bc
00000310: 1d2a 94bd be8a 2c3d 4581 1cbd 1ca9 83be
00000320: 9172 5b3d aa6d d43c e419 023d 33b4 bd3e
00000330: 528f 333b 6fa6 a4bb 395d 5abe 82d9 6d3c
00000340: 581d c8bb 8028 4cbe 791f 5dbe f53a 4a3f
00000350: 92a8 d23d 83b5 73be 896c c63c a496 503e
00000360: 1147 dc3c 24db 353f c41e 89be 6cf5 82bc
00000370: 4920 dabc 7be0 d0be 539a 7dbe 2f49 3f3c
00000380: 20e1 cdbd 8187 51be c668 9e3b f38c ed3a
00000390: 0638 a3be daf3 8f3e 3a1f dcbc 0236 cbbe
000003a0: 4d55 983a 6823 923e 43d1 7ebe 43d2 303d
000003b0: 2408 86be 5dad 7dbe ddf7 923d c844 e1be
000003c0: a843 453c c81a 443c 08f6 84bf 7dc9 943c
000003d0: 1f93 9a3e d333 f33c fb31 75be ad9d 813b
000003e0: 9614 253d a923 d7be 83af 74be f714 b33c
000003f0: 612e 57be 737b f23c 083c 4cbe 75f9 b53e
