TD3-conf1/preTrained/TD3_BipedalWalker-v3_0_critic_1_target_ep600.pth (torch_old, 529768 bytes, 5 tensors)

l1.weight f4 [400, 28]
0	0x3ec291f0	0.38001966
1	0x3f91405f	1.134777
2	0xbf56cd1a	-0.8390671
3	0xc0591fc4	-3.3925638
4	0x3e93372e	0.28753036
5	0xbed5ac7f	-0.41733167
6	0xbf5f1455	-0.871404
7	0x3d59e6df	0.05319869
8	0xbfc5f501	-1.5465394
9	0x3f8b7d7a	1.0897667
10	0xbf1cb6e6	-0.6121658
11	0xbf7bae09	-0.9831243
12	0xbea97441	-0.33096507
13	0x3f172776	0.5904459
14	0xbf54751d	-0.829912
15	0xbf57b3c6	-0.8425869
16	0xbf38840c	-0.7207649
17	0xbf840c4a	-1.031625
18	0xbf4b8fc3	-0.7951624
19	0xbf3366ae	-0.7007855
20	0xbf396345	-0.724171
21	0xbf308f86	-0.68969
22	0xbf70867a	-0.93955195
23	0xbee01b36	-0.4377076
24	0xbe179e5e	-0.14806506
25	0xbf153cb1	-0.5829573
26	0xbe470a5e	-0.19437549
27	0x3ea2e48b	0.3181499
28	0xbf34cf1c	-0.70628524
29	0xbf8b33e3	-1.087521
30	0xc0b14834	-5.540064
31	0x4064f913	3.5777023
32	0xbf2ce65a	-0.6753899
33	0xbdefb6c4	-0.11704782
34	0xbcdd50d3	-0.027016079
35	0xbc0486b4	-0.008088756
36	0xbddf3d45	-0.10900358
37	0x3e74458a	0.23854652
38	0xbd948f4f	-0.072538964
39	0xbea7b059	-0.3275173
40	0xbd999827	-0.07499724
41	0xbda23a74	-0.07921305
42	0x3e68d209	0.22736372
43	0x3e34d993	0.17661123
44	0xbd717cbc	-0.058956847
45	0x3cb429d7	0.021992607
46	0xbd0c4783	-0.034247886
47	0x3d6e000b	0.05810551
48	0x3de18597	0.11011808
49	0x3e732f4a	0.23748508
50	0xbcdbb8cb	-0.026821515
51	0xbeaf31a1	-0.3421755
52	0xbcec14f6	-0.028818589
53	0xbb562a71	-0.0032679106
54	0x3ca29a57	0.019848986
55	0xbc02e184	-0.007988337
56	0x3fc3530a	1.5259717
57	0x40438cff	3.0554807
58	0xc0348206	-2.820436
59	0xbfe5e4ea	-1.7960484
60	0xbf09ad22	-0.53779805
61	0xbd3b15cf	-0.045675095
62	0xbf013b9c	-0.5048158
63	0xbe96a30e	-0.29421276
64	0x3e78cb5b	0.24296324
65	0xbec9e4bc	-0.39432323
66	0xbe5f799b	-0.21823733
67	0xbebebab5	-0.3725182
68	0x3ca0e868	0.01964207
69	0x3f0c8aa7	0.54899067
70	0xbf1a2457	-0.602117
71	0xbf311e25	-0.6918662
72	0xbee0fcbf	-0.4394283
73	0xbed0a978	-0.40754294
74	0xbee89cda	-0.45432168
75	0xbf22cc2a	-0.6359278
76	0xbf3d0c69	-0.7384706
77	0xbf0661de	-0.52493083
78	0xbf3cb184	-0.7370837
79	0xbf05c0fd	-0.522476
80	0xbf11087a	-0.5665356
81	0xbd87f201	-0.066379555
82	0xbec32913	-0.38117275
83	0xbdb61a6a	-0.08891757
84	0xbe3be958	-0.18350732
85	0xbf1625e7	-0.58651584
86	0xbf505403	-0.8137819
87	0x3ed64854	0.41852057
88	0x3f500d93	0.8127071
89	0xbf05bc8a	-0.5224081
90	0xbf608fd0	-0.8771944
91	0x3f4c4188	0.7978749
92	0xbf1703cd	-0.58990175
93	0xbf00e331	-0.50346667
94	0xbede0576	-0.4336354
95	0x3d800b8a	0.06252201
96	0x3f6e30d4	0.93043256
97	0xbe472fa0	-0.19451761
98	0xbf34a825	-0.7056907
99	0xbf1a0b49	-0.6017347
100	0xbf13de2a	-0.5776087
101	0xbf021823	-0.5081808
102	0xbebdfd63	-0.3710738
103	0xbe834ada	-0.25643045
104	0xbe94ddd5	-0.29075494
105	0xbe9a2f08	-0.30114007
106	0xbd13f3bb	-0.03612111
107	0xbe8ca819	-0.27471998
108	0xbec3b42c	-0.38223398
109	0x3e7c35a4	0.24629837
110	0x3f451bce	0.7699555
111	0xbf0a5d68	-0.54048777
112	0x3e166694	0.14687568
113	0x3f2d5fa2	0.6772405
114	0x3f606f22	0.87669575
115	0xbfcf8c34	-1.6214662
116	0x3de3af81	0.11117459
117	0xbde112d8	-0.10989922
118	0xbf87b131	-1.060095
119	0xbf109cb7	-0.5648913
120	0xbfd68029	-1.6757861
121	0xbee056b3	-0.43816146
122	0x3de3b104	0.111177474
123	0xbf728fed	-0.94750863
124	0xbe2684e7	-0.16261636
125	0xbdabb0c7	-0.08383327
126	0xbf42309d	-0.7585543
127	0xbf64ec1b	-0.8942277
128	0xbf8026eb	-1.0011877
129	0xbf861287	-1.0474404
130	0xbf6a8c00	-0.91619873
131	0xbf8d91b8	-1.1060095
132	0xbf527ef9	-0.82224995
133	0xbf8672ad	-1.0503746
134	0xbf4c3b7f	-0.79778284
135	0xbe8a3d42	-0.2699986
136	0xbd69b95d	-0.05706154
137	0x3f30057d	0.68758374
138	0xbe8c5568	-0.2740891
139	0x3f0df953	0.55458564
140	0x3eb366e1	0.35039428
141	0x3ff4665e	1.909374
142	0xbec24f41	-0.3795109
143	0x3e948605	0.290085
144	0x3ecb7310	0.39736223
145	0x3f641399	0.89092404
146	0x3f285798	0.6575866
147	0x3e9eb92f	0.3100066
148	0xbf854947	-1.0412987
149	0xbf49a654	-0.7876942
150	0xbf11e234	-0.56985784
151	0xbf32fe1d	-0.69918996
152	0x3f2cc426	0.674868
153	0x3f20b512	0.6277629
154	0xbf5a0c3c	-0.8517492
155	0xbf2232d3	-0.633588
156	0xbf1750cf	-0.5910768
157	0xbf132211	-0.57473856
158	0xbf1bf0f7	-0.6091456
159	0xbf4a4564	-0.7901213
160	0xbf492ae1	-0.78581053
161	0xbf3fe387	-0.74956554
162	0xbf47f24f	-0.7810411
163	0xbf3944f0	-0.72370815
164	0x3ef6442c	0.48098886
165	0x3f63a6ec	0.8892658
166	0x3efd4677	0.49467823
167	0x3f865aa2	1.0496409
168	0x3fadafda	1.3569291
169	0xc0187f3d	-2.382766
170	0xbfce573b	-1.6120371
171	0x4029e008	2.6542988
172	0xbf55f33b	-0.83574265
173	0x3e081321	0.13288547
174	0xbed6d49e	-0.4195909
175	0xbe238acd	-0.15970917
176	0xbfa27bd2	-1.2694037
177	0xbf1a1749	-0.6019178
178	0xbf0908fc	-0.53529334
179	0x3e9cc116	0.30616063
180	0x3cccef57	0.02501647
181	0xbdf2501d	-0.11831687
182	0xbec1d67d	-0.37858954
183	0xbed21c22	-0.4103709
184	0xbefabdf4	-0.48973048
185	0xbe58e6f6	-0.21181855
186	0xbe759b20	-0.23984957
187	0xbe75c1ff	-0.23999785
188	0xbe732ca5	-0.237475
189	0xbed2146c	-0.41031206
190	0xbdddeadd	-0.10835812
191	0xbeb18978	-0.34675193
192	0x37c2cbcd	2.3221504e-05
193	0x3d8c1a92	0.068410054
194	0xbeddf480	-0.433506
195	0x3d67d6e5	0.056601424
196	0xbe7ddffa	-0.24792472
197	0xc021044a	-2.5158868
198	0x401665f0	2.3499718
199	0xbfbf3cd1	-1.4940435
200	0xbd887289	-0.06662471
201	0x3bade344	0.005306633
202	0xb886cf6c	-6.428253e-05
203	0x3ca1a1d1	0.01973048
204	0x3dad5705	0.08463863
205	0xbdae5456	-0.085121796
206	0x3e88531d	0.2662591
207	0xbf9b7c4a	-1.2147305
208	0xbe8acc6a	-0.2710908
209	0xbd8eecc9	-0.06978757
210	0xbeb8ff60	-0.36132336
211	0xbf2b0041	-0.6679726
212	0xbf09ed4f	-0.5387773
213	0xbee1c41a	-0.44094926
214	0xbf45f385	-0.77324706
215	0xbf2f3b4f	-0.6844987
216	0xbf472f09	-0.77806145
217	0xbed37ed3	-0.41307697
218	0x3da7068e	0.08155547
219	0x3ed94480	0.42435074
220	0x3d781e9f	0.060576078
221	0x3e28ddeb	0.16490905
222	0xbe215ff0	-0.15759254
223	0xbe3b9728	-0.1831938
224	0x3ef67bec	0.4814142
225	0x3fe51a96	1.7898738
226	0xbed4ff47	-0.4160101
227	0xbfc55b3c	-1.5418468
228	0xbf3fbd5c	-0.74898314
229	0xbf6bb923	-0.9207937
230	0xbe0ebbce	-0.1393883
231	0xbd002a04	-0.03129007
232	0x3ea2c10b	0.31787905
233	0xbe916019	-0.2839363
234	0xbf07a0ed	-0.5297993
235	0xbf6ae898	-0.9176116
236	0xbe9ca9b0	-0.3059821
237	0xbed029a9	-0.40656784
238	0xbed01eb6	-0.4064843
239	0xbe822035	-0.25415197
240	0xbf03088a	-0.51184905
241	0xbe95df87	-0.292721
242	0xbed8f995	-0.42377916
243	0xbf0fa940	-0.5611763
244	0xbe8d0364	-0.2754165
245	0xbeee2f5f	-0.46520516
246	0xbe379d66	-0.17931136
247	0xbf23ed7e	-0.6403426
248	0x3fb4e7e5	1.4133269
249	0x3ece318d	0.4027218
250	0xbe8c2a3b	-0.2737597
251	0xbeafd96a	-0.3434556
252	0x3e244016	0.16040072
253	0x3e152035	0.14563067
254	0x3f70fa4b	0.94131917
255	0xbe543c79	-0.20726193

l1.bias f4 [400]
0	0xbf06e77d	-0.52696973
1	0xbf5e2b4c	-0.86784816
2	0xbf04cbca	-0.5187346
3	0x3eeb0b1f	0.45906922
4	0x3e848549	0.25882939
5	0xbf0d83ef	-0.5527944
6	0xbe9c7e9c	-0.30565345
7	0x3f796d9d	0.9743288
8	0xbf3a2324	-0.7270987
9	0xbeab154f	-0.33414695
10	0xbed59a99	-0.4171951
11	0xbd62ea0f	-0.055398997
12	0xbe84b913	-0.2592245
13	0xbe977b56	-0.29586285
14	0xbf5d8977	-0.8653788
15	0xbf3a7348	-0.72832155
16	0x3c0e18d7	0.0086729145
17	0xbf427740	-0.7596321
18	0xbe271cf4	-0.16319638
19	0xbe673c15	-0.22581513
20	0xbe807d09	-0.25095394
21	0xbe979a96	-0.29610127
22	0xbf2e7b42	-0.68156826
23	0xbee6d464	-0.45083916
24	0xbf46198f	-0.7738275
25	0xbf94acac	-1.1615195
26	0xbf888090	-1.0664234
27	0x3e20849e	0.1567559
28	0xbe69547b	-0.22786133
29	0xbeb6e35d	-0.3572034
30	0xbee8f82e	-0.45501846
31	0xbf2573c8	-0.64629793
32	0xbf038248	-0.5137067
33	0xbeab4b9c	-0.33456123
34	0xbe08b1c6	-0.13349065
35	0xbf145f1f	-0.57957643
36	0xbf767f27	-0.9628777
37	0xbf3300a3	-0.69922847
38	0x3ec63c68	0.3871796
39	0x3e20969c	0.15682453
40	0x3f181452	0.59406006
41	0x3f8e390a	1.1111157
42	0xbf777f37	-0.9667849
43	0xbf29932c	-0.6624019
44	0xbe9a17ca	-0.30096275
45	0xbf672f43	-0.9030649
46	0xbebb7bc0	-0.3661785
47	0xbf2a80d9	-0.66602856
48	0xbe154bf6	-0.14579758
49	0xbf07f0ad	-0.5310162
50	0xbeb36822	-0.35040385
51	0xbf86344f	-1.0484713
52	0x3f3b8d70	0.7326269
53	0xbd2143af	-0.03937119
54	0xbf117bc0	-0.5682945
55	0xbe33e2e9	-0.17567028
56	0xbeaf55c6	-0.34245127
57	0xbef090f5	-0.46985593
58	0xbec441b3	-0.38331375
59	0xbf400816	-0.7501234
60	0xbf3e8cb3	-0.7443344
61	0x3e49498d	0.19656964
62	0x3e52c7d0	0.20584035
63	0xbeedfdaf	-0.46482608
64	0xbe0260fd	-0.1273231
65	0xbec706ba	-0.3887232
66	0xbf12d664	-0.57358384
67	0xbf464641	-0.7745095
68	0xbf57b032	-0.8425323
69	0x3f5039fe	0.8133849
70	0xbf82ceea	-1.0219395
71	0xbee0fe24	-0.43943894
72	0xbf586744	-0.8453257
73	0xbf20276f	-0.6256017
74	0xbf441aa8	-0.76603174
75	0x3e974025	0.29541126
76	0xbf9511e3	-1.1646084
77	0xbedaad66	-0.42710418
78	0xbddf7c2a	-0.10912354
79	0xbf0801b2	-0.53127587
80	0xbec581ed	-0.38575688
81	0xbe70f344	-0.23530298
82	0xbf0f40a4	-0.5595801
83	0xbe7f1458	-0.24910104
84	0x3e8b3d18	0.27195048
85	0x3f2c2206	0.67239416
86	0xbd5b3b1a	-0.05352316
87	0xbe5c7462	-0.21528772
88	0xbe9c8016	-0.30566472
89	0xbe54a912	-0.2076762
90	0xbf51c9e0	-0.8194866
91	0xbc8e4363	-0.017366117
92	0x3efb0e51	0.4903436
93	0x3f6d1965	0.92616874
94	0x3f2bfee3	0.671858
95	0xbe5bc284	-0.2146092
96	0xbe176df3	-0.14788036
97	0xbe12ea96	-0.143473
98	0x3f571bb5	0.8402665
99	0x3dcffe61	0.10155941
100	0x3fb09583	1.3795627
101	0xbf91a302	-1.1377871
102	0xbeba5c25	-0.36398426
103	0xbebda51a	-0.37040025
104	0xbe57eb72	-0.21085909
105	0xbca16bdf	-0.019704757
106	0xbd8d2088	-0.068909705
107	0x3edbbd29	0.42917755
108	0xbf2f87cf	-0.685666
109	0xbf66a16d	-0.90090066
110	0x3d8a5fdc	0.06756565
111	0xbf0bd4f3	-0.5462181
112	0xbc69a683	-0.014260891
113	0x3f367f60	0.7128811
114	0xbe44cb9c	-0.19218296
115	0xbe3ad353	-0.18244676
116	0xbd660343	-0.056155454
117	0xbe179136	-0.14801487
118	0x3ef1422d	0.471208
119	0x3d46040f	0.048343714
120	0xbeb7523f	-0.35804936
121	0xbe3534b8	-0.17695892
122	0xbe28229f	-0.16419457
123	0xbe8e09a1	-0.2774172
124	0xbf317c0c	-0.69329906
125	0x3da1fad6	0.07909171
126	0xbe8e5be6	-0.27804488
127	0xbeaef459	-0.34170797
128	0x3f6574a2	0.8963109
129	0x3e5b33a0	0.21406412
130	0xbf21e817	-0.63244766
131	0xbf21e814	-0.6324475
132	0x3cd8814d	0.026428843
133	0xbf1a21b0	-0.60207653
134	0xbca32987	-0.019917263
135	0xbf25b6bb	-0.6473195
136	0xbf2c4710	-0.6729593
137	0x3f714657	0.94247955
138	0xbf0cef15	-0.5505231
139	0xbf3ef660	-0.7459469
140	0xbf9a9ce6	-1.2079132
141	0x3f84f3a8	1.0386858
142	0xbf5016e6	-0.8128494
143	0xbf535679	-0.8255382
144	0xbf46828c	-0.7754295
145	0xbef19c3c	-0.4718951
146	0x3e14bec5	0.14525898
147	0xbed059f2	-0.40693623
148	0x3f5f42ca	0.8721129
149	0xbec7dfa1	-0.39037803
150	0xbb910164	-0.0044252146
151	0x3f6b89e7	0.920073
152	0xbec55845	-0.38543907
153	0x3f2ff8ac	0.6873882
154	0xbe55aaf0	-0.20865989
155	0xbf5cae95	-0.8620389
156	0xbeb60f37	-0.35558483
157	0xbf8552e9	-1.0415927
158	0xbddf8c4b	-0.10915431
159	0xbf1aea2e	-0.6051358
160	0xbdca0731	-0.09864653
161	0xbe60348b	-0.21895044
162	0xbe9dca2e	-0.30818313
163	0xbf1147d6	-0.5675024
164	0xbe8e5443	-0.27798662
165	0x3fb55d7c	1.4169154
166	0xbe47f5b5	-0.19527324
167	0xbf538875	-0.8263009
168	0x3e20d12e	0.15704796
169	0xbf6b300b	-0.9187018
170	0xbe932e8c	-0.2874645
171	0xbf804628	-1.002141
172	0xbf1f5d08	-0.6225133
173	0xbf30eade	-0.6910838
174	0xbe8a64a4	-0.27029908
175	0x3ddefb41	0.10887767
176	0x3ed5aebc	0.41734874
177	0xbf23ec47	-0.64032406
178	0x3d38939d	0.04506265
179	0xbef025f1	-0.46903947
180	0xbf84a22f	-1.0361995
181	0x3f200bab	0.62517804
182	0xbf934b7b	-1.150741
183	0x3f9a9fe6	1.2080047
184	0xbe6aec4b	-0.22941701
185	0xbd834a95	-0.0641071
186	0xbf05a425	-0.5220359
187	0xbe9c1f9e	-0.30492872
188	0xbf1a827f	-0.6035537
189	0xbea0b579	-0.31388453
190	0xbf7b8d91	-0.9826289
191	0xbe63b824	-0.22238213
192	0xbf36afa0	-0.7136173
193	0xbeb3d780	-0.3512535
194	0xbf34318a	-0.7038809
195	0xbf7db4b5	-0.9910386
196	0xbf45dcc9	-0.77290016
197	0x3e58e182	0.21179774
198	0x3f5265e9	0.8218675
199	0xbf08f978	-0.5350566
200	0xbf81a77f	-1.0129241
201	0xbf3028ab	-0.68812054
202	0xbf18eb20	-0.5973377
203	0x3fdd3bb0	1.728384
204	0xbf5b4505	-0.8565219
205	0x3d318b54	0.043345764
206	0xbef2754a	-0.4735511
207	0xbf1923f2	-0.59820473
208	0xbf86f958	-1.0544844
209	0x3d7c6a89	0.061625037
210	0xbe675cfb	-0.22594063
211	0x3f87155e	1.0553396
212	0xbe00de4b	-0.12584798
213	0xbe9595f5	-0.2921597
214	0xbf8e884a	-1.1135342
215	0x3d0f8f50	0.035048783
216	0xbf1245a8	-0.57137537
217	0xbf0cb193	-0.54958457
218	0xbf067876	-0.5252756
219	0xbf32aeb2	-0.69797814
220	0xbf08dcbf	-0.5346183
221	0x3ef89ec8	0.4855864
222	0xbf2d6b08	-0.6774144
223	0xbf0b7b0d	-0.54484636
224	0xbf8b7f8e	-1.0898302
225	0x3f752f8e	0.9577569
226	0xbf3538a5	-0.7078956
227	0xbe49ad59	-0.19695033
228	0xbed6b4a6	-0.419347
229	0xbeb05353	-0.3443857
230	0xbf08a351	-0.533742
231	0xbf030143	-0.511738
232	0xbed19803	-0.40936288
233	0xbe68f783	-0.22750668
234	0xbe84ea26	-0.2595989
235	0xbf68b338	-0.90898466
236	0xbd5dbc6f	-0.054134782
237	0xbee0bd6c	-0.43894517
238	0xbeb77480	-0.3583107
239	0xbe1e139e	-0.15437171
240	0xbeabe83a	-0.33575612
241	0x3cc678ca	0.024227519
242	0xbf468c37	-0.775577
243	0x3ef7fa15	0.48432985
244	0xbf3635ac	-0.71175647
245	0xbefb54dd	-0.49088183
246	0xbf903d92	-1.126879
247	0xbdb20cf5	-0.086938776
248	0xbfb1a696	-1.3878963
249	0xbf2fa7e0	-0.6861553
250	0x3ccc4c70	0.024938792
251	0xbf5d0cfb	-0.8634793
252	0xbebbe5ff	-0.3669891
253	0xbf806e5a	-1.0033677
254	0xbf296cee	-0.6618184
255	0xbe9a3f42	-0.30126387

l2.weight f4 [300, 400]
0	0xbd2951bf	-0.041337725
1	0x3cfe5124	0.03104455
2	0xbd32ffe0	-0.043701053
3	0x3c4a21c0	0.012337148
4	0x3bda4501	0.006661058
5	0xbd4c5441	-0.04988504
6	0xba64a3b3	-0.0008721903
7	0xbca64097	-0.02029447
8	0x3cc50f50	0.024055153
9	0x3c4424f0	0.011971697
10	0xbc783cc0	-0.015151203
11	0xbd62a8ab	-0.055336636
12	0x3d16dd85	0.03683235
13	0xbbfadd28	-0.0076557584
14	0xbd44b899	-0.04802761
15	0x3d5a5ae2	0.05330933
16	0xbd45d819	-0.04830179
17	0xbc89e5fd	-0.0168333
18	0xbc995eee	-0.018722024
19	0xbb4dc371	-0.003139701
20	0x3c809f22	0.01570088
21	0xbbbf7b70	-0.0058435723
22	0xbd5c3452	-0.053760834
23	0xbd018a25	-0.031625886
24	0xbd821b75	-0.06352893
25	0xbd2c4dcf	-0.04206639
26	0xbc8840e5	-0.016632507
27	0xbd34eb48	-0.044169694
28	0x3d40ec11	0.04710013
29	0xbda4eb2f	-0.0805267
30	0x3bc032c8	0.0058654286
31	0xbb3457e0	-0.0027518198
32	0x3c82cfed	0.015968287
33	0x3bc0b220	0.005880609
34	0xbd163016	-0.036666952
35	0xbd2c2e8f	-0.04203659
36	0x3bfd4913	0.0077296584
37	0xbc60041b	-0.013672854
38	0xbd170946	-0.03687408
39	0xbd758404	-0.059940353
40	0xbcaecfff	-0.021339415
41	0x3c262f66	0.010143137
42	0xbbea97eb	-0.0071592233
43	0x3d21c99f	0.03949892
44	0x3c057b84	0.008147124
45	0xbd58b75a	-0.052909233
46	0xbd46cef9	-0.04853723
47	0xbc43ba28	-0.011946239
48	0xbc587a6a	-0.01321278
49	0x3ce97b8a	0.02850129
50	0x3c5b99a1	0.013403327
51	0x3cdf3381	0.027246239
52	0xbd32dfd8	-0.043670505
53	0xbd815375	-0.06314746
54	0xbd9c6a9e	-0.07637523
55	0x3c6820aa	0.014167944
56	0x3c95b635	0.01827536
57	0xbd4d0e31	-0.050062362
58	0x3cecaa62	0.028889839
59	0xbd167986	-0.036736988
60	0xbc367058	-0.011135183
61	0x3cd36281	0.025803806
62	0xbc308260	-0.010773271
63	0xbd57851a	-0.05261717
64	0xbb848635	-0.004044319
65	0xbc1dc4b6	-0.009629419
66	0x3cf46c54	0.029836811
67	0xbc908eae	-0.01764616
68	0xbd08dded	-0.03341477
69	0xbc74942c	-0.014927905
70	0x3d8780b5	0.06616346
71	0xbd414ff1	-0.04719538
72	0xbc4a04d9	-0.012330257
73	0xbd10359e	-0.035207383
74	0xbc80cb85	-0.015722046
75	0xbd1e9486	-0.03871586
76	0xbd4ac121	-0.04950059
77	0xbd560d52	-0.052258797
78	0xbd4b57e9	-0.049644385
79	0xbc3b5fa0	-0.011436373
80	0xbc2003b7	-0.009766511
81	0x3b5ca850	0.0033669658
82	0xbcecf243	-0.028924113
83	0xbd6aa6c3	-0.057287943
84	0x3ca19d16	0.019728225
85	0xbd4f9a89	-0.050684486
86	0xbd39c190	-0.04535061
87	0xbd44a703	-0.048010837
88	0xbd64998b	-0.055810492
89	0xbc2b7c6f	-0.010466679
90	0x3c90372d	0.017604435
91	0x3bd7db09	0.0065873903
92	0xbcf7bbfc	-0.030241005
93	0x3d097af4	0.033564523
94	0xbc65b45b	-0.014020051
95	0x3bb5beb0	0.0055464134
96	0xbd95f3ee	-0.073219165
97	0xbbd2a572	-0.006428414
98	0xbd37f0b8	-0.0449073
99	0xbb8aa7bd	-0.0042314217
100	0x3c59bd11	0.013289706
101	0xbc61bbf3	-0.013777721
102	0x3cb27a47	0.021786822
103	0x3d0654b4	0.032795623
104	0xbd8cda3d	-0.06877563
105	0xbce35f7b	-0.02775549
106	0xbd2bbf9f	-0.04193079
107	0xbd29ad27	-0.041424897
108	0x3a119dc5	0.00055548205
109	0xbcc38019	-0.023864793
110	0xbda7fac7	-0.08202129
111	0xbd244e27	-0.040113594
112	0x3c476768	0.01217065
113	0xbd3d20d8	-0.0461739
114	0xbd68ca33	-0.056833457
115	0xbcd4b01a	-0.025962878
116	0xbd2bf19f	-0.041978475
117	0x3c3eb7df	0.011640518
118	0xbdc2dcd1	-0.09514774
119	0x3b37da0f	0.0028053557
120	0xbc4ef101	-0.012630702
121	0xbd1986c6	-0.037482046
122	0xbd82e505	-0.06391338
123	0x3cd93071	0.026512356
124	0xbd294157	-0.04132208
125	0xbbd9b6d2	-0.0066441083
126	0x3d19189d	0.03737699
127	0xbd879055	-0.06619326
128	0xbd93a7a6	-0.07209711
129	0xbd7dbb24	-0.06194605
130	0xbd9b19e6	-0.07573299
131	0xbc06f7fd	-0.008237836
132	0x3d850975	0.064959444
133	0xbc2d2957	-0.010568938
134	0xbd1977ee	-0.03746789
135	0x3cd32bd1	0.02577773
136	0xbd226837	-0.03965017
137	0x3c1be055	0.009513934
138	0xbcb5b8c0	-0.022182822
139	0x3cd90259	0.026490377
140	0xbcb0a970	-0.02156517
141	0x3cb34887	0.02188517
142	0xbd07e0cd	-0.03317337
143	0xbcc2c561	-0.023775758
144	0x3a0ca9cc	0.0005365878
145	0xbb5e2b72	-0.0033900407
146	0x3c159f8d	0.009132278
147	0xbd38e860	-0.045143485
148	0xbcec9de3	-0.02888388
149	0xbc5d4112	-0.0135042835
150	0xbccacda1	-0.024756255
151	0xbdba56c8	-0.090985835
152	0xbc06b340	-0.0082214475
153	0xbd2038d7	-0.039116707
154	0xbd4a3481	-0.049366478
155	0x3c175cdd	0.009238449
156	0x3bda3881	0.006659568
157	0x3cff8fe3	0.03119654
158	0xbcc8a869	-0.024494367
159	0xbd917076	-0.07101528
160	0xbd246c9f	-0.04014265
161	0xbc94ec5c	-0.018179111
162	0xbd71279c	-0.058875665
163	0xbd8c4055	-0.06848208
164	0xbd20b447	-0.039234426
165	0xbd799ae4	-0.06093873
166	0xbd781da4	-0.060575143
167	0xbd4bd14a	-0.04976014
168	0xbd49bb69	-0.049250994
169	0xbd687da3	-0.05676044
170	0xbd803e4f	-0.062618844
171	0x3c9ec9a5	0.019383261
172	0xbbe33de3	-0.0069348677
173	0x3cb06aef	0.021535365
174	0xbd3591b0	-0.04432839
175	0xbbb9f840	-0.0056753457
176	0xbcc084d1	-0.023500832
177	0xbd24c5af	-0.04022759
178	0xbd9508c6	-0.07277064
179	0x3d2b393f	0.04180264
180	0xbd770b6c	-0.060313627
181	0xbd234617	-0.039861765
182	0xbc9616d6	-0.018321436
183	0x3c7c0e3b	0.015384252
184	0xbd45f5c9	-0.048330102
185	0xbd0f88f5	-0.03504272
186	0xbd236acf	-0.039896782
187	0x3c4f1108	0.012638338
188	0xbaf60424	-0.0018769545
189	0xbd424799	-0.047431562
190	0xbd2a6c8f	-0.041607436
191	0x3cec8beb	0.028875312
192	0xbcabc6a7	-0.020968748
193	0xbbac7287	-0.005262676
194	0x39e9803a	0.0004453676
195	0xbc2bfc8f	-0.010497226
196	0xbbef73ab	-0.00730749
197	0xbd1e6e3e	-0.038679354
198	0xbbd9151a	-0.00662483
199	0xbd492ba9	-0.049113903
200	0xbbf73664	-0.0075443257
201	0xbca5556f	-0.02018234
202	0xbc0440ad	-0.0080720605
203	0xbd4ada21	-0.04952443
204	0xbcb22520	-0.021746218
205	0xbca25aef	-0.019818751
206	0xbc7543f4	-0.014969815
207	0x3cdbe889	0.02684428
208	0x3d188f1d	0.03724586
209	0x3ca3f5de	0.0200147
210	0x3d05d40d	0.03267293
211	0xbdba3d00	-0.09093666
212	0xbd34ea80	-0.04416895
213	0x3c3660b7	0.011131457
214	0xbca4f817	-0.02013783
215	0x3bb007b7	0.0053720134
216	0xbcece20d	-0.028916383
217	0xbd4c4249	-0.049867902
218	0xbd3aee58	-0.04563746
219	0xbb6073d3	-0.0034248724
220	0xbd124a6e	-0.035715513
221	0x3c44bbb8	0.012007646
222	0xbbcd21b9	-0.0062601236
223	0x3bfa9d7b	0.0076481677
224	0x3c383577	0.011243216
225	0xbcdeea12	-0.027211223
226	0xbc3c2de0	-0.011485547
227	0xbd14017e	-0.036134236
228	0xbd05427d	-0.03253411
229	0xbd0285b5	-0.031865794
230	0xbaaa0a1f	-0.0012972987
231	0x3cef3dc2	0.029204253
232	0x3d29679e	0.041358583
233	0xbcbe2870	-0.023212641
234	0x3cf84643	0.03030694
235	0x3d4ab7c1	0.049491648
236	0x3cbb5257	0.022866411
237	0xbc6f113b	-0.01459151
238	0xbccb0771	-0.024783822
239	0xbc89469d	-0.016757304
240	0xbc87cd45	-0.016577372
241	0x3cbb13d7	0.022836609
242	0xbd8c7aed	-0.06859384
243	0xbcd17eea	-0.025573213
244	0xbc5c19c2	-0.0134338755
245	0x3b9d2875	0.0047960826
246	0x3a3897e7	0.0007041678
247	0xbc294797	-0.01033201
248	0xbd279c7d	-0.040920723
249	0xbd729924	-0.059228078
250	0x3cd70fe9	0.026252704
251	0xbcfa06b4	-0.030520774
252	0xbd52d5e2	-0.051473506
253	0xbd67797b	-0.056512337
254	0xbdb03378	-0.08603567
255	0xbd28feef	-0.04125875

l2.bias f4 [300]
0	0xbdb60a00	-0.08888626
1	0xbd9f0f2e	-0.07766567
2	0x3d31cb47	0.04340675
3	0xbd68e653	-0.05686028
4	0xbdd2a4aa	-0.102853134
5	0xbdd1a082	-0.102356926
6	0xbda33fd7	-0.07971161
7	0xbe5e5ea6	-0.21715793
8	0xbce41bc3	-0.02784527
9	0xbd616603	-0.055028927
10	0xbd62896b	-0.055306833
11	0x3bd17589	0.006392185
12	0x3e887dec	0.2665857
13	0x3d54824a	0.051882066
14	0xbebca4d8	-0.36844516
15	0xbd4b5401	-0.04964066
16	0xbda0f6af	-0.07859551
17	0x3c2bfee6	0.010497784
18	0xbda5f277	-0.08102887
19	0xbba911af	-0.0051595788
20	0xbd9e8676	-0.0774049
21	0xbd3fad30	-0.046796024
22	0x3d507931	0.050896827
23	0xbd8c6f35	-0.068571486
24	0xbd6eca23	-0.05829824
25	0xbdde4c42	-0.10854389
26	0xbbea1bb3	-0.0071444153
27	0xbd4108d9	-0.04712758
28	0x3f41472d	0.7549923
29	0xbcc54539	-0.02408086
30	0x3d5e1339	0.05421755
31	0x3e4fb4c4	0.202838
32	0xbde6fbb3	-0.112784766
33	0xbd8c82bd	-0.06860874
34	0xbdb2c2f0	-0.087285876
35	0x3cfef853	0.03112427
36	0x3e147c25	0.14500482
37	0x3db01ccf	0.08599245
38	0xbcb70bd0	-0.0223445
39	0x3daab536	0.083353445
40	0x3ab10bdf	0.0013507566
41	0xbdaf91bf	-0.08572721
42	0xbbf9da2c	-0.007624885
43	0x3da8aa8e	0.08235656
44	0xbd702374	-0.05862756
45	0x3d975e6d	0.07391057
46	0x3dbe3ba7	0.092887215
47	0xbd6b14eb	-0.057392996
48	0xbcb3b138	-0.02193509
49	0xbcda77ca	-0.026668448
50	0xbd97181e	-0.07377647
51	0x3d4d6100	0.050141335
52	0x3e738863	0.23782496
53	0xbd0f7c75	-0.0350308
54	0xbcdaef52	-0.026725445
55	0x3c303057	0.010753713
56	0x3d59d549	0.05318192
57	0xbdaa1b4f	-0.0830599
58	0x3d6e0f48	0.058120042
59	0xbd8be1cd	-0.068301775
60	0x3f19aef6	0.60032594
61	0xbd3c0220	-0.045900464
62	0xbdb6c260	-0.08923793
63	0x3f32fa33	0.69913024
64	0xbd4e3ee1	-0.050352935
65	0xbd89c2d5	-0.067266144
66	0xbd64d8d3	-0.055870842
67	0x3d487f00	0.04894924
68	0xbdc7f3f1	-0.09763325
69	0xbfa22417	-1.2667264
70	0xbcc4b321	-0.024011197
71	0xbc82f315	-0.015985051
72	0xbd87aecd	-0.066251375
73	0xc01ec163	-2.4805534
74	0xbe3e5db2	-0.1859043
75	0xbd90453e	-0.07044457
76	0xbe1e7ee5	-0.15478094
77	0x3c49a3f8	0.01230716
78	0xbda2437f	-0.0792303
79	0xbd82786d	-0.06370626
80	0xbd29980f	-0.04140478
81	0xbd7f9d2c	-0.06240575
82	0xbda97f0f	-0.08276188
83	0xbda2adbf	-0.07943296
84	0xbd45bfe1	-0.048278693
85	0xbd920036	-0.071289465
86	0xbd6d4a8b	-0.057932418
87	0xbd04856d	-0.032353807
88	0xbffec6e2	-1.9904444
89	0x3d9383b5	0.072028555
90	0xbd99d5ae	-0.07511459
91	0x3e5b4805	0.21414192
92	0xbfaaf4d2	-1.3355963
93	0xbd941056	-0.07229678
94	0xbdab30a7	-0.08358889
95	0xbcb90548	-0.022585526
96	0xbeb440bf	-0.35205647
97	0x3dbbd727	0.091718964
98	0x3da1875a	0.078871444
99	0xbdb958e0	-0.09050155
100	0xbc6e8243	-0.014557424
101	0xbc1b227e	-0.009468673
102	0xbd47c9c1	-0.048776392
103	0x3c4e8918	0.012605928
104	0x3e8e247f	0.2776222
105	0xbd992a96	-0.07478826
106	0x3de37ad2	0.111074105
107	0x3ea6c947	0.32575437
108	0x3da93a4e	0.08263074
109	0xbdbb8458	-0.09156102
110	0x3f3d56a2	0.73960316
111	0x3f3c6d8f	0.73604673
112	0xbd75464c	-0.059881493
113	0xbd8ec34d	-0.069708444
114	0xbdc4ca91	-0.09608949
115	0xbdd47bc2	-0.103751674
116	0xbced2b4b	-0.028951308
117	0xbfc9ddc5	-1.5770804
118	0xbd8c281d	-0.068435885
119	0x3d132b6d	0.035930086
120	0xbd30a1a0	-0.043122888
121	0x3d84ad44	0.0647836
122	0xbc58c56a	-0.013230661
123	0xbd821e95	-0.06353489
124	0xbdd53102	-0.10409738
125	0x3d3c6a07	0.045999553
126	0x3d0b827c	0.034059986
127	0xbdad7907	-0.0847035
128	0x3cf52c83	0.029928451
129	0xbd22a45f	-0.039707538
130	0xbdcb5019	-0.09927387
131	0xbc3ffc18	-0.011717819
132	0x3e7631d2	0.24042442
133	0xbce7a21b	-0.02827554
134	0x3e9b1516	0.30289525
135	0xbdfc7f84	-0.12329009
136	0x3f123aa1	0.5712071
137	0xbd821f5d	-0.06353638
138	0xbd2d9c2f	-0.042385276
139	0xbcd0f6fa	-0.025508393
140	0xbd518dc2	-0.05116058
141	0xbd9e76d6	-0.0773751
142	0xbd94cc9e	-0.0726559
143	0xbca6c17f	-0.020355938
144	0x3c0f9ed4	0.008765895
145	0xbe04da95	-0.12974007
146	0x3d287d3e	0.041135065
147	0xbd1ca2de	-0.03824126
148	0xbb51997a	-0.0031982348
149	0xbd0daad5	-0.034586746
150	0xbd9c3966	-0.076281354
151	0x3f43b20c	0.7644355
152	0xbdaac987	-0.083392195
153	0xbd369510	-0.04457575
154	0xbc111a86	-0.008856421
155	0x3da5acee	0.08089624
156	0xbd8ba02d	-0.068176605
157	0xbd4bbbe9	-0.049739752
158	0x3d6231ea	0.055223383
159	0xbd83e545	-0.06440214
160	0xbdeb374b	-0.11485156
161	0xbda18287	-0.07886224
162	0x3c1c2563	0.009530398
163	0xbd77ad24	-0.060467854
164	0xbe0e96c5	-0.13924702
165	0xbd93734e	-0.07199727
166	0x3e83d12d	0.25745526
167	0xbd6c1aa3	-0.05764259
168	0xc00692f4	-2.1027193
169	0xbcd068ca	-0.025440592
170	0xbc1f958e	-0.009740246
171	0xbf0a9e60	-0.5414791
172	0x3d26cdfe	0.040723793
173	0xbdd0b0aa	-0.10189946
174	0x3d9354d5	0.07193915
175	0xbd518f52	-0.05116207
176	0xbd8328fd	-0.06404302
177	0xbef873c4	-0.48525822
178	0x3d6dd0ea	0.058060564
179	0x3daee2be	0.085393414
180	0xbdae179f	-0.08500599
181	0xbd9d4d2e	-0.076807365
182	0x3d366567	0.0445303
183	0xbd2f3017	-0.04277047
184	0xbd24e8d7	-0.040261116
185	0x40056023	2.0839927
186	0xbd271b57	-0.040797558
187	0xbca6078f	-0.020267276
188	0x3e75f138	0.24017799
189	0xbe12c5de	-0.14333293
190	0xbd39065b	-0.045172077
191	0xbd9b867e	-0.07594012
192	0x3ddeac59	0.108727165
193	0xbd9950de	-0.07486127
194	0xbd7bb07c	-0.061447605
195	0xbd03f4e5	-0.03221597
196	0x3d824a54	0.06361833
197	0xbd162846	-0.0366595
198	0xbcee8c6b	-0.02911969
199	0x3d14ee35	0.036359984
200	0xbde0f00b	-0.109832846
201	0xbd9f3706	-0.07774167
202	0x3ac781e0	0.0015221201
203	0x3e666a86	0.22501573
204	0xbdc980d1	-0.09839023
205	0xbc08c295	-0.008347173
206	0x3d9a624d	0.07538281
207	0xbdad12af	-0.08450829
208	0xbd5d0e4a	-0.053968705
209	0xbd84eafd	-0.06490133
210	0x3d7eb45b	0.06218372
211	0xc005ca77	-2.0904825
212	0xbd321fa8	-0.04348722
213	0x3d50d7b9	0.05098698
214	0xbd8ab695	-0.06773106
215	0x3e9fb3e6	0.3119194
216	0xbcf0eb74	-0.029409148
217	0xc0206189	-2.505953
218	0x3d7ee8b3	0.062233638
219	0xbd1293de	-0.03578555
220	0xbd8b1905	-0.067918815
221	0x3f3a27ae	0.72716796
222	0x3d084fbc	0.033279166
223	0xbd918a3e	-0.07106446
224	0xbc99b0f6	-0.01876114
225	0x3cd1be31	0.025603386
226	0xbce89e73	-0.028395867
227	0xbd826d7d	-0.063685395
228	0x3cf66cd3	0.030081188
229	0xbe7ae561	-0.24501564
230	0xbdae70af	-0.085175864
231	0x3f4043d6	0.7510351
232	0xbda537bf	-0.08067273
233	0x3db2689f	0.08711361
234	0x3d50c111	0.050965372
235	0xbdafcd20	-0.08584046
236	0x3cf1ef9b	0.029533198
237	0x3e556ad1	0.20841528
238	0xbd51b342	-0.051196344
239	0x3f4d6b05	0.80241424
240	0xbd6a4c23	-0.057201516
241	0xbd1103de	-0.03540408
242	0x40162453	2.345967
243	0xbd890ccd	-0.06691895
244	0x3ddf75ed	0.109111644
245	0xbe2e6b37	-0.17033087
246	0x3db1153f	0.086466305
247	0xbd82ecd5	-0.063928284
248	0xbd477c69	-0.04870263
249	0x3f491af3	0.78556746
250	0x3dc3d608	0.095623076
251	0xbc831895	-0.016002933
252	0x3c6e4f7a	0.014545316
253	0xbbd6e10a	-0.0065575885
254	0x3d87e57c	0.066355675
255	0x3e486332	0.1956909

l3.weight f4 [1, 300]
0	0x3c73010c	0.014831793
1	0xbc7f379b	-0.015577222
2	0xbe708773	-0.2348917
3	0x3c78344c	0.015149187
4	0x3ceb009b	0.028686812
5	0x3cffbdfb	0.03121852
6	0x3b81b904	0.003958823
7	0x3eaffb3f	0.34371373
8	0x3bc77628	0.0060870834
9	0x3b6d16fb	0.0036177028
10	0xbcc01f41	-0.023452403
11	0x3ba45e8e	0.0050161546
12	0x3e2a14c8	0.1660949
13	0xbe8214a8	-0.25406384
14	0xbed0f2f0	-0.40810347
15	0xbcdff3b2	-0.027337883
16	0xbc2bf0d7	-0.010494432
17	0x3c5ecf81	0.0135992775
18	0x3cdf182a	0.027233202
19	0xbdf146db	-0.11781093
20	0x3befa41b	0.007313264
21	0x3bd41ae1	0.006472931
22	0xbe66b0b2	-0.22528341
23	0xbc71661b	-0.0147338165
24	0xb8c1d8a8	-9.2433125e-05
25	0xbc9acbc6	-0.018895995
26	0x3d18df95	0.0373226
27	0x3cf6931b	0.030099442
28	0xbe1de75b	-0.15420286
29	0x3bcafa29	0.006194372
30	0xbe73637b	-0.23768418
31	0xbf4f0a8b	-0.8087546
32	0xbc8879ed	-0.016659701
33	0xbc2b5b9f	-0.010458856
34	0xbba0574f	-0.0048932205
35	0xbe76cb5b	-0.24101011
36	0xbe6d250a	-0.2315866
37	0xbe854a4c	-0.26033247
38	0xb98d9bfc	-0.00027009833
39	0xbe5fdab1	-0.21860768
40	0x3d3fb68f	0.04680496
41	0xbbdd850a	-0.0067602443
42	0x3bf1729b	0.0073683984
43	0xbe42e248	-0.19031632
44	0xb9b245f0	-0.00034002913
45	0xbeac17e6	-0.33611983
46	0xbe71a3d3	-0.2359765
47	0x3c0e7f55	0.0086973505
48	0xbc5fa339	-0.013649755
49	0x3cc7b319	0.024377393
50	0xbc34d630	-0.011037394
51	0xbe87b82c	-0.265077
52	0x3e211bb3	0.15733223
53	0xbd1a5055	-0.037674267
54	0x3c8afb55	0.016965548
55	0xbbdbd8ea	-0.006709208
56	0xbd7dc9fb	-0.0619602
57	0x3cb14a60	0.02164191
58	0xbeb38657	-0.3506343
59	0xbcc1fc99	-0.023680018
60	0xbf899beb	-1.0750707
61	0xbc86f1bc	-0.01647269
62	0xbca156c7	-0.019694699
63	0xbdcf2318	-0.101141155
64	0xbd0106e5	-0.031500716
65	0xbc68368b	-0.01417316
66	0xbd3c3cb7	-0.04595634
67	0xbe90e885	-0.28302398
68	0x3d3c4870	0.04596752
69	0x3ec51f7f	0.38500592
70	0x3cb0d148	0.021584168
71	0xbbea3a2b	-0.0071480474
72	0xbca23ae7	-0.019803477
73	0x3eedd19e	0.46448988
74	0xbf83b31d	-1.0289036
75	0xbc5bd501	-0.013417483
76	0xbf13053c	-0.5742986
77	0x3c19e166	0.009392118
78	0x3d177dad	0.03698509
79	0xbce73a33	-0.028225994
80	0x3cdac5e9	0.026705699
81	0x3c92a05e	0.017898735
82	0x3b5c3db1	0.0033606107
83	0x3c954295	0.018220225
84	0xbbb0df57	-0.005397718
85	0x3cdb8552	0.02679697
86	0x3dc523a0	0.096259356
87	0x3cc444f9	0.02395867
88	0x3f78da67	0.97208256
89	0xbe4f6310	-0.20252633
90	0xbcf4d43c	-0.029886357
91	0x3db114d6	0.08646552
92	0x3f27a57a	0.6548687
93	0x3c8c718d	0.017143989
94	0x3d1f49c5	0.03888871
95	0xbc08145d	-0.008305636
96	0x4012358e	2.2845187
97	0xbe5afbd1	-0.21385123
98	0xbf4bd62c	-0.79623675
99	0x395dba2a	0.00021145554
100	0x3ce4af6a	0.027915675
101	0xbd42be58	-0.047544807
102	0x3d17712d	0.036973167
103	0xbe2378de	-0.15964076
104	0x3f9ff293	1.2495903
105	0x3ca1cbf7	0.019750578
106	0xbe96b355	-0.29433694
107	0xbf3100be	-0.6914176
108	0xbe869334	-0.26284182
109	0x3c8c0685	0.017092953
110	0xbe3e51c7	-0.18585883
111	0xbe18c837	-0.14920126
112	0xbc389c97	-0.011267803
113	0xbca88da6	-0.020575356
114	0x3ad38802	0.0016138556
115	0xbe79717b	-0.24359696
116	0xbd7adf1b	-0.061247926
117	0x3e334958	0.17508447
118	0xbcad8bc7	-0.021184815
119	0xbe280fde	-0.16412303
120	0x3d042ded	0.03227036
121	0xbe5e5989	-0.21713842
122	0xbc9516d6	-0.018199366
123	0x3ab40b10	0.0013736207
124	0x3c71053c	0.014710721
125	0xbe89beec	-0.26903474
126	0xbe7c561b	-0.24642222
127	0x3c28dd56	0.010306677
128	0xbe584099	-0.21118392
129	0xbcb92b90	-0.02260378
130	0xbcade40f	-0.02122691
131	0x3c27400f	0.010208144
132	0x3e929e99	0.28636625
133	0x3cb2a6d0	0.021808058
134	0x3e663db7	0.2248448
135	0x3c7fc75c	0.015611496
136	0xbd8ad1b8	-0.06778282
137	0x3bebf2cb	0.007200574
138	0x3c872f74	0.01650212
139	0xbc4ddf90	-0.0125655085
140	0x3cd46902	0.025928978
141	0x3d352db0	0.044233024
142	0x3cfdf683	0.031001335
143	0x3b138c4d	0.0022514046
144	0x3bb059bf	0.0053817923
145	0xbcc453d1	-0.023965748
146	0xbe827ac4	-0.25484288
147	0xbbd1c791	-0.006401964
148	0xbe8ca454	-0.27469122
149	0xbc957ad6	-0.01824705
150	0xbc8e5cf5	-0.01737831
151	0xbe5595df	-0.20857953
152	0x3bb164f0	0.005413644
153	0x3cfb544c	0.030679844
154	0x3aea0a83	0.0017855916
155	0xbe4269f8	-0.18985736
156	0xbc970175	-0.018433312
157	0xbcceede1	-0.025259914
158	0xbe2c3fbe	-0.1682119
159	0xbc090755	-0.0083635645
160	0x3ce93792	0.02846888
161	0xbabe9a2f	-0.00145418
162	0xbe7ac669	-0.2448975
163	0xbb5e37f2	-0.0033907858
164	0xbc853534	-0.01626072
165	0xbc3d4590	-0.0115522295
166	0xbe90905b	-0.28235134
167	0x3b4b8ab0	0.0031058006
168	0x3f2e9177	0.6819071
169	0xbcd42f32	-0.02590141
170	0xbca257cf	-0.019817261
171	0x3fb3a77a	1.4035485
172	0xbe554b91	-0.20829608
173	0xbcf478d4	-0.029842772
174	0xbe6eeeda	-0.23333302
175	0x3ce4f812	0.02795032
176	0xbcdacf4a	-0.026710171
177	0x3e25d49e	0.16194388
178	0xbea461ae	-0.32105774
179	0xbe559051	-0.20855834
180	0xbbe98b2b	-0.007127186
181	0x3d4d9eb8	0.050200194
182	0xbe8706d4	-0.26372397
183	0xbc36ca2f	-0.011156603
184	0xbcffe9bc	-0.031239383
185	0xbfde737b	-1.7378992
186	0x3c445309	0.011982688
187	0xbcdbac62	-0.026815597
188	0x3e6c842b	0.23097293
189	0xbb41ab58	-0.0029551592
190	0xbf5cd25d	-0.8625849
191	0x3b86683d	0.0041017816
192	0xbe733c6b	-0.23753516
193	0xbc7d5273	-0.015461552
194	0xbef8e733	-0.4861389
195	0x3b934d06	0.004495266
196	0xbd942a1d	-0.07234595
197	0x3c4b7980	0.012419105
198	0xbd1c8145	-0.03820922
199	0xbe83a91c	-0.25714958
200	0x3cb2af67	0.021812154
201	0x3cf68ffc	0.030097954
202	0x3944a380	0.00018752925
203	0x3e582e2f	0.21111368
204	0xbcaa2bb7	-0.020772798
205	0xbba4a66f	-0.0050247232
206	0xbe5a5d39	-0.21324624
207	0x3c6dd982	0.01451719
208	0xbb3e5890	-0.0029044487
209	0xbe2ba5d6	-0.1676248
210	0xbe5d1f79	-0.21594037
211	0x3f814e2e	1.0101984
212	0x3d91bd05	0.07116131
213	0xbe73b583	-0.2379971
214	0x3cc66c89	0.024221675
215	0x3e81ad1e	0.2532739
216	0x3afc5b93	0.0019253365
217	0x3ef5666a	0.47929698
218	0xbe891ec4	-0.26781285
219	0x3c80a925	0.015705654
220	0x3b87d385	0.004145088
221	0xbe32c38c	-0.17457408
222	0xbe7d9a53	-0.24765901
223	0x3cae8a77	0.02130626
224	0xbdcde120	-0.10052705
225	0xbe518781	-0.20461847
226	0xbadede59	-0.0017003521
227	0xbcf51514	-0.029917277
228	0xbe64dd82	-0.22350124
229	0x3e3d5227	0.1848837
230	0xbcdc1f3a	-0.026870359
231	0xbe3d8fcc	-0.18511885
232	0x3a98554d	0.0011622101
233	0x3e4d3356	0.20039114
234	0xbe7ed143	-0.24884515
235	0x3c94b785	0.018153915
236	0xbe860824	-0.26178086
237	0xbf0cbe1c	-0.54977584
238	0x3d5bba71	0.0536446
239	0xbe708b1b	-0.23490565
240	0x3c4543a8	0.012040056
241	0x3c441ac8	0.011969276
242	0xbfee7e33	-1.8632263
243	0xbc5ddafa	-0.013540978
244	0x3d81546f	0.063149326
245	0x39610e82	0.00021463077
246	0xbe7531fb	-0.23944847
247	0xbcaad2e7	-0.02085252
248	0x3c0c8c1c	0.008578327
249	0xbe60c198	-0.2194885
250	0xbe74af83	-0.23895077
251	0xbbd09c5a	-0.006366295
252	0xbe572e61	-0.21013786
253	0x3cf27b73	0.02959988
254	0xbe4c3c08	-0.19944775
255	0x3df5f175	0.12008945
