TD3-conf1/preTrained/TD3_BipedalWalker-v3_0_actor_ep100.pth (torch_old, 526982 bytes, 6 tensors)

l1.weight f4 [400, 24]
000000 8c d6 26 bd 96 c3 99 be 56 79 9b 3e 33 17 04 be
       -0.04073195 -0.30032033 0.3036601 -0.12899475
000010 b3 70 8f 3e 6d 72 06 3e d7 4b 1d be c0 27 bc be
       0.2801567 0.13129587 -0.15360962 -0.36749077
000020 7e 42 d1 bd c7 9e af 3d bc c1 82 bd 14 3f 2b be
       -0.102177605 0.08575206 -0.06384608 -0.16723281
000030 f7 2f a2 be 0e f0 47 3e 68 fa 80 be 9b 22 38 3d
       -0.3167722 0.19525167 -0.25191045 0.044954877
000040 23 b5 45 be 15 58 83 be e7 20 7c be 39 7c 35 be
       -0.1930738 -0.2565314 -0.24621926 -0.17723168
000050 f8 24 57 be 43 3b 97 bc d5 c0 30 3c 9d 22 3c bd
       -0.21010196 -0.018460875 0.010788162 -0.045931447
000060 9a 7a 4d be ff 64 cb bb b6 bb 0f bf 92 79 f7 bd
       -0.200663 -0.006207108 -0.561458 -0.120837346
000070 49 63 27 3e 4a 5e 94 be a8 91 8b be ce 10 36 bc
       0.16346468 -0.28978187 -0.27259564 -0.011112405
000080 cd 2f 91 be 12 75 63 3e b8 24 30 3e 02 68 74 be
       -0.28356782 0.22212628 0.17201507 -0.23867801
000090 b9 26 a3 bd 24 90 de be 74 ae a1 3d bb ce 6b bc
       -0.0796637 -0.43469346 0.078946024 -0.01439255
0000a0 a7 8e 9e 3d 97 18 24 be 97 3d c4 bc 47 ad c4 bc
       0.077420525 -0.16025005 -0.02395515 -0.024008406
0000b0 2d a7 8e bd bb 17 2f be 14 5f 50 3e 65 d9 5d 3d
       -0.0696548 -0.17098896 0.2034877 0.0541624
0000c0 b9 3c 88 3e fc 92 24 3e 55 d4 02 be e2 0b c9 3d
       0.26608828 0.16071695 -0.1277631 0.098167196
0000d0 af 93 b3 3e 83 a1 23 3e e3 a0 3b bd 6d 82 99 3d
       0.3507361 0.1597958 -0.04580773 0.0749558
0000e0 17 41 67 3d d5 d9 af 3e 78 10 61 3e 34 05 80 bd
       0.05645856 0.3434588 0.21978939 -0.062509924
0000f0 84 2c d9 bd 04 b3 c4 bd 1b 9f 68 be 26 36 eb 3c
       -0.10604194 -0.09604457 -0.22716944 0.028712343
000100 e2 ca 86 be b7 48 97 be 5d a2 07 3d 80 6a 93 be
       -0.26326662 -0.29547665 0.033113826 -0.2879219
000110 02 e0 b6 bc d1 36 5f be 5a 64 80 be 92 92 07 3e
       -0.022323612 -0.21798255 -0.25076562 0.13239506
000120 8c b1 21 3e 7a dd d1 3e 36 9c 58 3e 8a 8d 4d be
       0.15790385 0.40989286 0.2115334 -0.20073524
000130 d8 8f 2d 3d 9d b3 56 be 0e 1c 8e 3e ff 15 89 3e
       0.04237351 -0.20966955 0.2775578 0.26774594
000140 b9 d6 c6 be 91 fa 7c be ae c4 03 bf 45 b6 a0 be
       -0.38835695 -0.24704958 -0.51471984 -0.3138906
000150 d8 e1 b8 3d 8d 09 2a 3e 66 c0 18 bc c8 66 b3 3d
       0.09027451 0.16605206 -0.009323215 0.08759838
000160 55 60 03 be 2c f9 ee bd c2 50 4d bd 94 e2 94 bd
       -0.12829717 -0.116686195 -0.050125845 -0.07269779
000170 f2 b7 77 bc 6a 64 d5 bd 7f f7 45 3e ef 6d eb bc
       -0.01511954 -0.10419543 0.19332694 -0.028738944
000180 85 3b 2e 3e e7 6c 39 be 01 46 df 3c d7 87 fc bd
       0.17014892 -0.18107949 0.02725506 -0.12330597
000190 22 ee e1 3d d9 36 57 bd 02 6b 2b 3e 26 fb 67 3e
       0.11031748 -0.05254254 0.16740039 0.226544
0001a0 7c 19 1b bd ca 17 27 3e 4f ef fd 3d e9 95 d2 bd
       -0.0378661 0.16317669 0.1239916 -0.10282499
0001b0 a9 7a e6 3e 40 1f 15 3e ad c6 96 be 95 b4 8e be
       0.45015457 0.14562702 -0.29448453 -0.27872148
0001c0 0a 27 87 be 6f eb 87 be 98 98 ce 3c 85 1c 16 be
       -0.26396972 -0.2654681 0.025219247 -0.14659317
0001d0 04 b8 9a 3d 9e 21 26 be 6e ee 63 3d bd d5 c7 bd
       0.075546294 -0.16223761 0.055647306 -0.09757564
0001e0 3b 95 ac 3d c1 08 83 3d ff b5 72 be 7f 4a cd 3e
       0.08426901 0.06398154 -0.23702239 0.40095899
0001f0 34 37 11 be 8e b6 70 3d 7f fd 8c 3e 1a a5 ed bd
       -0.14181215 0.058767848 0.27537152 -0.11603756
000200 39 5c 23 be 28 9e dc 3e 30 21 b8 3c 00 a2 91 3d
       -0.15953149 0.43089414 0.022476763 0.07110977
000210 f0 f1 00 3e dd f5 8a 3e 89 e6 20 3e 06 6a 35 3e
       0.12592292 0.27140704 0.15712942 0.17716226
000220 bf 23 fc 3d c8 a1 9d 3d 6a 32 51 3e c0 23 ff bd
       0.123115055 0.07696873 0.20429388 -0.12457991
000230 c6 13 13 be 3f 53 af 3d 32 55 54 3d ba c0 c8 3c
       -0.14363012 0.085608 0.05183906 0.024505962
000240 1c c8 a6 be b4 96 ef 3d b1 98 96 3e 9d 4d 53 be
       -0.32574546 0.11698666 0.2941337 -0.20635076
000250 fb 78 7c bc f5 22 5f be 01 6a 70 bc 3d d8 91 3c
       -0.015409703 -0.21790679 -0.014673711 0.017803306
000260 f7 03 e1 3d f1 35 81 bb eb 73 58 3e 13 9b 0a 3e
       0.10987084 -0.003943198 0.21137969 0.13535719
000270 ba 87 b0 3e de 79 f6 3d d7 c7 c1 bd 16 2a 8a bd
       0.3447855 0.12034963 -0.094619446 -0.067463085
000280 70 3e e8 bc 9c af 1b 3d 4b 61 04 bd f2 03 14 be
       -0.028350085 0.03800927 -0.03231935 -0.1445463
000290 16 23 3e bd 35 1e 4d be 6c 79 99 be 69 cc a7 bd
       -0.04642018 -0.20031054 -0.2997545 -0.08193285
0002a0 35 8d b1 3e 2d 0a 86 3e 7c 89 48 bf f6 58 e7 3d
       0.34678045 0.26179639 -0.78334785 0.11296265
0002b0 a4 8a de bd 1d 71 1f be e6 6a a5 3e 7d b3 8a 3d
       -0.10866287 -0.15570493 0.3230812 0.06772516
0002c0 ca dc 01 be 7b 2b 9a 3e c1 b7 5a 3e cf 55 ba 3b
       -0.1268188 0.30111298 0.21359159 0.0056864987
0002d0 ee fb 15 be a4 c9 a9 3d e2 0b 8e bd c4 71 1e be
       -0.14646885 0.08290413 -0.0693586 -0.15473086
0002e0 dd ab 59 3d 37 81 1b 3e 0c 8d 15 be a5 27 15 be
       0.053142417 0.1518601 -0.14604586 -0.14565904
0002f0 a2 78 af bc 36 83 2b be df 97 4d bd 90 04 4f be
       -0.021419827 -0.16749272 -0.050193664 -0.20216584
000300 8e 6e 88 3e 51 38 73 bd 22 0a cc be fd f3 9c bd
       0.26646847 -0.05937988 -0.3985148 -0.076637246
000310 5a 7d 52 3e df 74 96 be 35 f8 44 3e f3 7f 6e be
       0.2055563 -0.2938604 0.19235308 -0.23290996
000320 61 1a bd be d7 93 ed 3b 74 ee 06 3f 4a 76 48 bd
       -0.36934188 0.00725029 0.527076 -0.048940934
000330 ba 02 b5 3e 02 8d 83 3d 4e 91 6a 3e 1c af 47 3e
       0.35353643 0.064233795 0.22906992 0.19500393
000340 41 db 89 bc 72 cb 36 bd 35 c7 f6 3d 59 c2 27 3e
       -0.016828181 -0.044627614 0.120497145 0.16382731
000350 1f f9 52 bd f4 68 17 3e 4c 8d 04 3e c2 4a db bd
       -0.05150711 0.1478613 0.12944525 -0.10707618
000360 eb 72 49 3d dc f2 3b be 98 b7 8a 3d 8f 57 a2 3c
       0.04918186 -0.18354362 0.06773299 0.019817142
000370 8f a8 5d 3e 54 9f 6d 3c cd 5d 4c 3e 5f 8b 69 3d
       0.21646331 0.014503319 0.19957657 0.05701768
000380 32 bf 7f bd 5e 53 01 3e bf d7 9f 3e e9 fb 8f bb
       -0.062438197 0.12629458 0.3121929 -0.0043940437
000390 3d 42 d3 3e e9 2d 3e 3e bb 60 b5 bd 1d a1 7f bd
       0.41261473 0.18572201 -0.088563405 -0.06240951
0003a0 0b 36 e2 3c df 6e c0 3d 53 e5 39 be ca b2 45 be
       0.02761366 0.09396147 -0.18153886 -0.19306484
0003b0 d8 3a ea bd 3c a6 bc bd 86 61 1a 3e cc b7 04 39
       -0.11437005 -0.09211394 0.15076265 0.0001265697
0003c0 0d f8 97 3d 1f db 6d bd bd d3 c9 3e be 7c 1e be
       0.07420359 -0.0580703 0.39419356 -0.15477273
0003d0 82 78 89 3d 1f 44 18 bd 8f bc c2 3d 8c 0f 39 be
       0.06712438 -0.03717434 0.09508621 -0.18072337
0003e0 6f 09 10 be b7 c6 87 3e 10 fc df be c5 7c 09 be
       -0.14066099 0.26518795 -0.43746996 -0.13426502
0003f0 88 d6 de 3d 1c fc 71 bd 0d 14 c1 bd 5a c9 b7 bc
       0.10880762 -0.05907832 -0.094276525 -0.02243488

l1.bias f4 [400]
000000 e4 5e 41 be f6 01 e8 bd 44 aa 3b 3d 77 72 06 be
       -0.18883854 -0.11328499 0.045816675 -0.13129602
000010 97 99 55 3d 3e e1 15 be d1 7c 3e be e0 f2 11 3e
       0.052148428 -0.14636704 -0.18602301 0.14252806
000020 3b 1b 85 3b cf 3b 8f bd 7a 93 25 3e 3c d4 f7 bc
       0.004062084 -0.069938295 0.16169539 -0.030252568
000030 8e 77 d2 3b ba d1 18 be cf 92 7f be c2 42 66 bd
       0.0064229434 -0.14923754 -0.24958347 -0.05621601
000040 28 bf 0c 3c ff c2 4a be 24 28 31 be fc b2 98 3d
       0.008590497 -0.19800948 -0.17300469 0.074560136
000050 bf 05 88 3d cb 3b e9 3d de f3 69 be 79 c2 2f be
       0.06641721 0.11388358 -0.22846934 -0.17164029
000060 04 00 7b 3d 16 56 ef bd 9e 60 72 3b 54 ed 01 bd
       0.06127931 -0.116863415 0.0036983858 -0.031720474
000070 26 48 03 3e 71 b3 82 3d ec 31 ed bd 46 e2 3e be
       0.12820491 0.06381882 -0.115817875 -0.18641004
000080 19 7b 8d 3d f2 bd 82 be 57 0c 85 bc b7 ae cc bd
       0.06908245 -0.25535542 -0.016241236 -0.09994262
000090 cf a3 a1 bd fe ac fd 3c f5 82 26 be f3 e6 0d 3d
       -0.07892572 0.030966278 -0.16260894 0.03464408
0000a0 52 22 45 be 58 a7 18 be 9d ff 0a 3e ba d1 53 be
       -0.19251373 -0.14907587 0.13574071 -0.20685473
0000b0 28 e2 88 3b 10 5d 07 be bc 39 bb 3d 46 0e 02 3e
       0.0041773506 -0.13219094 0.09141871 0.12700757
0000c0 ae 48 13 be 3f 94 16 bd 30 36 a2 bd f0 86 54 be
       -0.14383194 -0.036762472 -0.07920492 -0.207546
0000d0 2a 74 1c bc ca d2 ac be c5 2f 9f b9 14 95 28 be
       -0.00954918 -0.3375457 -0.00030362434 -0.16463119
0000e0 5d 52 12 bd a0 59 49 be 4c ed 82 3d 10 4e 1e bd
       -0.03572308 -0.19663095 0.06392917 -0.038648665
0000f0 e0 8f 2c 3d c8 95 58 be 85 28 bb 3d 3b 60 24 bd
       0.042129397 -0.21150887 0.09138588 -0.040130835
000100 a4 f0 75 3c 48 7a 7e 3d d4 79 47 bd ff 21 e3 bc
       0.0150109865 0.062128335 -0.04870017 -0.027726172
000110 c7 fe 1b be 2b 74 3d 3e 82 f7 18 3e 8a 6e e4 3c
       -0.15233909 0.18501346 0.14938167 0.02788474
000120 e2 c1 7d bd 66 ea 8d be 83 b2 73 be 8f 13 d6 3d
       -0.06195248 -0.27717894 -0.23798566 0.10452949
000130 b7 da de bd af 77 ad bd 48 91 ed bd 75 86 13 be
       -0.1088156 -0.084700935 -0.11599976 -0.1440676
000140 cc 18 ea bc 59 89 98 bd a3 35 9f bd 23 f1 24 be
       -0.028576277 -0.07448072 -0.07773902 -0.16107611
000150 2a 9e bd bd 5b 7a 33 be 6a 79 fd bd 7f 76 90 be
       -0.09258683 -0.17527144 -0.123766735 -0.28215405
000160 31 c0 30 3d 67 74 52 bd f6 37 93 be 36 a9 f4 bd
       0.043152038 -0.05138054 -0.28753632 -0.11946337
000170 50 5f 2c 3d 46 a8 85 be 0b 2d b1 3d c4 31 93 3c
       0.042083085 -0.26104945 0.086511694 0.017968066
000180 2f 26 a1 bc 28 a4 e1 bd d3 1b e7 3b 59 f2 43 be
       -0.019671528 -0.110176384 0.0070528775 -0.19135417
000190 04 6c 2e be 88 2e ef bc 2e 50 a9 3d 72 55 e2 bd
       -0.17033392 -0.029196993 0.08267246 -0.11051454
0001a0 b7 1d 41 3d d6 d2 2d be ae 2b df 3d ea f1 3b be
       0.04714748 -0.16974959 0.10897003 -0.18354002
0001b0 19 cf 55 3d 67 52 8d be 5e cc 12 3d 89 74 b8 3b
       0.052199457 -0.2760193 0.03583943 0.0056291264
0001c0 d3 f1 34 3e be 69 87 bd 11 61 66 3d c6 53 1e be
       0.17670374 -0.066119656 0.056244913 -0.15461645
0001d0 a9 a3 ba bc 2c eb 41 be 09 52 6b be 3d cc 9b be
       -0.022783117 -0.18937367 -0.22980513 -0.3042926
0001e0 04 37 1b 3e ec dc 24 be 7f 42 05 3d a0 df 89 be
       0.15157706 -0.160999 0.03253412 -0.26928425
0001f0 27 a5 16 3e f3 aa 61 3d c5 25 bf bd f6 51 68 bc
       0.14711438 0.05509467 -0.09333376 -0.014179697
000200 9e d8 19 3e c0 bc 53 bd 19 aa fb bc 98 bc 04 be
       0.15024039 -0.051693678 -0.030720757 -0.12962568
000210 8b 2a 90 bd d3 35 df 3d f9 51 ae 3d 46 fe 81 be
       -0.070393644 0.10898938 0.08511729 -0.25389308
000220 3c 3a b0 bd 1c 6a 1d bc d6 53 58 3c a6 7c 9b bc
       -0.08604857 -0.009607818 0.013203582 -0.018980335
000230 84 29 82 be f6 2b ea 3d 1d 2a 52 be f7 da f5 bd
       -0.254223 0.11434166 -0.20523877 -0.12004655
000240 f0 7c 75 3d 03 8c d3 3d b1 74 63 3e 90 e7 65 be
       0.059933603 0.103294395 0.22212483 -0.22451615
000250 19 d1 72 be 3a f7 33 be 40 3e 55 3e 5b 35 d2 bd
       -0.23712577 -0.17574778 0.20824528 -0.10264083
000260 c8 6d 87 3d 9a 95 26 3d cf 1c 51 bd f4 63 76 3c
       0.06612736 0.040670015 -0.051052865 0.015038479
000270 ad bd 14 3e 4d 6e fc bd f3 9e 40 be 36 64 6a 3d
       0.1452548 -0.12325726 -0.18810634 0.057224475
000280 25 ba c2 bd 05 06 39 be 0b a5 21 be a2 fd de 3d
       -0.095081605 -0.18068703 -0.15785615 0.1088822
000290 7f 30 2a be 1f 98 40 be 21 d0 03 be ca a7 fc 3d
       -0.16620062 -0.1880803 -0.12872364 0.12336691
0002a0 fa 16 1a 3e a7 4e a3 3d 57 85 22 be 5b d7 73 3d
       0.15047827 0.07973986 -0.15871178 0.05953155
0002b0 db 16 ac 3d 5b ef 72 be 74 63 d3 3d 56 19 5d bd
       0.08402797 -0.2372412 0.103217036 -0.05397924
0002c0 08 38 24 bd 12 f4 f9 3d 22 1a 7b be 2b 68 1b 3e
       -0.040092498 0.12204756 -0.24521688 0.15176456
0002d0 cf d1 bb 3d b3 d8 dc bd 09 0c 66 3d 40 b4 43 3e
       0.09170877 -0.107835196 0.05616382 0.19111729
0002e0 5f 61 99 3d 52 ba 85 be fd 8d f1 bd 8b af 6c be
       0.07489275 -0.26118714 -0.1179466 -0.2311384
0002f0 dd e1 5a be 01 a4 bf bc 30 b1 20 be e8 64 d1 bd
       -0.21375223 -0.023393633 -0.15692592 -0.102243245
000300 2c 4d bf 3d 32 83 15 3e 6c f2 97 bd 98 f0 ee bd
       0.09340891 0.14600828 -0.07419285 -0.11666983
000310 3d c2 a5 be 17 4e 95 bd 80 da 77 be 6b 84 41 bc
       -0.32374755 -0.07290285 -0.24204445 -0.011811356
000320 cb df a0 bd 44 5f 2b 3d 90 0f c1 3d c2 42 2a be
       -0.07855185 0.0418389 0.094267964 -0.16627029
000330 4d f8 8c 3c 9e c0 79 3d 3c ba b8 bb 99 b5 bc 3d
       0.017208243 0.06097471 -0.0056374352 0.092143245
000340 c7 9a 88 3c 8e 82 4e 3d f4 f9 16 3e e1 12 00 be
       0.016675366 0.050417475 0.14743787 -0.12507202
000350 ee f8 b0 3d b0 0e 67 3c b6 35 d4 3d 16 57 9c be
       0.086412296 0.014102623 0.10361807 -0.3053519
000360 63 51 75 be ab 24 46 be d6 75 56 be 32 43 a7 bc
       -0.23956828 -0.19349925 -0.20943388 -0.020417783
000370 32 8b f8 3d f2 57 26 be 42 86 1e be 98 96 3c bd
       0.121359244 -0.16244486 -0.15480903 -0.046042055
000380 e4 30 e3 3d e6 1f 8e bd 9b b7 4b be 72 08 57 bd
       0.110933095 -0.06939678 -0.19894259 -0.05249829
000390 89 f5 c3 bd 5c b7 76 3d de bd be bd d2 b4 9f 3d
       -0.095683165 0.06023346 -0.09313558 0.077981606
0003a0 bc 37 86 bd 94 8b 0e 3d 33 4f 40 be 82 f2 dd 3d
       -0.06553599 0.03480108 -0.18780212 0.1083727
0003b0 ad ca 1a be 86 b8 80 3c 01 fe 03 be 53 88 11 3e
       -0.15116377 0.015712988 -0.12889864 0.1421216
0003c0 bb eb b0 bd 8b 15 89 3c a7 76 f7 bc 17 fe f7 3d
       -0.08638712 0.016733905 -0.030207945 0.12109011
0003d0 b6 25 fe 3d 07 23 7b 3d 2d 29 8e 3c 76 86 af 3d
       0.124095365 0.0613127 0.017353619 0.08570568
0003e0 50 29 a0 3d a0 f8 4a be 38 09 18 be c1 22 ec bd
       0.0782038 -0.19821405 -0.14847267 -0.11530066
0003f0 7a ac 44 3e 2c b5 09 3d e1 1b 98 be a1 79 fe 3d
       0.1920642 0.033620045 -0.2970877 0.124255426

l2.weight f4 [300, 400]
000000 87 73 2f bc 0a e6 17 bd bb 01 07 3b 2c 4f 0d bd
       -0.010708696 -0.037084617 0.0020600397 -0.034499332
000010 28 ab 5b bc 7d 1a 6e bd df 25 95 bc d2 46 3d bd
       -0.013407506 -0.05813073 -0.018206535 -0.046210118
000020 8a aa 03 3d 8f 9f 4f bd a5 f8 01 bd 8e 0b 39 bd
       0.03214506 -0.050689276 -0.031731267 -0.045177035
000030 01 11 28 bd f2 9f db ba 69 30 00 bd 5c f7 02 bc
       -0.04103184 -0.0016756041 -0.031296168 -0.007993545
000040 d5 6c 12 bd d9 4d 47 bd b0 0d af 3c c5 87 c3 bc
       -0.03574832 -0.048658226 0.021368831 -0.02386845
000050 16 56 cb bc 2b a9 26 3d 14 5b 62 3c 6f 6a e6 3c
       -0.024821322 0.040688675 0.01381566 0.028126923
000060 ea d4 96 3c cd 8c 27 bd f5 3f 08 3d df fb 81 b8
       0.018412072 -0.040905762 0.03326412 -6.198114e-05
000070 c6 5d e7 3c f7 08 c5 bc f4 c3 7e 3a 6d 9f fe bb
       0.028242957 -0.024052126 0.00097185303 -0.00777047
000080 91 7b eb bc 09 98 d6 bc 07 71 2e 3d a6 0b 89 3c
       -0.028745444 -0.026195543 0.04258826 0.016729187
000090 20 83 f1 bc 54 dc 79 bc cd d3 bc 3c a8 28 34 bd
       -0.02948147 -0.015250284 0.023050213 -0.043984085
0000a0 61 8b e0 3c 6c f9 19 bc ee 4e d1 bc 9b ce 11 bd
       0.027410211 -0.009397846 -0.025550332 -0.035597425
0000b0 e0 49 0f bc 73 46 36 bd c3 6f d4 3c 1d 69 0e 3c
       -0.0087456405 -0.04450078 0.025932198 0.008692053
0000c0 8d a5 c7 bc 82 a2 e0 bb 33 d5 eb 3c da 34 87 3c
       -0.024370933 -0.00685531 0.028788185 0.016504694
0000d0 c6 bc 31 bd 2a ba 4e bd 4f 0d f1 3c 18 fc 43 bc
       -0.04339292 -0.05047051 0.029425291 -0.011961959
0000e0 91 5d 09 3d b0 aa ab bb 14 4f 93 3b da fe fc ba
       0.033536498 -0.0052388534 0.004495511 -0.0019302026
0000f0 6a 8c 8a bc f3 0d 65 bd af dc 36 3c 94 98 d7 3a
       -0.016912658 -0.055921506 0.0111610135 0.001644867
000100 bc 6a 33 3c cc 71 8a 3c fd e0 86 3c 38 dd 7f 3c
       0.01095074 0.016899966 0.016464705 0.0156167075
000110 10 1a 36 bd 6f 3e c9 bc a6 05 7b 3c 2f 25 3e bd
       -0.04445845 -0.024565903 0.015321171 -0.04642218
000120 17 71 2e 3c 9d 47 21 bd 40 03 17 3a 5a ad 25 bd
       0.01064708 -0.039374936 0.0005760677 -0.040448524
000130 a3 a1 d9 bb 68 6b 7e bc 54 32 30 bd 6b 89 38 bd
       -0.006641583 -0.015528537 -0.043016747 -0.045052927
000140 d9 f7 24 3d 87 54 c4 3c b9 fd da 3b 73 2d 36 bd
       0.04027543 0.023966087 0.006683078 -0.044476938
000150 4c 93 d9 bb b1 0f d9 3b 49 60 2f 3d 68 64 03 3d
       -0.0066398736 0.006624185 0.042816434 0.032078177
000160 92 6a 46 bd e2 ff d5 3c 12 79 8e 3c 72 64 ea 3c
       -0.048441477 0.026122991 0.017391715 0.02861235
000170 e8 8b c8 b9 ad be b9 bb 22 62 e1 3c c0 c0 e0 bc
       -0.0003825121 -0.0056684823 0.027512614 -0.02743566
000180 8c 4f 1d bb 44 8a 37 bc 3b b4 cd bc 22 1b 35 bd
       -0.0024003712 -0.011202399 -0.025110355 -0.04421533
000190 48 db 2b bb 7a c7 f1 3c b0 c7 67 bd ea 84 3f bd
       -0.002622323 0.029514063 -0.05658692 -0.046757616
0001a0 ab f2 4a bd a0 33 67 3b e8 96 3d bc 83 d7 2a bd
       -0.049547832 0.0035278574 -0.011571623 -0.041709434
0001b0 64 64 95 3b 50 a8 b6 3b 7b dc 5e bd aa 50 6e 3c
       0.0045590866 0.0055742636 -0.054409485 0.014545599
0001c0 f9 6a c1 3b 68 e2 7d bc da fb f9 bc a6 9d 1a 3d
       0.0059026447 -0.015495874 -0.0305156 0.037748
0001d0 e8 01 11 bc 4b 0a ef 3c 30 ce 1d bb 56 7c 0b bd
       -0.008850552 0.029179713 -0.0024079196 -0.034054123
0001e0 f8 12 3c bd 1f da b3 3c a1 1f 82 bc 9a 86 1a bd
       -0.045916528 0.021954594 -0.015884222 -0.037726022
0001f0 75 9f 13 3c c9 9e 03 bd cb d7 cb bc d3 f0 9e 3c
       0.0090101855 -0.03213385 -0.024883172 0.019401943
000200 1c ef 3b bd f4 ca 30 bd a4 c9 42 3c 32 f2 aa 3c
       -0.04588233 -0.0431623 0.011888895 0.02086744
000210 d6 bf 0b bd cf 09 10 3d 14 cc 5d bc 60 fc 48 bd
       -0.034118496 0.035165604 -0.013537426 -0.04906881
000220 c9 07 8b ba d8 2c 59 bc 93 fe f4 3c d7 2e ea bc
       -0.0010607179 -0.0132553205 0.029906547 -0.028586788
000230 60 44 f1 ba dc 1b e0 bc 5a 49 9f bc 1f 46 92 3c
       -0.0018407218 -0.027357034 -0.019444156 0.017855702
000240 98 e2 d7 bc b0 e5 b2 bc b9 b1 ed bc 39 04 cf 3c
       -0.026353166 -0.02183804 -0.029015409 0.025270568
000250 d7 c5 41 bd 8a db 12 3c 6b 4a cf bc 22 c8 98 bd
       -0.047307815 0.008963475 -0.02530404 -0.07460047
000260 0c d7 2a bd d2 e2 83 bc ca 6d ee 3a fe 28 35 3c
       -0.04170899 -0.016099367 0.0018190679 0.011057137
000270 a9 7a 39 3d bb 60 dc 3c cf 90 db bc 25 44 24 3d
       0.045282993 0.026901593 -0.026802449 0.04010405
000280 7d 4b 22 bd 60 d4 45 bc a8 3f a0 bb 0b c0 87 3c
       -0.039622772 -0.01207456 -0.004890401 0.016571065
000290 0e 2d 97 3a 6b 27 fb bc 77 46 00 bd 29 23 a4 ba
       0.0011533813 -0.030658444 -0.0313172 -0.0012522686
0002a0 b8 fb 47 bc f9 7a 48 bd c0 58 de 3a bb 46 2d 3c
       -0.0122060105 -0.0489454 0.0016963705 0.0105759455
0002b0 20 06 d3 bc 80 44 82 bb ae 01 41 bc f7 7d 90 bc
       -0.025759757 -0.003975451 -0.011780186 -0.01763819
0002c0 10 24 ff bb 53 5e 1f 3b 47 62 ea bb 21 83 0a bd
       -0.0077862814 0.0024317696 -0.007152829 -0.03381646
0002d0 28 5c 27 3d 6a de 83 bb 35 65 41 bd 19 72 c8 bc
       0.04085937 -0.0040243166 -0.04721566 -0.024468469
0002e0 00 b6 6f 3a 83 e8 3e bd 31 af 65 bc 21 aa 08 3d
       0.00091442466 -0.04660846 -0.01401882 0.033365373
0002f0 82 ea 98 3c 25 c9 d3 3c 9e ed bd 3c d0 5b 62 3c
       0.01866651 0.02585275 0.023184594 0.013815835
000300 ff e5 80 3c 0c c6 fa bc 62 a7 07 bc df 1a 08 bc
       0.01573467 -0.030612014 -0.008279653 -0.008307188
000310 06 d3 a9 bc ea 90 1c bd 87 1f 01 bc 8b 97 25 bd
       -0.020730507 -0.03822414 -0.007881052 -0.040427726
000320 57 5b be bc 4a 12 45 bd 45 ec fd bc 76 b3 e5 3c
       -0.023236914 -0.048113145 -0.030996451 0.028039675
000330 79 7b 79 bd e3 bf c9 3c 26 9c 42 bc dd 2b 4f 3c
       -0.06090877 0.024627632 -0.011878049 0.012644735
000340 16 f6 23 3d ae 1a bc bc a9 a3 db bc f7 4b 92 bc
       0.040029608 -0.02296194 -0.026811438 -0.017858488
000350 08 56 2d 3d e7 1f 94 3b a3 68 92 bd 27 2c 80 3c
       0.042318374 0.0045204046 -0.07148864 0.015646053
000360 97 6e 68 bc a2 61 2a bd 73 98 65 bd f6 de 46 bd
       -0.014186523 -0.041597016 -0.05605359 -0.048552476
000370 82 e1 35 bd f4 df 75 bc 9d df fe bc 63 b7 53 bc
       -0.044404514 -0.015007008 -0.031112486 -0.012922141
000380 00 d6 04 bb 82 6b 9f 3c 17 26 4f 3c 12 60 52 bd
       -0.0020269156 0.019460443 0.012643359 -0.05136115
000390 fe d8 1f 3c e6 bd 8e 3c ae a4 d1 3c a2 4c aa 3c
       0.009756325 0.017424535 0.02559122 0.020788494
0003a0 e2 d0 ed 3c 7f f9 5b 3c e3 f9 59 bd 9c 3d 1d 3d
       0.029030267 0.013426184 -0.053216826 0.038388833
0003b0 ad dc 3a 3d 42 ec ab 3c 2c 05 e5 3c 82 75 0e 3d
       0.04562061 0.02098668 0.027956568 0.034780033
0003c0 ae b6 7d 3c 5b 82 95 bd 06 df 52 3c 5b bc 84 bd
       0.015485449 -0.07300254 0.012870556 -0.064812385
0003d0 fb c0 58 bd 0a 7b 2b 3c 6e 53 06 bd 3a 97 5c 3b
       -0.052918416 0.0104663465 -0.03279441 0.0033659474
0003e0 ea 52 39 bd 82 0e cc 3c 69 f9 f3 bc 9c 23 b4 3b
       -0.04524509 0.024909262 -0.029782014 0.005497409
0003f0 05 38 51 bd 10 f0 13 bd 8a f0 3a bd 82 ec 6d bc
       -0.051078815 -0.036117613 -0.045639552 -0.01452172

l2.bias f4 [300]
000000 78 4e 11 bd e9 a6 1a 3d 27 b7 b1 bd 23 e7 98 bd
       -0.035475224 0.037756834 -0.08677512 -0.07465961
000010 1f 28 75 3b 19 2a 2e bd 8a 4c 92 bd 58 97 51 3d
       0.0037407947 -0.042520616 -0.07143505 0.051169723
000020 a7 78 66 bc 4a 24 1e bd 2e 73 a0 bd fb 5a eb bc
       -0.014066852 -0.038608827 -0.07834469 -0.028729906
000030 6d 93 02 bd fe de 8b bc 66 e4 f2 bd 8d fd 1b bd
       -0.031878877 -0.017074104 -0.1185997 -0.0380836
000040 7e c1 e8 3c 7f a8 a7 bd cb b6 4e 3d 06 26 b3 bd
       0.028412577 -0.08186435 0.050467294 -0.08747487
000050 06 4c 96 3d 2c 99 5a bc ac c5 de bd 7c 12 a8 bc
       0.07338719 -0.013342183 -0.10877547 -0.020516627
000060 e9 63 8d bd ac 79 f8 3c 5e c3 34 bd fd 63 a1 3d
       -0.06903822 0.030331455 -0.04413163 0.078803994
000070 a8 ae bb 3c 98 7e 76 bd fb 26 90 bd e4 19 0e bc
       0.022910431 -0.060179323 -0.07038685 -0.008673165
000080 69 6d 65 bd 7e c0 a1 bd d1 28 28 bd 6f a7 ab bd
       -0.056012545 -0.07898043 -0.04105455 -0.08381545
000090 74 58 ee bc 00 f5 88 bc d8 75 b4 bc 20 08 0c 3d
       -0.029094912 -0.016718388 -0.022028849 0.034187436
0000a0 91 98 11 3c c4 e3 d6 bd 4a ed 2c bd 00 03 09 3e
       0.008886472 -0.104926616 -0.042218484 0.1338005
0000b0 4e e1 a9 bb cf 87 39 3d 30 8a 99 bd d0 36 1d bd
       -0.005184329 0.045295533 -0.0749706 -0.03838235
0000c0 27 cd 30 bd 49 a5 38 bd b0 af 24 3d 31 6b a7 bb
       -0.0431644 -0.045079503 0.04020661 -0.0051092138
0000d0 d2 e7 c7 bc dc 79 fb bc 82 90 1f 3d 85 8a 85 bd
       -0.024402533 -0.030697756 0.038956173 -0.06520561
0000e0 f0 1d 54 bd 74 7e a2 bc fc 4f e7 bc 2c 29 6b bd
       -0.051786363 -0.019835688 -0.028236382 -0.05741231
0000f0 1f 78 27 bd 4c 18 da 3c 88 96 40 3c 86 51 d1 bd
       -0.04088604 0.026622914 0.011754639 -0.102206275
000100 bb a6 e3 bc 70 cf a6 bd 39 96 41 bd d6 8c 9e 3c
       -0.027789464 -0.08145034 -0.047262404 0.019354265
000110 b5 6d 2c 3d d6 d3 39 bd 4f a1 90 bd 87 eb 2c be
       0.042096812 -0.045368038 -0.07062017 -0.16886722
000120 2e 4e 63 3d 4e d1 e0 3b 25 62 69 bd 5d 75 cb bd
       0.05549448 0.0068608886 -0.056978364 -0.09934495
000130 9a b2 3e bb 50 2b c8 bc 87 fb c4 bd 97 3d 03 bd
       -0.0029098154 -0.024434716 -0.096182875 -0.03204116
000140 46 0c 18 bd 69 c8 42 bd 3b af 2f 3e 9c fb d9 bc
       -0.03712108 -0.047554407 0.17156689 -0.026609235
000150 bf 9b 89 3d 50 dd 04 3a 9e 7f 9a bd 23 ae 53 bd
       0.06719159 0.00050683785 -0.07543872 -0.05167974
000160 8f 00 3f bd d4 3f 14 bc 2c ac 03 bd c3 8a 8b 3c
       -0.046631392 -0.009048421 -0.032146618 0.01703394
000170 ac 01 20 be 7b 97 20 bd df d7 b2 bc 3b 32 1b bd
       -0.15625638 -0.039206963 -0.021831451 -0.0378897
000180 6c c8 44 bd cc 21 39 bd 72 be 2a be 9c 00 9e bd
       -0.0480427 -0.045198247 -0.16674212 -0.0771496
000190 11 2f 21 3c 34 59 45 bd 04 52 61 bc 9e 3a 80 bc
       0.009837882 -0.048180774 -0.013752464 -0.01565295
0001a0 9f 06 a4 ba 49 74 7e bd b1 b1 96 bc d8 b5 93 3c
       -0.001251418 -0.062122617 -0.018395277 0.018031046
0001b0 32 f6 f3 bc bd 2d 9a bd 5a 53 fd bd 64 39 bb bb
       -0.029780481 -0.07528255 -0.12369414 -0.0057136286
0001c0 68 5d 96 bd 1f 48 10 bd 73 4f 37 be d0 18 bb bb
       -0.073420346 -0.03522503 -0.17901401 -0.005709745
0001d0 1b 07 4b bd 9c 4b 5f bd 20 65 6d bd 90 1a d3 bd
       -0.049567323 -0.054515466 -0.05795777 -0.10307801
0001e0 bf 6e 55 bd f4 14 0f be 09 57 2e 3d 61 87 57 3d
       -0.05210757 -0.13972837 0.042563472 0.05261934
0001f0 da c4 23 bd b2 6e 1b bc 12 be 9e bd 6f 6d c5 bd
       -0.039982654 -0.009486841 -0.07751097 -0.096400134
000200 57 10 9a 3d 6e 72 73 bc b3 80 68 bd aa f7 7c bd
       0.07522648 -0.014858825 -0.056763362 -0.06175963
000210 c9 5b ed bb 58 a1 27 bd f0 27 3b be f1 c8 21 bd
       -0.0072436077 -0.040925354 -0.18276954 -0.039498273
000220 fe 2d bd bc a7 ef 41 bd fd 58 c8 3d 4d e8 3a bd
       -0.02309322 -0.04734769 0.09782598 -0.045631696
000230 7e ae 09 bd df 78 32 3c 8a 90 41 3a d2 80 5b 3c
       -0.033613674 0.010893076 0.0007383904 0.013397412
000240 87 e1 92 3c e9 10 36 bc e3 e5 be 3d 4f 2b 61 bb
       0.017929805 -0.01111243 0.09321191 -0.003435809
000250 f5 34 18 bd 1b 29 eb bc e1 32 78 3d 31 3a 14 bd
       -0.03715988 -0.028706124 0.060595397 -0.03618831
000260 f4 f0 8a bd 77 b6 53 bd 1e 9b a6 bc 70 5b 43 bd
       -0.067842394 -0.051687684 -0.020337638 -0.047694623
000270 be 79 b3 bd 13 7b 0e bd b2 ed 04 be 74 f1 2e 3d
       -0.08763455 -0.03478534 -0.12981299 0.042710736
000280 8a e4 0a 38 4d 33 30 bd 09 f0 a3 bd 6d f3 89 bd
       3.3114608e-05 -0.043017674 -0.080047674 -0.06735883
000290 b6 ce 82 bd 6c 72 20 ba de 31 79 bd 32 39 d3 bb
       -0.06387083 -0.0006120566 -0.060838573 -0.006446027
0002a0 d7 c1 a6 3c a9 8c 01 bd 88 84 5d 3d d0 77 3b 3e
       0.020356102 -0.031628285 0.05408147 0.18307424
0002b0 e5 e3 b4 bd 2b e8 68 3c e4 2f cc 3d 6d ff ff ba
       -0.0883253 0.014215509 0.09970072 -0.0019531079
0002c0 ff 13 ed bc 3f 4f 9b 3c 29 ca 46 bd 2b 9e 49 bd
       -0.028940199 0.018958686 -0.04853264 -0.049223106
0002d0 a4 9d 98 bd aa c9 62 bc da 6b 07 be 27 83 92 bd
       -0.074519426 -0.013842026 -0.13224736 -0.071539216
0002e0 12 91 73 3c c0 83 20 bd d9 bf 8e 3d 4f b9 f8 bd
       0.01486613 -0.039188147 0.06970186 -0.1214472
0002f0 56 6c 60 bd 0f c8 63 bd a1 9d 24 bc d8 97 2a bd
       -0.054790817 -0.055610713 -0.010047347 -0.041648716
000300 48 98 f3 bd 93 b6 13 bd 92 31 a2 bd eb 71 95 bd
       -0.1189428 -0.03606279 -0.07919611 -0.07297119
000310 41 5b 26 bd a5 3c ac bc 15 1e 42 bd 54 5b 99 bd
       -0.04061437 -0.021025011 -0.04739197 -0.074881226
000320 2e 7f f3 bd 18 b8 10 3a 53 c2 7f bc e4 51 3a bd
       -0.11889492 0.0005520596 -0.015610295 -0.045488253
000330 69 0f 6b bc d5 52 4c bd 49 12 a0 bd 77 46 18 bd
       -0.014346936 -0.049883682 -0.078159876 -0.037176576
000340 c3 ee 2a bd 24 67 db 3d 31 0a 12 bd b1 3b ed bd
       -0.041731607 0.10713032 -0.03565425 -0.11583651
000350 76 75 2a 3e cc d7 b6 bc 2f c0 10 3d 2c ac 75 bd
       0.1664637 -0.022319697 0.03533953 -0.05997865
000360 3a db ed bd a2 9f 07 bd 25 ee f7 3b f0 71 1b bd
       -0.1161408 -0.033111222 0.007566231 -0.037950456
000370 a3 76 05 3b 2c 79 e9 3b fe 4d b4 bd e9 11 2a bd
       0.0020364902 0.0071250405 -0.08803938 -0.041520987
000380 b7 e6 f3 bc c2 b7 87 bd b0 39 73 3d 8e 7c cc bd
       -0.0297731 -0.06626846 0.059381187 -0.099846944
000390 fa 05 3c 3d 5f ae f8 bc 1a 5f d4 bd 39 b7 a7 bb
       0.045904137 -0.030356584 -0.10369702 -0.0051182774
0003a0 43 e4 10 bd a5 d5 f7 bc 80 20 00 3d 90 53 8b 3d
       -0.035373937 -0.03025324 0.031280994 0.06803048
0003b0 da e1 bf 3d db ab 2d bc ef f9 37 3d be 59 41 3b
       0.0936925 -0.010600056 0.04491609 0.0029502953
0003c0 cd e5 84 bd 3b 16 9a bc c4 2f 08 be 90 d1 1f bd
       -0.064891435 -0.018809428 -0.13299471 -0.039018214
0003d0 57 c5 3c bd d0 a8 b4 bd fc b0 9f bc 0f f9 d2 bd
       -0.046086635 -0.08821261 -0.019493572 -0.103014104
0003e0 b3 fb 4d bd 1b a2 30 bc a2 13 83 3c 37 70 60 3d
       -0.050288867 -0.010780836 0.016000573 0.054794516
0003f0 6f 2a fb bc f9 45 71 bd 4c 51 65 bd be 4b 9b bd
       -0.030659882 -0.05890462 -0.055985734 -0.07582806

l3.weight f4 [4, 300]
000000 41 95 1b bd 6b b2 6a bc fc 2a cc bc ab 73 2f bc
       -0.037984136 -0.014324765 -0.02492284 -0.01070873
000010 be 31 d9 3c 2d de 02 3c a7 49 0b 3d 4c 6c 9b bd
       0.026512977 0.007987541 0.034005787 -0.07589015
000020 0b a7 16 3b 9e a2 0e bc 26 f1 cc 3c 20 92 11 3e
       0.002298775 -0.008705763 0.025017332 0.14215899
000030 4e c1 31 bd 7c 09 8a bb ce 22 1a bd 62 2e 93 bc
       -0.04339724 -0.0042125564 -0.03763085 -0.017966453
000040 14 b4 2f 3d b0 03 a4 bc f4 85 fc bc 11 74 1e 3b
       0.042896345 -0.02002129 -0.030825593 0.0024178068
000050 4d 11 c4 3c e9 2f 63 bd 12 e2 9a bd 9e 4e 39 bd
       0.02393403 -0.055465613 -0.07562651 -0.04524099
000060 75 d6 47 bb d0 c4 4b 3b 77 2a 0d bd 2d 9f ea bd
       -0.0030492817 0.0031092651 -0.034464326 -0.114561416
000070 de 1d bd bc c5 ee bd 3c b0 89 4c 3c 67 46 e1 bc
       -0.02308553 0.023185143 0.012483999 -0.02749939
000080 46 97 e9 bc 3b 50 01 3d 13 4e 4f 3e ce 5b 11 bd
       -0.028514516 0.031570654 0.20244627 -0.035487942
000090 06 9f 16 3a a1 33 e3 3c e0 d8 c7 bd 8b d5 c2 3c
       0.0005745742 0.02773458 -0.097581625 0.023783466
0000a0 e6 1b 23 3c ce 99 7c 3d 36 2a 2c 3e 0d 30 df 3d
       0.009955382 0.061670117 0.16812977 0.10897837
0000b0 20 a5 d5 bc 26 4b 6a be 52 93 f5 3c 55 9f ce bc
       -0.026079714 -0.2288023 0.029977474 -0.02522246
0000c0 2c 0c cb 3d 22 01 cd 3c a4 96 4b bd 64 07 09 3c
       0.09914431 0.025024954 -0.04970421 0.0083635785
0000d0 b8 9e c3 3c c4 37 ef bb 04 de 15 bd 1c a4 a9 3c
       0.023879394 -0.007300349 -0.036588684 0.020708136
0000e0 e6 ec df 3c 06 95 c0 bb b5 e5 ae 3b 0a b0 0d 3d
       0.027334642 -0.00587714 0.005337442 0.034591712
0000f0 71 d7 ff bd b6 e5 d4 3c e1 7f 83 3c 05 93 98 3b
       -0.12492264 0.025988441 0.016052188 0.004656198
000100 c5 bd b6 3c 42 d1 22 bd b1 9c 66 bd fc 0a 50 bd
       0.022307286 -0.039750345 -0.056301776 -0.050791726
000110 a9 ca 4f 3c 76 fb 42 bc 01 33 dd bb 0b d1 81 bd
       0.012682595 -0.011900773 -0.006750465 -0.063387
000120 4c b9 ed be 6b 6b cf bc 47 30 46 3d a9 7d 5c 3d
       -0.46430433 -0.025319776 0.048385885 0.053830776
000130 ec 68 ff 3c 22 e5 48 3e 49 37 f1 3b d2 7d 40 3d
       0.03117796 0.19618657 0.007361327 0.04699499
000140 83 85 24 bd 7a 6d 65 bc bc 78 17 3e dd 4b 15 3c
       -0.04016639 -0.014003152 0.1479215 0.0091123255
000150 84 ba b6 be 54 6f 74 3c 8a cd fe 3c 9c 70 4c 3c
       -0.35689175 0.014919121 0.031103868 0.01247802
000160 06 86 1b bc 35 e4 8b bc 8e 50 76 bc fd 89 8f bd
       -0.009492403 -0.017076591 -0.015033854 -0.07008741
000170 6e c7 42 3c cf 08 67 3c 5b 4c e6 bb 42 4e 44 bc
       0.011888368 0.014101221 -0.0070281452 -0.011981549
000180 8c 9b 60 bd e5 30 84 bc 35 66 ee bd 8f 0c a6 bb
       -0.05483584 -0.016136596 -0.11640588 -0.005067415
000190 34 63 10 bb 03 48 66 3d c7 56 1c b9 df 97 22 3d
       -0.0022031786 0.05622102 -0.00014909646 0.039695617
0001a0 9b 27 b2 3c 10 8c 94 bd ed 28 d9 bb 40 54 8f bc
       0.021747401 -0.07253277 -0.006627193 -0.017496228
0001b0 99 7d 14 bc 46 12 c3 b9 72 82 84 bc 00 a1 a6 3c
       -0.009063148 -0.00037206913 -0.016175482 0.020340443
0001c0 ca 6c eb 3b 74 5a 33 3c ea b8 55 3d e1 ad 15 be
       0.0071845995 0.010946859 0.0521783 -0.14617111
0001d0 fb 6b 90 3c 3e c8 1e bd 8a 0d fd 3b d9 19 f3 3e
       0.017629614 -0.038765185 0.0077225612 0.47480658
0001e0 fd eb b2 3d df 25 a0 be a8 c6 38 3e 1c 55 22 3c
       0.087364174 -0.31278893 0.18044531 0.009907987
0001f0 9e b3 33 3d a3 d5 d9 bc 4a ac 96 3c b0 4a 63 3d
       0.04387247 -0.026591128 0.0183927 0.05549115
000200 4f 89 0f 3e 89 1c 22 3d 6f 90 be 3c cd bb d7 3b
       0.14017223 0.039577994 0.02326223 0.006583667
000210 ad cd 20 bb 08 86 c5 bb 39 66 18 3e 90 87 d9 3c
       -0.0024536655 -0.0060279407 0.14882745 0.026553899
000220 2a 54 26 bc 1e 77 58 3c c7 c5 86 3b 88 7e 02 3d
       -0.010151902 0.0132119935 0.0041129324 0.03185895
000230 77 cf 33 bd ca e3 cf 3b de f9 e2 39 fc f3 d1 bb
       -0.043899026 0.0063442932 0.00043292245 -0.006407259
000240 31 23 ab bb 93 e1 fa bc 6b ce 23 be cb 7b 8d 3e
       -0.005222701 -0.03062514 -0.15996711 0.2763351
000250 1f 06 10 3d 3d 29 35 bc 49 a6 8e 3d d5 e5 bd 3c
       0.035162088 -0.011057195 0.0696531 0.023180882
000260 07 5a 6b bd c5 fb b4 3c 07 25 aa 3d 21 01 ad 3c
       -0.057458904 0.02209271 0.08307844 0.021118702
000270 e2 88 0a bc 93 86 fd bc b7 71 cb be 1e 83 46 be
       -0.008455487 -0.030947959 -0.39735195 -0.19385955
000280 7f ce 04 bd c5 11 8a 3d a4 54 ba bc 87 bc 9b 3c
       -0.032423493 0.067416705 -0.022745438 0.019010795
000290 e5 c7 71 3d 4e 16 cf bc 74 b0 80 3d 22 fe dd 3d
       0.059028525 -0.02527919 0.06283656 0.108394876
0002a0 44 33 ce 3d 43 5f 94 bd 9e e7 4f bc 10 d7 2a be
       0.10068372 -0.07244732 -0.012689499 -0.16683602
0002b0 3f 70 f7 be 18 bf 07 bc ae 73 6a be eb 37 32 bd
       -0.48327824 -0.008285306 -0.22895691 -0.04351036
0002c0 44 e0 b8 3a 56 5d 6f ba 79 d7 ca bd 04 5a 04 bc
       0.0014104922 -0.00091310346 -0.099043794 -0.008078102
0002d0 e3 89 89 3c bf 52 4d 3b a1 17 3e 3c 8a 3f 42 3d
       0.016789382 0.0031329838 0.011602313 0.047423877
0002e0 45 ff df 3e 2a 11 a4 3c bb e7 27 bf 5a 76 b7 bd
       0.43749443 0.020027716 -0.6558797 -0.08958121
0002f0 cc 13 b6 bc 33 53 94 bd 29 13 c1 3b 51 aa 8c 3a
       -0.022226237 -0.072424315 0.0058921766 0.0010731911
000300 e4 73 cd bc 46 3a 83 3b b1 40 49 bd c5 c0 78 bd
       -0.025079675 0.0040047495 -0.04913396 -0.060730714
000310 2a e6 18 3d 54 ad 7f 3d ba cb 3a 3e 5c d0 0a 3d
       0.037328877 0.062421158 0.18241778 0.033890113
000320 58 bb a1 3e 0b e6 bf 3c 7e aa cd bc 25 d6 7f bb
       0.31588244 0.023425123 -0.025105711 -0.0039037552
000330 ec 66 b3 3c 49 5c c6 bb 6d 57 a1 3d 1c a7 cd 3c
       0.021899663 -0.0060534817 0.07878003 0.025104098
000340 31 ff 39 3d 5f 98 ae 3d be f9 83 bc 25 30 ed 3d
       0.045409385 0.08525156 -0.016110297 0.115814485
000350 a4 a2 48 bd f0 7f 0c bc 1e 2c 06 3d bc d7 bf bd
       -0.04898323 -0.008575425 0.032756917 -0.0936732
000360 c8 3d a2 bc 39 58 41 3d e0 2e 80 be 8a 4c a6 bc
       -0.01980485 0.047203276 -0.25035763 -0.020300169
000370 40 5a 91 bb 3e dd e2 bd 8d eb db 3c 08 72 c7 bb
       -0.0044358075 -0.11077355 0.026845718 -0.0060865916
000380 8a 5c d1 3c 12 e2 53 3d 8a 51 55 3c 07 a0 86 3d
       0.025556821 0.05172927 0.013019929 0.065734915
000390 6c 03 48 be 1a 53 10 3d b9 f1 04 3d df ff 7a 3c
       -0.19532555 0.0352355 0.032457087 0.0153197935
0003a0 34 c0 fb ba c9 de 1d 3d 4b 63 39 bd 25 25 01 3e
       -0.0019207061 0.038542543 -0.04526071 0.12611826
0003b0 dd 5b 07 bd 42 53 d5 3c ae 28 97 3d 46 5e d7 3c
       -0.033046592 0.026040677 0.07380806 0.02629007
0003c0 a9 b8 17 3d 33 ec 16 3c 0a d1 37 bc dc 0b 19 bd
       0.03704134 0.009211588 -0.011219272 -0.037364826
0003d0 03 05 92 bc 50 73 81 bd ac 12 9d 3d 8d f0 db 3c
       -0.017824655 -0.06320822 0.07669577 0.026848102
0003e0 6c 3d 05 bd 04 d4 64 ba 36 be 79 bc 67 c0 f1 3c
       -0.03252928 -0.00087291026 -0.015243104 0.02951069
0003f0 82 e8 23 3c 63 6b 1e bd a5 ab 15 3b 54 4c 5e ba
       0.010004165 -0.03867663 0.0022837904 -0.00084800017

l3.bias f4 [4]
000000 41 93 2e bd 33 b4 2e 3d e3 bf 17 3d ae 8e 07 bd
       -0.0426209 0.04265232 0.03704823 -0.033095054
