TD3-conf1/preTrained/TD3_BipedalWalker-v3_0_critic_2_target_ep200.pth (torch_old, 529770 bytes, 5 tensors)

l1.weight f4 [400, 28]
00000000: 9b3c 61be 5fd8 2abd da90 54be b055 bf3d
00000010: b94f d6bd 139e f3bb 0bf3 6c3e 29e6 de3c
00000020: c922 4bbe 196d 5b3e a000 363e 0190 5a3e
00000030: 1a84 ec3d 14c9 f0bd e591 07be 9fca a5be
00000040: c8e7 bfbe c809 b2be 7670 11be 8643 9fbd
00000050: 9010 b1be 5fca 24be b87b bebe 5fb7 a3be
00000060: 4d7c 9e3e f021 b83b 6c68 0d3e c92d c53c
00000070: ba18 d7bd 971f 19bf 1657 753d bc86 7b3e
00000080: b534 0f3f 99b0 853e acbe f8bd 758d 153e
00000090: 70e5 b6be c95a 313f 34b3 1cbd 1d1a 50be
000000a0: 88f7 223c 7394 82bd ac43 4e3e a028 013e
000000b0: 6977 bbbc 3caa 88bc 46f5 a73c 51f5 513e
000000c0: f64e b43d 7e8a 853c 2569 c2bd f4e4 543e
000000d0: 7189 0a3e 2b06 bb3d 7e07 b7bd 0a43 5c3e
000000e0: 35f3 28be 0527 1c3d 92de 4abe 6c40 32bf
000000f0: f437 89be db64 95be da4b e23d 0aae fc3d
00000100: 0584 d33e ba16 97bc ca61 57be 5c20 803e
00000110: fa72 82bd 44a7 8f3d b0d4 a5be 1668 edbe
00000120: 29bc 41be 141d 1cbe 7c3c 23be 808d eabd
00000130: 4a8d 6cbe 1aee 83be 8a08 c1bd d190 2ebe
00000140: 2faa 843e f7cf 253e 6a61 c03e c0f1 663e
00000150: 9968 04bc 057c 873e deb0 223f 39c1 5abe
00000160: b469 1c3d a5ba e5bd 069a 7e3e 3082 193e
00000170: 5e10 91be a072 683e d2f2 aebb c90f f2bd
00000180: 66f4 9a3e ad6b 01be 8291 63be 024d 64be
00000190: 65c0 eebd aa15 c0be 499a 51be 1ec4 27be
000001a0: bc16 f0be ccd8 e7be 48d1 b0be d8fa 3dbe
000001b0: 4f52 a53e c615 313e 2c7e 6e3e 4116 c5bb
000001c0: f305 f7bd 8f7e 333e d5c1 2b3f d55c 3abe
000001d0: 7687 d0bd f5ce 94be 65d7 7a3e dd51 1d3d
000001e0: c5d5 90be b0c7 a3bd c696 273e 3bf6 96bc
000001f0: 4661 193e 55bf 14be 90ab 1ebf 4279 dfbe
00000200: 247d 26bf 9382 c2be dfa7 acbe b9c4 12bf
00000210: d1ac a3be 723e c2be 29ac 21bf d606 f9be
00000220: 0ca3 8c3e a937 803e d913 173e cce5 adbd
00000230: 3bc2 95bd 942d 233e e2e7 09be 305e 29bf
00000240: 9be8 95be a4c6 85be 062c 94bd e4ae 30be
00000250: 7e9d 45be 9246 4a3e 28c2 383f 2b7d 783d
00000260: ee0e d73e ec47 f5bd 7239 44be f54b 11be
00000270: 808e acbe 54ea 5fbe ccfa bebe f84e 5bbe
00000280: 96c6 4dbe 06ca 82be 7bb5 7bbe 403c a33d
00000290: 7dfd f9bd 9741 003e ee13 8c3e 6a9f 693d
000002a0: 8f17 b3bd d49e dcbe ebb0 41bf 152d 9bbd
000002b0: be13 043f d489 2ebe d99d 15be 7300 3abe
000002c0: f065 1ebf 5745 043c fe68 133f a4bd 93bd
000002d0: 290e 073e 1617 1ebe ff3c 99be 0103 123c
000002e0: 7d06 803b 43bd abbe 72ef 52be b926 a4be
000002f0: 7c45 7cbd 8bda 02be eb8c 7ebe 0c33 2abd
00000300: 1d6b 9abd 8db9 1bbe a1c2 583e 85be ba3d
00000310: cb39 753d 4d77 8a3d 317f 4fbd 20a6 c2bd
00000320: 2a4d 6bbc 2e56 a8bd ba20 e23d 2688 ab3d
00000330: a7f1 a83d 8b35 fd3d 5557 84bc 2e9a a53d
00000340: 1032 ba3d c92e c93d e6c9 9fbe 7ff2 a2bd
00000350: 3e7c 0bbe 2fc8 2ebe d9bd c0bd b0c5 bdbe
00000360: b1d9 c2bc 8199 4ebe 07af 24be 3fd0 afbe
00000370: d2ba d03d 3e3f 11bd 8627 133e f886 b93a
00000380: 5d43 15be 9d54 8f3d 7345 e2bd 5f21 bcbd
00000390: c593 9bbd 75e9 1abe 9cae 003e 9a1d 623e
000003a0: 519d d7bd b8d1 b83c cd88 1e3e 96cc 173e
000003b0: ff00 2b3d 0502 133e 5d6b 86be 29d9 43be
000003c0: b138 48be f1d3 c4be 6792 22be 0fc8 a1be
000003d0: 912e c5bd cf53 abbe b92d 4bbe b795 a9bd
000003e0: c83c 4fbd 6895 c7bc 69d0 523e 44dc f83d
000003f0: 7dbb 42be 119c 47bf 28d4 df3e 8e4c 2abf
-0.21995775 -0.041710254 -0.20758381 0.093425155 -0.10464425 -0.0074346154 0.23139589 0.027209358
-0.19837488 0.21428336 0.17773676 0.21343996 0.11548634 -0.117571026 -0.13239248 -0.3238115
-0.37481523 -0.34773088 -0.14203057 -0.07776551 -0.3458295 -0.16092823 -0.37203765 -0.3197584
0.3095421 0.00561928 0.13809365 0.024069684 -0.10502763 -0.5981383 0.059897505 0.24563116
0.559398 0.26111296 -0.12145743 0.14604743 -0.35721922 0.6927915 -0.03825684 -0.20322461
0.009946711 -0.06375971 0.20143002 0.12613153 -0.022884088 -0.016682737 0.020502698 0.20503737
0.08804123 0.01630139 -0.09492711 0.20790464 0.13528992 0.09132036 -0.08936976 0.21509948
-0.16499026 0.03812315 -0.19811466 -0.6962955 -0.268005 -0.2917851 0.11049624 0.12337883
0.4131166 -0.018443454 -0.21033397 0.25024688 -0.06369586 0.07014325 -0.3238883 -0.46368474
-0.18919434 -0.15245467 -0.15941042 -0.1145277 -0.23100773 -0.25767595 -0.09425457 -0.1704743
0.2591109 0.16192614 0.3757432 0.22553158 -0.008081579 0.26461807 0.6355113 -0.21362771
0.038186744 -0.1121724 0.24863443 0.14991069 -0.283328 0.22699976 -0.005339005 -0.11819417
0.30264586 -0.12638731 -0.22223476 -0.22295001 -0.1165779 -0.37516528 -0.20469011 -0.16383407
-0.46892345 -0.4528259 -0.3453467 -0.1855272 0.3228936 0.17293462 0.23290318 -0.0060146158
-0.120616816 0.17528747 0.6709264 -0.18199475 -0.10182087 -0.29064146 0.24496229 0.03840815
-0.28288093 -0.07997072 0.16366109 -0.018427959 0.14978513 -0.14526112 -0.61980534 -0.436472
-0.650347 -0.37990245 -0.33721825 -0.57331425 -0.31967786 -0.37938267 -0.6315332 -0.48638028
0.27468145 0.25042465 0.14753665 -0.08491096 -0.07312437 0.15935355 -0.13467363 -0.66159344
-0.29279026 -0.26128113 -0.07234959 -0.17254215 -0.1929836 0.19753483 0.7217126 0.060666244
0.42003578 -0.11976609 -0.19162539 -0.14189132 -0.3370247 -0.21866733 -0.37300718 -0.21416843
-0.20095286 -0.25544757 -0.24580948 0.07970476 -0.12206552 0.1252502 0.27358955 0.057036795
-0.08744728 -0.43089926 -0.7566058 -0.07576958 0.51592624 -0.17044765 -0.14610995 -0.18164234
-0.61874294 0.0080731725 0.5758208 -0.072139055 0.13188995 -0.15438494 -0.2992935 0.008911849
0.0039070235 -0.33542833 -0.20599154 -0.32060793 -0.061589703 -0.1277868 -0.24858443 -0.04155259
-0.075399615 -0.15207501 0.21167995 0.0911837 0.05986957 0.06761036 -0.05065841 -0.09504342
-0.014361659 -0.082195625 0.11041398 0.08375578 0.082492165 0.12363728 -0.016154924 0.08086048
0.0909158 0.09823377 -0.31208724 -0.07956409 -0.13621613 -0.17068551 -0.094112106 -0.37064886
-0.023785444 -0.20175745 -0.16082393 -0.34338567 0.10191883 -0.035460703 0.14370546 0.0014154604
-0.14576478 0.069985606 -0.11048403 -0.091860525 -0.07596544 -0.1512812 0.12566608 0.22081605
-0.105280526 0.02256094 0.15481873 0.14824137 0.041748997 0.14356239 -0.26253787 -0.19125809
-0.19552876 -0.38442948 -0.1587616 -0.31597945 -0.096280225 -0.33462378 -0.1984166 -0.08280509
-0.050595075 -0.024363235 0.20587315 0.12151387 -0.19016834 -0.77972513 0.4371655 -0.66523063

l1.bias f4 [400]
00000000: f8f8 3fbd 4a5b fabd f28b b43e 0618 d9bd
00000010: 0344 57bd 26ef 5f3e b644 4cbe 2746 b63b
00000020: 4d20 0cbe 521c 3a3e 9415 b63e fe85 99be
00000030: dfef 32bd 5843 cb3c c89b 573d 5454 7f3e
00000040: 3d58 113e caa9 5abd 6917 afbd dfb0 22bd
00000050: 47ab 093e af7b 80be 3cf7 363e 81ae f2bb
00000060: acc9 ac3e 2c34 f5bd 1e77 353d 73a6 a2bd
00000070: a81f 32be 8588 563e 2e88 2fbe cea8 dcbc
00000080: 7b74 18bb 5bc2 6bbe b7be 1fbe 6272 3abe
00000090: 4fa2 e5bd 0a85 5dbe b7f2 593e 6757 333e
000000a0: ac0c 213e 4bf1 d23e 7963 9fbc 1ddf 6bbe
000000b0: 11dc 853d 7cc6 1b3e bbac ecbd eed9 9b3d
000000c0: 7655 dc3c 0ca6 2b3e d5d9 253d 361a 5f3e
000000d0: 7331 bcbd 0499 10be a72b e63d ee00 b1bd
000000e0: cd04 02bd 10a4 843d dab0 813e 0c3e 9d3e
000000f0: 43df 833e 01ea 973d 7859 32be 78f0 36be
00000100: 33e8 cabc ea1f aa3d fd5b fe3c 654c f03d
00000110: f83f 30bd 6977 ddbd 5af2 38be 379e bc3d
00000120: 9080 c03e 3e43 06be 6d6b 28bd e8d3 cbbd
00000130: ef45 4c3e df34 a43e febd 323e d422 7abe
00000140: b332 53bd 3b18 ea3e d1e7 20be b0ce 29be
00000150: c50b 49bc 7832 523e a598 2fbd 69cf 29bc
00000160: f1de aa3d 89d6 7d3e 7f4b 50be e278 1bbe
00000170: b731 29bc d141 d23e 9cba ccbd 15e2 09bd
00000180: 64d7 edbd d07e 0a3e c72e 6bbe 069c 983e
00000190: 40e6 3cbe 36c9 aa3c dd04 a93e e6c5 063e
000001a0: 43a8 183c d446 74be a4b8 a93d 4c4b 123e
000001b0: cf32 6b3d 76a2 89be d4de d63e ce79 94be
000001c0: 51c5 273e 5d22 793d 7eba 08bd 2a98 aa3e
000001d0: 1000 7c3e dca4 1bbe 6fbf 1c3e 0319 9a3c
000001e0: c360 65bd 71a3 e73b ffd1 823d 6498 bc3d
000001f0: 41d0 653e e5a8 163d 1a6c bc3e 3768 30be
00000200: bb85 e6bd 856a 0cbe b31d a1bd 9e7b 15be
00000210: 21dd 7dbe 76a4 eb3d 5065 cc3d b347 6bbe
00000220: 6152 9dbe a693 04be a56a 6bbe 7888 d9bc
00000230: a8b8 4f3d c65c 26be 226e 103d 681f 26be
00000240: d6d4 093e 5276 d1bd 9bf1 07bd 8775 9a3e
00000250: c3b7 ce3e 50c6 e63d 7e0c 1c3e eb45 76bd
00000260: 599f a0be fba5 eabd e590 03be fa3c 56be
00000270: 5cc1 0bbd 4a87 253c 9df0 0ebc eb3a 333d
00000280: 22e6 ed3d ffa2 513e f0b8 c0bd f658 28bd
00000290: 0daf a3bd 4faa 86bd d96f e63d 31d4 45be
000002a0: 527e f7bd c873 f93d fe46 97bd 117c a73c
000002b0: 1ab8 47be 156b 08be 6941 773e a8a2 5c3e
000002c0: 28b2 123e 7d70 09be a85d b0be 9d8b 6abe
000002d0: fcf6 bc3c 6fe0 6d3e 0fe4 2dbe c764 27be
000002e0: 0441 5bbe c981 26bd aa5e a03c dba2 7cbe
000002f0: c253 9cbd b3f4 e3bd 1248 56be 9d60 0dbe
00000300: be0a a43c f6cc 28bd 1576 f2bd 1e63 af3e
00000310: d3b6 223e e103 893e 1bfb f6bd ae39 46be
00000320: 1247 cabd c77b 3fbe 4880 da3c 7263 2f3e
00000330: 0d9e 5ebe 98f1 643d 9a99 5ebd b8f1 533e
00000340: b8d8 adbd e486 f33d 4634 55bd eed3 92bd
00000350: f8b4 b7bd d5bd 4cbe 8925 5b3d e6d8 283d
00000360: a5a4 87be be31 69be 99aa 363d e0e4 553e
00000370: d66c 5a3e 12f8 6e3e 7812 dcbd 2a67 86bd
00000380: 3b5d a73d 9702 45be ae22 a23d 3f7b a83d
00000390: cce1 803e 9f3f c13e 0d31 04be 5381 75bd
000003a0: 5a5a aa3d 64b6 09be 06b0 a03e b5df 8cba
000003b0: 5cf9 9e3e 0c5a ce3e 2934 a0ba 3a40 b33e
000003c0: 28bd e83e a1d9 b3bb 2052 eebd fbf3 763d
000003d0: 5634 e2bd bb8c a83e 4806 e7bd adfe 81be
000003e0: 6bc7 c43e c5a3 0d3e 000f 9f3e 8294 d3bc
000003f0: 94a9 c93e cfbc a6bd ff50 26be efee 2fbe
-0.046868294 -0.12224443 0.3526302 -0.10600285 -0.052555095 0.21868572 -0.19948086 0.005562562
-0.13684197 0.18174866 0.35563338 -0.2998504 -0.04368579 0.024812385 0.0526388 0.24934512
0.14193816 -0.05338458 -0.08549387 -0.03971946 0.13444243 -0.25094363 0.1786775 -0.0074060564
0.33747613 -0.119728416 0.044303052 -0.07941904 -0.17394888 0.20950516 -0.17141792 -0.026935961
-0.0023262787 -0.2302336 -0.15600096 -0.18207696 -0.112125985 -0.21632782 0.21283995 0.1751381
0.1572749 0.41199717 -0.019456612 -0.2303433 0.06536115 0.15212435 -0.11556383 0.07609926
0.02689622 0.1676256 0.040490944 0.21787342 -0.09189119 -0.14120871 0.11238795 -0.086427554
-0.03174286 0.06476605 0.2533024 0.307114 0.25756273 0.074176796 -0.17416942 -0.17865169
-0.024768924 0.083068684 0.031049723 0.11733321 -0.043029755 -0.10813791 -0.180612 0.092098646
0.37598085 -0.13111588 -0.041118074 -0.09952527 0.19948553 0.32071587 0.17455289 -0.24427348
-0.051562022 0.4572161 -0.15713431 -0.16582751 -0.0122708725 0.20527065 -0.042870183 -0.010364392
0.08343304 0.2478887 -0.203413 -0.15182832 -0.010326794 0.4106584 -0.099965304 -0.033662874
-0.11613348 0.13524938 -0.22967063 0.29806536 -0.18447208 0.020847898 0.33011523 0.1316143
0.0093174605 -0.23855144 0.082871705 0.14286536 0.0574215 -0.2688176 0.4196688 -0.2899918
0.16383864 0.060823787 -0.033380978 0.33319217 0.24609399 -0.15199608 0.15307401 0.018810755
-0.056000482 0.0070690443 0.0638771 0.09208754 0.22442724 0.036782164 0.36801225 -0.17227255
-0.11255976 -0.13712509 -0.07866993 -0.14597937 -0.24791385 0.11505978 0.09980261 -0.2297657
-0.30726913 -0.12946948 -0.229899 -0.026554331 0.05071321 -0.16246328 0.03526128 -0.16222918
0.13460097 -0.10227646 -0.033189397 0.3016779 0.40374574 0.11268294 0.1523914 -0.060125273
-0.31371573 -0.114574395 -0.12848242 -0.20921698 -0.03411995 0.010103056 -0.008724359 0.04375736
0.1161616 0.20472334 -0.09410274 -0.041100465 -0.07992373 -0.065754525 0.11251802 -0.19319226
-0.120846406 0.12180287 -0.073865876 0.020444902 -0.19503823 -0.13322099 0.24146046 0.21546423
0.14325774 -0.13421817 -0.34446454 -0.2290482 0.02306699 0.23230146 -0.16981529 -0.16347037
-0.2141152 -0.040651117 0.01957639 -0.246715 -0.07633163 -0.11130657 -0.2092593 -0.13806386
0.020024654 -0.04121109 -0.118389286 0.34255308 0.15890054 0.26760772 -0.12059613 -0.1935794
-0.09876837 -0.18699561 0.026672497 0.17127779 -0.21739979 0.055894464 -0.054345705 0.20697677
-0.084886014 0.11890963 -0.052051805 -0.07169329 -0.08970064 -0.1999429 0.053502593 0.041222475
-0.264928 -0.22772881 0.04459629 0.2088809 0.2133058 0.23336819 -0.1074571 -0.06562646
0.08172079 -0.19239269 0.07916771 0.08226632 0.2517227 0.37743852 -0.12909336 -0.059937786
0.083180144 -0.13448483 0.31384295 -0.0010747822 0.3104962 0.40303075 -0.0012222576 0.35009938
0.45456815 -0.00548859 -0.11636758 0.06029127 -0.110451385 0.3291987 -0.11280495 -0.25389615
0.38433394 0.13832004 0.31066132 -0.02582765 0.3938719 -0.08141481 -0.16241835 -0.1718099

l2.weight f4 [300, 400]
00000000: 7517 0bbd 7a95 dabb de2a 97bc 20cc 46bb
00000010: 34e2 fdbb e239 ec3b 2a5d 08bd 28f1 bfbc
00000020: c219 5cbd edd7 09bc b0e5 c03c 04e5 023d
00000030: 8ae8 fbbc 7e0b 16bd 3335 453d 392c de3c
00000040: 8eb0 a73c 2c84 1fbc e511 943c 1f20 b73b
00000050: fa96 e03b 785a 08bc 32f9 dcbc cce0 073d
00000060: 9a49 633c 3c10 ebbc 4b11 38bd 7183 473c
00000070: 7ff0 343d eef7 a53c 04ce 0a3b caba ec3b
00000080: e666 233d 6a58 e53c 4138 593c 09b6 1f3d
00000090: 875d 233d da29 82bc 5de4 8fbc 3a35 e93b
000000a0: 5e67 28bd 741f 40bc 7f41 b33c 66a9 9e3c
000000b0: d309 3e3d 1d13 03bd e17d d03c a7ba 2dbc
000000c0: ea3c babc b139 ccbc cc1a 0f3d 08ad 35bc
000000d0: 3679 1bbd 1e5d 18bd 5458 883c b07b af3b
000000e0: 6ca5 873c fb50 2ebd bcbb 0f3d 33ca 68bd
000000f0: 819d c5bc 1036 ca3c 4058 e3bb eeee 09bd
00000100: bb71 e1bc 93de 33bd 15bb 1c3b 3955 163d
00000110: ba4f c4bc 4bf0 20bd 443e 71b8 651a 04bd
00000120: acf0 083c 97e2 a4bc ab90 e6bc f8e6 423c
00000130: 0ded 1f3d b285 e93c 068c 2e3d 55df 3bbd
00000140: aca2 953b 58ff b3bc 00c5 b6ba b99c de3c
00000150: 277f 20bd 1500 05bd 978d aebc d14c c1bc
00000160: 2d09 07bc a335 f43c e318 fe3c 481d 06bc
00000170: f3e7 3bbd 21ff 48bc 3262 b43c 73e1 073d
00000180: 1b14 213d bde8 d5bc e079 6dbc 239b e1bc
00000190: 1bc4 f23b 70e4 3bbc 5b76 e7bb e777 47bd
000001a0: bebe 8d3c 0811 3bbc 5807 bbbb 6dca 85bc
000001b0: 741a feba 1e9c 12bd 1f62 3dbd 710c 373d
000001c0: 7878 4a3b 6f9b 2abd b61b de3c b63c 233d
000001d0: 1085 2dbd 65fb 34bd 4ad2 40bd d484 0b3d
000001e0: 80dc 1fbd b5c3 193d 883d 1cbc d38f 6cbd
000001f0: 2856 f0bb 70b5 cdbc ddeb 143d aa4d e0bc
00000200: e3b3 4b3d 3188 41bd b6d3 273b 86ca 153d
00000210: f05e e23b 3390 e1bc 036e 68bd a801 233c
00000220: 6130 46bc d5d5 8abc ab5a efba c5fe 9e3b
00000230: 2d79 05bd e4a8 7fbc 5e61 a93c f0b9 aebc
00000240: 4a2b d4bc 182e 70bc c366 a3bc 6254 d9bb
00000250: 9654 92bc a076 b3bc 9a3f d4bc 8984 163d
00000260: 25be 3dbd deed f53c 3035 9dbb 06ef ec3c
00000270: bf7b 3b3d c611 a03c a808 013c 7fd8 38bd
00000280: 57a1 eebc 6b96 7d3c 4236 ea3c 8287 f63c
00000290: 2af1 d4bc c7f3 24bd 0e9f 93bc 1f37 2fbc
000002a0: 908e c0bc 2b91 e8bc 2db3 31bd 6f80 3b3d
000002b0: 0c4b 883c 8409 573c e004 473b e18e 423d
000002c0: 6839 35bd a35c 7a3b 7944 143d 3fe2 acbc
000002d0: c6e1 273d e5be 0cbc 464e 943c b569 0fbd
000002e0: 253f 473d e717 c0bc aee9 1ebd ac67 0bbc
000002f0: dd40 8b3c 77c0 253d 6a64 eabc 6c68 383c
00000300: 7f7e 2dbc 4a3b e23c cbb1 e1ba 4f8e b43c
00000310: 3794 bc3c a31f 67bd 82fc 06bd 3efb f13c
00000320: 9111 4ebd c0e8 423c 071e 383c 9459 0d3d
00000330: 1071 3cbd a802 3bbd d20e 833c 8c0c 5f3c
00000340: 427f e23a fd48 9f3c 2767 a2bc 3656 83bc
00000350: 7caa fcbc 08e7 bcbc 6e6c 9dbc ac1d f5bc
00000360: a1ed 4dbd 4571 23bd 02f2 52bd 40e3 2b3c
00000370: d08d 62bb ed5c 113c 488e 37bd 4075 3abd
00000380: 458f 09bc b3f7 efbc b046 35bd 1459 0b3d
00000390: faae dcbc 4d38 08bb 7a33 b0bc 9745 21bd
000003a0: 62c5 dbbc 874d 2ebd 9d9c 03bd e0b8 77bb
000003b0: c0c7 bfbc bd0e 173d e892 38bc 9771 3b39
000003c0: a4ff 7cbc f816 003c e0c2 00bd 2ea9 2f3b
000003d0: 6a7a ca3c f6e2 99bc e216 5dbd 5e9b 993c
000003e0: 7015 f63b c86e 36bd 72b2 54bd c058 923a
000003f0: 5adb 52bd 0db6 1ebd 7436 443c 2d63 13bd
-0.033957917 -0.006670651 -0.018453058 -0.003033407 -0.007747913 0.0072090486 -0.033291973 -0.023430422
-0.053735502 -0.008413297 0.023547024 0.031956688 -0.030750532 -0.036632054 0.048146438 0.027120696
0.02046993 -0.009736102 0.018074939 0.005588546 0.0068539353 -0.008322351 -0.026974294 0.033173367
0.013872528 -0.028694265 -0.044938367 0.012177334 0.044174667 0.020259824 0.0021179924 0.0072244154
0.039893053 0.02799626 0.013258041 0.03899196 0.039884117 -0.015889097 -0.017564947 0.007116941
-0.041114204 -0.011726249 0.021881817 0.019367885 0.046396088 -0.03200065 0.025450649 -0.010603583
-0.022734124 -0.024929853 0.034937665 -0.011088617 -0.037957393 -0.03719818 0.01664368 0.005355321
0.016558371 -0.042557698 0.035091147 -0.056833457 -0.024122955 0.024683982 -0.0069380105 -0.033675127
-0.027520051 -0.043913435 0.002391522 0.03670237 -0.023963798 -0.03929166 -5.7516867e-05 -0.032251734
0.008358162 -0.020127578 -0.028145155 0.011895888 0.03904443 0.028506134 0.042614006 -0.045867283
0.004566511 -0.021972343 -0.0013944209 0.02717434 -0.039183762 -0.03247078 -0.02130775 -0.0235962
-0.008241934 0.029810732 0.031017726 -0.008185692 -0.0458755 -0.012267859 0.02201948 0.03317399
0.039325815 -0.026111955 -0.014494389 -0.027539795 0.0074086315 -0.011468038 -0.0070636696 -0.048698332
0.017302867 -0.011417635 -0.0057076626 -0.016331876 -0.0019386546 -0.035793416 -0.046236154 0.0446896
0.003089456 -0.04165214 0.027112823 0.03985282 -0.042363226 -0.04418506 -0.047075547 0.03406222
-0.039028645 0.037540156 -0.009536155 -0.05775435 -0.0073344894 -0.02511093 0.03635775 -0.027380783
0.0497321 -0.047249023 0.0025608367 0.036570095 0.00690829 -0.02753458 -0.05674554 0.009949125
-0.012096495 -0.016947666 -0.0018261274 0.0048521482 -0.032586265 -0.0156042315 0.020676311 -0.021328896
-0.025899548 -0.014659427 -0.019946462 -0.0066323737 -0.0178626 -0.02190715 -0.025909234 0.03674749
-0.046323914 0.03002065 -0.0047976 0.028922569 0.04577231 0.019539725 0.007875599 -0.04512834
-0.029129667 0.015477757 0.028590325 0.030093912 -0.025993902 -0.040271547 -0.01802018 -0.010694294
-0.02350548 -0.028389534 -0.043383766 0.04577678 0.016637348 0.013124827 0.0030367896 0.04749954
-0.0442442 0.0038202188 0.036198113 -0.021103976 0.0409868 -0.008590435 0.01810373 -0.03501292
0.048644204 -0.023448898 -0.038797073 -0.008508604 0.016998703 0.040466752 -0.028612334 0.011255365
-0.010589241 0.027616162 -0.0017219124 0.022040514 0.023019893 -0.056426656 -0.032955654 0.029538747
-0.05030972 0.011896312 0.011237628 0.034509256 -0.046006262 -0.04565683 0.015998278 0.013613831
0.0017280357 0.019443983 -0.019824577 -0.01603232 -0.030843012 -0.023059383 -0.019216742 -0.029921375
-0.05027545 -0.039902944 -0.051500328 0.010491192 -0.003456939 0.008872253 -0.044813424 -0.045521975
-0.0083959745 -0.029292917 -0.044256866 0.0340205 -0.026938904 -0.002078551 -0.021508921 -0.039373007
-0.026827518 -0.042554405 -0.03213178 -0.0037799403 -0.023410678 0.03687929 -0.011265494 0.00017876025
-0.015441809 0.007817976 -0.031435847 0.002680372 0.024716575 -0.018784981 -0.0539769 0.018750843
0.00750988 -0.044539243 -0.05192799 0.0011165366 -0.05147872 -0.038747836 0.011975873 -0.035983253

l2.bias f4 [300]
00000000: 4f0c 20bd 0c8f b6bb c887 cf3c 5f66 3d3d
00000010: d2bb 54bd 1b89 67bd cdd4 a4bd c092 cc3d
00000020: c751 26bb 83a8 713c b190 6ebd 7dd7 9a3d
00000030: a8e8 5fbd e211 c5bc 88d5 c13d 2f09 80bd
00000040: 2ce5 8c3c f57b 913c 31f4 98bc f510 8abc
00000050: 0cdb 1f3e 2b84 ff3d 71e8 fe3d 9838 b8bb
00000060: 27fc a0bc da0e c63e 8b56 413e 33af 11bd
00000070: 7f72 2fbc 2e10 36bd 4620 283c 53c9 713d
00000080: 9739 e53d 765b c73c 9796 80bd 63ac 88bd
00000090: 350f 9c3c 403e 66bd 8f73 783c 1f62 2cbd
000000a0: 98f2 62bd defd 2a3d e831 c93d 4fa3 bd3d
000000b0: 892b c83e 6774 b43e 319f d23c 671c a5bd
000000c0: 33a5 cf3b 43cd eebc 00dd 493c 5d91 30be
000000d0: 6ae4 57bd 3ec3 ad3c b6d9 83bc cf7a b83d
000000e0: bbec 723d 10ad cb3d 5065 3fbd ad58 993d
000000f0: d1cc 4dbc 04da 083d a8c1 c93d d1b6 243c
00000100: 5c1b 0b3d d5c8 dabc 2b74 ffbc aff6 b93a
00000110: e0ea c23d e65b bcbc b6e8 97bb 5667 92bd
00000120: c144 d93d e378 e93e e09b b2bb 0906 6d3d
00000130: 8e78 e03e 3a6b e03c b3d7 d83e 80e4 0bbe
00000140: f782 29bd a83e bfbc 18d0 af3d 8d50 9e3d
00000150: b1a2 c7bc 166d 90bd 1a5f 55bb 1023 30bd
00000160: c5b5 8dbc aa77 e63c 229c e53b 3691 97bd
00000170: 6e16 033e f955 b2bc 6398 7d3c 848c 5ebd
00000180: 3729 a0bd cd43 1d3d f134 d23c bc21 66bd
00000190: c602 16bb fe61 1fbd 0d42 163d 14fc 74bc
000001a0: 1aa3 a93d 1f21 bb3c 2114 d23d 91d0 08bd
000001b0: 6f7a a3bc 5de4 b03d f345 64bd 15e5 953d
000001c0: 0e55 43bc da65 57ba d769 b53d 6c61 71bd
000001d0: f325 adbd f694 ab3a e129 9fbe 4b4f e13c
000001e0: 886c 8f3c 93f9 d7bd 3a36 54bd 147d 6dbd
000001f0: cd13 8cbd d889 e8bc 8e91 38be ea0a febc
00000200: dfe2 a2bc e66d 89bd 3376 f63c 1264 d3bd
00000210: f0a2 c83d 3bd9 323e 915a 9ebd 207c 63bd
00000220: 7553 01bc 46df 9dbc 3649 a4bd 0f06 64bd
00000230: 1881 c73c d312 6cbd 1eee 9dbc e719 343d
00000240: 07e6 383d a1c8 103e 62e1 b5bd e8d4 cb3d
00000250: 0f72 27bc 8926 da3c fb6b e3bc 121c 5fbd
00000260: d85b 423e f514 48bd c359 fb3c 5713 393d
00000270: 69e7 4abd 57ac acbd bda8 8eba c430 893d
00000280: ce1f ac3e 8ff5 28bd 0e61 ae3c 6ff8 1f3c
00000290: 6437 7bbc a8be bdbd a7e6 84bd 7e65 2d3c
000002a0: bac4 4fbd bd35 1a3e 5078 b5b9 b506 133c
000002b0: 6ec6 a73c a8fb 37bc 7904 473d 4471 f5bc
000002c0: 0ffa 21bd b993 033f 9ba7 e93b e248 adbd
000002d0: 3b69 7abd bdf6 9a3a 4757 bc3d d803 463d
000002e0: 96e0 9cbd 6c08 843d 1b56 e3bb 68b1 3abd
000002f0: 992e db3a 86c4 2f3b f56e 0bbd d9be dd3c
00000300: b6e7 93bb 8f79 b83e 2c08 b3bd b4cc 273e
00000310: 9cd0 72bd d4f4 df3e f707 99bc a61e 55bc
00000320: 2347 efbc 54fa 863d 2ce1 383e 44d4 943e
00000330: dbe9 d93e 5374 a3bc 5c25 06bd f1dc cfbc
00000340: a142 dd3b fcba 73bc b90d 48bd dc56 babc
00000350: 8d1b 123c 4daf 89bc dfdf 2fbd 8f23 b23d
00000360: 6aef 51bc 538e 14bd 0ed2 17bd a655 6cbc
00000370: 1f0d c03d 34bf db3b 8a48 e53c 53ce 013f
00000380: a51c 0dbd fb6a 85bd f7f1 55bc 4a87 663d
00000390: 08ff b8bd e296 693c e5b6 1e3d 5200 54bd
000003a0: 3a12 5abc 8c1d 813d 0266 c93e 947a 12bd
000003b0: a8b6 36bd c551 8dba 7c05 72bd 95e3 0fbd
000003c0: bf94 623d 0e22 13bd ec3c 75bd b534 9839
000003d0: 01b1 c8bd 990e 72bd 806c 8cbd f393 de3e
000003e0: 4ef2 9bbc ad30 22be 176c be3d 3dbf 9d3d
000003f0: cb21 80bd a4aa 76bc d99d 563d fc1b 013d
-0.03907424 -0.0055712517 0.0253333 0.046240207 -0.051936932 -0.05652724 -0.08048401 0.09988928
-0.0025378333 0.014749649 -0.058243457 0.075606324 -0.054665238 -0.024056379 0.09464556 -0.06251752
0.017199121 0.017759303 -0.018671127 -0.016853789 0.15610904 0.12476381 0.124466784 -0.005621981
-0.019651486 0.38683206 0.1888067 -0.035567474 -0.01070845 -0.044449024 0.010261601 0.05902989
0.11192625 0.024335604 -0.06278723 -0.06673505 0.01905022 -0.05621171 0.01516427 -0.042085763
-0.055407137 0.041746013 0.09823972 0.09259664 0.39095715 0.35245058 0.025710674 -0.08062058
0.006336832 -0.02915061 0.012320757 -0.17242952 -0.052708067 0.021211263 -0.016095024 0.09007799
0.059307795 0.099451184 -0.04672748 0.07487617 -0.012561039 0.03341104 0.0985139 0.010053352
0.03396164 -0.026707092 -0.031183323 0.0014187897 0.09517455 -0.02299304 -0.0046358956 -0.07148616
0.10608817 0.45600042 -0.0054507107 0.057867084 0.43841976 0.02739488 0.42352065 -0.13661385
-0.041384663 -0.023345307 0.085846126 0.077302076 -0.02436957 -0.070520565 -0.0032557906 -0.04300219
-0.017298589 0.028133232 0.007007138 -0.07400744 0.12801525 -0.02176951 0.015478226 -0.054333225
-0.07820361 0.038394738 0.02566001 -0.056184515 -0.0022889837 -0.038911812 0.036684085 -0.014952678
0.08283062 0.022842942 0.102577455 -0.03340203 -0.019955842 0.08637307 -0.05573077 0.073190846
-0.011922134 -0.0008216776 0.08858078 -0.0589308 -0.08454504 0.0013090658 -0.3108664 0.02750363
0.017507806 -0.105456494 -0.051809527 -0.057980612 -0.06839714 -0.028386042 -0.18024275 -0.031011064
-0.019883571 -0.067104146 0.030085659 -0.10321821 0.09796703 0.1746568 -0.07732118 -0.055538297
-0.007893433 -0.019271504 -0.080217764 -0.05566984 0.024353549 -0.05763514 -0.019278582 0.043970015
0.045141246 0.14139034 -0.08880879 0.09952718 -0.010220065 0.026629703 -0.02776145 -0.05447013
0.18980348 -0.04884811 0.03068245 0.04518446 -0.049537096 -0.08431309 -0.0010884028 0.066987544
0.33618015 -0.041249808 0.021286514 0.009763821 -0.01533303 -0.092648804 -0.06489306 0.01058328
-0.050724722 0.15059562 -0.0003461265 0.008973767 0.02048036 -0.011229433 0.04858825 -0.029961236
-0.039545115 0.5139728 0.007130576 -0.08461167 -0.06113551 0.0011822801 0.09196334 0.04834351
-0.07660024 0.06446919 -0.006937755 -0.045579344 0.0016722261 0.0026820018 -0.034041364 0.027068542
-0.004513706 0.36030242 -0.08741793 0.16386682 -0.059280977 0.43741477 -0.018680556 -0.013007795
-0.029208725 0.06590715 0.18054646 0.29068196 0.4256123 -0.019952929 -0.032750472 -0.025373908
0.0067523276 -0.0148761235 -0.048841212 -0.022746496 0.008917701 -0.016807223 -0.04293811 0.086981885
-0.012813428 -0.036268543 -0.037065558 -0.014424717 0.09377503 0.006706143 0.02798869 0.5070545
-0.034451146 -0.065145455 -0.013058177 0.056281365 -0.09033018 0.014257165 0.03874864 -0.051758118
-0.01331001 0.06304464 0.39335638 -0.03576143 -0.04460779 -0.0010781816 -0.05908726 -0.03512915
0.055317637 -0.03592115 -0.059872553 0.0002903097 -0.09799386 -0.059095953 -0.06856632 0.4347225
-0.019036438 -0.15838881 0.0929796 0.077024914 -0.062564455 -0.015055332 0.05239663 0.03152083

l3.weight f4 [1, 300]
00000000: 9016 c9bc 6989 413e 5567 123d a0b9 45be
00000010: 1826 b93b e24b 693c 5620 6e3e 70ba 42be
00000020: c9be cabb ec66 07bd b6e9 403e 6953 52be
00000030: 68f5 643e 59c6 593e 3970 5bbe 51dd ddbc
00000040: a152 523d 43af 573e ad2a 613e db31 e83c
00000050: 06ac 9abe d365 73be 4783 2dbe 7c89 0ebd
00000060: f320 ffbc 97a2 01bf f92f 93be 959d 863e
00000070: dd53 0c3d d529 5f3e 6576 163d 992e 5bbe
00000080: 40ef 4cbe 92b4 f1bd d5dc 8d3a 094f 6a3e
00000090: 8644 23bb 05a9 833e 0c4a 5f3e de2f 2b3d
000000a0: 42ff 823e 3fec 22be 5eb3 2cbe f0a9 4bbe
000000b0: 1301 bbbe c0f6 cebe c7eb b6be c353 7c3c
000000c0: 88a4 793e b72b 2abc 76be 9d3b e5a9 313f
000000d0: 9b4d 733d 7193 55bb 03d0 6d3e b15f 8cbe
000000e0: 32c4 69be 538b 73be 7d72 163d a19e 56be
000000f0: 4e90 23bd f0d4 48be a061 c3bd e6cf 883e
00000100: 6cb3 0dbe 3be0 663e f39b 803e 96a0 afbc
00000110: 9947 5bbe 9455 5b3e 04ae 073d eda8 153d
00000120: a109 5abe d50d e2be cc06 71bb 7795 14be
00000130: e70f c1be cf0d 3fbe b601 bfbe 5c8e 113f
00000140: 06db a53c cc8a 843e 9030 9ebe ba3f 61be
00000150: eb3a edbc f194 c23c a887 c23c 529c d3bc
00000160: 36e0 27bd 489f c9bc adee 193d 8108 c9bc
00000170: 4f38 253e e0bc 5e3e 72c8 e1bd d722 733e
00000180: a8d5 b53c d629 2fbe 10ba 4dbe 18a0 463d
00000190: c3ab e53b cd56 053c 6afb 683c 179e 3e3b
000001a0: d811 9bbe ddc8 1ebe 4594 1dbe 739f 773e
000001b0: 66dd 22bd ac1b a1be b00f 3abb 4e0c 20be
000001c0: 78a0 623e c01a c7bc 8985 5fbe cd8b 113d
000001d0: 56df e53e 7f88 813e 1a78 4c3f 5a5d 37be
000001e0: 8cdb 493e 7694 30bc 05bb 893b 32a6 583e
000001f0: 640f 713c 9068 813e 5861 973e 75d3 663e
00000200: 74c5 07bc b3d0 493e 138c f63c ce96 24bb
00000210: cb3e 70be 3907 e1be 40ef 5e3e eb49 413e
00000220: deb6 213d d10c 54bd 4392 633e f40a 5c3e
00000230: 0839 403d 943e 053d a193 c33c 7abe 68be
00000240: 035a 7cbe ea1e 85be 88f6 4d3e aece 2fbe
00000250: 965e a13c b736 a43b dee8 a13c 1d24 153c
00000260: 8ae3 7fbe 9226 523e 658e 123c fde1 12be
00000270: 6c27 833d 6513 1a3d b297 e6be 98d3 56be
00000280: dad0 bcbe 29ca d23c 1ff9 30be b719 6c3e
00000290: 421a 5ebc e15d 4d3b 6e57 563e c046 48bc
000002a0: e063 543e 29c1 43be c1b7 563e 6483 7fbc
000002b0: 1cf4 033d 641b 88bc c65f 3dbe 5d38 1b3d
000002c0: efa5 3b3d ad43 47bf 7f36 893e 940f 98bb
000002d0: 954f 7e3e c6ed 253c 2173 57be 3da5 19be
000002e0: d2ce d5bc 04df 83be 155d 9b3c 1e7a a83c
000002f0: 65c3 1ebc 5e8d aa3a daa6 e13c 3863 40be
00000300: ee6d 23bb 334e c8be ecda 433e 79d5 32be
00000310: 4521 933b 3f4e eebe d3f5 693e efb3 4b3e
00000320: 62f8 dfbc aa82 60be af2d a4be 296c 8ebe
00000330: 5d29 5ebe 092a 733e 514c 833e 73c9 fe3a
00000340: c02e 4cbc d3c6 6739 c710 353d 4568 523e
00000350: fc2a 0bbd 9a87 613c a563 163d 416f 54be
00000360: 3a32 dd3b 7de3 8c3e 4126 9fbb 2142 4c3e
00000370: 9995 6ebe 4597 4e3e c357 f33c 6a73 50bf
00000380: 993e d03c eb1b 5f3c dcb7 6e3e d880 46be
00000390: f04b b13c 0e99 2d3d e1d5 52be 9587 1638
000003a0: 8db3 81bc d121 5dbe 7df6 f9bd 06bd 7e3e
000003b0: 194c 543d 8130 d3b9 8e4d 123b dd19 053b
000003c0: a15b 5abe 2526 81ba f332 e33a 726e 703e
000003d0: 6f0a be3b eefb 563e 04a5 793e 942c 53bf
000003e0: eaa3 683d 972c 1e3f df0d 39be 3af1 6bbe
000003f0: 6acd dfbc 7012 533e d9af 53be a725 313d
-0.024546891 0.18900074 0.035743076 -0.19309092 0.005650293 0.014239283 0.23254523 -0.19016433
-0.006187294 -0.03305714 0.18839154 -0.20539631 0.2235924 0.2126707 -0.21429528 -0.027083071
0.051348332 0.21062951 0.21988936 0.028344085 -0.30209368 -0.23769312 -0.1694461 -0.034799084
-0.031143641 -0.5063872 -0.28747538 0.262921 0.034259666 0.21793301 0.036734004 -0.21404494
-0.20013142 -0.11802019 0.0010823259 0.22881712 -0.002491267 0.2571489 0.2180559 0.041793697
0.2558537 -0.15910433 -0.16865298 -0.19889045 -0.36524257 -0.4042263 -0.3572676 0.01540083
0.2437917 -0.010386399 0.0048139645 0.69399863 0.059400182 -0.0032589103 0.23223881 -0.27416757
-0.22828749 -0.23783617 0.03673028 -0.2095895 -0.03993254 -0.19612479 -0.09540105 0.26721114
-0.13837975 0.22546475 0.2511898 -0.021438878 -0.21414031 0.21419364 0.03312494 0.036538053
-0.21292736 -0.44151178 -0.0036777733 -0.14510141 -0.37707445 -0.18657611 -0.37305993 0.5685785
0.02024604 0.25887144 -0.30896425 -0.21996966 -0.028958758 0.023752661 0.023746327 -0.025831375
-0.04098531 -0.024612084 0.037581135 -0.024540188 0.16134761 0.21751738 -0.1102456 0.23743759
0.022196606 -0.17105803 -0.20090508 0.04849252 0.007009001 0.008138371 0.014220098 0.0029085928
-0.3028705 -0.15506311 -0.15388592 0.24181919 -0.039761923 -0.31466424 -0.0028390698 -0.15629694
0.22131526 -0.024304748 -0.21828283 0.035533715 0.44896954 0.2529945 0.7987076 -0.17906705
0.19712657 -0.010777583 0.0042032027 0.21157148 0.014713142 0.25275087 0.29566455 0.22541602
-0.008286823 0.19708519 0.03009609 -0.00251143 -0.23461454 -0.43950823 0.21770954 0.18875854
0.039481036 -0.051770035 0.22223763 0.21488553 0.04692939 0.032530382 0.023874106 -0.22728911
-0.24643712 -0.26000148 0.20113575 -0.17168686 0.019698422 0.0050114053 0.01976436 0.009102848
-0.24989143 0.20522526 0.008945082 -0.1434402 0.064040035 0.037616152 -0.4503761 -0.20979154
-0.3687809 0.025731163 -0.17282532 0.23056684 -0.013556065 0.0031336474 0.2093179 -0.012223899
0.20741224 -0.19116654 0.20968534 -0.015595291 0.032215223 -0.016614623 -0.18493566 0.03789555
0.045812543 -0.7783764 0.2679939 -0.004640529 0.24835046 0.01012749 -0.21040012 -0.1500444
-0.026099596 -0.25756085 0.018965283 0.020566043 -0.00969014 0.0013012101 0.027545381 -0.18787849
-0.002493735 -0.3912216 0.19126481 -0.17464246 0.00449005 -0.46544072 0.22847681 0.19892858
-0.027340118 -0.21924844 -0.32066104 -0.27816895 -0.21695466 0.23746504 0.25644162 0.0019438699
-0.012462318 0.00022103945 0.044205453 0.20547588 -0.03397654 0.01376524 0.036716122 -0.20745565
0.0067503722 0.2751731 -0.004856855 0.19947101 -0.23299254 0.20174892 0.029704934 -0.8142611
0.025420474 0.013617496 0.23312324 -0.19385087 0.021642655 0.042382292 -0.20589401 3.5889057e-05
-0.015832687 -0.21594931 -0.12205217 0.24876794 0.051830385 -0.00040281194 0.0022324058 0.0020309605
-0.21324016 -0.0009853287 0.001733391 0.23479632 0.0057995836 0.20994541 0.24379355 -0.82489896
0.056796946 0.6178679 -0.18071698 -0.2304124 -0.027319629 0.20612502 -0.2067255 0.0432488
