TD3-conf1/preTrained/TD3_BipedalWalker-v3_0_crtic_2_ep600.pth (torch_old, 529772 bytes, 5 tensors)

l1.weight f4 [400, 28]
-0.100638255 0.102531336 -0.17423126 0.19072643 -0.047331996 -0.035947233 0.15077868 -0.10734534
-0.2362716 0.01109113 0.10110687 0.19746423 -0.024482373 -0.19867867 -0.3121311 -0.50318027
-0.5537991 -0.52625674 -0.3204291 -0.25565678 -0.5223941 -0.33664522 -0.54857385 -0.521934
0.14162421 -0.030204434 0.16158403 -0.15058428 -0.17061478 -3.1418905 -3.2805984 2.2173603
1.2419754 0.07458712 -0.40716338 -0.048203643 -0.63465184 1.0521023 -0.08599128 -0.24646264
-0.11117952 -0.31571916 0.24907088 0.17696361 0.03297393 0.043595716 0.08656469 0.28322873
0.18446918 0.13732691 -0.41536853 -0.07342216 0.07723859 -0.11768714 -0.09602649 0.04174267
0.5049721 3.6901183 -2.891015 -4.381989 -0.28445426 0.33677 -0.27547067 0.19181867
-0.11381439 0.8420735 -1.2166767 -0.36546034 0.23626529 -0.3778581 -0.67674893 -0.812136
-0.53192616 -0.48344275 -0.47762048 -0.42607263 -0.54618084 -0.61222154 -0.45620024 -0.37335175
0.21899714 0.4391855 0.40587112 0.22866513 0.11480828 0.3235524 0.5665462 -0.09880316
0.12801246 -0.34456187 0.2314614 0.14189216 -0.34685957 0.19801208 -0.06034233 0.10044494
0.11753585 -0.15815455 -0.45965362 -0.46037227 -0.35404012 -0.6127115 -0.44236457 -0.40159836
-0.706468 -0.68933123 -0.58182466 -0.3899898 0.22927843 0.102732636 0.20138776 -0.14202723
-0.07843947 0.22329019 0.6318568 -0.11732387 -0.053392895 -0.4168839 0.17332481 0.054025352
-0.31464198 -0.07570369 0.17690963 0.020611152 0.07306986 -0.14525858 -0.8323207 -0.64812565
-0.86173385 -0.5911014 -0.54825294 -0.784741 -0.5317826 -0.5899895 -0.8367968 -0.6803764
0.4243712 0.19509146 0.18198176 -0.029359171 0.23567535 1.7253526 -0.73111063 -3.3167484
-0.071624525 -0.5265329 -0.19587967 -0.65214515 0.47260115 0.4160867 1.072345 -1.2409887
0.472446 0.21585186 -0.3385238 -0.27571553 -0.46334136 -0.3368246 -0.48599723 -0.33376995
-0.33538595 -0.41241366 -0.3560634 -0.28555533 -0.07114716 -0.20597525 0.29038024 0.17388557
0.6592581 -0.8889949 -1.8469808 -0.15542279 1.2864211 -1.2576268 0.48571154 -0.580009
-1.3254391 0.21760003 1.1126094 -0.62336856 0.40945897 -1.9263619 -0.60873264 -0.2998984
-0.30436444 -0.64322126 -0.51320446 -0.6271 -0.3668888 -0.4334757 -0.45609635 -0.44863543
-0.17240553 -0.08584169 0.60277987 -0.21908243 0.054503564 0.06794394 0.0033620049 -0.078087375
0.0037781901 -0.068760805 0.10277887 0.07753949 0.06433531 0.10544438 -0.041582096 0.061504588
0.1226758 0.08007725 -0.32986203 -0.09733721 -0.15399145 -0.18845789 -0.11188498 -0.38844758
-0.04167391 -0.2196785 -0.17886801 -0.36173213 0.08498169 -0.08544646 0.12619835 -0.046552323
-0.11928447 0.19947836 -0.17260717 -0.005177248 0.060468804 -0.122743204 0.13950522 0.16735807
-0.100703485 -0.1499569 0.13696963 0.112460315 0.04418376 0.017028168 -0.44114095 -0.36981985
-0.37406212 -0.56290746 -0.33716655 -0.49425665 -0.2742704 -0.5121334 -0.37568292 -0.2587584
0.04002116 0.021530047 0.09014018 0.029579068 0.59254277 -3.339358 1.747937 -4.8367586
00000000: 6e1b cebd f3fb d13d ae69 32be ca4d 433e
00000010: 32df 41bd 683d 13bd ba65 1a3e e0d7 dbbd
00000020: 2ff1 71be 92b7 353c 1e11 cf3d 1034 4a3e
00000030: 428f c8bc 6c72 4bbe a6cf 9fbe 6cd0 00bf
00000040: c7c5 0dbf c3b8 06bf 480f a4be 72e5 82be
00000050: 9fbb 05bf c35c acbe 566f 0cbf 779d 05bf
00000060: f005 113e 4a6f f7bc 4976 253e c432 1abe
00000070: a4b5 2ebe bc14 49c0 53f5 51c0 3be9 0d40
00000080: 0df9 9e3f 22c1 983d b877 d0be 2f71 45bd
00000090: 8b78 22bf 4aab 863f 321c b0bd b460 7cbe
000000a0: 17b2 e3bd f1a5 a1be 700c 7f3e f335 353e
000000b0: ac0f 073d 6c91 323d d448 b13d 5b03 913e
000000c0: 7de5 3c3e 6d9f 0c3e 2fab d4be 5c5e 96bd
000000d0: 442f 9e3d f505 f1bd 89a9 c4bd 5dfa 2a3d
000000e0: da45 013f e62a 6c40 6406 39c0 4139 8cc0
000000f0: fda3 91be 1e6d ac3e 7e0a 8dbe 1d6c 443e
00000100: 8517 e9bd 2192 573f 10bc 9bbf 9e1d bbbe
00000110: 87ef 713e 9e76 c1be 6b3f 2dbf 25e8 4fbf
00000120: 502c 08bf cf85 f7be ac8a f4be 3126 dabe
00000130: 82d2 0bbf 8dba 1cbf 1493 e9be f627 bfbe
00000140: c940 603e ecdc e03e 57ce cf3e 3127 6a3e
00000150: 9a20 eb3d a9a8 a53e 2c09 113f 5059 cabd
00000160: b315 033e 6a6a b0be 3804 6d3e 2e4c 113e
00000170: 9497 b1be aec3 4a3e 8529 77bd 14b6 cd3d
00000180: a3b6 f03d 44f3 21be b857 ebbe eab5 ebbe
00000190: bf44 b5be a9da 1cbf 9c7d e2be 4d9e cdbe
000001a0: 16db 34bf 0378 30bf 76f2 14bf beac c7be
000001b0: f7c7 6a3e 7d65 d23d 9838 4e3e 966f 11be
000001c0: dfa4 a0bd 2fa6 643e 5ec1 213f 7f47 f0bd
000001d0: 82b2 5abd ce71 d5be 0f7c 313e b049 5d3d
000001e0: c118 a1be 890a 9bbd cc27 353e b8d8 a83c
000001f0: a7a5 953d aabe 14be f812 55bf 90eb 25bf
00000200: 979a 5cbf 6c52 17bf 4e5a 0cbf c9e4 48bf
00000210: e822 08bf 8d09 17bf 5138 56bf 262d 2ebf
00000220: 2f47 d93e 0ec6 473e 6d59 3a3e a582 f0bc
00000230: e154 713e 5bd8 dc3f 112a 3bbf 9b45 54c0
00000240: e1af 92bd dcca 06bf ae94 48be fcf2 26bf
00000250: c7f8 f13e 5109 d53e 9a42 893f b8d8 9ebf
00000260: 71e4 f13e 4508 5d3e fe52 adbe 962a 8dbe
00000270: 143b edbe 4674 acbe a1d4 f8be e5e3 aabe
00000280: b5b7 abbe e227 d3be f14d b6be 4f34 92be
00000290: 9ab5 91bd 2deb 52be b8ac 943e 0f0f 323e
000002a0: 24c5 283f 2b95 63bf de69 ecbf 2727 1fbe
000002b0: 72a9 a43f eaf9 a0bf 2faf f83e 787b 14bf
000002c0: fda7 a9bf 8bd2 5e3e fc69 8e3f 1595 1fbf
000002d0: 9ba4 d13e 0793 f6bf e7d5 1bbf 488c 99be
000002e0: a8d5 9bbe 26aa 24bf 5e61 03bf a089 20bf
000002f0: d9d8 bbbe 87f0 ddbe 7685 e9be 8bb3 e5be
00000300: 138b 30be c5cd afbd c84f 1a3f 2557 60be
00000310: 213f 5f3d 3126 8b3d 1555 5c3b 46ec 9fbd
00000320: 839b 773b 77d2 8cbd ba7d d23d 06cd 9e3d
00000330: 3bc2 833d 39f3 d73d fd51 2abd 3cec 7b3d
00000340: 733d fb3d 8bff a33d ade3 a8be bb58 c7bd
00000350: efaf 1dbe 1bfb 40be f423 e5bd 9ae2 c6be
00000360: 43b2 2abd 67f3 60be 2d29 37be f434 b9be
00000370: e10a ae3d 8efe aebd 243a 013e a6ad 3ebd
00000380: 6b4b f4bd 0e44 4c3e efbf 30be e7a5 a9bb
00000390: 23ae 773d ca60 fbbd 75da 0e3e ea5f 2b3e
000003a0: a13d cebd 4d8e 19be c441 0c3e 9851 e63d
000003b0: 08fa 343d a87e 8b3c 3add e1be 0759 bdbe
000003c0: 1285 bfbe b41a 10bf 18a1 acbe 350f fdbe
000003d0: 2b6d 8cbe 2d1b 03bf 8359 c0be fb7b 84be
000003e0: 3aed 233d c85f b03c 6a9b b83d cd4f f23c
000003f0: e2b0 173f 0bb8 55c0 66bc df3f bac6 9ac0

l1.bias f4 [400]
-0.1781501 -0.38801163 0.19730264 -0.29071695 -0.12814827 -0.024007443 -0.4910192 -0.012594565
-0.27163702 -0.34335724 0.10238963 -0.33161786 -0.31606513 -0.40891683 -0.4853014 -0.37780413
0.055804677 -0.1418133 -0.4493911 -0.102518894 0.19450003 -1.0115817 0.028724167 -0.71645576
0.09648374 0.024847979 -0.8342279 -0.32130587 -0.2689665 -0.76655185 -0.6916817 -0.52665424
0.4440577 -0.30941832 -0.73130214 -0.5855683 -0.24931751 -0.2163277 0.15816648 -0.026952064
-0.68929285 0.5685255 -0.43287185 -0.722051 -0.66587186 -0.17558834 -0.18970829 -0.28221515
-0.12952156 0.059998725 -0.8265901 0.109211594 -0.75224113 -0.6165884 -0.39285007 -0.24862716
-0.09238512 0.3778011 0.55227965 0.49673465 0.13994484 -0.46451885 -0.26841846 -0.2198021
-0.4361823 -0.54551363 -0.057446495 0.4226183 -0.15446885 -0.8260547 -0.26266453 0.8578031
1.1610246 -0.70319617 -0.31145984 -0.5536322 -0.33637655 0.500217 -0.23921366 -0.27601865
-0.9774127 0.8629921 -0.49075505 -0.8334019 -0.5394535 0.07421594 -0.39007774 -0.84403
0.05173234 -0.013051521 -0.87099594 -0.8253513 -0.0639488 0.67137057 -0.1635066 -0.09182132
-0.57260984 -0.467107 -0.3797144 -0.023200165 -0.23464504 -0.6063858 0.23958898 -0.6203267
-0.30205578 -0.30207005 0.060656387 -0.59290665 -0.11911583 -0.6989045 1.4221834 -0.35352844
-0.020702181 -0.35064533 -0.6845319 0.23779441 0.13600536 -0.95133936 -0.14649163 -0.21306118
-0.08797425 -0.4383221 -0.026226666 -0.8882849 0.08110642 -0.08853928 1.5521703 -0.6499935
-0.22186027 -0.26829985 -0.29859322 -0.1865947 -0.71423155 -0.49670157 -0.38443822 -0.22976783
-0.72284055 -0.2796812 -0.9395796 -0.7461196 -0.26865965 -0.6720464 -0.014474385 -0.18092865
0.8138732 -0.15474029 -0.4402348 0.9407423 1.2023019 0.0442168 -0.06149494 -0.64555186
-0.6272353 -0.18253194 -0.1602495 -0.24098535 -0.32862225 -0.68557155 -0.1654166 -0.45189905
-0.12596679 0.76120555 -0.92463744 -0.40957582 -0.945678 -0.4484054 0.004457978 -0.36024413
-0.66588986 -0.34846523 -0.103107065 -0.0048402287 -0.5759477 -0.13322248 -0.43851203 -0.48074096
-0.18066637 -0.76995474 -0.43386093 -0.8563544 -0.6730687 -0.014017893 -0.19061418 -0.37405616
-0.62359416 -0.6824728 -0.41136184 -0.30687234 -0.7483123 -0.12492299 -1.1274781 -0.21822976
-0.589681 -0.777569 -0.7728984 0.4232317 0.3656622 0.664656 -0.5529335 -1.0665853
-0.85957134 -0.81813663 0.02395532 -0.09206538 -0.95314115 -0.5212684 -0.21021217 -0.35671952
-0.8743768 -0.038688272 -0.5365831 -0.29659328 -0.35390267 -0.7202669 -0.8382136 -0.39597255
-1.1124778 -1.0063819 -0.2996091 0.39394423 -1.0649469 -0.83916456 -0.1677602 -0.27690163
-0.5593082 -0.70769626 0.04740186 -0.5562224 0.1775807 0.97490007 -0.22435895 -1.013198
-0.65049464 -0.7973329 0.39742738 -0.13664915 -0.5787151 0.19563337 -0.12122949 1.069487
0.4811923 -0.2045777 -0.6076443 0.034270924 -0.7769393 0.488842 -0.3082897 -1.013289
0.41416806 0.103680484 0.19698645 -0.057337604 1.1963807 -0.12897924 -0.16242006 -0.8543704
00000000: fb6c 36be 76a9 c6be b409 4a3e dad8 94be
00000010: 4d39 03be 42ab c4bc de66 fbbe 6f59 4ebc
00000020: 0214 8bbe 85cc afbe a8b1 d13d d1c9 a9be
00000030: 4ad3 a1be 8c5d d1be 6d79 f8be 8b6f c1be
00000040: 7293 643d 8137 11be 9716 e6be 6df5 d1bd
00000050: 042b 473e 827b 81bf f24e eb3c a569 37bf
00000060: 4499 c53d fd8d cb3c f68f 55bf 3482 a4be
00000070: fab5 89be be3c 44bf 0d12 31bf d0d2 06bf
00000080: 885b e33e 146c 9ebe 9e36 3bbf cee7 15bf
00000090: 174d 7fbe 0285 5dbe 65f6 213e 93ca dcbc
000000a0: 7f75 30bf e38a 113f 61a1 ddbe 56d8 38bf
000000b0: 9476 2abf 6ecd 33be e442 42be 817e 90be
000000c0: 4da1 04be 39c1 753d 699b 53bf 54aa df3d
000000d0: e092 40bf bdd8 1dbf a523 c9be 1e98 7ebe
000000e0: 6934 bdbd 256f c13e 3362 0d3f 0154 fe3e
000000f0: b34d 0f3e 6ad5 edbe 256e 89be cd13 61be
00000100: 4953 dfbe c8a6 0bbf 044d 6bbd 6d61 d83e
00000110: 152d 1ebe 5278 53bf f77b 86be fc98 5b3f
00000120: 749c 943f aa04 34bf aa77 9fbe d7ba 0dbf
00000130: 8c39 acbe 390e 003f 6df4 74be 5152 8dbe
00000140: b837 7abf 0ded 5c3f 3f44 fbbe d459 55bf
00000150: a019 0abf 87fe 973d 45b8 c7be 5a12 58bf
00000160: 4ae5 533d 0cd6 55bc 97f9 5ebf 394a 53bf
00000170: 97f7 82bd f1de 2b3f 466e 27be d10c bcbd
00000180: 8f96 12bf a628 efbe ed69 c2be 460e bebc
00000190: ca46 70be 1a3c 1bbf d056 753e bbcd 1ebf
000001a0: 0ea7 9abe eda8 9abe d572 783d bbc8 17bf
000001b0: 00f3 f3bd 68eb 32bf 1b0a b63f ae01 b5be
000001c0: 9f97 a9bc c987 b3be 7c3d 2fbf 6180 733e
000001d0: fd44 0b3e fa8a 73bf e701 16be b62c 5abe
000001e0: d82b b4bd c16b e0be 4ed9 d6bc a466 63bf
000001f0: 1f1b a63d 1554 b5bd 84ad c63f f965 26bf
00000200: 572f 63be 995e 89be 36e1 98be ae12 3fbe
00000210: e1d7 36bf ab4f febe 16d5 c4be 4248 6bbe
00000220: 140c 39bf 6032 8fbe 4a88 70bf b201 3fbf
00000230: c28d 89be 3c0b 2cbf f925 6dbc 5c45 39be
00000240: fe59 503f 3d74 1ebe 7566 e1be 7dd4 703f
00000250: 07e5 993f ad1c 353d 1ee2 7bbd e342 25bf
00000260: 7e92 20bf a7e9 3abe 7218 24be ddc4 76be
00000270: 2d41 a8be 9e81 2fbf f862 29be 505f e7be
00000280: 70fd 00be 5ede 423f 0ab5 6cbf ecb3 d1be
00000290: f417 72bf 6595 e5be 3b14 923b eb71 b8be
000002a0: c277 2abf 096a b2be cc29 d3bd c89a 9ebb
000002b0: 4f71 13bf 796b 08be a684 e0be ae23 f6be
000002c0: 9b00 39be c11b 45bf 0523 debe 0b3a 5bbf
000002d0: 3b4e 2cbf 4eab 65bc 5d30 43be 4a84 bfbe
000002e0: dea3 1fbf 8ab6 2ebf 059e d2be 5f1e 9dbe
000002f0: 6591 3fbf a0d7 ffbd 3451 90bf 9f77 5fbe
00000300: 56f5 16bf c30e 47bf abdc 45bf d3b1 d83e
00000310: 1338 bb3e e526 2a3f 0d8d 0dbf de85 88bf
00000320: de0c 5cbf 6771 51bf f23d c43c c68c bcbd
00000330: 0f01 74bf d971 05bf dc41 57be f1a3 b6be
00000340: 28d7 5fbf 9877 1ebd 835d 09bf 13db 97be
00000350: bb32 b5be 6963 38bf 2b95 56bf eabc cabe
00000360: ac65 8ebf 1fd1 80bf 5d66 99be 0fb3 c93e
00000370: 2e50 88bf 7dd3 56bf 54c9 2bbe 0dc6 8dbe
00000380: d22e 0fbf 952b 35bf 7428 423d 9764 0ebf
00000390: b7d7 353e 0d93 793f 5abe 65be 79b0 81bf
000003a0: d186 26bf 021e 4cbf 9a7b cb3e c1ed 0bbe
000003b0: ac26 14bf 1d54 483e 2b47 f8bd f3e4 883f
000003c0: d65e f63e d17c 51be 948e 1bbf ab5f 0c3d
000003d0: 7ee5 46bf 8049 fa3e 26d8 9dbe 74b3 81bf
000003e0: d60d d43e 6f56 d43d d1b6 493e d6da 6abd
000003f0: 0123 993f 2213 04be 7251 26be 05b8 5abf

l2.weight f4 [300, 400]
-0.033957906 -0.0066706818 -0.018453155 -0.003033407 -0.0077479496 0.0072089587 -0.033291973 -0.023430662
-0.053735975 -0.008413359 0.023546705 0.03195625 -0.030750532 -0.036632054 0.048146438 0.027120516
0.020469632 -0.009736102 0.018074807 0.005588526 0.0068538794 -0.008322351 -0.02697445 0.0331732
0.013872503 -0.028694607 -0.044938367 0.012177326 0.044174667 0.020259531 0.0021179875 0.007224371
0.039892346 0.02799626 0.0132578965 0.03899196 0.039884765 -0.015889097 -0.017565116 0.007116928
-0.041113906 -0.011726249 0.02188165 0.019367885 0.046396088 -0.03200133 0.025450418 -0.010603707
-0.022734124 -0.024929889 0.034937322 -0.011088739 -0.037957847 -0.03719862 0.016643375 0.005355321
0.016557997 -0.042557698 0.035091054 -0.056833692 -0.02412294 0.024683762 -0.0069380105 -0.033675127
-0.027520372 -0.043913435 0.0023914916 0.03670237 -0.023963798 -0.03929166 -5.7517173e-05 -0.03225229
0.008358003 -0.020127663 -0.028145205 0.011895724 0.039043944 0.02850578 0.042613443 -0.045867283
0.0045664143 -0.021972526 -0.0013944209 0.027174309 -0.03918437 -0.03247086 -0.021307876 -0.023596225
-0.008241979 0.029810606 0.031017648 -0.008185692 -0.0458755 -0.012267935 0.02201948 0.03317399
0.039325815 -0.026111955 -0.014494389 -0.027540108 0.0074086157 -0.011468171 -0.0070637073 -0.048698332
0.017302867 -0.011417635 -0.0057077487 -0.016331937 -0.0019386606 -0.035793416 -0.046236154 0.0446896
0.0030894105 -0.04165237 0.027112823 0.03985273 -0.042363226 -0.04418506 -0.047075547 0.034061924
-0.039028645 0.03753949 -0.009536155 -0.057754748 -0.0073344894 -0.02511093 0.036357503 -0.027380783
0.0497321 -0.047249008 0.0025608013 0.03657006 0.00690829 -0.02753487 -0.05674581 0.009949125
-0.012096645 -0.016947899 -0.0018261394 0.0048521427 -0.032586392 -0.015604242 0.020676065 -0.021328896
-0.025899779 -0.014659427 -0.019946462 -0.006632455 -0.017862597 -0.021907266 -0.02590941 0.03674749
-0.046323914 0.03002065 -0.0047976 0.028922569 0.04577212 0.019539576 0.007875599 -0.04512834
-0.029129667 0.0154775875 0.028590033 0.030093912 -0.025993902 -0.040272094 -0.01802046 -0.0106943175
-0.02350548 -0.02838985 -0.043383766 0.04577666 0.016637139 0.013124827 0.0030367651 0.04749954
-0.044244584 0.0038202147 0.036198113 -0.021104151 0.040986147 -0.008590464 0.01810373 -0.035013612
0.048644204 -0.023448898 -0.038797446 -0.008508604 0.016998712 0.04046673 -0.028612334 0.011255365
-0.010589328 0.027615864 -0.0017219301 0.02204041 0.023019867 -0.056427184 -0.032955654 0.029538747
-0.050310057 0.011896312 0.011237474 0.03450919 -0.046006814 -0.04565698 0.015998278 0.013613831
0.0017280319 0.019443816 -0.019824577 -0.01603232 -0.030843006 -0.023059402 -0.019217009 -0.029921524
-0.050276138 -0.039902944 -0.051501017 0.010491192 -0.003456939 0.008872151 -0.04481345 -0.045522135
-0.008396118 -0.02929308 -0.04425699 0.034020163 -0.026938912 -0.0020785553 -0.021508921 -0.03937368
-0.026827842 -0.042554945 -0.03213218 -0.0037799403 -0.023410765 0.036878873 -0.011265494 0.00017875725
-0.0154418135 0.007817976 -0.031435847 0.0026803399 0.024716575 -0.018785229 -0.053977348 0.018750843
0.00750988 -0.04453941 -0.051928222 0.0011165366 -0.05147896 -0.038747836 0.011975873 -0.035983253
00000000: 7217 0bbd bc95 dabb 122b 97bc 20cc 46bb
00000010: 83e2 fdbb 2139 ec3b 2a5d 08bd a9f1 bfbc
00000020: 411a 5cbd 2fd8 09bc 05e5 c03c 8fe4 023d
00000030: 8ae8 fbbc 7e0b 16bd 3335 453d d82b de3c
00000040: eeaf a73c 2c84 1fbc 9e11 943c f41f b73b
00000050: 8296 e03b 785a 08bc 86f9 dcbc 9fe0 073d
00000060: 7f49 633c f410 ebbc 4b11 38bd 6883 473c
00000070: 7ff0 343d 51f7 a53c efcd 0a3b 6bba ec3b
00000080: 2866 233d 6a58 e53c a637 593c 09b6 1f3d
00000090: 355e 233d da29 82bc b8e4 8fbc 1f35 e93b
000000a0: 0e67 28bd 741f 40bc 2541 b33c 66a9 9e3c
000000b0: d309 3e3d d413 03bd 657d d03c 2cbb 2dbc
000000c0: ea3c babc c439 ccbc 701a 0f3d 8bad 35bc
000000d0: b079 1bbd 955d 18bd b057 883c b07b af3b
000000e0: a3a4 873c fb50 2ebd a3bb 0f3d 72ca 68bd
000000f0: 799d c5bc 9a35 ca3c 4058 e3bb eeee 09bd
00000100: 6772 e1bc 93de 33bd 92ba 1c3b 3955 163d
00000110: ba4f c4bc 4bf0 20bd 983e 71b8 fa1a 04bd
00000120: 01f0 083c c5e2 a4bc c690 e6bc 48e6 423c
00000130: 8bec 1f3d f484 e93c 6f8b 2e3d 55df 3bbd
00000140: dca1 953b baff b3bc 00c5 b6ba a89c de3c
00000150: ca7f 20bd 2a00 05bd db8d aebc df4c c1bc
00000160: 5e09 07bc 5f35 f43c b918 fe3c 481d 06bc
00000170: f3e7 3bbd 73ff 48bc 3262 b43c 73e1 073d
00000180: 1b14 213d bde8 d5bc e079 6dbc cb9b e1bc
00000190: f9c3 f23b ffe4 3bbc ac76 e7bb e777 47bd
000001a0: bebe 8d3c 0811 3bbc 1108 bbbb 8eca 85bc
000001b0: a81a feba 1e9c 12bd 1f62 3dbd 710c 373d
000001c0: b577 4a3b ad9b 2abd b61b de3c 9e3c 233d
000001d0: 1085 2dbd 65fb 34bd 4ad2 40bd 8484 0b3d
000001e0: 80dc 1fbd 02c3 193d 883d 1cbc 3e90 6cbd
000001f0: 2856 f0bb 70b5 cdbc 9beb 143d aa4d e0bc
00000200: e3b3 4b3d 2d88 41bd 1ed3 273b 7dca 153d
00000210: f05e e23b cf90 e1bc 4b6e 68bd a801 233c
00000220: 0231 46bc 52d6 8abc 125b efba b9fe 9e3b
00000230: 4f79 05bd efa8 7fbc da60 a93c f0b9 aebc
00000240: c62b d4bc 182e 70bc c366 a3bc 1155 d9bb
00000250: 9554 92bc de76 b3bc f93f d4bc 8984 163d
00000260: 25be 3dbd deed f53c 3035 9dbb 06ef ec3c
00000270: 8c7b 3b3d 7611 a03c a808 013c 7fd8 38bd
00000280: 57a1 eebc b595 7d3c a535 ea3c 8287 f63c
00000290: 2af1 d4bc 5af4 24bd a59f 93bc 3837 2fbc
000002a0: 908e c0bc d591 e8bc 2db3 31bd 4f80 3b3d
000002b0: 9c4a 883c 8409 573c 7704 473b e18e 423d
000002c0: cf39 35bd 915c 7a3b 7944 143d 9de2 acbc
000002d0: 17e1 273d 04bf 0cbc 464e 943c 6f6a 0fbd
000002e0: 253f 473d e717 c0bc 12ea 1ebd ac67 0bbc
000002f0: e240 8b3c 71c0 253d 6a64 eabc 6c68 383c
00000300: dc7e 2dbc aa3a e23c 63b2 e1ba 178e b43c
00000310: 2994 bc3c 3120 67bd 82fc 06bd 3efb f13c
00000320: eb11 4ebd c0e8 423c 621d 383c 8259 0d3d
00000330: a471 3cbd d002 3bbd d20e 833c 8c0c 5f3c
00000340: 217f e23a a348 9f3c 2767 a2bc 3656 83bc
00000350: 79aa fcbc 12e7 bcbc fd6c 9dbc fc1d f5bc
00000360: 5aee 4dbd 4571 23bd bbf2 52bd 40e3 2b3c
00000370: d08d 62bb 805c 113c 4f8e 37bd 6b75 3abd
00000380: df8f 09bc 0bf8 efbc d146 35bd ba58 0b3d
00000390: feae dcbc 5f38 08bb 7a33 b0bc 4c46 21bd
000003a0: 10c6 dbbc 184e 2ebd 089d 03bd e0b8 77bb
000003b0: efc7 bfbc 4d0e 173d e892 38bc c970 3b39
000003c0: a9ff 7cbc f816 003c e0c2 00bd a4a8 2f3b
000003d0: 6a7a ca3c 7be3 99bc 5a17 5dbd 5e9b 993c
000003e0: 7015 f63b f56e 36bd b0b2 54bd c058 923a
000003f0: 9adb 52bd 0db6 1ebd 7436 443c 2d63 13bd

l2.bias f4 [300]
-0.039074413 0.06548637 0.025333248 -0.013837918 -0.051937036 -0.088260464 -0.26506987 0.068122916
-0.034267776 -0.04424852 0.34547946 0.035608437 -0.5115454 -0.2646694 0.057600856 -0.0843845
-0.014556339 -0.1450917 0.23508647 -0.01685397 0.13694896 0.09299757 0.19012307 -0.039228532
-0.036976065 0.9764187 0.13932203 0.052337628 -0.010708548 -0.32742286 -0.02148777 0.026788102
0.053160008 -0.007709128 -0.062787764 -0.08929832 0.019050172 -0.036950726 0.2709261 -0.07384714
0.09414674 0.04174544 0.06880926 0.09259595 0.84130615 0.78889644 -0.0036702482 -0.080620974
0.12493962 -0.06090285 -0.009938158 -1.93289 -0.08446723 -0.03439466 0.16085443 -0.054357845
0.059307106 0.05749833 -0.046728097 0.023406655 -0.012561118 -0.046302423 -0.012734905 0.24393593
0.001338723 -0.37136617 0.07609848 0.038277928 0.063407995 -0.115726665 -0.050538003 -0.14302622
0.053321652 1.2257968 -0.03697224 0.013122849 0.90523386 -0.01991564 0.90245396 -0.5293173
-0.041384775 0.23084265 0.3307097 0.045535754 -0.06639432 -0.09128887 -0.034928128 -0.043002743
-0.071835764 -0.0035734153 -0.011854657 -0.0740084 -0.017359026 0.23715512 -0.05251856 0.32434055
-0.122716986 0.006628729 0.02565984 -0.0561852 -0.06193882 -0.038912453 0.0049248864 -0.047006845
0.85495186 -0.014817599 0.06739141 -0.040512707 -0.05171804 0.032252528 -0.087151825 0.059025828
-0.16632839 -0.03605345 0.011305971 -0.10853559 -1.5051223 0.1889939 -2.2387528 -0.36201796
0.27634737 -0.10579723 -0.051809672 0.17298785 -0.06839741 0.14528209 -2.4297245 -0.04387585
-0.07926047 -0.6602711 -0.0016644456 -0.13493092 0.061067227 0.15843461 -0.27142227 0.14992128
-0.007893429 -0.050992258 -0.18747102 -0.2109477 -0.022927344 -0.08939662 -0.01927865 -0.019255394
-0.013709907 0.10626698 0.24431816 0.06207529 -0.0102200825 -0.044657324 -0.059511885 -0.05447031
0.14041506 -0.2589061 -0.00089792314 0.023095524 -0.081057355 -0.116034575 0.20433374 0.03413917
0.7210721 -0.08635401 0.0034029342 0.10613875 -0.015333178 -0.09264948 -0.05531762 0.010583128
0.09106451 0.088263765 0.13944864 -0.02277921 -0.060324382 -0.011229437 0.016365122 -0.061723374
-0.0685218 2.316676 0.31370026 -0.08461268 0.078487724 -0.07868705 0.045283128 -0.021963373
-0.11839716 0.013764697 -0.031137608 -0.07043992 0.0016722155 -0.028649759 -0.034042068 -0.004696835
-0.0339721 0.7861942 -0.33045694 0.120355666 -0.09103323 1.9398426 -0.53101563 -0.16785966
-0.029208865 0.034141224 0.11453802 0.1731506 0.6717658 -0.48866022 -0.26052433 -0.09183718
0.006752258 -0.014876196 -0.10810707 0.20691931 -0.022819882 -0.06881823 -0.07466361 0.029668836
-0.042637605 0.09848416 -0.03706578 -0.064041436 0.75816256 0.25082135 -0.0037694736 2.3191023
-0.034451604 -0.07729894 -0.12618285 -0.022372711 -0.09033116 -0.01462478 0.0106080705 -0.0795768
-0.013310127 0.040232442 0.7847709 -0.54135615 -0.063739285 -0.040194284 -0.08731481 -0.03512984
0.02309406 -0.067309834 -0.08342337 -0.14261378 -0.12353985 0.1105446 0.10071761 2.1938663
-0.01903658 -1.7756361 0.04180685 0.045257874 -0.06256491 -0.14772047 0.051473375 -0.017632421
00000000: 7e0c 20bd b81d 863d ac87 cf3c 6fb8 62bc
00000010: eebb 54bd e7c1 b4bd 3db7 87be 0784 8b3d
00000020: 5e5c 0cbd f03d 35bd afe2 b03e 27da 113d
00000030: a4f4 02bf bf82 87be e0ee 6b3d c8d1 acbd
00000040: b67d 6ebc eb92 14be 82ba 703e 5611 8abc
00000050: 593c 0c3e 8375 be3d 9faf 423e 19ae 20bd
00000060: 3774 17bd 93f6 793f 6faa 0e3e fb5f 563d
00000070: e872 2fbc f8a3 a7be 1f07 b0bc b972 db3c
00000080: 4fbe 593d da9c fcbb df96 80bd 0ae2 b6bd
00000090: 1b0f 9c3c a559 17bd d3b6 8a3e 2b3d 97bd
000000a0: 02d0 c03d 44fd 2a3d dfeb 8c3d f2a2 bd3d
000000b0: d75f 573f 1ef5 493f 8c88 70bb 9c1c a5bd
000000c0: 58e0 ff3d 4475 79bd a8d3 22bc f168 f7bf
000000d0: 28fd acbd 6ae1 0cbd 06b7 243e 55a6 5ebd
000000e0: 02ec 723d 5e83 6b3d f665 3fbd 50bf bf3c
000000f0: 26cd 4dbc 9ca7 3dbd 10a6 50bc 57ca 793e
00000100: 1778 af3a b523 bebe 85d9 9b3d 51c9 1c3d
00000110: 0ddc 813d 1a02 edbd f000 4fbd 7775 12be
00000120: ce67 5a3d e9e6 9c3f 3470 17bd 3801 573c
00000130: 68bd 673f 2026 a3bc 3907 673f 5781 07bf
00000140: 1583 29bd 0462 6c3e c852 a93e b383 3a3d
00000150: bff9 87bd a9f5 babd cc10 0fbd a523 30bd
00000160: a11e 93bd f62f 6abb 093a 42bc b791 97bd
00000170: 8434 8ebc cbd8 723e b41d 57bd f70f a63e
00000180: 0b53 fbbd cf35 d93b 9634 d23c 7422 66bd
00000190: 8fb3 7dbd aa62 1fbd f160 a13b 408a 40bd
000001a0: 20de 5a3f 84c5 72bc 8204 8a3d a7f0 25bd
000001b0: 4cd6 53bd 3a1b 043d a87c b2bd 11c5 713d
000001c0: fd51 2abe c8ac 13bd ae3c 393c e847 debd
000001d0: d9a7 c0bf 9e87 413e ba47 0fc0 6b5a b9be
000001e0: 677d 8d3e 38ac d8bd 6136 54bd ba23 313e
000001f0: f113 8cbd d4c4 143e 9b80 1bc0 2ab7 33bd
00000200: 5053 a2bd 8707 29bf 8729 daba 552b 0abe
00000210: a121 7a3d af3c 223e dcf7 8abe f784 193e
00000220: 7153 01bc 42dd 50bd 67f8 3fbe ad02 58be
00000230: 20d2 bbbc 9315 b7bd 42ee 9dbc 7dbd 9dbc
00000240: 859f 60bc 81a2 d93d 8a2e 7a3e a942 7e3d
00000250: 2272 27bc 99ea 36bd bcc2 73bd 431c 5fbd
00000260: f7c8 0f3e 578f 84be 9a62 6bba d332 bd3c
00000270: 6601 a6bd 89a3 edbd dd3c 513e 84d5 0b3d
00000280: 2e98 383f 5fda b0bd c303 5f3b 465f d93d
00000290: 0338 7bbc 03bf bdbd bb94 62bd db64 2d3c
000002a0: 0880 ba3d a2c3 b43d a0cb 0e3e 779b babc
000002b0: b316 77bd acfb 37bc 2610 863c a6d1 7cbd
000002c0: 2855 8cbd 6b44 1440 529d a03e 6a49 adbd
000002d0: 2cbe a03d ad26 a1bd cd7a 393d 88ec b3bc
000002e0: 367a f2bd 5385 613c 4c14 ffbc ce42 90bd
000002f0: 3e2e db3a e6b2 eabc b26f 0bbd e8e7 99bb
00000300: 5426 0bbd 0644 493f a731 a9be 087d f63d
00000310: a16f babd c34c f83f a4f0 07bf 67e3 2bbe
00000320: 6e47 efbc abd7 0b3d e992 ea3d 644e 313e
00000330: d8f8 2b3f ac31 fabe 7263 85be 2215 bcbd
00000340: 0c42 dd3b 4abb 73bc 3d67 ddbd a8e2 533e
00000350: c3f0 babc 92f0 8cbd 3ce9 98bd 0f0c f33c
00000360: c5a4 2ebd 10b2 c93d 4ad2 17bd 2828 83bd
00000370: f116 423f a86b 803e 4609 77bb 2c6c 1440
00000380: 201d 0dbd e84e 9ebd 1436 01be fa46 b7bc
00000390: 8bff b8bd c69c 6fbc 79cd 2d3c 29f9 a2bd
000003a0: b812 5abc c6ca 243d bfe6 483f 5196 0abf
000003b0: be89 82bd c3a2 24bd 1bd2 b2bd 4fe4 0fbd
000003c0: c12f bd3c bdd9 89bd dfd9 aabd 5909 12be
000003d0: 7602 fdbd 3565 e23d 0945 ce3d 4e68 0c40
000003e0: 9af2 9bbc 0b48 e3bf a93d 2b3d 5260 393d
000003f0: 0822 80bd 0944 17be bfd5 523d de71 90bc

l3.weight f4 [1, 300]
-0.02454683 0.15877633 0.035742387 -0.143984 0.005650308 -0.017500453 0.37238795 -0.1583989
0.025536362 -0.03045329 0.9825199 -0.15724517 -0.48042536 -0.15322815 -0.16194172 0.0084032435
0.019674733 -0.24836309 0.5462092 0.028344246 -0.39499113 -0.20592558 -0.6279273 0.0020602704
-0.008709156 -0.45470297 -0.55637807 0.040158387 0.03425975 -0.2579023 0.0051528793 0.01022192
-0.17017803 -0.08623161 0.0010823478 0.23477738 -0.0024912425 0.027467398 0.16608566 0.010043821
0.047182642 -0.15910698 -0.16048366 -0.19888851 -0.15288164 -0.11284323 -0.1768431 0.015400784
0.10927923 0.021368565 -0.009839159 1.3341073 0.027678732 0.030907825 0.19501914 -0.8870712
-0.2282856 -0.07998322 0.03672989 -0.17934826 -0.039931826 -0.14788519 -0.007815812 0.19725247
-0.14905171 0.014632188 0.091307305 -1.2915497 -0.18237425 0.288254 0.031328816 -0.024555761
-0.14103536 -1.3633274 0.028030433 -0.17787834 -0.17091009 -0.12443499 -0.1957469 1.3336072
0.020245787 0.21861356 -0.46813306 -0.18820351 -0.03134159 0.016222687 -0.0074727884 -0.02583171
0.020529147 0.0068475846 0.01245118 -0.02454052 -0.50967854 0.18353425 -0.0871735 0.35606593
-0.018493293 -0.13930026 -0.2009029 0.04849207 -0.020012375 0.008138419 -0.017538978 -0.034054816
-0.30997363 -0.10450288 -0.12820756 -0.15385076 -0.008006443 -0.44137463 0.028599901 -0.11247875
0.06080635 -0.011219267 -0.14475854 -0.011754699 1.0694802 0.09704847 0.93073976 -0.86767435
0.08772319 -0.010595989 0.0042032357 0.31147513 0.014713179 0.07832989 0.6284193 -0.23187195
0.021533217 0.3840779 -0.0015873942 0.02922745 -0.18406568 -0.369455 0.1694625 0.11281517
0.039480276 -0.020886239 -0.2190275 -0.23400727 0.026316121 0.00077312713 0.02387414 -0.11800799
-0.25148535 -0.3020883 -0.46693164 -0.12075625 0.019698096 -0.0031569146 -0.01142867 0.009102745
-0.33099425 0.23078242 -0.021311445 -0.09736455 0.035000034 0.0059469915 -2.84897 -0.1776991
-0.08714013 -0.02830543 -0.15238151 0.09917063 -0.01355614 0.003133682 -0.2862868 -0.012223836
0.17536476 -0.40342522 0.22416939 0.01613577 -0.030867638 -0.016614508 -0.1527774 0.0061404975
0.08108287 -1.3476167 0.2997322 -0.0046420796 0.03330909 -0.018512178 -0.20037705 -0.11550955
0.004488229 -0.2110422 0.005964517 -0.007880317 -0.009689975 -0.030377591 0.027545242 -0.15611367
-0.029748453 -0.110319704 -0.4913022 -0.22833863 -0.027264345 -0.6418017 1.1802976 -0.3556653
-0.027340382 -0.18748161 -0.37603492 -0.025967535 -1.2027258 -1.4836036 -0.3351901 0.045883212
-0.012462167 0.00022103933 0.004273002 0.3179607 -0.0027962204 -0.0076661822 0.0052013653 -0.16057537
-0.03289299 0.0954736 -0.004856672 -0.7753072 -0.34484574 -1.4030876 -0.00202182 -1.4215378
0.025420446 0.025764262 0.03217135 -0.09980791 0.021642791 0.015529993 -0.19646783 -0.015330471
-0.01583286 -0.20411704 -0.2497024 -0.51755905 0.026687635 -0.009264803 -0.04043275 0.002030996
-0.1810605 0.030760696 -0.024902798 0.13989383 -0.006204346 0.16163263 0.0612638 -1.3261825
0.056796316 1.2724515 -0.13875823 -0.198645 -0.027319765 -0.13349229 -0.0618413 -0.0037446602
00000000: 6f16 c9bc 4396 223e 9c66 123d 8b70 13be
00000010: 3826 b93b 1c5d 8fbc a2a9 be3e 5233 22be
00000020: a231 d13c 2e79 f9bc 6d86 7b3f e104 21be
00000030: 50fa f5be d7e7 1cbe 0dd4 25be c2ad 093c
00000040: e82c a13c e552 7ebe 5ed4 0b3f 3132 e83c
00000050: 473c cabe 28de 52be d8bf 20bf 9a05 073b
00000060: d9b0 0ebc d4ce e8be cb6e 0ebf 1f7d 243d
00000070: f453 0c3d c50b 84be 7cd9 a83b d779 273c
00000080: 2643 2ebe 339a b0bd 91dd 8d3a 7b69 703e
00000090: 1d44 23bb 4f03 e13c 5c12 2a3e d78e 243c
000000a0: 9642 413d f1ec 22be d455 24be 6ea9 4bbe
000000b0: 018d 1cbe 5a1a e7bd 5c16 35be 9253 7c3c
000000c0: cacd df3d 210d af3c 6d34 21bc 07c4 aa3f
000000d0: 82be e23c 6832 fd3c 19b3 473e 1917 63bf
000000e0: b3c3 69be 3ece a3bd 1572 163d 12a7 37be
000000f0: 8e8f 23bd 376f 17be e40d 00bc 8dfc 493e
00000100: 03a1 18be d8bb 6f3c 53ff ba3d 8051 a5bf
00000110: 51c0 3abe 0796 933e a552 003d 2a29 c9bc
00000120: 936b 10be 8381 aebf 14a0 e53c bd25 36be
00000130: 0e03 2fbe c6d7 febd e071 48be a4b3 aa3f
00000140: 7eda a53c 3cdc 5f3e 23af efbe 6cb8 40be
00000150: 0a60 00bd 71e5 843c 4bde f4bb 069d d3bc
00000160: be2c a83c b461 e03b 0900 4c3c 3309 c9bc
00000170: 4b7a 02bf 67f0 3b3e 0588 b2bd 464e b63e
00000180: 3f7f 97bc baa4 0ebe 7db9 4dbe 9f9f 463d
00000190: fef0 a3bc 0157 053c e7ad 8fbc 107d 0bbd
000001a0: ddb4 9ebe 9b05 d6bd d848 03be 0e8b 1dbe
000001b0: 752d 03bc dbfb e1be 574a ea3c 425b e6bd
000001c0: 1410 793d 04d1 37bc 953b 14be c896 40bc
000001d0: bae4 883f 59c1 c63d f644 6e3f e81f 5ebf
000001e0: 37a8 b33d cd9a 2dbc 4cbb 893b ab79 9f3e
000001f0: 8c0f 713c 6c6b a03d 16e0 203f d76f 6dbe
00000200: 6e66 b03c dca5 c43e 1c10 d0ba 686e ef3c
00000210: b77b 3cbe 3529 bdbe 9487 2d3e a40b e73d
00000220: 12b6 213d 9e19 abbc bf48 60be 9a9f 6fbe
00000230: e894 d73c afab 4a3a b393 c33c 2cae f1bd
00000240: b0c2 80be 51ab 9abe aa11 efbe 0e4f f7bd
00000250: e75d a13c 3de4 4ebb 513f 3bbc ae23 153c
00000260: 1478 a9be 3a52 6c3e 5795 aebc 1167 c7bd
00000270: 325c 0f3d fbde c23b 8655 36c0 c1f6 35be
00000280: 8676 b2bd cae0 e7bc e609 1cbe f919 cb3d
00000290: 921a 5ebc 765e 4d3b 2f94 92be 7c46 48bc
000002a0: d292 333e c08d cebe a98c 653e 2a2f 843c
000002b0: 21de fcbc 261b 88bc ae71 1cbe 3a36 c93b
000002c0: c70e a63d b47e acbf 8076 993e 961c 98bb
000002d0: 1d6f 083d daa6 97bc a42f 4dbe 4590 ecbd
000002e0: fe11 933b 721b 58be ff71 c33b 721c 01bc
000002f0: b3c2 1ebc 6dda f8bc 8fa6 e13c 43dc 1fbe
00000300: 07b3 f3bc 4cef e1bd f68b fbbe 9ad1 69be
00000310: 7a59 dfbc 1e4d 24bf fe13 973f c319 b6be
00000320: f0f8 dfbc 2efb 3fbe a687 c0be deb9 d4bc
00000330: ebf2 99bf b9e6 bdbf 099e abbe 09f0 3b3d
00000340: 1e2e 4cbc cbc6 6739 8a04 8c3b bfcb a23e
00000350: cb40 37bb 9934 fbbb 3770 aa3b df6d 24be
00000360: cdba 06bd aa87 c33d b824 9fbb 887a 46bf
00000370: 9f8f b0be 6098 b3bf 8380 04bb f3f4 b5bf
00000380: 8a3e d03c 930f d33c 1bc6 033d 1768 ccbd
00000390: 394c b13c 8371 7e3c dd2e 49be a82c 7bbc
000003a0: eab3 81bc 0f04 51be fcb1 7fbe c07e 04bf
000003b0: 07a0 da3c 66cb 17bc d09c 25bd 751a 053b
000003c0: ec67 39be dbfd fb3c f400 ccbc 5440 0f3e
000003d0: d44d cbbb 0683 253e c0ef 7a3d 59c0 a9bf
000003e0: 41a3 683d b1df a23f a316 0ebe 9869 4bbe
000003f0: b3cd dfbc 34b2 08be 4e4d 7dbd f968 75bb
