TD3-conf1/preTrained/TD3_BipedalWalker-v3_0_crtic_2_ep500.pth (torch_old, 529772 bytes, 5 tensors)

l1.weight f4 [400, 28]
0	0xbdce1b6e	-0.100638255
1	0x3dd1fbf3	0.102531336
2	0xbe3269ae	-0.17423126
3	0x3e434dca	0.19072643
4	0xbd41df32	-0.047331996
5	0xbd133d68	-0.035947233
6	0x3e1a65ba	0.15077868
7	0xbddbd7e0	-0.10734534
8	0xbe71f12f	-0.2362716
9	0x3c35b792	0.01109113
10	0x3dcf111e	0.10110687
11	0x3e4a3410	0.19746423
12	0xbcc88f42	-0.024482373
13	0xbe4b726c	-0.19867867
14	0xbe9fcfa6	-0.3121311
15	0xbf00d06c	-0.50318027
16	0xbf0dc5c7	-0.5537991
17	0xbf06b8c3	-0.52625674
18	0xbea40f48	-0.3204291
19	0xbe82e572	-0.25565678
20	0xbf05bb9f	-0.5223941
21	0xbeac5cc3	-0.33664522
22	0xbf0c6f56	-0.54857385
23	0xbf059d77	-0.521934
24	0x3e1105f0	0.14162421
25	0xbcf76f4a	-0.030204434
26	0x3e257649	0.16158403
27	0xbe1a32c4	-0.15058428
28	0xbe37b955	-0.17941792
29	0xc02bc7e0	-2.6840744
30	0xc043a080	-3.0566711
31	0x4013a0cf	2.30669
32	0x3f9c3147	1.2202538
33	0x3e586457	0.21132027
34	0xbeb4dabe	-0.35323137
35	0x3d24fe10	0.040281355
36	0xbe58c775	-0.21169837
37	0x3f3d1e49	0.73874336
38	0xbe6ffc46	-0.23436078
39	0xbd51858a	-0.051152743
40	0xbe2e8662	-0.1704345
41	0xbcb99a38	-0.022656545
42	0x3e3f2833	0.18667679
43	0x3decb54d	0.11558018
44	0xbcdcc390	-0.02694872
45	0xbc62ae55	-0.013835509
46	0x3d000f36	0.031264506
47	0x3e6bd996	0.23032221
48	0x3e07af9c	0.13250583
49	0x3db98631	0.09058798
50	0xbec5f3bb	-0.38662514
51	0xbd6c40d5	-0.057679016
52	0x3d8f6581	0.07001782
53	0x3c417890	0.0118085295
54	0x3d54f20e	0.051988654
55	0x3d779a61	0.06044996
56	0x3efeb9db	0.4975117
57	0x4035e18a	2.8418908
58	0xc039765f	-2.8978498
59	0xc07a3b72	-3.9098783
60	0xbf40616c	-0.75148654
61	0x3e178d87	0.14800082
62	0xbd689b0b	-0.056788485
63	0xbe2c5ffb	-0.16833489
64	0x3e3be846	0.18350324
65	0x3f1b6b06	0.6071018
66	0xbf878708	-1.0588083
67	0xbea98491	-0.33108953
68	0x3efab6d9	0.48967627
69	0xbeaec3fe	-0.34133905
70	0xbf16ddcc	-0.58932185
71	0xbf39771d	-0.7244738
72	0xbee3b739	-0.44475725
73	0xbecc2289	-0.39870098
74	0xbec9bbcb	-0.39401087
75	0xbeb0f2dd	-0.3456029
76	0xbef1bf06	-0.47216052
77	0xbf0a2c86	-0.5397419
78	0xbebd31b8	-0.36951995
79	0xbe7ce757	-0.24697624
80	0x3d99a46a	0.075020626
81	0x3f0d5a56	0.55215967
82	0x3e293906	0.16525659
83	0x3dfae60c	0.12250909
84	0x3ce16bfe	0.027517315
85	0x3e73b3af	0.23799013
86	0x3f26c31f	0.6514148
87	0xbe3e4cbc	-0.1858396
88	0x3e687652	0.22701386
89	0xbe849e68	-0.25902104
90	0x3ea254a8	0.31705213
91	0x3e114c2e	0.14189216
92	0xbeb19794	-0.34685957
93	0x3e911e86	0.283436
94	0xbd772985	-0.06034233
95	0x3c837d30	0.016050905
96	0x3e01be20	0.12670183
97	0xbe21f344	-0.15815455
98	0xbec640ac	-0.38721216
99	0xbec699be	-0.3878917
100	0xbe90288f	-0.28155944
101	0xbf0a4c85	-0.5402301
102	0xbebd6162	-0.3698836
103	0xbea88b5c	-0.32918823
104	0xbf2257cf	-0.63415235
105	0xbf1de527	-0.61677784
106	0xbf021d20	-0.5082569
107	0xbea107af	-0.31451175
108	0x3ea24578	0.31693625
109	0x3e3b163a	0.18270198
110	0x3e92d78e	0.2868008
111	0xbe6a70f0	-0.22894645
112	0xbda5928d	-0.08084593
113	0x3e651036	0.22369465
114	0x3f245daf	0.6420545
115	0xbe0c1e67	-0.13683473
116	0xbd93edba	-0.07223077
117	0xbee6595a	-0.44990045
118	0x3e44cd1b	0.19218867
119	0x3bfc6785	0.00770277
120	0xbe90d52a	-0.2828763
121	0xbdc04cc7	-0.09389644
122	0x3e363299	0.17792739
123	0xbd022ff7	-0.031784024
124	0x3e040668	0.12893069
125	0xbe14beaa	-0.14525858
126	0xbf4076ac	-0.7518108
127	0xbf1187f1	-0.56848055
128	0xbf48486f	-0.78235525
129	0xbf030cb3	-0.5119125
130	0xbef03e96	-0.4692275
131	0xbf349068	-0.70532846
132	0xbee74399	-0.4516876
133	0xbf02ea9d	-0.5113924
134	0xbf437747	-0.7635388
135	0xbf1e159b	-0.6175172
136	0x3ed92979	0.42414454
137	0x3e4c01b1	0.1992252
138	0x3e2c5773	0.16830234
139	0xbdd8774f	-0.10569631
140	0xbc89ea82	-0.016835455
141	0x3f8a34cc	1.0797362
142	0xbedbdba0	-0.42940998
143	0xc033969f	-2.8060682
144	0x3ba6d882	0.0050917277
145	0xbe6c7c41	-0.23094274
146	0xbea53bef	-0.32272288
147	0xbee8dd47	-0.4548132
148	0x3e08cb19	0.13358726
149	0x3f146f70	0.5798254
150	0x3f909c8b	1.1297773
151	0xbf8e193b	-1.110145
152	0x3f1b0a99	0.60563046
153	0xbeb964a7	-0.36209604
154	0xbec7dd51	-0.3903604
155	0xbeaaeda2	-0.33384424
156	0xbf06f37f	-0.52715296
157	0xbecfc519	-0.4058006
158	0xbf0f676f	-0.560172
159	0xbed292ab	-0.41127524
160	0xbed3b2b6	-0.41347283
161	0xbefe18a2	-0.49628168
162	0xbee2ff59	-0.4433544
163	0xbe9c75c3	-0.30558595
164	0x3d8ce93f	0.06880426
165	0xbe343864	-0.17599636
166	0x3eabf246	0.33583277
167	0x3d1649bf	0.036691424
168	0x3ece2640	0.40263557
169	0xbf1a3e89	-0.6025167
170	0xbfc01452	-1.5006201
171	0xbd221005	-0.03956606
172	0x3f9c0d50	1.2191563
173	0xbf98177a	-1.1882164
174	0x3edd7853	0.43255863
175	0xbf533e47	-0.825169
176	0xbfa1d6f0	-1.2643719
177	0xbc88e7cd	-0.016712094
178	0x3f8c7711	1.0973836
179	0xbf0ae7dd	-0.54260045
180	0x3ecb06bf	0.39653584
181	0xbfd718e4	-1.6804471
182	0xbefcc498	-0.4936874
183	0xbe3da9b6	-0.18521771
184	0xbe429c4c	-0.19004935
185	0xbf077b83	-0.5292284
186	0xbecc982f	-0.39959857
187	0xbf038fb5	-0.51391155
188	0xbe824884	-0.2544595
189	0xbea4c9e5	-0.32185283
190	0xbec2ddb4	-0.3805977
191	0xbef314b4	-0.47476733
192	0xbdfbf5cc	-0.123027414
193	0x3c949100	0.018135548
194	0x3efd71a9	0.49500778
195	0xbc8dd5bd	-0.017313832
196	0x3d5f3f21	0.054503564
197	0x3d8b2631	0.06794394
198	0x3b5c5515	0.0033620049
199	0xbd9fec46	-0.078087375
200	0x3b779b83	0.0037781901
201	0xbd8cd277	-0.068760805
202	0x3dd27dba	0.10277887
203	0x3d9ecd06	0.07753949
204	0x3d83c23b	0.06433531
205	0x3dd7f339	0.10544438
206	0xbd2a51fd	-0.041582096
207	0x3d7bec3c	0.061504588
208	0x3dfb3d73	0.1226758
209	0x3da3ff8b	0.08007725
210	0xbea8e3ad	-0.32986203
211	0xbdc758bb	-0.09733721
212	0xbe1dafef	-0.15399145
213	0xbe40fb1b	-0.18845789
214	0xbde523f4	-0.11188498
215	0xbec6e29a	-0.38844758
216	0xbd2ab243	-0.04167391
217	0xbe60f367	-0.2196785
218	0xbe37292d	-0.17886801
219	0xbeb934f4	-0.36173213
220	0x3dae0ae1	0.08498169
221	0xbdaefe8e	-0.08544646
222	0x3e013a24	0.12619835
223	0xbd3eada6	-0.046552323
224	0xbdf44b6b	-0.11928447
225	0x3e4c440e	0.19947836
226	0xbe30bfef	-0.17260717
227	0xbba9a5e7	-0.005177248
228	0x3d77ae23	0.060468804
229	0xbdfb60ca	-0.122743204
230	0x3e0eda75	0.13950522
231	0x3e2b5fea	0.16735807
232	0xbdce3da1	-0.100703485
233	0xbe198e4d	-0.1499569
234	0x3e0c41c4	0.13696963
235	0x3de65198	0.112460315
236	0x3d34fa08	0.04418376
237	0x3c8b7ea8	0.017028168
238	0xbee1dd3a	-0.44114095
239	0xbebd5907	-0.36981985
240	0xbebf8512	-0.37406212
241	0xbf101ab4	-0.56290746
242	0xbeaca118	-0.33716655
243	0xbefd0f35	-0.49425665
244	0xbe8c6d2b	-0.2742704
245	0xbf031b2d	-0.5121334
246	0xbec05983	-0.37568292
247	0xbe847bfb	-0.2587584
248	0x3d23ed3a	0.04002116
249	0x3cb05fc8	0.021530047
250	0x3db89b6a	0.09014018
251	0x3cf24fcd	0.029579068
252	0x3ec9f07d	0.3944129
253	0xc06f6ca8	-3.7410069
254	0x3fe465fe	1.7843626
255	0xc0848d77	-4.1422687

l1.bias f4 [400]
0	0xbe366cfb	-0.1781501
1	0xbebef2c5	-0.37294593
2	0x3eabb388	0.3353541
3	0xbe5219d3	-0.20517664
4	0xbddd533c	-0.10806891
5	0xb953aefc	-0.00020187715
6	0xbf045840	-0.5169716
7	0xbc4e596f	-0.012594565
8	0xbe8b1402	-0.27163702
9	0xbe9aa463	-0.30203542
10	0x3de0c148	0.109743655
11	0xbea9c9d1	-0.33161786
12	0xbe621140	-0.22076893
13	0xbe7301a1	-0.2373109
14	0xbece460b	-0.40287814
15	0xbea44892	-0.32086617
16	0x3d649372	0.055804677
17	0xbe113781	-0.1418133
18	0xbefb045c	-0.49026763
19	0xbd8f7466	-0.07004623
20	0x3e60bcb0	0.21946979
21	0xbf809aeb	-1.0047277
22	0x3d36db58	0.044642776
23	0xbf180e26	-0.5939659
24	0x3e375f0e	0.17907354
25	0x3db9b2cd	0.09067307
26	0xbf2bd8d7	-0.67127746
27	0xbeb29a71	-0.34883454
28	0xbe89b5fa	-0.2689665
29	0xbf2b404c	-0.66894984
30	0xbf096069	-0.53662735
31	0xbef48776	-0.47759598
32	0x3ef6a3dc	0.4817189
33	0xbe9e6c14	-0.30941832
34	0xbf1429f3	-0.5787651
35	0xbf0b2a80	-0.54361725
36	0xbea063f1	-0.3132625
37	0xbe5d8502	-0.2163277
38	0x39955a68	0.00028486853
39	0x3ce30609	0.027712839
40	0xbf12276f	-0.5709142
41	0x3f10893a	0.5645939
42	0xbedda161	-0.43287185
43	0xbf2cf7de	-0.67565715
44	0xbf07c51e	-0.5303515
45	0xbe33cd6e	-0.17558834
46	0xbe21bbab	-0.15794246
47	0xbe907e81	-0.28221515
48	0xbda3495b	-0.07972976
49	0x3dc7485b	0.097305976
50	0xbf25bfcb	-0.6474578
51	0x3c9a8fe4	0.01886744
52	0xbf2a1c03	-0.6644899
53	0xbf1a9dfc	-0.60397315
54	0xbec923a5	-0.39285007
55	0xbe5d5b3f	-0.21616839
56	0xbd764622	-0.060125478
57	0x3ea24447	0.31692716
58	0x3edd333f	0.4320316
59	0x3eeca5ba	0.4622019
60	0x3df3e2a0	0.1190846
61	0xbed6f547	-0.41984007
62	0xbe71bbaa	-0.23606744
63	0xbe6113cd	-0.2198021
64	0xbecb7e88	-0.39744973
65	0xbf0863c4	-0.5327723
66	0xbda1967f	-0.07890033
67	0x3ed843a6	0.42239112
68	0xbdfa5015	-0.12222306
69	0xbf2b36e3	-0.66880625
70	0xbebf1c79	-0.3732641
71	0x3f338f61	0.70140654
72	0x3f8c6abf	1.0970076
73	0xbf0cd35c	-0.5501001
74	0xbe9f77aa	-0.31145984
75	0xbf2aa5ec	-0.66659427
76	0xbe2cae6e	-0.16863415
77	0x3f0194bf	0.50617594
78	0xbe126d30	-0.14299464
79	0xbe8d5251	-0.27601865
80	0xbf40fe5f	-0.7538814
81	0x3f581b32	0.84416497
82	0xbec08778	-0.37603354
83	0xbf357a7c	-0.7089002
84	0xbf07703b	-0.52905625
85	0x3d97fe87	0.07421594
86	0xbece3185	-0.40272155
87	0xbf2a1424	-0.6643698
88	0x3d53e54a	0.05173234
89	0x3db82b64	0.08992651
90	0xbf3a75de	-0.728361
91	0xbf44b3a8	-0.76836634
92	0xbd82f797	-0.0639488
93	0x3f22c4fe	0.63581836
94	0xbe276e46	-0.1635066
95	0xbd73aecc	-0.05949287
96	0xbf01f5dc	-0.50765777
97	0xbeac8969	-0.33698586
98	0xbec2b846	-0.38031214
99	0x3db54478	0.0885095
100	0xbe5d6d18	-0.21623647
101	0xbef2d7f9	-0.474304
102	0x3eaa473a	0.33257467
103	0xbf12c1cb	-0.57326955
104	0xbe844277	-0.2583196
105	0xbe9aa8ed	-0.30207005
106	0xbc8ec1bf	-0.01742637
107	0xbf05eda6	-0.5231575
108	0xbdf3f300	-0.11911583
109	0xbf16a740	-0.58848953
110	0x3fa61963	1.2976497
111	0xbeb501ae	-0.35352844
112	0x3d97464b	0.07386454
113	0xbe594542	-0.21217826
114	0xbf12781b	-0.57214516
115	0x3ebb773f	0.36614415
116	0x3e2bcc37	0.1677712
117	0xbf5469e0	-0.8297405
118	0xbda11624	-0.07865551
119	0xbdf947bb	-0.121718846
120	0xbd6658c9	-0.056237016
121	0xbec2f1b1	-0.3807502
122	0x3bccf800	0.00625515
123	0xbf491f23	-0.78563136
124	0x3de72988	0.11287218
125	0xbdb55415	-0.08853928
126	0x3fba7ec0	1.4569931
127	0xbf03c538	-0.51472807
128	0xbe42af89	-0.19012274
129	0xbe729f71	-0.23693635
130	0xbe98e136	-0.29859322
131	0xbe3f12ae	-0.1865947
132	0xbf04e88d	-0.51917344
133	0xbeae5fdc	-0.3405751
134	0xbe78daa6	-0.24302158
135	0xbe6b4842	-0.22976783
136	0xbf33ba7d	-0.70206434
137	0xbe71db5c	-0.23618835
138	0xbf6c3f52	-0.9228412
139	0xbf3f01b2	-0.7461196
140	0xbe24240c	-0.16029376
141	0xbf2c0b3c	-0.6720464
142	0xbd0590b3	-0.0326087
143	0xbe39455c	-0.18092865
144	0x3f3f6126	0.7475761
145	0xbe1e743d	-0.15474029
146	0xbee00194	-0.43751204
147	0x3f577836	0.841678
148	0x3f909ff5	1.1298815
149	0x3d351cad	0.0442168
150	0xbd02d51a	-0.03194151
151	0xbf1d212e	-0.61378753
152	0xbf250a86	-0.6446918
153	0xbe3ae9a7	-0.18253194
154	0xbe039139	-0.12848367
155	0xbe76c4dd	-0.24098535
156	0xbe9d3973	-0.30707893
157	0xbf0eb3de	-0.55743206
158	0xbe2962f8	-0.1654166
159	0xbeaa406d	-0.33252278
160	0xbd50900c	-0.050918624
161	0x3f341698	0.70346975
162	0xbf4c6f1d	-0.79857045
163	0xbece9f12	-0.40355736
164	0xbf66a669	-0.9009767
165	0xbec0a8a1	-0.37628654
166	0x3e2f5f43	0.17126183
167	0xbeb871eb	-0.36024413
168	0xbf2520a7	-0.6450295
169	0xbeae511e	-0.34046263
170	0xbdd855c2	-0.10563232
171	0xbd10f1bb	-0.035386782
172	0xbf13714f	-0.5759477
173	0xbe086b79	-0.13322248
174	0xbea48834	-0.32135165
175	0xbe88b9ef	-0.26704356
176	0xbdd18a71	-0.10231484
177	0xbf2ab61d	-0.6668413
178	0xbede2305	-0.43386093
179	0xbf568d68	-0.8380952
180	0xbf29f0ed	-0.6638325
181	0x3d80e4bb	0.06293627
182	0xbe43305d	-0.19061418
183	0xbebf844a	-0.37405616
184	0xbf342439	-0.7036777
185	0xbf1fb454	-0.62384534
186	0xbeb3f04d	-0.35144272
187	0xbe9d1e5f	-0.30687234
188	0xbf338120	-0.70118904
189	0xbdffd7a0	-0.12492299
190	0xbf87e0b8	-1.0615454
191	0xbe5f779f	-0.21822976
192	0xbf113878	-0.5672679
193	0xbf3a9adc	-0.72892547
194	0xbf22ea34	-0.63638616
195	0x3ec788c5	0.38971534
196	0x3ef3241d	0.4748849
197	0x3f292f29	0.66087586
198	0xbf025a18	-0.5091872
199	0xbf7a2ea8	-0.9772744
200	0xbf3ffab7	-0.74991935
201	0xbf26f7c8	-0.65221834
202	0x3e37bec9	0.17943873
203	0xbdbc8cc6	-0.09206538
204	0xbf5cf54b	-0.8631179
205	0xbeefb717	-0.46819374
206	0xbe5741dc	-0.21021217
207	0xbea098b7	-0.31366512
208	0xbf64e40b	-0.89410466
209	0xbd1e7798	-0.038688272
210	0xbee926ec	-0.45537508
211	0xbe8e7533	-0.2782379
212	0xbeaa0e6a	-0.33214122
213	0xbf1fc1ad	-0.624049
214	0xbf384e72	-0.719947
215	0xbeb78fe6	-0.35851973
216	0xbf6eb453	-0.932439
217	0xbf66143d	-0.8987463
218	0xbe984cfa	-0.29746228
219	0x3ecdf01c	0.4022225
220	0xbf5dad6f	-0.86592764
221	0xbf3c08aa	-0.7345072
222	0xbe1be290	-0.15223145
223	0xbe8dc60d	-0.27690163
224	0xbefe912f	-0.4972014
225	0xbf08e5a0	-0.5347538
226	0x3d422874	0.04740186
227	0xbef1cd7e	-0.4722709
228	0x3d56d7c9	0.052451883
229	0x3f636655	0.8882802
230	0xbe65be5a	-0.22435895
231	0xbf74a85e	-0.9556941
232	0xbf17e75c	-0.593374
233	0xbf2a8d28	-0.6662164
234	0x3eb36e38	0.35045028
235	0xbe0bedc1	-0.13664915
236	0xbe69f58e	-0.22847578
237	0x3e9ffe59	0.3124874
238	0xbc2e2f14	-0.0106313415
239	0x3f7e6112	0.9936687
240	0x3f13ab90	0.5768366
241	0xbe517cd1	-0.2045777
242	0xbefa8849	-0.48932102
243	0x3d0f020b	0.034914058
244	0xbf288567	-0.65828556
245	0x3ee74a44	0.45173848
246	0xbe9dd826	-0.3082897
247	0xbf71ab74	-0.9440224
248	0x3ef5e9a3	0.48029813
249	0x3c7a1d33	0.015265751
250	0x3e49b6d1	0.19698645
251	0xbd6adad6	-0.057337604
252	0x3f92edd5	1.147883
253	0xbda71392	-0.081580296
254	0xbe265172	-0.16242006
255	0xbf41902b	-0.7561061

l2.weight f4 [300, 400]
0	0xbd0b1772	-0.033957906
1	0xbbda95bc	-0.0066706818
2	0xbc972b12	-0.018453155
3	0xbb46cc20	-0.003033407
4	0xbbfde283	-0.0077479496
5	0x3bec3921	0.0072089587
6	0xbd085d2a	-0.033291973
7	0xbcbff1a9	-0.023430662
8	0xbd5c1a41	-0.053735975
9	0xbc09d82f	-0.008413359
10	0x3cc0e505	0.023546705
11	0x3d02e48f	0.03195625
12	0xbcfbe88a	-0.030750532
13	0xbd160b7e	-0.036632054
14	0x3d453533	0.048146438
15	0x3cde2bd8	0.027120516
16	0x3ca7afee	0.020469632
17	0xbc1f842c	-0.009736102
18	0x3c94119e	0.018074807
19	0x3bb71ff4	0.005588526
20	0x3be09682	0.0068538794
21	0xbc085a78	-0.008322351
22	0xbcdcf986	-0.02697445
23	0x3d07e09f	0.0331732
24	0x3c63497f	0.013872503
25	0xbceb10f4	-0.028694607
26	0xbd38114b	-0.044938367
27	0x3c478368	0.012177326
28	0x3d34f07f	0.044174667
29	0x3ca5f751	0.020259531
30	0x3b0acdef	0.0021179875
31	0x3becba6b	0.007224371
32	0x3d236628	0.039892346
33	0x3ce5586a	0.02799626
34	0x3c5937a6	0.0132578965
35	0x3d1fb609	0.03899196
36	0x3d235e35	0.039884765
37	0xbc8229da	-0.015889097
38	0xbc8fe4b8	-0.017565116
39	0x3be9351f	0.007116928
40	0xbd28670e	-0.041113906
41	0xbc401f74	-0.011726249
42	0x3cb34125	0.02188165
43	0x3c9ea966	0.019367885
44	0x3d3e09d3	0.046396088
45	0xbd0313d4	-0.03200133
46	0x3cd07d65	0.025450418
47	0xbc2dbb2c	-0.010603707
48	0xbcba3cea	-0.022734124
49	0xbccc39c4	-0.024929889
50	0x3d0f1a70	0.034937322
51	0xbc35ad8b	-0.011088739
52	0xbd1b79b0	-0.037957847
53	0xbd185d95	-0.03719862
54	0x3c8857b0	0.016643375
55	0x3baf7bb0	0.005355321
56	0x3c87a4a3	0.016557997
57	0xbd2e50fb	-0.042557698
58	0x3d0fbba3	0.035091054
59	0xbd68ca72	-0.056833692
60	0xbcc59d79	-0.02412294
61	0x3cca359a	0.024683762
62	0xbbe35840	-0.0069380105
63	0xbd09eeee	-0.033675127
64	0xbce17267	-0.027520372
65	0xbd33de93	-0.043913435
66	0x3b1cba92	0.0023914916
67	0x3d165539	0.03670237
68	0xbcc44fba	-0.023963798
69	0xbd20f04b	-0.03929166
70	0xb8713e98	-5.7517173e-05
71	0xbd041afa	-0.03225229
72	0x3c08f001	0.008358003
73	0xbca4e2c5	-0.020127663
74	0xbce690c6	-0.028145205
75	0x3c42e648	0.011895724
76	0x3d1fec8b	0.039043944
77	0x3ce984f4	0.02850578
78	0x3d2e8b6f	0.042613443
79	0xbd3bdf55	-0.045867283
80	0x3b95a1dc	0.0045664143
81	0xbcb3ffba	-0.021972526
82	0xbab6c500	-0.0013944209
83	0x3cde9ca8	0.027174309
84	0xbd207fca	-0.03918437
85	0xbd05002a	-0.03247086
86	0xbcae8ddb	-0.021307876
87	0xbcc14cdf	-0.023596225
88	0xbc07095e	-0.008241979
89	0x3cf4355f	0.029810606
90	0x3cfe18b9	0.031017648
91	0xbc061d48	-0.008185692
92	0xbd3be7f3	-0.0458755
93	0xbc48ff73	-0.012267935
94	0x3cb46232	0.02201948
95	0x3d07e173	0.03317399
96	0x3d21141b	0.039325815
97	0xbcd5e8bd	-0.026111955
98	0xbc6d79e0	-0.014494389
99	0xbce19bcb	-0.027540108
100	0x3bf2c3f9	0.0074086157
101	0xbc3be4ff	-0.011468171
102	0xbbe776ac	-0.0070637073
103	0xbd4777e7	-0.048698332
104	0x3c8dbebe	0.017302867
105	0xbc3b1108	-0.011417635
106	0xbbbb0811	-0.0057077487
107	0xbc85ca8e	-0.016331937
108	0xbafe1aa8	-0.0019386606
109	0xbd129c1e	-0.035793416
110	0xbd3d621f	-0.046236154
111	0x3d370c71	0.0446896
112	0x3b4a77b5	0.0030894105
113	0xbd2a9bad	-0.04165237
114	0x3cde1bb6	0.027112823
115	0x3d233c9e	0.03985273
116	0xbd2d8510	-0.042363226
117	0xbd34fb65	-0.04418506
118	0xbd40d24a	-0.047075547
119	0x3d0b8484	0.034061924
120	0xbd1fdc80	-0.039028645
121	0x3d19c302	0.03753949
122	0xbc1c3d88	-0.009536155
123	0xbd6c903e	-0.057754748
124	0xbbf05628	-0.0073344894
125	0xbccdb570	-0.02511093
126	0x3d14eb9b	0.036357503
127	0xbce04daa	-0.027380783
128	0x3d4bb3e3	0.0497321
129	0xbd41882d	-0.047249008
130	0x3b27d31e	0.0025608013
131	0x3d15ca7d	0.03657006
132	0x3be25ef0	0.00690829
133	0xbce190cf	-0.02753487
134	0xbd686e4b	-0.05674581
135	0x3c2301a8	0.009949125
136	0xbc463102	-0.012096645
137	0xbc8ad652	-0.016947899
138	0xbaef5b12	-0.0018261394
139	0x3b9efeb9	0.0048521427
140	0xbd05794f	-0.032586392
141	0xbc7fa8ef	-0.015604242
142	0x3ca960da	0.020676065
143	0xbcaeb9f0	-0.021328896
144	0xbcd42bc6	-0.025899779
145	0xbc702e18	-0.014659427
146	0xbca366c3	-0.019946462
147	0xbbd95511	-0.006632455
148	0xbc925495	-0.017862597
149	0xbcb376de	-0.021907266
150	0xbcd43ff9	-0.02590941
151	0x3d168489	0.03674749
152	0xbd3dbe25	-0.046323914
153	0x3cf5edde	0.03002065
154	0xbb9d3530	-0.0047976
155	0x3cecef06	0.028922569
156	0x3d3b7b8c	0.04577212
157	0x3ca01176	0.019539576
158	0x3c0108a8	0.007875599
159	0xbd38d87f	-0.04512834
160	0xbceea157	-0.029129667
161	0x3c7d95b5	0.0154775875
162	0x3cea35a5	0.028590033
163	0x3cf68782	0.030093912
164	0xbcd4f12a	-0.025993902
165	0xbd24f45a	-0.040272094
166	0xbc939fa5	-0.01802046
167	0xbc2f3738	-0.0106943175
168	0xbcc08e90	-0.02350548
169	0xbce891d5	-0.02838985
170	0xbd31b32d	-0.043383766
171	0x3d3b804f	0.04577666
172	0x3c884a9c	0.016637139
173	0x3c570984	0.013124827
174	0x3b470477	0.0030367651
175	0x3d428ee1	0.04749954
176	0xbd3539cf	-0.044244584
177	0x3b7a5c91	0.0038202147
178	0x3d144479	0.036198113
179	0xbcace29d	-0.021104151
180	0x3d27e117	0.040986147
181	0xbc0cbf04	-0.008590464
182	0x3c944e46	0.01810373
183	0xbd0f6a6f	-0.035013612
184	0x3d473f25	0.048644204
185	0xbcc017e7	-0.023448898
186	0xbd1eea12	-0.038797446
187	0xbc0b67ac	-0.008508604
188	0x3c8b40e2	0.016998712
189	0x3d25c071	0.04046673
190	0xbcea646a	-0.028612334
191	0x3c38686c	0.011255365
192	0xbc2d7edc	-0.010589328
193	0x3ce23aaa	0.027615864
194	0xbae1b263	-0.0017219301
195	0x3cb48e17	0.02204041
196	0x3cbc9429	0.023019867
197	0xbd672031	-0.056427184
198	0xbd06fc82	-0.032955654
199	0x3cf1fb3e	0.029538747
200	0xbd4e11eb	-0.050310057
201	0x3c42e8c0	0.011896312
202	0x3c381d62	0.011237474
203	0x3d0d5982	0.03450919
204	0xbd3c71a4	-0.046006814
205	0xbd3b02d0	-0.04565698
206	0x3c830ed2	0.015998278
207	0x3c5f0c8c	0.013613831
208	0x3ae27f21	0.0017280319
209	0x3c9f48a3	0.019443816
210	0xbca26727	-0.019824577
211	0xbc835636	-0.01603232
212	0xbcfcaa79	-0.030843006
213	0xbcbce712	-0.023059402
214	0xbc9d6cfd	-0.019217009
215	0xbcf51dfc	-0.029921524
216	0xbd4dee5a	-0.050276138
217	0xbd237145	-0.039902944
218	0xbd52f2bb	-0.051501017
219	0x3c2be340	0.010491192
220	0xbb628dd0	-0.003456939
221	0x3c115c80	0.008872151
222	0xbd378e4f	-0.04481345
223	0xbd3a756b	-0.045522135
224	0xbc098fdf	-0.008396118
225	0xbceff80b	-0.02929308
226	0xbd3546d1	-0.04425699
227	0x3d0b58ba	0.034020163
228	0xbcdcaefe	-0.026938912
229	0xbb08385f	-0.0020785553
230	0xbcb0337a	-0.021508921
231	0xbd21464c	-0.03937368
232	0xbcdbc610	-0.026827842
233	0xbd2e4e18	-0.042554945
234	0xbd039d08	-0.03213218
235	0xbb77b8e0	-0.0037799403
236	0xbcbfc7ef	-0.023410765
237	0x3d170e4d	0.036878873
238	0xbc3892e8	-0.011265494
239	0x393b70c9	0.00017875725
240	0xbc7cffa9	-0.0154418135
241	0x3c0016f8	0.007817976
242	0xbd00c2e0	-0.031435847
243	0x3b2fa8a4	0.0026803399
244	0x3cca7a6a	0.024716575
245	0xbc99e37b	-0.018785229
246	0xbd5d175a	-0.053977348
247	0x3c999b5e	0.018750843
248	0x3bf61570	0.00750988
249	0xbd366ef5	-0.04453941
250	0xbd54b2b0	-0.051928222
251	0x3a9258c0	0.0011165366
252	0xbd52db9a	-0.05147896
253	0xbd1eb60d	-0.038747836
254	0x3c443674	0.011975873
255	0xbd13632d	-0.035983253

l2.bias f4 [300]
0	0xbd200c7e	-0.039074413
1	0xbd8ac540	-0.06775904
2	0x3ccf87ac	0.025333248
3	0xbc62b86f	-0.013837918
4	0xbd54bbee	-0.051937036
5	0xbd678910	-0.056527197
6	0xbe50829c	-0.20362324
7	0x3d8b8407	0.068122916
8	0xbd0c5c5e	-0.034267776
9	0x3c71a7bc	0.014749464
10	0x3de22fd7	0.11044281
11	0x3d11da27	0.035608437
12	0xbe9a4f0f	-0.30138442
13	0xbc67812f	-0.014129921
14	0x3d6beee0	0.057600856
15	0xbdacd1c8	-0.0843845
16	0xbc6e7db6	-0.014556339
17	0x3d2156f4	0.039389566
18	0x3c0d0e4c	0.008609366
19	0xbc8a1156	-0.01685397
20	0x3e0c3c59	0.13694896
21	0x3dbe7583	0.09299757
22	0x3e8e1334	0.27749026
23	0xbd20ae19	-0.039228532
24	0xbd177437	-0.036976065
25	0x3f7a9cb1	0.9789534
26	0x3e0eaa6f	0.13932203
27	0x3cbeb4e7	0.02327962
28	0xbc2f72e8	-0.010708548
29	0xbe181a2c	-0.14853734
30	0x3c281fd7	0.010261497
31	0x3cdb72b9	0.026788102
32	0x3d59be4f	0.053160008
33	0x3cc50e41	0.024054648
34	0xbd8096df	-0.062787764
35	0xbdf40a08	-0.11915976
36	0x3c9c0f1b	0.019050172
37	0x3bc0b7d8	0.005881291
38	0x3e07b121	0.13251163
39	0xbd973d2b	-0.07384714
40	0x3cd2b4ba	0.025720943
41	0x3d2afd44	0.04174544
42	0x3d8cebdf	0.06880926
43	0x3dbda2f2	0.09259595
44	0x3f681a94	0.90665555
45	0x3f5f48f7	0.8722071
46	0x3cd29f0d	0.025710607
47	0xbda51c9c	-0.080620974
48	0x3d771d4d	0.060330678
49	0xbd797544	-0.06090285
50	0xbc22d3a8	-0.009938158
51	0xbfc9a27c	-1.5752711
52	0xbdacfd28	-0.08446723
53	0xbd0ce16a	-0.03439466
54	0x3d7b047f	0.061283585
55	0x3d498460	0.04919851
56	0x3d72ec02	0.059307106
57	0x3d6b835e	0.05749833
58	0xbd3f65f6	-0.046728097
59	0x3cbfbf50	0.023406655
60	0xbc4dcd26	-0.012561118
61	0xbd3da79c	-0.046302423
62	0x3c9bd737	0.01902352
63	0x3dc8e283	0.09808829
64	0x3aaf7817	0.001338723
65	0x390c6b58	0.00013391429
66	0x3cc50913	0.024052178
67	0x3b76d2b8	0.003766222
68	0x3d81dc0d	0.063407995
69	0xbdbc094a	-0.09181459
70	0xbd4f00f0	-0.050538003
71	0xbe127577	-0.14302622
72	0x3d5a67ce	0.053321652
73	0x3f92ecc7	1.1478509
74	0xbd177034	-0.03697224
75	0x3c570138	0.013122849
76	0x3f76246d	0.9614933
77	0xbca32620	-0.01991564
78	0x3f7364be	0.95075595
79	0xbf0a74a7	-0.5408425
80	0xbd298315	-0.041384775
81	0x3db176b5	0.0866522
82	0x3e9f345e	0.3109464
83	0x3d3a83b3	0.045535754
84	0xbd87f9bf	-0.06639432
85	0xbdbaf5a9	-0.09128887
86	0xbd0f10cc	-0.034928128
87	0xbd3023a5	-0.043002743
88	0xbd931ea1	-0.071835764
89	0xbb6a2ff6	-0.0035734153
90	0xbc423a09	-0.011854657
91	0xbd9791b7	-0.0740084
92	0x3dd2e942	0.10298397
93	0x3d92c6de	0.07166837
94	0xbcb75b6d	-0.022382462
95	0x3de9bc95	0.11412922
96	0xbdbaae62	-0.09115292
97	0x3bd935cf	0.006628729
98	0x3cd23496	0.02565984
99	0xbd662274	-0.0561852
100	0xbb160317	-0.0022890025
101	0xbd1f62aa	-0.038912453
102	0x3ba160f1	0.0049248864
103	0xbd408a40	-0.047006845
104	0x3f57dcc9	0.84321266
105	0xbc72c584	-0.014817599
106	0x3d8a0482	0.06739141
107	0x3d081bff	0.033229824
108	0xbd53d64c	-0.05171804
109	0x3d041b3a	0.032252528
110	0xbdb27ca8	-0.087151825
111	0x3d71c511	0.059025828
112	0x3caa6235	0.020798782
113	0xbc8bc9bf	-0.017063973
114	0x3c393cae	0.011305971
115	0xbdde47e8	-0.10853559
116	0xbfac482c	-1.3459525
117	0x3dc0a4a3	0.09406402
118	0xbffd5807	-1.9792489
119	0xbe74e6f5	-0.23916228
120	0x3e027da1	0.12743236
121	0xbdd8ac38	-0.10579723
122	0xbd543661	-0.051809672
123	0xbdc4a876	-0.09602444
124	0xbd8c13f1	-0.06839741
125	0x3d5116ad	0.051047016
126	0xbff2d364	-1.8970761
127	0x3d4bac36	0.04972478
128	0xbda25350	-0.07926047
129	0xbec03667	-0.37541506
130	0xbada2987	-0.0016644456
131	0xbe0a2b55	-0.13493092
132	0x3d7a21a1	0.061067227
133	0x3e201660	0.15633535
134	0xbe8d4851	-0.27594236
135	0x3d5a1b0b	0.053248446
136	0xbc015371	-0.007893429
137	0xbd50dd42	-0.050992258
138	0xbdbc777a	-0.09202476
139	0xbe277323	-0.16352515
140	0xbcbbd220	-0.022927344
141	0xbdb71593	-0.08939662
142	0xbc9dee42	-0.01927865
143	0xbc9dbd7d	-0.019255394
144	0x3d38e538	0.045140475
145	0x3dd9a281	0.10626698
146	0x3d8b6194	0.06805721
147	0x3d7e42a9	0.06207529
148	0xbc277222	-0.0102200825
149	0xbd36ea99	-0.044657324
150	0xbd73c2bc	-0.059511885
151	0xbd5f1c43	-0.05447031
152	0x3e0fc8f7	0.14041506
153	0xbe31d740	-0.17367268
154	0xba6b629a	-0.00089792314
155	0x3cbd32d3	0.023095524
156	0xbda60166	-0.081057355
157	0xbdeda389	-0.116034575
158	0x3dcb041b	0.099128924
159	0x3d0bd584	0.03413917
160	0x3f567d69	0.8378511
161	0xbdb0da5f	-0.08635401
162	0x3b5f03c3	0.0034029342
163	0x3cf11d7d	0.029433006
164	0xbc7b3803	-0.015333178
165	0xbdbdbf03	-0.09264948
166	0xbe3dba30	-0.18528056
167	0x3c2d64db	0.010583128
168	0xbd0a52a5	-0.033770222
169	0x3de877c5	0.11350969
170	0x3d6fc0ce	0.058533482
171	0xbcba9b77	-0.02277921
172	0xbb357281	-0.0027686658
173	0xbc37fbac	-0.011229437
174	0x3d4522d7	0.04812893
175	0xbd7cd1a6	-0.061723374
176	0xbd21fa23	-0.03954519
177	0x4001a606	2.0257583
178	0x3e096ae9	0.13419689
179	0xbdad496a	-0.08461268
180	0x3cf1425a	0.029450584
181	0xbda126ad	-0.07868705
182	0x3d397acd	0.045283128
183	0xbcb3ec88	-0.021963373
184	0xbd9ce0b2	-0.07660045
185	0x3d3a7aa8	0.04552713
186	0xbcff144c	-0.031137608
187	0xbd9042ce	-0.07043992
188	0x3adb2e3e	0.0016722155
189	0xbceab2e6	-0.028649759
190	0xbd0b6fb2	-0.034042068
191	0xbb99e7e8	-0.004696835
192	0xbd0b2654	-0.0339721
193	0x3f5fbbba	0.87395823
194	0xbe4fd6ad	-0.20296736
195	0x3df67d08	0.120355666
196	0xbdba6fa1	-0.09103323
197	0x3fd93e06	1.6972053
198	0xbebcedb2	-0.36900097
199	0xbe1f48e0	-0.15555143
200	0xbcef476e	-0.029208865
201	0x3d0bd7ab	0.034141224
202	0x3dea92e9	0.11453802
203	0x3e51c402	0.20484927
204	0x3f13f926	0.57802045
205	0xbe6edb58	-0.2332586
206	0x3c877594	0.016535558
207	0xbdbc1522	-0.09183718
208	0x3bdd420c	0.006752258
209	0xbc73bb4a	-0.014876196
210	0xbddd673d	-0.10810707
211	0x3d7c33c0	0.06157279
212	0xbcbaf0c3	-0.022819882
213	0xbd46e29a	-0.048555948
214	0xbd98e93c	-0.07466361
215	0x3cf30c0f	0.029668836
216	0xbd2ea4c5	-0.042637605
217	0x3c8ad588	0.016947523
218	0xbd17d24a	-0.03706578
219	0xbd8f7010	-0.07003796
220	0x3efcfe42	0.49412733
221	0x3d21cccb	0.039501946
222	0xbb770946	-0.0037694736
223	0x4000d63c	2.0130758
224	0xbd0d1d20	-0.034451604
225	0xbd9e4ee8	-0.07729894
226	0x3c25ccbb	0.010119612
227	0xbcb746fa	-0.022372711
228	0xbdb8ff8b	-0.09033116
229	0xbc6f9cc6	-0.01462478
230	0x3c2dcd79	0.0106080705
231	0xbda2f929	-0.0795768
232	0xbc5a12b8	-0.013310127
233	0x3d24cac6	0.040232442
234	0x3f526969	0.82192093
235	0xbe87a1ab	-0.2649053
236	0xbd8289be	-0.063739285
237	0xbd24a2c3	-0.040194284
238	0xbdb2d21b	-0.08731481
239	0xbd0fe44f	-0.03512984
240	0x3d60b38f	0.05485874
241	0xbd89d9bd	-0.067309834
242	0xbdaad9df	-0.08342337
243	0x3cebda18	0.028790519
244	0xbdc8b1b2	-0.09799518
245	0x3cf68ba5	0.030095885
246	0x3cc28bb9	0.023748266
247	0x3ffcb19e	1.9741704
248	0xbc9bf29a	-0.01903658
249	0xbfc698f7	-1.5515431
250	0x3d2b3da9	0.04180685
251	0x3d396052	0.045257874
252	0xbd802208	-0.06256491
253	0xbc756a45	-0.01497895
254	0x3d52d5bf	0.051473375
255	0x3b403a57	0.0029331648

l3.weight f4 [1, 300]
0	0xbcc9166f	-0.02454683
1	0x3dc9ce28	0.09853774
2	0x3d12669c	0.035742387
3	0xbe13708b	-0.143984
4	0x3bb92638	0.005650308
5	0x3c694bb8	0.014239244
6	0x3eb2df4c	0.34935987
7	0xbe223352	-0.1583989
8	0x3cd131a2	0.025536362
9	0xbd076656	-0.03305658
10	0x3f5f8466	0.873114
11	0xbe2104e1	-0.15724517
12	0xbeab2a79	-0.33430842
13	0x3d1072ef	0.03526586
14	0xbe25d40d	-0.16194172
15	0x3c09adc2	0.0084032435
16	0x3ca12ce8	0.019674733
17	0x3d4c0756	0.049811684
18	0x3f23b43b	0.63946885
19	0x3ce83231	0.028344246
20	0xbeca3c47	-0.39499113
21	0xbe52de28	-0.20592558
22	0xbf22fce3	-0.63667125
23	0x3b07059a	0.0020602704
24	0xbc0eb0d9	-0.008709156
25	0xbeeb2d3b	-0.45932946
26	0xbf0e6ecb	-0.55637807
27	0x3e04c388	0.12965214
28	0x3d0c53f4	0.03425975
29	0xbe84492f	-0.25837085
30	0x3d167634	0.03673382
31	0x3c2779d7	0.01022192
32	0xbe2e4326	-0.17017803
33	0xbdf1a7b7	-0.11799567
34	0x3a8ddd91	0.0010823478
35	0x3ea9b736	0.3314759
36	0xbb23441d	-0.0024912425
37	0x3deadb57	0.11467617
38	0x3e17bc3a	0.14817896
39	0x3c248ed7	0.010043821
40	0x3db1d788	0.086836874
41	0xbe22ecf1	-0.15910698
42	0xbe2455d4	-0.16048366
43	0xbe4ba96e	-0.19888851
44	0xbe4d1820	-0.20028734
45	0xbe3f2b5f	-0.18668889
46	0xbeb6eb9f	-0.3572664
47	0x3c7c5392	0.015400784
48	0x3e00c2aa	0.12574258
49	0x3caf0d21	0.021368565
50	0xbc21346d	-0.009839159
51	0x3fabb980	1.3415985
52	0x3ce2be82	0.027678732
53	0x3cfd3268	0.030907825
54	0x3e53e472	0.20692614
55	0xbf931632	-1.1491148
56	0xbe69c3b3	-0.2282856
57	0xbda3ce3e	-0.07998322
58	0x3d167215	0.03672989
59	0xbe37a712	-0.17934826
60	0xbd238f8e	-0.039931826
61	0xbe176f37	-0.14788519
62	0xbd221f81	-0.039580826
63	0x3e627ad1	0.22117163
64	0xbe18a103	-0.14905171
65	0x3d7198e0	0.058983684
66	0x3dee5683	0.116375946
67	0xbff331a8	-1.8999529
68	0xbe3ac051	-0.18237425
69	0x3e275d0f	0.16344093
70	0x3d0052a5	0.031328816
71	0xbcc9292a	-0.024555761
72	0xbe106b93	-0.14103536
73	0xbfc9e5a5	-1.5773207
74	0x3ce5a014	0.028030433
75	0xbe3625bd	-0.17787834
76	0xbe5ce0c6	-0.2157012
77	0xbdfed7c6	-0.12443499
78	0xbe6bc27d	-0.2302341
79	0x3fc01890	1.5007496
80	0x3ca5da7e	0.020245787
81	0x3e638d6a	0.22221914
82	0xbee9dcc0	-0.4567623
83	0xbe40b86c	-0.18820351
84	0xbd00600a	-0.03134159
85	0x3c84e571	0.016222687
86	0xbbf4de4b	-0.0074727884
87	0xbcd39d06	-0.02583171
88	0x3ca82cbe	0.020529147
89	0x3be061b4	0.0068475846
90	0x3c4c0009	0.01245118
91	0xbcc90933	-0.02454052
92	0xbee7b2da	-0.4525364
93	0x3e38dbd6	0.18052611
94	0xbdb01cb3	-0.08599224
95	0x3eb286ba	0.34868413
96	0x3c54e082	0.01299298
97	0xbe0ea4ba	-0.13930026
98	0xbe4db97d	-0.2009029
99	0x3d469f9f	0.04849207
100	0x3be5ac44	0.007009061
101	0x3c055701	0.008138419
102	0xbc8fade7	-0.017538978
103	0xbd0b7d10	-0.034054816
104	0xbec5649f	-0.3855333
105	0xbdd6059b	-0.10450288
106	0xbe0348d8	-0.12820756
107	0x3d4d0164	0.050050154
108	0xbc032d75	-0.008006443
109	0xbee1fbdb	-0.44137463
110	0x3cea4a57	0.028599901
111	0xbde65b42	-0.11247875
112	0x3db672e9	0.08908636
113	0x3b494117	0.0030708963
114	0xbe143b95	-0.14475854
115	0xbc4096c8	-0.011754699
116	0x3f9975a7	1.198903
117	0x3e30c78e	0.17263624
118	0x3f77ca0c	0.96792674
119	0xbf68b667	-0.90903324
120	0x3e1c0832	0.15237501
121	0xbc2d9acd	-0.010595989
122	0x3b89bb4c	0.0042032357
123	0x3e353e63	0.1769958
124	0x3c710f8c	0.014713179
125	0x3e141b5e	0.14463565
126	0x3f2341c4	0.63772225
127	0x3d4da9eb	0.050210875
128	0x3cb0666e	0.021533217
129	0x3da34e2f	0.07973897
130	0xbad0101c	-0.0015873942
131	0x3cef6e68	0.02922745
132	0xbe3c7bb7	-0.18406568
133	0xbebd2261	-0.36940292
134	0x3de413f4	0.11136618
135	0x3e142e44	0.14470774
136	0x3d21b612	0.039480276
137	0xbcab199e	-0.020886239
138	0xbebb8052	-0.36621338
139	0xbed8b8d3	-0.4232851
140	0x3cd794e8	0.026316121
141	0x3a4aabaf	0.00077312713
142	0x3cc393b3	0.02387414
143	0xbdf1ae2c	-0.11800799
144	0xbe7c598b	-0.24643533
145	0xbe9aab51	-0.3020883
146	0xbf3649c4	-0.7120631
147	0xbdf74f0e	-0.12075625
148	0x3ca15de7	0.019698096
149	0xbb4ee43d	-0.0031569146
150	0xbc3b3f51	-0.01142867
151	0x3c1523ae	0.009102745
152	0xbea97814	-0.33099425
153	0x3e37a957	0.17935692
154	0xbcae9557	-0.021311445
155	0xbdc76711	-0.09736455
156	0x3d0f5c32	0.035000034
157	0x3bc2defb	0.0059469915
158	0xbfd6302e	-1.6733453
159	0xbe35f6c1	-0.1776991
160	0xbe28ba11	-0.16477229
161	0xbce7e0ca	-0.02830543
162	0xbe1c09e6	-0.15238151
163	0x3e16a296	0.14710459
164	0xbc5e1a92	-0.01355614
165	0x3b4d5e76	0.003133682
166	0xbeca7d96	-0.3954894
167	0xbc48467c	-0.012223836
168	0x3dd25899	0.10270805
169	0xbed60493	-0.41800365
170	0x3e6731f9	0.22577657
171	0x3c842f2a	0.01613577
172	0x3b8779e2	0.0041344026
173	0xbc881b26	-0.016614508
174	0xbe3ceb89	-0.18449225
175	0x3bc9363a	0.0061404975
176	0x3d3ba554	0.045811966
177	0xbfb260d8	-1.3935804
178	0x3e906dc8	0.28208756
179	0xbb981c96	-0.0046420796
180	0x3df992c0	0.121861935
181	0xbc97a6da	-0.018512178
182	0xbe4d2fa4	-0.20037705
183	0xbdec9045	-0.11550955
184	0xbcd5cedc	-0.026099615
185	0xbe78a003	-0.2427979
186	0x3bc371ff	0.005964517
187	0xbc011c72	-0.007880317
188	0xbc1ec2b3	-0.009689975
189	0xbcf8da6d	-0.030377591
190	0x3ce1a68f	0.027545242
191	0xbe1fdc43	-0.15611367
192	0xbcf3b307	-0.029748453
193	0xbe3b4cc4	-0.18291003
194	0xbf3ebe33	-0.7450897
195	0xbe69d19a	-0.22833863
196	0xbcdf597a	-0.027264345
197	0xbf3a6846	-0.7281536
198	0x3e6ecbdb	0.23319952
199	0xbe964881	-0.2935219
200	0xbcdff8f0	-0.027340382
201	0xbe3ffb2e	-0.18748161
202	0xbec087a6	-0.37603492
203	0x3bbde93a	0.005795625
204	0xbfb44445	-1.4083334
205	0xbed09e28	-0.40745664
206	0x3dbb32b6	0.09140532
207	0x3d3bf009	0.045883212
208	0xbc4c2e1e	-0.012462167
209	0x3967c6cb	0.00022103933
210	0x3b8c048a	0.004273002
211	0x3e860ee4	0.26183236
212	0xbb3740cb	-0.0027962204
213	0xbc92e237	-0.017930133
214	0x3baa7037	0.0052013653
215	0xbe246ddf	-0.16057537
216	0xbd06bacd	-0.03289299
217	0x3dfd0a9c	0.12355539
218	0xbb9f24b8	-0.004856672
219	0xbf7ddf4c	-0.9916885
220	0xbec8e9a9	-0.3924077
221	0xbfa4d9ee	-1.2879007
222	0xbb048083	-0.00202182
223	0xbfba561d	-1.455753
224	0x3cd03e8a	0.025420446
225	0x3cd30f93	0.025764262
226	0x3d60d252	0.054888077
227	0xbdcc6817	-0.09980791
228	0x3cb14c39	0.021642791
229	0x3c7e7183	0.015529993
230	0xbe492edd	-0.19646783
231	0xbc7b2ca8	-0.015330471
232	0xbc81b3ea	-0.01583286
233	0xbe51040f	-0.20411704
234	0xbede1eb3	-0.43382797
235	0xbd96521a	-0.073398784
236	0x3cdaa007	0.026687635
237	0xbc17cb66	-0.009264803
238	0xbd259cd0	-0.04043275
239	0x3b051a75	0.002030996
240	0xbe59e64c	-0.21279258
241	0x3cfbfddb	0.030760696
242	0xbccc00f4	-0.024902798
243	0x3dacd6e9	0.08439428
244	0x3bbe09cb	0.0057995073
245	0x3e33cbaf	0.17558168
246	0x3e0396aa	0.12850443
247	0xbfad3bd7	-1.3533887
248	0x3d68a341	0.056796316
249	0x3fa5e68c	1.2960982
250	0xbe0e16a3	-0.13875823
251	0xbe4b6998	-0.198645
252	0xbcdfcdb3	-0.027319765
253	0x3d8d2867	0.06892472
254	0xbd7d4d4e	-0.0618413
255	0x3c96937b	0.018380871
