TD3-conf1/preTrained/TD3_BipedalWalker-v3_0_critic_2_target_ep100.pth (torch_old, 529770 bytes, 5 tensors)

l1.weight f4 [400, 28]
0	0xbe51b4a7	-0.2047907
1	0xbd037105	-0.032090206
2	0xbe396749	-0.18105806
3	0x3d475f6f	0.048674997
4	0xbe2f3d7e	-0.17113301
5	0xbd06a0b3	-0.0328681
6	0x3e51da06	0.20493326
7	0x3d732f1c	0.0593711
8	0xbe4b22c9	-0.19837488
9	0x3e94b621	0.29045203
10	0x3e309547	0.17244445
11	0x3e84e133	0.25953063
12	0x3e28a460	0.16468954
13	0xbdafbb27	-0.08580618
14	0xbd7d8470	-0.06189388
15	0xbe81b2bf	-0.25331685
16	0xbe9bcfd7	-0.30432007
17	0xbe8df1de	-0.27723593
18	0xbd927f06	-0.07153134
19	0xbbee1f8c	-0.0072669443
20	0xbe8cf341	-0.27529338
21	0xbdb8e566	-0.09028129
22	0xbe9abb77	-0.3022115
23	0xbe801338	-0.25014663
24	0x3ec4bf55	0.38427225
25	0xbd5a5d71	-0.05331177
26	0x3e36736c	0.17817467
27	0xbc578b31	-0.013155744
28	0x3e71af4a	0.23602024
29	0xbd68ef56	-0.056868874
30	0xbd64ba54	-0.05584176
31	0x3e3445e3	0.17604785
32	0x3e3bbe65	0.18334348
33	0x3ea1ae78	0.31578422
34	0x3cf737f3	0.030178046
35	0x3de15173	0.11001863
36	0xbe8f0980	-0.27936935
37	0x3e81789b	0.25287327
38	0xbdbf5c8c	-0.09343824
39	0xbce032f2	-0.027368043
40	0xbd31a6e5	-0.043372054
41	0x3d92b204	0.0716286
42	0x3e972fd2	0.29528672
43	0x3e621714	0.22079116
44	0x3d93120e	0.07181178
45	0x3d9f9229	0.0779155
46	0x3deb5275	0.11490337
47	0x3e989395	0.29800096
48	0x3e39e23d	0.1815271
49	0x3de3910b	0.11111649
50	0x3cbef0a9	0.023308115
51	0x3e8f2ff5	0.27966276
52	0x3e98d31b	0.2984856
53	0x3d95d4c1	0.0731597
54	0xbe56f7a6	-0.20992908
55	0x3d6d1bff	0.057888027
56	0xbd973e88	-0.07384974
57	0x3e3c6d99	0.18401183
58	0xbd56bf2f	-0.05242842
59	0xbe0fb059	-0.14032115
60	0xbe07a0ea	-0.13244978
61	0xbed43562	-0.41446978
62	0x3dc6d9a4	0.097094804
63	0x3e8deb51	0.27718595
64	0x3e9e2a19	0.30891493
65	0xbda04aef	-0.078267924
66	0xbeb507f0	-0.35357618
67	0x3d3ef2fd	0.04661845
68	0x3d0fcafc	0.03510569
69	0x3c21e046	0.009880131
70	0xbe8ebed8	-0.27879977
71	0xbed628c2	-0.4182797
72	0xbe134e37	-0.14385305
73	0xbddb9650	-0.10722029
74	0xbdea71e6	-0.11447506
75	0xbd8d6643	-0.069042705
76	0xbe3d6c4f	-0.18498348
77	0xbe577c79	-0.21043576
78	0xbdad2c78	-0.08455747
79	0xbe94c269	-0.29054573
80	0xbdec1889	-0.11528117
81	0x3d6d26d6	0.057898365
82	0x3e88f6ea	0.2675088
83	0x3e9d8846	0.3076803
84	0xbceffb0c	-0.029294513
85	0x3e6ad29e	0.22931907
86	0x3f218910	0.63099766
87	0xbe63be30	-0.2224052
88	0x3d7260c2	0.059174307
89	0xbe089509	-0.13338102
90	0x3e64cd8c	0.22344035
91	0x3e3f361b	0.18672983
92	0xbe91105e	-0.283328
93	0x3e58d590	0.21175218
94	0x3d584ae6	0.052805804
95	0xbdde696e	-0.10859953
96	0x3ea7a51c	0.32743156
97	0xbe014bf2	-0.12626627
98	0xbe366512	-0.17811993
99	0xbe37201e	-0.17883345
100	0xbd946732	-0.072462454
101	0xbea97f6d	-0.3310503
102	0xbe246d86	-0.16057405
103	0xbdf52eef	-0.119718425
104	0xbed995a9	-0.42496994
105	0xbed150a1	-0.40881827
106	0xbe99fdaf	-0.30076358
107	0xbe134567	-0.14381944
108	0x3eb0bf45	0.34520927
109	0x3e3ea0b2	0.18615988
110	0x3e4504e5	0.19240148
111	0xbd437370	-0.04771751
112	0xbe0f1958	-0.13974512
113	0x3d9df7cd	0.0771328
114	0x3f407e54	0.7519276
115	0xbdfb325f	-0.12265467
116	0xbd586b8e	-0.052836947
117	0xbe89358c	-0.26798666
118	0x3e61fba3	0.22068648
119	0x3e87ce5c	0.26524627
120	0xbe894792	-0.26812416
121	0xbde84878	-0.11341947
122	0x3e82e1bd	0.2556285
123	0xbd49ad16	-0.049237333
124	0x3e5506e3	0.20803408
125	0xbe56b17c	-0.20966142
126	0xbed70b21	-0.42000678
127	0xbe725c02	-0.2366791
128	0xbee6ae97	-0.45055076
129	0xbe386ebf	-0.18010996
130	0xbe0cb916	-0.1374248
131	0xbebf3ed6	-0.37352628
132	0xbdf58597	-0.11988371
133	0xbe37e640	-0.17958927
134	0xbedd1dc6	-0.43186778
135	0xbe950827	-0.29107782
136	0x3ca4c5ad	0.02011379
137	0x3e724683	0.2365971
138	0x3e2615b7	0.16219221
139	0xbe27e693	-0.16396551
140	0xbe6bf5f6	-0.23043045
141	0xbe39b89e	-0.18136832
142	0xbe1fdd4a	-0.15611759
143	0xbecf06b2	-0.40434796
144	0xbdcbb367	-0.09946328
145	0xbd76a96b	-0.060220163
146	0x3bda2d85	0.0066582584
147	0xbdb31529	-0.0874427
148	0xbcc57aa4	-0.024106331
149	0x3dfa4029	0.12219269
150	0x3f10cca7	0.56562275
151	0x3cb47813	0.022029912
152	0x3f0fcb2d	0.56169397
153	0xbe3028b3	-0.17203026
154	0xbdeb0b6c	-0.11476788
155	0xbd8a42cb	-0.06751021
156	0xbe86e050	-0.26343012
157	0xbe141193	-0.14459829
158	0xbe980b0b	-0.29695925
159	0xbe0916fe	-0.13387677
160	0xbdef1f3f	-0.116758816
161	0xbe2dc5fe	-0.1697006
162	0xbe2d7077	-0.16937433
163	0x3daf745b	0.08567115
164	0xbe5e406d	-0.21704264
165	0xbc82f431	-0.01598558
166	0x3eb34ff1	0.35021928
167	0x3e124fcf	0.14288257
168	0xbd465e8e	-0.048430018
169	0xbe6d84a8	-0.23195136
170	0xbe918168	-0.28419042
171	0xbd2561b9	-0.0403764
172	0x3ea1023d	0.3144702
173	0xbe92df3b	-0.28685936
174	0x3ae6e779	0.0017616592
175	0xbd7a413d	-0.061097372
176	0xbe40bed6	-0.18822798
177	0x3ea1a470	0.31570768
178	0x3f02a0df	0.5102672
179	0xbd798e78	-0.060926884
180	0xbdc5906a	-0.096466854
181	0xbdcfb541	-0.10141993
182	0xbe938830	-0.2881484
183	0x3ca47463	0.020075029
184	0x3c7721ea	0.015083769
185	0xbea60106	-0.32422656
186	0xbe47707c	-0.19476503
187	0xbe9e61cd	-0.3093399
188	0xbd4da725	-0.05020823
189	0xbdee4a57	-0.11635273
190	0xbe85d39f	-0.26138017
191	0xbd71c16b	-0.05902235
192	0xbe578a49	-0.21048845
193	0xbca6a9bf	-0.020344613
194	0x3e695d63	0.2278953
195	0x3e097fa2	0.13427594
196	0x3d99ed1d	0.07515929
197	0x3d0d848d	0.03455024
198	0x3c63aff3	0.01389693
199	0xbe14c7ed	-0.1452939
200	0xbd3d6277	-0.04623648
201	0xbdf00c04	-0.11721042
202	0x3e171f25	0.14757974
203	0x3de1b99a	0.11021729
204	0x3d9da63d	0.07697723
205	0x3e1d5f26	0.15368327
206	0x3d580c41	0.05274606
207	0x3de8a70a	0.11359985
208	0x3d528f92	0.05140645
209	0x3dba53a7	0.09097987
210	0xbe93da6e	-0.28877586
211	0xbd66699b	-0.056253057
212	0xbde73bc3	-0.112906955
213	0xbe16e93e	-0.14737412
214	0xbd90fff6	-0.07080071
215	0xbeb1ded0	-0.34740305
216	0xb9bf7810	-0.00036519812
217	0xbe36b130	-0.17841029
218	0xbe0cb4bd	-0.13740821
219	0xbea24127	-0.31690332
220	0x3dabacde	0.08382581
221	0xbc351c7f	-0.011054157
222	0x3e009ff6	0.1256102
223	0xbd159ba6	-0.03652539
224	0xbe2b8e2e	-0.16753456
225	0x3d4cc1d7	0.049989548
226	0xbdb97e54	-0.09057298
227	0xbde65816	-0.1124727
228	0xbdb6b3ef	-0.08921038
229	0xbe20c7fc	-0.15701288
230	0x3e178156	0.14795431
231	0x3e76e593	0.24111013
232	0xbdd79d51	-0.105280526
233	0x3bc5fa43	0.0060417964
234	0x3e382771	0.17983796
235	0x3e067226	0.13129482
236	0x3cc06351	0.023484858
237	0x3e1987e6	0.14993247
238	0xbe7c9ba9	-0.24668755
239	0xbe339ce7	-0.17540322
240	0xbe37fc75	-0.17967398
241	0xbebcb5b0	-0.36857367
242	0xbe125668	-0.14290774
243	0xbe99aa28	-0.3001263
244	0xbda4b61e	-0.080425486
245	0xbea3358f	-0.318768
246	0xbe3aefed	-0.18255587
247	0xbd887412	-0.06662764
248	0xbd44f9b3	-0.048089694
249	0xbcace288	-0.021104112
250	0x3e5f2541	0.21791555
251	0x3dd6be46	0.104855105
252	0xbe6cdde6	-0.23131523
253	0xbd59d44a	-0.05318097
254	0x3c69811f	0.014251976
255	0xbe4eb1fd	-0.20185085

l1.bias f4 [400]
0	0x3cb82474	0.02247832
1	0xbdbf07d5	-0.09327666
2	0x3e112bbc	0.1417684
3	0xbd6cd051	-0.057815854
4	0x3cc38d56	0.023871105
5	0x3e6fa982	0.23404506
6	0xbe4611c6	-0.19342718
7	0x3d0365ec	0.032079622
8	0xbdf4c966	-0.11952476
9	0x3e81fd6a	0.25388652
10	0x3ea0c1b3	0.3139778
11	0xbe80b6a8	-0.25139356
12	0xbe1243f6	-0.14283738
13	0x3da539c0	0.080676556
14	0xbc21c880	-0.009874463
15	0x3e449c6a	0.19200292
16	0x3e1fc634	0.15602952
17	0xbcd2c076	-0.025726538
18	0xbdd33044	-0.1031194
19	0x3d1ada8e	0.037806086
20	0x3e327b1c	0.17429775
21	0xbe2daf57	-0.16961418
22	0x3e237615	0.15963013
23	0xbb5987fd	-0.0033192628
24	0x3e8895d6	0.26676816
25	0xbdef90ac	-0.11697516
26	0x3dc76c79	0.097374864
27	0xbc7b40ff	-0.0153353205
28	0xbe20b4ae	-0.15693924
29	0x3ddb4f4a	0.107084826
30	0xbe0e59b7	-0.13901411
31	0x3d57b735	0.052664954
32	0xbdb7f0ec	-0.08981499
33	0xbe2ac1b7	-0.16675459
34	0xbc3d281e	-0.011545209
35	0xbe45397a	-0.19260207
36	0xbe1d7a8a	-0.15378776
37	0xbe5d850a	-0.21632782
38	0x3e01f540	0.12691212
39	0x3e521891	0.20517184
40	0x3e46e5c3	0.19423585
41	0x3eaa00e3	0.33203802
42	0xbd3e05da	-0.0463923
43	0xbe481e1e	-0.19542739
44	0x3e01da3c	0.12680906
45	0x3e3ca4c4	0.18422228
46	0xbd6cca67	-0.057810213
47	0xbb4be004	-0.0031108866
48	0x3caabd1c	0.020842128
49	0x3df30d7c	0.11867806
50	0x3d936c89	0.07198436
51	0x3e656e66	0.22405395
52	0xbc2d5133	-0.010578441
53	0xbdd9364f	-0.10606062
54	0x3da395b0	0.07987535
55	0xbd12330c	-0.035693213
56	0x3c741c47	0.01489932
57	0x3e23a4fd	0.15980907
58	0x3e37078e	0.17873976
59	0x3e84001f	0.25781342
60	0x3e83a404	0.25711071
61	0x3de8bce6	0.113641545
62	0xbe05cf72	-0.13067415
63	0xbdf3fe2c	-0.11913714
64	0xbd8fecba	-0.07027574
65	0x3df19ac3	0.117970966
66	0xbd9da2ee	-0.07697092
67	0x3dcc8232	0.0998577
68	0xbcf0b783	-0.02938438
69	0xbd0a2352	-0.03372509
70	0xbdb73432	-0.08945502
71	0x3dc6155b	0.09672042
72	0x3e7f7128	0.2494551
73	0xbe089341	-0.13337423
74	0x3d090499	0.03345165
75	0xbd68f637	-0.056875434
76	0x3df48a37	0.11940425
77	0x3e0a572e	0.13509819
78	0x3e020803	0.12698369
79	0xbe7a22d4	-0.24427348
80	0xbc37a06d	-0.011207682
81	0x3ee5326e	0.44765037
82	0xbe02e922	-0.12784246
83	0xbe23ccb5	-0.15996058
84	0x3db5e507	0.08881574
85	0x3e3e7cbd	0.18602271
86	0x3d718f25	0.058974404
87	0xbd951b74	-0.07280627
88	0x3e136715	0.14394791
89	0x3e4135c0	0.1886816
90	0xbe3b73e3	-0.18305926
91	0xbdd826b1	-0.10554255
92	0xbc2931b7	-0.010326794
93	0x3ed87363	0.42275533
94	0xbcca7299	-0.024712848
95	0x3b18ce65	0.002331638
96	0xbd3529c2	-0.044229276
97	0x3e65b971	0.22434022
98	0xbe7199a1	-0.23593761
99	0x3e9e62ca	0.30934745
100	0xbe21751f	-0.15767334
101	0xbd031710	-0.032004416
102	0x3ea881d4	0.3291155
103	0x3dfadbbb	0.122489415
104	0xbd5d5edd	-0.054045547
105	0xbe5c4262	-0.21509698
106	0x3d88443f	0.06653642
107	0x3e737c31	0.23777844
108	0x3d6fd441	0.05855203
109	0xbe5cf80f	-0.21579002
110	0x3ee05511	0.438149
111	0xbe83669a	-0.25664216
112	0x3d8f5beb	0.06999954
113	0x3daaeea8	0.08346301
114	0xbde53823	-0.11192348
115	0x3e8e721d	0.27821437
116	0x3e57b151	0.21063735
117	0xbe082cb3	-0.13298301
118	0x3e600224	0.21875817
119	0x3d5fad4e	0.054608636
120	0xbd004957	-0.031319942
121	0x3d566cd5	0.052349884
122	0x3d433cd3	0.04766543
123	0x3e289aa1	0.16465236
124	0x3e77cf9c	0.2420029
125	0x3daa0784	0.08302215
126	0x3ebd4e15	0.36973634
127	0xbe25aa95	-0.16178353
128	0xbdca6500	-0.098825455
129	0xbdb7da29	-0.089771576
130	0xbdaad439	-0.083412595
131	0xbe157b38	-0.14597785
132	0xbe47909f	-0.19488762
133	0x3e0e084f	0.13870357
134	0x3bf88374	0.00758403
135	0xbe6b47b3	-0.2297657
136	0xbe824123	-0.2544032
137	0xbda27ef9	-0.07934374
138	0xbe625fa4	-0.22106797
139	0x3d86cf7b	0.065825425
140	0xbb86d918	-0.004115235
141	0xbdd95f31	-0.106138594
142	0xbd876bef	-0.066123836
143	0xbdf81408	-0.12113196
144	0x3d94e703	0.072706245
145	0xbdb746b4	-0.089490324
146	0x3cc9a391	0.024614127
147	0x3eac5fa3	0.33666715
148	0x3ebae974	0.36506236
149	0x3e306ccc	0.17229003
150	0x3e1b8db6	0.15190777
151	0xbce4e568	-0.02794142
152	0xbea76599	-0.326947
153	0xbdeaa5fb	-0.114574395
154	0xbdc9d3a1	-0.09854818
155	0xbe35b668	-0.17745364
156	0xbb665587	-0.0035146193
157	0xbc357490	-0.011075154
158	0xbac223fc	-0.001481175
159	0xbb1e48e1	-0.0024152326
160	0x3dd72c08	0.10506445
161	0x3e485050	0.19561887
162	0xbe313094	-0.17303687
163	0xbccb04db	-0.024782589
164	0xbd78bc94	-0.060726717
165	0xbd87e4e9	-0.06635458
166	0x3d970cf0	0.073755145
167	0xbe21f123	-0.15814643
168	0xbd3b0c36	-0.045665942
169	0x3e1dbfa9	0.15405144
170	0xbd49e981	-0.049294952
171	0xbc940110	-0.018066913
172	0xbd9f46a9	-0.07777149
173	0xbdca6b55	-0.09883753
174	0x3e456068	0.19275057
175	0x3e63544a	0.22200122
176	0x3d7ae94b	0.06125764
177	0xbd5ea623	-0.05435766
178	0xbeb05b75	-0.34444776
179	0xbe485eae	-0.19567367
180	0x3d5b5c4a	0.05355481
181	0x3e88b5e2	0.26701266
182	0xbe2d9595	-0.16951592
183	0xbdd1d249	-0.10245187
184	0xbe79143a	-0.24324122
185	0xbd22394f	-0.039605435
186	0x3d5b3651	0.053518597
187	0xbe303a26	-0.17209682
188	0xbd4d8728	-0.050177723
189	0xbda2e857	-0.079544716
190	0xbe18be0a	-0.14916244
191	0xbdf42837	-0.11921733
192	0x3ce2bbb8	0.027677402
193	0x3d2afe2b	0.0417463
194	0xbdc67836	-0.09690897
195	0x3e970602	0.2949677
196	0x3d6e1bb4	0.05813189
197	0x3e8bbfa0	0.27294636
198	0xbde5d07b	-0.11221405
199	0xbd67fcda	-0.056637622
200	0xbdd2fd3c	-0.10302207
201	0xbe3cc4e2	-0.1843448
202	0xbc577aac	-0.013151806
203	0x3e413d53	0.1887105
204	0xbe58da26	-0.21176967
205	0x3d5d523f	0.054033514
206	0x3cd20502	0.025637154
207	0x3e5780f4	0.21045285
208	0xbd172a87	-0.03690579
209	0x3e1d2232	0.15345076
210	0xbd03710f	-0.032090243
211	0xbd928dfc	-0.071559876
212	0xbd5a4ba4	-0.053294793
213	0xbe4b4efe	-0.19854352
214	0x3e333c82	0.1750355
215	0xbd369d2a	-0.044583477
216	0xbe7d18a4	-0.24716431
217	0xbe50d505	-0.2039376
218	0x3d5c314c	0.05375795
219	0x3df14cd2	0.117822304
220	0x3e7a832f	0.24464105
221	0x3e7f3200	0.24921417
222	0xbde3ef2d	-0.111296035
223	0xbce5ddf8	-0.028059945
224	0x3d62898c	0.055306956
225	0xbe63c380	-0.22242546
226	0x3dfd6c22	0.1237414
227	0x3cea8ed9	0.028632568
228	0x3ea479b6	0.32124108
229	0x3ec3cef1	0.3824382
230	0xbdb9b7ba	-0.09068246
231	0xbc86d595	-0.016459266
232	0xbcf7f9d1	-0.030270489
233	0xbe27478c	-0.16335887
234	0x3e7ecbd3	0.2488244
235	0x3caac6b8	0.02084671
236	0x3e8e08d2	0.27741104
237	0x3ec24986	0.3794672
238	0x3c1ee51c	0.009698179
239	0x3e72103b	0.23639004
240	0x3e935e1e	0.28782743
241	0x3c8d79bf	0.017269967
242	0xbdf28464	-0.11841658
243	0x3de1b762	0.110213056
244	0xbdfa3229	-0.122165985
245	0x3ea0254b	0.31278452
246	0xbd2f3012	-0.042770453
247	0xbe536ded	-0.20647402
248	0x3ed00f7f	0.40636823
249	0x3e121f4e	0.14269754
250	0x3e9ea391	0.30984166
251	0x3c74f345	0.014950578
252	0x3ec6107a	0.38684446
253	0xbd6116f8	-0.054953545
254	0xbe10bc4f	-0.14134334
255	0xbe491955	-0.1963857

l2.weight f4 [300, 400]
0	0xbd0b1775	-0.033957917
1	0xbbda957a	-0.006670651
2	0xbc972ade	-0.018453058
3	0xbb46cc20	-0.003033407
4	0xbbfde234	-0.007747913
5	0x3bec39e2	0.0072090486
6	0xbd085d2a	-0.033291973
7	0xbcbff128	-0.023430422
8	0xbd5c19c2	-0.053735502
9	0xbc09d7ed	-0.008413297
10	0x3cc0e5b0	0.023547024
11	0x3d02e504	0.031956688
12	0xbcfbe88a	-0.030750532
13	0xbd160b7e	-0.036632054
14	0x3d453533	0.048146438
15	0x3cde2c39	0.027120696
16	0x3ca7b08e	0.02046993
17	0xbc1f842c	-0.009736102
18	0x3c9411e5	0.018074939
19	0x3bb7201f	0.005588546
20	0x3be096fa	0.0068539353
21	0xbc085a78	-0.008322351
22	0xbcdcf932	-0.026974294
23	0x3d07e0cc	0.033173367
24	0x3c63499a	0.013872528
25	0xbceb103c	-0.028694265
26	0xbd38114b	-0.044938367
27	0x3c478371	0.012177334
28	0x3d34f07f	0.044174667
29	0x3ca5f7ee	0.020259824
30	0x3b0ace04	0.0021179924
31	0x3becbaca	0.0072244154
32	0x3d2366e6	0.039893053
33	0x3ce5586a	0.02799626
34	0x3c593841	0.013258041
35	0x3d1fb609	0.03899196
36	0x3d235d87	0.039884117
37	0xbc8229da	-0.015889097
38	0xbc8fe45d	-0.017564947
39	0x3be9353a	0.007116941
40	0xbd28675e	-0.041114204
41	0xbc401f74	-0.011726249
42	0x3cb3417f	0.021881817
43	0x3c9ea966	0.019367885
44	0x3d3e09d3	0.046396088
45	0xbd03131d	-0.03200065
46	0x3cd07de1	0.025450649
47	0xbc2dbaa7	-0.010603583
48	0xbcba3cea	-0.022734124
49	0xbccc39b1	-0.024929853
50	0x3d0f1acc	0.034937665
51	0xbc35ad08	-0.011088617
52	0xbd1b7936	-0.037957393
53	0xbd185d1e	-0.03719818
54	0x3c885854	0.01664368
55	0x3baf7bb0	0.005355321
56	0x3c87a56c	0.016558371
57	0xbd2e50fb	-0.042557698
58	0x3d0fbbbc	0.035091147
59	0xbd68ca33	-0.056833457
60	0xbcc59d81	-0.024122955
61	0x3cca3610	0.024683982
62	0xbbe35840	-0.0069380105
63	0xbd09eeee	-0.033675127
64	0xbce171bb	-0.027520051
65	0xbd33de93	-0.043913435
66	0x3b1cbb15	0.002391522
67	0x3d165539	0.03670237
68	0xbcc44fba	-0.023963798
69	0xbd20f04b	-0.03929166
70	0xb8713e44	-5.7516867e-05
71	0xbd041a65	-0.032251734
72	0x3c08f0ac	0.008358162
73	0xbca4e297	-0.020127578
74	0xbce690ab	-0.028145155
75	0x3c42e6f8	0.011895888
76	0x3d1fed0d	0.03904443
77	0x3ce985b2	0.028506134
78	0x3d2e8c06	0.042614006
79	0xbd3bdf55	-0.045867283
80	0x3b95a2ac	0.004566511
81	0xbcb3ff58	-0.021972343
82	0xbab6c500	-0.0013944209
83	0x3cde9cb9	0.02717434
84	0xbd207f27	-0.039183762
85	0xbd050015	-0.03247078
86	0xbcae8d97	-0.02130775
87	0xbcc14cd1	-0.0235962
88	0xbc07092d	-0.008241934
89	0x3cf435a3	0.029810732
90	0x3cfe18e3	0.031017726
91	0xbc061d48	-0.008185692
92	0xbd3be7f3	-0.0458755
93	0xbc48ff21	-0.012267859
94	0x3cb46232	0.02201948
95	0x3d07e173	0.03317399
96	0x3d21141b	0.039325815
97	0xbcd5e8bd	-0.026111955
98	0xbc6d79e0	-0.014494389
99	0xbce19b23	-0.027539795
100	0x3bf2c41b	0.0074086315
101	0xbc3be470	-0.011468038
102	0xbbe7765b	-0.0070636696
103	0xbd4777e7	-0.048698332
104	0x3c8dbebe	0.017302867
105	0xbc3b1108	-0.011417635
106	0xbbbb0758	-0.0057076626
107	0xbc85ca6d	-0.016331876
108	0xbafe1a74	-0.0019386546
109	0xbd129c1e	-0.035793416
110	0xbd3d621f	-0.046236154
111	0x3d370c71	0.0446896
112	0x3b4a7878	0.003089456
113	0xbd2a9b6f	-0.04165214
114	0x3cde1bb6	0.027112823
115	0x3d233cb6	0.03985282
116	0xbd2d8510	-0.042363226
117	0xbd34fb65	-0.04418506
118	0xbd40d24a	-0.047075547
119	0x3d0b84d4	0.03406222
120	0xbd1fdc80	-0.039028645
121	0x3d19c3b5	0.037540156
122	0xbc1c3d88	-0.009536155
123	0xbd6c8fd3	-0.05775435
124	0xbbf05628	-0.0073344894
125	0xbccdb570	-0.02511093
126	0x3d14ebdd	0.03635775
127	0xbce04daa	-0.027380783
128	0x3d4bb3e3	0.0497321
129	0xbd418831	-0.047249023
130	0x3b27d3b6	0.0025608367
131	0x3d15ca86	0.036570095
132	0x3be25ef0	0.00690829
133	0xbce19033	-0.02753458
134	0xbd686e03	-0.05674554
135	0x3c2301a8	0.009949125
136	0xbc463061	-0.012096495
137	0xbc8ad5d5	-0.016947666
138	0xbaef5aab	-0.0018261274
139	0x3b9efec5	0.0048521482
140	0xbd05792d	-0.032586265
141	0xbc7fa8e4	-0.0156042315
142	0x3ca9615e	0.020676311
143	0xbcaeb9f0	-0.021328896
144	0xbcd42b4a	-0.025899548
145	0xbc702e18	-0.014659427
146	0xbca366c3	-0.019946462
147	0xbbd95462	-0.0066323737
148	0xbc925496	-0.0178626
149	0xbcb376a0	-0.02190715
150	0xbcd43f9a	-0.025909234
151	0x3d168489	0.03674749
152	0xbd3dbe25	-0.046323914
153	0x3cf5edde	0.03002065
154	0xbb9d3530	-0.0047976
155	0x3cecef06	0.028922569
156	0x3d3b7bbf	0.04577231
157	0x3ca011c6	0.019539725
158	0x3c0108a8	0.007875599
159	0xbd38d87f	-0.04512834
160	0xbceea157	-0.029129667
161	0x3c7d966b	0.015477757
162	0x3cea3642	0.028590325
163	0x3cf68782	0.030093912
164	0xbcd4f12a	-0.025993902
165	0xbd24f3c7	-0.040271547
166	0xbc939f0e	-0.01802018
167	0xbc2f371f	-0.010694294
168	0xbcc08e90	-0.02350548
169	0xbce8912b	-0.028389534
170	0xbd31b32d	-0.043383766
171	0x3d3b806f	0.04577678
172	0x3c884b0c	0.016637348
173	0x3c570984	0.013124827
174	0x3b4704e0	0.0030367896
175	0x3d428ee1	0.04749954
176	0xbd353968	-0.0442442
177	0x3b7a5ca3	0.0038202188
178	0x3d144479	0.036198113
179	0xbcace23f	-0.021103976
180	0x3d27e1c6	0.0409868
181	0xbc0cbee5	-0.008590435
182	0x3c944e46	0.01810373
183	0xbd0f69b5	-0.03501292
184	0x3d473f25	0.048644204
185	0xbcc017e7	-0.023448898
186	0xbd1ee9ae	-0.038797073
187	0xbc0b67ac	-0.008508604
188	0x3c8b40dd	0.016998703
189	0x3d25c077	0.040466752
190	0xbcea646a	-0.028612334
191	0x3c38686c	0.011255365
192	0xbc2d7e7f	-0.010589241
193	0x3ce23b4a	0.027616162
194	0xbae1b1cb	-0.0017219124
195	0x3cb48e4f	0.022040514
196	0x3cbc9437	0.023019893
197	0xbd671fa3	-0.056426656
198	0xbd06fc82	-0.032955654
199	0x3cf1fb3e	0.029538747
200	0xbd4e1191	-0.05030972
201	0x3c42e8c0	0.011896312
202	0x3c381e07	0.011237628
203	0x3d0d5994	0.034509256
204	0xbd3c7110	-0.046006262
205	0xbd3b02a8	-0.04565683
206	0x3c830ed2	0.015998278
207	0x3c5f0c8c	0.013613831
208	0x3ae27f42	0.0017280357
209	0x3c9f48fd	0.019443983
210	0xbca26727	-0.019824577
211	0xbc835636	-0.01603232
212	0xbcfcaa7c	-0.030843012
213	0xbcbce708	-0.023059383
214	0xbc9d6c6e	-0.019216742
215	0xbcf51dac	-0.029921375
216	0xbd4deda1	-0.05027545
217	0xbd237145	-0.039902944
218	0xbd52f202	-0.051500328
219	0x3c2be340	0.010491192
220	0xbb628dd0	-0.003456939
221	0x3c115ced	0.008872253
222	0xbd378e48	-0.044813424
223	0xbd3a7540	-0.045521975
224	0xbc098f45	-0.0083959745
225	0xbceff7b3	-0.029292917
226	0xbd3546b0	-0.044256866
227	0x3d0b5914	0.0340205
228	0xbcdcaefa	-0.026938904
229	0xbb08384d	-0.002078551
230	0xbcb0337a	-0.021508921
231	0xbd214597	-0.039373007
232	0xbcdbc562	-0.026827518
233	0xbd2e4d87	-0.042554405
234	0xbd039c9d	-0.03213178
235	0xbb77b8e0	-0.0037799403
236	0xbcbfc7c0	-0.023410678
237	0x3d170ebd	0.03687929
238	0xbc3892e8	-0.011265494
239	0x393b7197	0.00017876025
240	0xbc7cffa4	-0.015441809
241	0x3c0016f8	0.007817976
242	0xbd00c2e0	-0.031435847
243	0x3b2fa92e	0.002680372
244	0x3cca7a6a	0.024716575
245	0xbc99e2f6	-0.018784981
246	0xbd5d16e2	-0.0539769
247	0x3c999b5e	0.018750843
248	0x3bf61570	0.00750988
249	0xbd366ec8	-0.044539243
250	0xbd54b272	-0.05192799
251	0x3a9258c0	0.0011165366
252	0xbd52db5a	-0.05147872
253	0xbd1eb60d	-0.038747836
254	0x3c443674	0.011975873
255	0xbd13632d	-0.035983253

l2.bias f4 [300]
0	0xbd200c4f	-0.03907424
1	0xbd1d2b2a	-0.038371243
2	0x3ccf87c8	0.0253333
3	0x3d9e4d63	0.07729604
4	0xbd54bbd2	-0.051936932
5	0xbd67891b	-0.05652724
6	0xbdf1dd06	-0.11809735
7	0x3ddbb655	0.107281365
8	0xbb2651c7	-0.0025378333
9	0x3c71a883	0.014749649
10	0xbdc2fcfd	-0.0952091
11	0x3dced262	0.10098721
12	0xbdc2a82d	-0.09504733
13	0xbd718376	-0.05896326
14	0x3dcb6329	0.09931023
15	0xbd80092f	-0.06251752
16	0x3c8ce52c	0.017199121
17	0xbd10ac4a	-0.035320558
18	0xbd77dba0	-0.060512185
19	0x3c73dbcb	0.014883946
20	0x3e15e71d	0.14638944
21	0x3e258553	0.1616414
22	0x3ddc07d1	0.10743678
23	0xbbb83898	-0.005621981
24	0xbca0fc27	-0.019651486
25	0x3ec63219	0.38710096
26	0x3e13332e	0.14374992
27	0xbda2a8f2	-0.0794238
28	0xbc2f727f	-0.01070845
29	0xbdd1f47f	-0.10251712
30	0x3c282046	0.010261601
31	0x3d947124	0.07248142
32	0x3da5262b	0.080639206
33	0x3d92aea2	0.07162215
34	0xbd809697	-0.06278723
35	0xbddb8d9a	-0.10720368
36	0x3c9c0f35	0.01905022
37	0xbdc049e3	-0.09389093
38	0xbcfc527f	-0.030801056
39	0xbd2c621f	-0.042085763
40	0xbddba811	-0.107254155
41	0x3d8058e9	0.06266958
42	0x3e178e44	0.14800364
43	0x3e01c4cc	0.12672728
44	0x3ec8ee3d	0.3924426
45	0x3eb5013e	0.3535251
46	0x3d1a0ebb	0.037611704
47	0xbda51c67	-0.08062058
48	0xbd22ab04	-0.039713874
49	0xbceecd43	-0.02915061
50	0x3c49dd00	0.012320757
51	0xbcec1473	-0.028818345
52	0xbd57e46a	-0.052708067
53	0x3cadc33e	0.021211263
54	0xbd88281a	-0.06648274
55	0x3d9cfdc1	0.07665587
56	0x3d9b3f7e	0.075804695
57	0x3dec2480	0.11530399
58	0xbd3f6550	-0.04672748
59	0x3dd89911	0.1057607
60	0xbc4dccd1	-0.012561039
61	0x3d821a9d	0.06352732
62	0x3e2da405	0.169571
63	0xbd259108	-0.040421516
64	0x3d220bdb	0.039562088
65	0xbd85ba07	-0.065296225
66	0xbd84ebf5	-0.06490318
67	0x3ab9f6af	0.0014187897
68	0x3df6b5f5	0.12046424
69	0xbd92ea6d	-0.071736194
70	0xbb97e8b6	-0.0046358956
71	0xbd926756	-0.07148616
72	0x3e0042a4	0.12525421
73	0x3e95213e	0.29126924
74	0xbbb29be0	-0.0054507107
75	0x3d97c2d2	0.07410206
76	0x3ee129d5	0.43977228
77	0x3d5ffdf1	0.054685537
78	0x3ed98f2c	0.42492044
79	0xbdb8c5e9	-0.09022123
80	0xbd2982f7	-0.041384663
81	0xbd7eb425	-0.062183518
82	0x3d943c0c	0.072380155
83	0x3da79fb1	0.081847556
84	0xbcc7a2b1	-0.02436957
85	0xbd906d16	-0.070520565
86	0xbb555f1a	-0.0032557906
87	0xbca565aa	-0.020190079
88	0xbc8db5c5	-0.017298589
89	0x3ce677aa	0.028133232
90	0x3be59c22	0.007007138
91	0xbd979136	-0.07400744
92	0x3d76e07b	0.060272675
93	0xbd5539ad	-0.052056957
94	0x3dca18f1	0.098680384
95	0xbdd63c4d	-0.1046072
96	0xbda02937	-0.07820361
97	0x3d315ddf	0.043302413
98	0x3d733572	0.05937714
99	0xbd660b70	-0.05616325
100	0xbb150588	-0.0022738893
101	0xbd1f61fe	-0.038911812
102	0x3d16420d	0.036684085
103	0xbc74fc14	-0.014952678
104	0x3db07e46	0.08617835
105	0x3d4542b4	0.048159316
106	0x3e00811e	0.12549254
107	0xbdacd007	-0.084381156
108	0xbca37a6f	-0.019955842
109	0x3d959e82	0.073056236
110	0xbd6445f3	-0.05573077
111	0x3da07b50	0.0783602
112	0xbd7a4dd6	-0.061109386
113	0xba5765da	-0.0008216776
114	0x3df3243e	0.11872147
115	0xbd71616c	-0.0589308
116	0xbd31363b	-0.04326461
117	0xbd3419ee	-0.04397004
118	0xbd6c3753	-0.05766995
119	0x3d01c919	0.031685922
120	0xbd3e56a2	-0.04646934
121	0xbd844175	-0.064577974
122	0xbd54363a	-0.051809527
123	0xbdca0622	-0.09864451
124	0xbd161820	-0.0366441
125	0xbd9e3798	-0.077254474
126	0xbd06fc5f	-0.032955524
127	0xbda75957	-0.08171337
128	0xbca2e2df	-0.019883571
129	0xbddf092f	-0.108904235
130	0x3cf67633	0.030085659
131	0xbd67a603	-0.056554805
132	0x3de82213	0.11334624
133	0x3de3a7e0	0.11116004
134	0xbe024a65	-0.12723692
135	0xbdd400e1	-0.1035173
136	0xbc015375	-0.007893433
137	0xbc9ddf46	-0.019271504
138	0xbdf30b96	-0.11867444
139	0xbddb83ec	-0.107185215
140	0x3cc78118	0.024353549
141	0xbd6c12d3	-0.05763514
142	0xbc9dee1e	-0.019278582
143	0x3d46d1d3	0.048539948
144	0x3db3b444	0.08774617
145	0x3e014e2c	0.12627476
146	0xbe02a356	-0.1275762
147	0x3dd5d3e5	0.10440806
148	0xbc27720f	-0.010220065
149	0x3cda2689	0.026629703
150	0xbce36bfb	-0.02776145
151	0xbd5f1c12	-0.05447013
152	0x3e17aa5f	0.14811085
153	0xbdb9ee63	-0.09078672
154	0x3cfb59c3	0.03068245
155	0x3d84c780	0.06483364
156	0xbd4a8a55	-0.04944833
157	0xbdacac57	-0.08431309
158	0xba6a77b7	-0.00089442305
159	0x3dee96cc	0.11649856
160	0x3eacdde9	0.33763054
161	0xbd28f58f	-0.041249808
162	0x3d5ddd18	0.05416593
163	0xbd281aed	-0.041041303
164	0x3c868cbe	0.016424533
165	0xbd7930a4	-0.060837403
166	0xbde797e6	-0.11308269
167	0x3d0049ac	0.03132026
168	0xbdaa1159	-0.0830409
169	0x3e032422	0.12806752
170	0xbd58df5e	-0.052947395
171	0x3c1306b5	0.008973767
172	0x3ca7c66e	0.02048036
173	0xbc37fba8	-0.011229433
174	0x3dcdcc36	0.10048716
175	0xbcf57144	-0.029961236
176	0xbd21fa0f	-0.039545115
177	0x3eca6130	0.39527273
178	0xbd1daa00	-0.038492203
179	0xbd587d8a	-0.0528541
180	0xbdbac643	-0.09119847
181	0x3a9af6bd	0.0011822801
182	0x3ddc2be8	0.10750562
183	0x3da8de13	0.08245482
184	0xbd9ce096	-0.07660024
185	0x3df14755	0.11781184
186	0xbbe3561b	-0.006937755
187	0xbd3ab168	-0.045579344
188	0x3adb2e99	0.0016722261
189	0x3b2fc486	0.0026820018
190	0xbd0b6ef5	-0.034041364
191	0x3d0d8934	0.034554675
192	0xbb828835	-0.0039835223
193	0x3eb91916	0.36151952
194	0xbdfd95f5	-0.12382118
195	0x3e19ac8c	0.15007228
196	0xbd72d09c	-0.059280977
197	0x3e86b923	0.26313123
198	0xbd8f051b	-0.06983396
199	0xbd558854	-0.052131966
200	0xbcef4723	-0.029208725
201	0x3d902bee	0.07039629
202	0x3e230c34	0.15922624
203	0x3e964c4b	0.29355082
204	0x3e8d031f	0.27541444
205	0xbd890c5c	-0.066918105
206	0xbd9ed6dc	-0.07755825
207	0xbccfdcf1	-0.025373908
208	0x3bdd42a1	0.0067523276
209	0xbc73bafc	-0.0148761235
210	0xbd480db9	-0.048841212
211	0xbd891037	-0.06692546
212	0x3c121b8d	0.008917701
213	0xbc89af4d	-0.016807223
214	0xbd2fdfdf	-0.04293811
215	0x3e3f1858	0.1866163
216	0xbc51ef6a	-0.012813428
217	0xbda05593	-0.07828822
218	0xbbaddc3f	-0.0053057964
219	0xbd4d8511	-0.05017573
220	0x3da2028e	0.079106435
221	0xbd1301b5	-0.0358903
222	0x3ce5488a	0.02798869
223	0x3ebc89d5	0.36823907
224	0xbd0d1ca5	-0.034451146
225	0xbd3ad300	-0.04561138
226	0xbd71ca8a	-0.059031047
227	0x3d8f1f6f	0.06988417
228	0xbd700114	-0.05859478
229	0x3c6996e2	0.014257165
230	0x3d940f5b	0.07229491
231	0xbd540052	-0.051758118
232	0xbc5a123a	-0.01331001
233	0x3da0a00c	0.078430265
234	0x3e69db20	0.22837496
235	0xbdb40210	-0.08789456
236	0xbd36b6a8	-0.04460779
237	0xba89c2ac	-0.0010510287
238	0xbd72057c	-0.05908726
239	0xbd0fe395	-0.03512915
240	0x3dd6eb3e	0.10494088
241	0xbd13220e	-0.03592115
242	0xbd753cec	-0.059872553
243	0xbd5b2869	-0.053505335
244	0xbdc896fe	-0.097944245
245	0xbdc55a5a	-0.09636374
246	0xbdfb5312	-0.12271704
247	0x3eb070cc	0.34461057
248	0xbc9bf24e	-0.019036438
249	0xbca6fe3d	-0.020384902
250	0x3df2bb81	0.1185217
251	0x3dd621d2	0.104556695
252	0xbd8000cc	-0.06250152
253	0xbd7bcdf9	-0.061475728
254	0x3dbb3466	0.091408536
255	0x3d011bfc	0.03152083

l3.weight f4 [1, 300]
0	0xbcc91690	-0.024546891
1	0x3e3d497f	0.18485068
2	0x3d126755	0.035743076
3	0xbe6cdf22	-0.23131993
4	0x3bb92618	0.005650293
5	0x3c694be2	0.014239283
6	0x3e6eae25	0.23308618
7	0xbe568655	-0.20949681
8	0xbbcabec9	-0.006187294
9	0xbd0766ec	-0.03305714
10	0x3e2d6775	0.16933997
11	0xbe6b1871	-0.22958542
12	0x3e643b44	0.22288233
13	0x3e4fae52	0.20281342
14	0xbe8033fc	-0.2503966
15	0xbcdddd51	-0.027083071
16	0x3d5252a1	0.051348332
17	0x3e392b9b	0.1808304
18	0x3e5c1338	0.21491706
19	0xbb5cfac2	-0.00337188
20	0xbe7d538c	-0.24738902
21	0xbe8460c4	-0.25855076
22	0xbe458075	-0.19287284
23	0xbd0e897c	-0.034799084
24	0xbcff20f3	-0.031143641
25	0xbf02079a	-0.5079285
26	0xbe82fce8	-0.25583577
27	0x3e6cc12f	0.23120569
28	0x3d0c53dd	0.034259666
29	0x3e40c882	0.18826488
30	0x3d167665	0.036734004
31	0xbe724d28	-0.23662245
32	0xbe867e9a	-0.26268464
33	0xbe6ac97d	-0.22928424
34	0x3a8dda61	0.0010822528
35	0x3e5ab771	0.2135904
36	0xbb234486	-0.002491267
37	0x3e728a05	0.23685463
38	0x3e463b7d	0.1935863
39	0x3d2b2fde	0.041793697
40	0x3e5fde26	0.21862087
41	0xbe277994	-0.16354972
42	0xbe6b91dc	-0.2300486
43	0xbe5dd6ec	-0.21664017
44	0xbec106d8	-0.37700534
45	0xbed89f4a	-0.42309028
46	0xbec78322	-0.38967234
47	0x3c7c53c3	0.01540083
48	0x3e5ba7e7	0.21450768
49	0xbc2a2bb7	-0.010386399
50	0x3b9dbe76	0.0048139645
51	0x3ecd4508	0.4009173
52	0x3d734d9b	0.059400182
53	0xbb559371	-0.0032589103
54	0x3e5cbbb2	0.21555975
55	0xbe7d0657	-0.2470945
56	0xbe81a1d7	-0.25318787
57	0xbe856cb3	-0.26059493
58	0x3d16727d	0.03673028
59	0xbe7c3700	-0.24630356
60	0xbd23904e	-0.03993254
61	0xbe628db4	-0.22124368
62	0xbe0667a9	-0.1312548
63	0x3e68b5c7	0.22725593
64	0xbe2f6d6b	-0.17131583
65	0x3e597497	0.21235882
66	0x3e7ee048	0.24890244
67	0xbcafa096	-0.021438878
68	0xbe75b233	-0.23993759
69	0x3e31fa09	0.17380537
70	0x3d07ae04	0.03312494
71	0x3d15a8ed	0.036538053
72	0xbe6d5165	-0.23175581
73	0xbee11086	-0.4395792
74	0xbb7106cc	-0.0036777733
75	0xbe786ed5	-0.24261029
76	0xbec819f2	-0.39082295
77	0xbe5b2fc0	-0.21404934
78	0xbec4fc7f	-0.3847389
79	0x3ee7388a	0.45160323
80	0x3ca5db06	0.02024604
81	0x3e71d82c	0.2361762
82	0xbe84bd9f	-0.2592592
83	0xbe823669	-0.25432137
84	0xbced3aeb	-0.028958758
85	0x3cc294f1	0.023752661
86	0x3cc287a8	0.023746327
87	0xbb88de75	-0.0041769096
88	0xbd27e036	-0.04098531
89	0xbcc99f48	-0.024612084
90	0x3d19eead	0.037581135
91	0xbcc90881	-0.024540188
92	0x3df38267	0.11890107
93	0x3e571f31	0.21007992
94	0xbe20d33d	-0.15705581
95	0x3e74dd45	0.23912533
96	0x3cb5d5a8	0.022196606
97	0xbe4f6d75	-0.20256598
98	0xbe699edf	-0.22814511
99	0x3d46a2e8	0.048495203
100	0x3be544c2	0.006996722
101	0x3c0556cd	0.008138371
102	0x3c68fb6a	0.014220098
103	0x3b3e9e17	0.0029085928
104	0xbe78ed7b	-0.24309342
105	0xbe391ea1	-0.1807809
106	0xbe3c53e2	-0.18391374
107	0x3e536820	0.2064519
108	0xbd22dd66	-0.039761923
109	0xbe8010ee	-0.25012916
110	0xbb3a0fb0	-0.0028390698
111	0xbe4405d9	-0.19142856
112	0x3e63cc44	0.2224589
113	0xbcc71ac0	-0.024304748
114	0xbe721396	-0.23640284
115	0x3d118bcd	0.035533715
116	0x3da74958	0.08168286
117	0x3e62fe20	0.22167253
118	0x3f117f66	0.5683502
119	0xbe37e418	-0.17958105
120	0x3dfd70d8	0.12375039
121	0x3cb8363f	0.022486804
122	0x3b89bb05	0.0042032027
123	0x3e58f84a	0.21188465
124	0xbc89ccc0	-0.016821265
125	0x3e5adfbe	0.21374413
126	0x3c9aec43	0.018911486
127	0x3e4120d4	0.18860179
128	0xbc07c574	-0.008286823
129	0x3e2d7b3b	0.1694154
130	0x3cf68c13	0.03009609
131	0xbc8694c4	-0.016428359
132	0xbe830929	-0.25592926
133	0xbe7cdd12	-0.24693707
134	0x3e38baa3	0.18039946
135	0x3e197b4b	0.14988439
136	0x3d21b6de	0.039481036
137	0xbd540cd1	-0.051770035
138	0x3e585c6c	0.21129006
139	0x3e3b8654	0.18312961
140	0x3d403908	0.04692939
141	0x3d053e94	0.032530382
142	0x3cc393a1	0.023874106
143	0xbe861880	-0.26190567
144	0xbe8ed430	-0.2789626
145	0xbe8029e2	-0.25031954
146	0x3e44bde4	0.19213063
147	0xbe52924e	-0.20563623
148	0x3ca15e96	0.019698422
149	0x3ba436b7	0.0050114053
150	0x3ca1e8de	0.01976436
151	0x3c15241d	0.009102848
152	0xbe97ff3c	-0.29686916
153	0x3e51f651	0.20504119
154	0x3c128e65	0.008945082
155	0xbe58d390	-0.21174455
156	0x3d832f00	0.06405449
157	0x3d1a1365	0.037616152
158	0xbee69df0	-0.45042372
159	0xbe77eacc	-0.24210662
160	0xbec52f02	-0.38512427
161	0x3cd2ca29	0.025731163
162	0xbe680c8a	-0.22661033
163	0x3e4edd5d	0.20201631
164	0x3c952874	0.018207766
165	0xbbe37303	-0.0069412007
166	0x3e3b26d1	0.18276526
167	0xbd751395	-0.059833128
168	0x3e42bc80	0.1901722
169	0xbe627f34	-0.22118837
170	0x3e35691a	0.17715874
171	0xbc7f8364	-0.015595291
172	0x3d03f41c	0.032215223
173	0xbc881b64	-0.016614623
174	0xbe638cc1	-0.22221662
175	0x3d1b385d	0.03789555
176	0x3d3ba5ef	0.045812543
177	0xbf01de94	-0.5073025
178	0x3e740b71	0.2383249
179	0x3cde1c99	0.027113246
180	0x3e797238	0.24359977
181	0x3c25edc6	0.01012749
182	0xbe6d2c93	-0.23161535
183	0xbe30c0cb	-0.17261045
184	0xbcd5ced2	-0.026099596
185	0xbe9f79c6	-0.31147593
186	0x3c9b5d15	0.018965283
187	0x3ca87a1e	0.020566043
188	0xbc1ec365	-0.00969014
189	0x3aaa8d5e	0.0013012101
190	0x3ce1a6da	0.027545381
191	0xbe5595d8	-0.20857942
192	0xbb3d5095	-0.0028887142
193	0xbecfebbc	-0.4060954
194	0x3e41dade	0.18931147
195	0xbe87e38f	-0.265408
196	0x3b932145	0.00449005
197	0xbe62cf1d	-0.2214932
198	0x3e567e4a	0.20946613
199	0x3e32456b	0.17409293
200	0xbcdff862	-0.027340118
201	0xbe8181c3	-0.25294313
202	0xbe8d645d	-0.27615634
203	0xbe93b77e	-0.2885093
204	0xbe84301e	-0.2581796
205	0x3e4b1d24	0.19835335
206	0x3e82fbef	0.25582835
207	0x3afec973	0.0019438699
208	0xbc4c2ec0	-0.012462318
209	0x3967c6d3	0.00022103945
210	0x3d3510c7	0.044205453
211	0x3e386a61	0.1800933
212	0xbd0b2afc	-0.03397654
213	0x3c61879a	0.01376524
214	0x3d1663a5	0.036716122
215	0xbe9c039e	-0.3047151
216	0x3bdd323a	0.0067503722
217	0x3e861e95	0.26195207
218	0xbd15a695	-0.036535818
219	0x3e3e7053	0.18597536
220	0xbe77ae32	-0.24187544
221	0x3e33ae21	0.17546894
222	0x3cf357c3	0.029704934
223	0xbf0a747c	-0.5408399
224	0x3cd03e99	0.025420474
225	0xbbc185d8	-0.005905848
226	0x3e5390ec	0.20660752
227	0xbe5cc4ce	-0.2155945
228	0xbc25362f	-0.010083719
229	0x3d2d990e	0.042382292
230	0xbe853296	-0.26015157
231	0x38168795	3.5889057e-05
232	0xbc81b38d	-0.015832687
233	0xbe743997	-0.23850094
234	0xbe655b81	-0.22398187
235	0x3e615cbf	0.22008036
236	0x3d544c19	0.051830385
237	0xb9d6e7a8	-0.00040989858
238	0x3b124d8e	0.0022324058
239	0x3b0519dd	0.0020309605
240	0xbe807698	-0.2509048
241	0xba812625	-0.0009853287
242	0x3ae332f3	0.001733391
243	0x3e513c8a	0.2043325
244	0x3bbe1e19	0.0058019278
245	0x3e4f8024	0.20263726
246	0x3e5be996	0.21475825
247	0xbf0e47f1	-0.55578524
248	0x3d68a3ea	0.056796946
249	0x3eaed30a	0.34145385
250	0xbe58a630	-0.21157146
251	0xbe830cda	-0.25595742
252	0xbcdf490f	-0.027256517
253	0x3e37523c	0.17902464
254	0xbe841bd2	-0.25802475
255	0x3d3125a7	0.0432488
