TD3-conf1/preTrained/TD3_BipedalWalker-v3_0_actor_target_ep300.pth (torch_old, 526986 bytes, 6 tensors)

l1.weight f4 [400, 24]
000000 c2 cc 71 be 7a 5e d8 be 4a d7 80 3f 40 44 f0 be
       -0.23613265 -0.4225958 1.0065701 -0.4692707
000010 cd f2 3a 3f 47 6e 4d 3e 47 a0 da be 86 a3 20 bf
       0.73026735 0.20061599 -0.42700407 -0.62749517
000020 f8 43 65 bf ee ee 20 be a0 cf c1 3b 7f 62 ee bd
       -0.8955684 -0.15716144 0.0059146434 -0.116398804
000030 c3 cf 08 bf cd 8e b2 3d b1 28 8f be c7 d1 94 3c
       -0.5344202 0.08718643 -0.27960733 0.018166436
000040 ba dd 5f be dc fe 8f be 49 71 8a be 6a b3 4d be
       -0.21861926 -0.2812413 -0.27039555 -0.20087972
000050 1a c8 6e be 93 a7 28 bd 87 aa 5e bd a3 c3 9f bc
       -0.2331852 -0.041175436 -0.054361846 -0.019502467
000060 60 11 d8 bd 8c 2f da 3e df 24 4a bf 92 8e 0e 3f
       -0.10550189 0.426144 -0.7896251 0.55686295
000070 19 54 33 3f d1 ce a6 be 47 3c e8 be 6b 34 b4 be
       0.700502 -0.32579663 -0.45358488 -0.35196242
000080 16 3b d1 bd 78 82 43 be 79 be 3d 3e 40 d6 95 be
       -0.10216348 -0.19092739 0.18529691 -0.29265022
000090 77 42 04 bf f5 f7 01 be e9 1b 74 bd 62 d3 1b be
       -0.5166392 -0.12692244 -0.05959693 -0.15217355
0000a0 e1 91 75 bd cf 6d 98 be 0c 58 25 be a0 37 25 be
       -0.059953574 -0.29771277 -0.16146868 -0.161345
0000b0 f5 34 54 be 3b 81 9d be 0e a4 cd 3d b2 a7 8d bd
       -0.20723327 -0.30762658 0.100410566 -0.06916751
0000c0 24 81 f1 3e fa 07 0f 3f 9b 4f 88 bf 10 4b 70 3f
       0.4716884 0.55871546 -1.0649294 0.93864536
0000d0 89 3e 2c 3f df bd c5 3e d3 20 a8 be 61 d0 71 3e
       0.6728292 0.38621423 -0.32837543 0.23614646
0000e0 33 41 c7 3e bf c8 fa 3d 84 27 6b 3e a9 32 47 3e
       0.3891693 0.122453205 0.22964293 0.19452919
0000f0 77 5e d1 be 07 e4 83 bd bc 91 ab be 37 fe a2 bd
       -0.40892383 -0.06439977 -0.33509624 -0.07958644
000100 44 40 be be 0f aa ce be fc 06 99 bd d9 55 ca be
       -0.37158406 -0.4036412 -0.07472035 -0.39518622
000110 7d 56 03 be 26 b6 a6 be 4f d5 c3 be 78 d7 10 3d
       -0.12825961 -0.32560843 -0.3824868 0.035361737
000120 8d 42 dc 3e 90 96 a0 3f 52 60 fe be 6b 97 0d bb
       0.43019524 1.2545948 -0.49682862 -0.0021605145
000130 60 fc f0 3e 36 38 23 bf ab ea d6 3e 81 93 06 3e
       0.47067547 -0.63757646 0.41975912 0.13142206
000140 07 b5 26 bf 60 b8 e0 be c1 9b ad be b6 a8 09 bd
       -0.65119976 -0.43890667 -0.33907893 -0.03360816
000150 0c af d4 3c 13 f4 d8 bd 5c 4c dd bd 98 24 26 bc
       0.025962375 -0.105934285 -0.1080558 -0.010140561
000160 13 57 66 be 58 5e 59 be 8e 6f 14 be ab 41 2a be
       -0.22494154 -0.21227396 -0.1449568 -0.16626613
000170 89 42 db bd 9d d6 47 be 6e 1b de 3c 73 b4 72 be
       -0.1070605 -0.19515462 0.027112689 -0.23701648
000180 1d 66 df 3e 84 c1 4a bf b5 cf b5 3f ed 79 0d bf
       0.43632594 -0.7920153 1.4204012 -0.5526417
000190 9c be 19 be c2 5a 94 3e 2b 9c 08 bd f2 1f 3d bb
       -0.15014118 0.28975493 -0.03335206 -0.0028858152
0001a0 1b 2f 95 bd ae ea 4c 3f 2e e8 73 bd b7 52 a8 be
       -0.07284375 0.8004559 -0.059547596 -0.32875606
0001b0 50 97 aa 3e 42 69 db 3e b8 c0 9f be 24 de 97 be
       0.33318567 0.42853743 -0.3120172 -0.29661667
0001c0 42 15 8f be cf f3 8d be 98 85 81 3c 0b b2 1e be
       -0.27945906 -0.27725074 0.015810773 -0.15497606
0001d0 12 93 87 3d 0f bc 29 be b7 a6 d9 3d 1e ab 63 bd
       0.06619848 -0.16575645 0.106275015 -0.055583112
0001e0 7b ce 26 3f f4 72 c5 3f 42 14 4d bf 65 f2 69 3f
       0.65158814 1.5425706 -0.80109036 0.9138549
0001f0 38 c0 3e bf 8f e6 56 be 04 d0 ac 3e 4c 99 f4 3d
       -0.7451205 -0.20986389 0.33752453 0.119433016
000200 16 68 e7 be d7 3b 63 3e 15 73 a1 be bf 0b 05 3f
       -0.451966 0.22190796 -0.31533113 0.5197105
000210 89 13 94 3d 1d f4 27 be 41 bc e9 3d 0c cd 09 3e
       0.072302885 -0.16401716 0.1141286 0.13457125
000220 2b a2 a4 3d 36 57 f9 3c cf 34 1f 3e 05 f5 30 be
       0.080387436 0.030437093 0.15547489 -0.17280968
000230 77 d0 44 be 1e f7 ef 3c c0 da 95 bc cb 65 6a be
       -0.19220148 0.02929264 -0.018292785 -0.22890393
000240 6e 8b 2b bf a7 2c 55 3f af b7 d2 3b 87 de cc 3e
       -0.6700963 0.8327126 0.006430588 0.40013525
000250 48 da 6c be 27 ae 1f bf e3 69 80 3e 2c 5d f5 3e
       -0.23130143 -0.6237511 0.25080785 0.47922647
000260 ce d3 e4 3e 07 6e 82 3e 8b 60 c7 bd 0a f3 01 bf
       0.44692844 0.2547457 -0.09735211 -0.50761473
000270 9b 7a 2b 3e 92 3b 74 3d 36 4b 72 be 1a f4 54 be
       0.16745989 0.059627123 -0.23661503 -0.20796242
000280 8e 61 2c be df b3 d1 bd 01 35 30 be f3 9f 91 be
       -0.16834089 -0.10239386 -0.1720772 -0.28442344
000290 27 f2 3e be 0c 12 b1 be 7a 90 c2 be a4 ed 5b bd
       -0.18647061 -0.3458408 -0.38000852 -0.05369343
0002a0 7a 5c 2a 3f 2a d6 f2 3f 3e b8 ab bf 96 29 c9 3e
       0.6654736 1.8971608 -1.3415601 0.3928954
0002b0 5c 08 c1 be 94 b1 c5 3e 13 3d 50 3f aa 70 8f 3e
       -0.3770169 0.38612044 0.8134319 0.28015643
0002c0 8f 0c 3b be b8 3e 4e 3f bc 0b 8f be 2d 80 3e bf
       -0.1826651 0.8056445 -0.2793864 -0.7441433
0002d0 63 d8 1f 3e 02 bf b7 3d 18 28 76 be 8a bf a6 be
       0.15609889 0.08971979 -0.24038732 -0.32568008
0002e0 d7 30 f4 bd 11 39 b3 bc 8a e8 a5 be 10 87 a7 be
       -0.11923378 -0.021877797 -0.32403976 -0.32720232
0002f0 05 47 4f be 54 81 b6 be 7b 7d 38 be 53 88 b4 be
       -0.20241936 -0.35645545 -0.18016617 -0.35260257
000300 61 d6 14 be 02 03 88 3f a3 f1 73 bf e6 77 6f bf
       -0.14534904 1.0625918 -0.95290583 -0.93542325
000310 91 c4 10 bd b9 e4 06 be fe b1 e5 3e 22 96 06 be
       -0.03534371 -0.13173188 0.4486236 -0.13143209
000320 ed 88 b4 be 5f 19 40 3e e3 24 c4 3e 2e 36 ba bd
       -0.35260716 0.18759678 0.38309392 -0.09092365
000330 78 be 20 3f e0 b5 da be e8 80 73 3e e9 ec 51 3e
       0.6279063 -0.42716885 0.23779643 0.2050053
000340 f1 5e d0 bb 29 e3 07 bd d5 59 06 3e 6f ab 30 3e
       -0.006358974 -0.03317562 0.13120206 0.17252897
000350 e8 9a 28 bd 02 dd 22 3e 30 b7 d4 3d 83 6d 92 be
       -0.041163355 0.1590462 0.10386503 -0.28599176
000360 f1 11 2f 3e e0 bc b0 bf ab d0 7c 3f 39 9b b2 be
       0.17096688 -1.380764 0.987559 -0.3488405
000370 9f ef f4 3e 1f e2 0e 3e 50 05 65 be ed e1 e3 bd
       0.47839066 0.13953446 -0.22365308 -0.11127076
000380 20 d6 0d be 91 86 c5 3e 29 8a 38 3f 60 81 0e 3f
       -0.13851213 0.3857923 0.72085816 0.5566616
000390 a2 76 96 3e e5 6a 8f be c0 4e d5 bd 10 e9 9e bd
       0.29387385 -0.28011242 -0.10415411 -0.07759297
0003a0 ee 5e 63 3c 51 fe a6 3d 27 2f 46 be fe 75 52 be
       0.0138776135 0.08153976 -0.19353925 -0.20552823
0003b0 e5 16 01 be ec 85 d2 bd ce 30 10 3e c3 60 2a 3d
       -0.1260639 -0.1027945 0.14081118 0.041596185
0003c0 d1 d2 71 3d af f0 9d bf d8 8d 22 3f d2 cb fa 3e
       0.05903894 -1.2339076 0.63497686 0.48983628
0003d0 fc 91 ac be 19 1d 3a 3d 70 a1 19 3f ac be 69 3e
       -0.33705127 0.045437906 0.6001196 0.22826642
0003e0 07 a6 90 be e2 eb ec 3e b3 c9 b4 be a1 7a 05 be
       -0.2825167 0.46273714 -0.35310134 -0.1303506
0003f0 62 6c 86 3e 15 7a da bd d0 de c0 be 79 d4 9c be
       0.26254565 -0.106678165 -0.37669992 -0.30630854

l1.bias f4 [400]
000000 fa 90 24 be 87 7f 76 be 92 68 3c bd c0 cd a9 be
       -0.16070929 -0.24072085 -0.045998164 -0.33164787
000010 66 57 bd 3d ce 23 cc be bd 16 23 be cb fe 3f bc
       0.092451856 -0.39871067 -0.15926643 -0.011718462
000020 bf 4b 46 be bc fa 7b bc 5a 57 09 3c 30 6b 91 be
       -0.19364832 -0.015379604 0.008382643 -0.2840209
000030 a4 18 7c 3d 41 a5 01 be 3c 92 7f be a0 27 36 be
       0.061546937 -0.12660696 -0.24958128 -0.17788553
000040 2b bd c7 3c 12 78 6a be 1c 66 f7 bd 4d e4 da 3d
       0.024382195 -0.22897366 -0.12080023 0.10688076
000050 05 8f 41 3d 15 47 7a 3d 75 3b 85 be 40 a0 81 be
       0.047255535 0.061102945 -0.26021925 -0.25317574
000060 a5 3b 2a be ac c2 1b be 6a 0f 38 bd 87 c8 1f bd
       -0.16624315 -0.1521098 -0.044936575 -0.039009597
000070 53 89 a9 3e 6e 80 a2 3d 13 af bb bd 6d f6 83 be
       0.33112583 0.07934652 -0.09164252 -0.25773945
000080 74 69 86 3e 3f c3 34 be cd 0b 85 bc 58 f7 94 be
       0.2625233 -0.17652605 -0.016240979 -0.29094958
000090 33 6e c7 bd 13 ad fd 3c eb 59 00 be 51 cb 18 be
       -0.09737816 0.030966317 -0.12534301 -0.14921309
0000a0 2f d8 5b be 19 05 25 be 1c 26 4f 3e 6c 04 74 be
       -0.21469186 -0.16115226 0.20229381 -0.23829812
0000b0 da 12 f3 3d c6 23 2f bb 12 d9 c1 3c 7b c8 2d bc
       0.1186883 -0.0026724203 0.023663078 -0.01060688
0000c0 b9 28 14 be c0 e0 15 bd 30 f4 dd bd b7 3e ae be
       -0.1446866 -0.03659129 -0.10837591 -0.34032223
0000d0 78 52 fa 3d d5 9e ce be 68 b6 35 bd af 94 28 be
       0.12222761 -0.40355554 -0.04436341 -0.16462968
0000e0 f2 ab ac bc 69 fd c1 be a4 40 07 3d df fd 44 be
       -0.021078084 -0.3788865 0.03302063 -0.19237469
0000f0 d7 0e 08 be 4f 4d 31 be 9c 5c 82 3e 16 8e db bd
       -0.13286911 -0.17314647 0.2546128 -0.1072046
000100 51 ca b8 3c 0a 7d f9 bd 61 30 80 bc 34 13 18 bb
       0.02255741 -0.121820524 -0.015648069 -0.0023204805
000110 7e af 50 be 88 93 f5 3c 4c 25 86 bd 6a a7 01 be
       -0.20379445 0.029977575 -0.065500826 -0.1266152
000120 9b 61 ae bd f8 27 da be 96 ae e3 be 51 a9 a8 3e
       -0.085147105 -0.4260862 -0.44469136 0.32941678
000130 a7 8c c0 3d 22 92 61 be 88 c9 fe bd e0 fc 87 be
       0.09401827 -0.22028401 -0.12440783 -0.26560116
000140 22 51 e7 3d 95 be ec bd 87 38 17 be c9 5f 45 be
       0.11294772 -0.11559788 -0.14767657 -0.1927482
000150 0a 77 0b bf 18 46 ba be 02 b2 f7 bc d8 97 14 be
       -0.54478514 -0.36381602 -0.030236248 -0.14511049
000160 c9 dd aa 3d c7 47 ab 3a ee 37 93 be b2 aa 9e be
       0.083430834 0.0013067656 -0.28753608 -0.30989605
000170 75 d7 ed bd 7f 02 86 be e5 fb 9f 3e a7 02 a3 bc
       -0.11613361 -0.2617378 0.31246868 -0.019898726
000180 30 ca 3a be 3e d8 1d be 93 af 49 be 8c 3d 53 bd
       -0.18241191 -0.15414521 -0.19695882 -0.051572368
000190 8e c6 e2 bd 4a ec 67 be 17 3a a4 3d 91 63 71 be
       -0.110730276 -0.22648731 0.08018892 -0.23573138
0001a0 93 17 1d be 7b 7e cc be 08 27 ad 3d 8d 88 bc be
       -0.15341024 -0.39940247 0.0845471 -0.3682293
0001b0 45 52 31 bc ee 91 9d be 25 61 b4 bd 7e 60 41 bd
       -0.010822837 -0.30775398 -0.08807591 -0.047211163
0001c0 f2 00 b3 bd 69 d0 51 be 09 53 52 3e ae 53 1e be
       -0.08740415 -0.20489658 0.20539488 -0.15461609
0001d0 d4 6d f8 3c a1 ed 44 be b1 01 6f be 42 4a 0c be
       0.030325808 -0.19231273 -0.23340489 -0.13700202
0001e0 77 6d e2 3d f0 22 81 be f7 d2 23 3d c5 5c 07 bf
       0.11056035 -0.25221968 0.039996114 -0.5287593
0001f0 3d 4c 99 3e a3 7c 23 3d fc 33 34 be 38 f1 05 be
       0.29940978 0.039913785 -0.17597955 -0.13080299
000200 63 fa aa 3d e2 ce 16 be 57 c4 a5 bd 27 2f 25 be
       0.08348539 -0.14727357 -0.080940895 -0.16131268
000210 c6 f2 a2 be 42 03 13 3e 57 61 56 3e cf a7 54 be
       -0.31825846 0.14356712 0.2093557 -0.20767139
000220 cb 7e 16 3e 75 9d 88 3d 79 44 31 3c ee dc 14 be
       0.14696805 0.066706575 0.010819548 -0.14537403
000230 6f eb b3 bd 9f 1f 1f 3e df a1 0d be 5e b5 bd be
       -0.0878514 0.15539406 -0.1383128 -0.37052435
000240 4f 5d dd 3d 6f f5 4a 3e 56 0e f9 3d 02 8b 49 be
       0.10808813 0.19820188 0.121609375 -0.19681934
000250 a7 2e ac be c2 b4 e2 be 4a b5 45 3d 6b 4d 9f be
       -0.33629343 -0.44278532 0.048268594 -0.31113753
000260 4d 19 24 3d ec 83 a0 bd ec 59 6c be 59 04 28 3e
       0.04006319 -0.07837662 -0.23081177 0.16407908
000270 37 b2 2b 3e 58 05 9f be 43 21 61 be 59 c2 d2 3c
       0.16767202 -0.31058764 -0.21985345 0.025727438
000280 09 cf 12 bc e4 b0 cf be 4f e1 b9 be 30 62 21 3d
       -0.008960494 -0.40564644 -0.3630471 0.03940028
000290 b8 ef 49 be 29 a6 01 bf 92 16 87 be 9d fa 7e 3e
       -0.19720352 -0.50644165 -0.26384407 0.24900289
0002a0 f0 15 81 3e 49 68 40 3e 6d ca 6d be 49 44 1b be
       0.2521205 0.18789782 -0.2322175 -0.15162767
0002b0 10 7c 7f bd 07 d8 9b be 07 9d 72 3b e0 5f 8f be
       -0.062374175 -0.30438253 0.0037019865 -0.28002834
0002c0 88 6d af 3c b9 b2 85 3e 1d 22 8d be 8a cd dd bc
       0.021414533 0.26112917 -0.2756509 -0.027075548
0002d0 5c be 0a 3e fb 2c 13 be cc 30 79 bd ac 3b 50 3d
       0.13549179 -0.14372627 -0.060837552 0.050838158
0002e0 a7 40 55 3e 95 cd be be ec 6d f1 be 58 bc 90 be
       0.20825444 -0.37266222 -0.47154176 -0.28268695
0002f0 42 e1 5a be db 6c c4 be 2e d6 f0 bd ec d1 84 be
       -0.21374992 -0.383643 -0.117596015 -0.25941408
000300 d5 7a 01 3e dc f6 e0 3d 1f 79 a4 bd 0a a1 3c be
       0.12644513 0.10984585 -0.080309145 -0.18420807
000310 5b a9 a3 be 47 8d af 3d 05 34 dd be 68 8b 98 be
       -0.31965145 0.085718684 -0.4320375 -0.2979386
000320 db 60 a7 be 07 e9 de 3d 78 47 3e 3e 5f 42 2a be
       -0.32691082 0.1088429 0.1858195 -0.16626881
000330 f8 14 21 be 93 94 e5 bd 59 52 01 be b3 64 4c 3e
       -0.15730655 -0.11209979 -0.1262907 0.19960289
000340 49 d9 28 be 9a f3 4b 3e 5c 78 1e 3d 41 aa 1f bd
       -0.16489138 0.19917145 0.038689002 -0.038980726
000350 75 b3 8d bb cd 40 92 be a6 05 ee 3d f7 06 a9 be
       -0.0043243715 -0.28565064 0.11622171 -0.33013126
000360 27 dd 06 bf 8f c9 e0 be 3a 75 56 be 4a ce 40 be
       -0.526812 -0.43903777 -0.20943156 -0.18828693
000370 29 2e ef 3d a9 a1 46 be 58 40 3e be 0d 40 2e bd
       0.11678726 -0.19397606 -0.18579233 -0.042541552
000380 7b 42 42 3e dd 23 4a be 66 78 85 be 7b 34 36 be
       0.18970673 -0.19740243 -0.2606842 -0.17793457
000390 31 fb af bd 7f 21 9a bd 1b 1f 97 bc 14 88 0f 3e
       -0.08592833 -0.0752592 -0.01844745 0.14016753
0003a0 c3 c5 43 3e 0f e7 60 3d e4 88 b4 be 77 89 8c 3d
       0.19118409 0.054907855 -0.3526069 0.06862157
0003b0 15 b9 80 be 7b 7d a2 be f1 be 7f be 64 d1 46 3d
       -0.25141206 -0.3173636 -0.24975182 0.048539534
0003c0 ff 61 d8 bd 65 d0 05 3d 10 87 0d 3e ae a6 e2 bc
       -0.10565566 0.032669444 0.13821054 -0.02766737
0003d0 0e 64 06 3e 5d db b0 3d 01 5a 10 be 5d f6 82 bd
       0.13124105 0.0863559 -0.14096834 -0.06394646
0003e0 44 2c 5f bd 9e 2d c5 be c4 cc 9e be 7f c3 53 be
       -0.054485574 -0.38511366 -0.310156 -0.20680045
0003f0 09 57 68 3e a1 45 dd 3e 7a 3d d8 be ef f2 7e be
       0.22689451 0.43217185 -0.42234403 -0.2489736

l2.weight f4 [300, 400]
000000 47 73 2f bc 96 e5 17 bd fb 72 e6 bc a5 4e 0d bd
       -0.010708637 -0.037084185 -0.028130999 -0.03449883
000010 d2 aa 5b bc 5b 1a 6e bd ae 25 95 bc 58 46 3d bd
       -0.013407426 -0.058130603 -0.018206444 -0.046209663
000020 ac aa 03 3d 39 9f 4f bd 4d f8 01 bd 88 0b 39 bd
       0.032145187 -0.050688956 -0.03173094 -0.045177013
000030 a7 10 28 bd e2 9f db ba 3f 30 00 bd fd f6 02 bc
       -0.041031506 -0.0016756023 -0.03129601 -0.007993457
000040 d5 6c 12 bd 89 4d 47 bd a6 52 1d bc 21 87 c3 bc
       -0.03574832 -0.048657928 -0.009602224 -0.023868145
000050 91 55 cb bc c5 33 12 3d 52 5b 62 3c 2a 6b e6 3c
       -0.024821075 0.035693903 0.013815718 0.028127272
000060 b5 d5 96 3c 9f 8c 27 bd 1c 40 08 3d 6d fb 81 b8
       0.01841245 -0.04090559 0.033264264 -6.198031e-05
000070 c6 5d e7 3c 49 08 c5 bc c3 c4 7e 3a 44 9f fe bb
       0.028242957 -0.024051802 0.0009718651 -0.007770451
000080 43 7b eb bc 9a 97 d6 bc 76 71 2e 3d 9c 91 70 bc
       -0.0287453 -0.026195336 0.042588674 -0.0146831535
000090 5c 5b 78 bd 54 dc 79 bc 47 d4 bc 3c a8 28 34 bd
       -0.060634002 -0.015250284 0.02305044 -0.043984085
0000a0 0a 8c e0 3c 6c f9 19 bc 7a 4e d1 bc 9b ce 11 bd
       0.027410526 -0.009397846 -0.025550116 -0.035597425
0000b0 e0 49 0f bc 28 46 36 bd 09 70 d4 3c 58 19 b8 bc
       -0.0087456405 -0.0445005 0.025932329 -0.022473022
0000c0 09 a5 c7 bc eb a1 e0 bb e2 d5 eb 3c ec 34 87 3c
       -0.024370687 -0.0068552396 0.02878851 0.016504727
0000d0 d6 d2 97 bd 89 b9 4e bd d3 0d f1 3c 18 fc 43 bc
       -0.07413261 -0.05046991 0.029425537 -0.011961959
0000e0 0c 5e 09 3d b0 aa ab bb 5d 4f 93 3b dc fe fc ba
       0.033536956 -0.0052388534 0.004495545 -0.0019302028
0000f0 31 8f 44 bd 66 e1 99 bd ef dc 36 3c 68 99 d7 3a
       -0.04798812 -0.075136945 0.011161073 0.0016448917
000100 e7 6a 33 3c 9c 72 8a 3c 54 e1 86 3c 03 de 7f 3c
       0.0109507805 0.016900353 0.016464867 0.015616897
000110 a0 19 36 bd 69 3e c9 bc 2b 06 7b 3c 0e 18 9d bd
       -0.04445803 -0.024565892 0.015321295 -0.07670604
000120 76 71 2e 3c 27 47 21 bd 40 03 17 3a ef ac 25 bd
       0.010647168 -0.039374497 0.0005760677 -0.040448125
000130 f2 a0 d9 bb ec 6a 7e bc e8 31 30 bd b6 ce 93 bd
       -0.0066415006 -0.015528422 -0.043016344 -0.07217161
000140 15 5e 1f 3c 98 54 c4 3c 29 fe da 3b 73 2d 36 bd
       0.009727021 0.023966119 0.0066831303 -0.044476938
000150 e2 92 d9 bb 69 10 d9 3b 49 60 2f 3d 24 65 03 3d
       -0.0066398242 0.0066242707 0.042816434 0.032078877
000160 31 6a 46 bd fa 7e 64 3b 15 79 8e 3c 22 65 ea 3c
       -0.048441116 0.0034865723 0.01739172 0.028612677
000170 81 8b c8 b9 70 be b9 bb 22 62 e1 3c 63 c0 e0 bc
       -0.0003825091 -0.005668454 0.027512614 -0.027435487
000180 86 4f 1d bb 98 89 37 bc d1 b3 cd bc f0 1a 35 bd
       -0.0024003698 -0.0112022385 -0.025110157 -0.044215143
000190 f7 da 2b bb c3 c7 f1 3c 9b c7 67 bd 90 84 3f bd
       -0.0026223043 0.0295142 -0.056586843 -0.04675728
0001a0 59 f2 4a bd f2 33 67 3b d0 96 3d bc cf d6 2a bd
       -0.049547527 0.0035278765 -0.011571601 -0.041708764
0001b0 f5 64 95 3b 50 a8 b6 3b 02 dc 5e bd 0a 51 6e 3c
       0.004559154 0.0055742636 -0.054409035 0.014545688
0001c0 48 6b c1 3b 68 e2 7d bc c4 fb f9 bc 75 9e 1a 3d
       0.0059026815 -0.015495874 -0.030515559 0.037748773
0001d0 e8 01 11 bc fa 0a ef 3c 30 ce 1d bb 3d 7c 0b bd
       -0.008850552 0.029180039 -0.0024079196 -0.03405403
0001e0 88 12 3c bd 9f da b3 3c 5d 1f 82 bc 3e 86 1a bd
       -0.04591611 0.021954833 -0.015884096 -0.03772568
0001f0 d5 9f 13 3c 2d 9e 03 bd 41 d7 cb bc 7d f1 9e 3c
       0.009010275 -0.03213327 -0.024882914 0.01940226
000200 98 ee 3b bd 40 ca 30 bd 86 4f 9d bc 32 f2 aa 3c
       -0.045881838 -0.04316163 -0.019202959 0.02086744
000210 6d bf 0b bd dd 09 10 3d 14 cc 5d bc 60 fc 48 bd
       -0.034118105 0.035165656 -0.013537426 -0.04906881
000220 b3 dc e7 bc d8 2c 59 bc 59 3a 58 3a d7 2e ea bc
       -0.02830348 -0.0132553205 0.00082484406 -0.028586788
000230 60 44 f1 ba 8b 1b e0 bc 5a 49 9f bc e2 1b 58 bc
       -0.0018407218 -0.027356884 -0.019444156 -0.0131902415
000240 12 e2 d7 bc 50 e5 b2 bc ab b1 ed bc 88 04 cf 3c
       -0.026352916 -0.02183786 -0.029015383 0.025270715
000250 21 c5 41 bd 18 45 b8 bc 11 4a cf bc 26 c8 98 bd
       -0.047307137 -0.022493884 -0.025303872 -0.0746005
000260 cf d6 2a bd 25 e2 83 bc f2 6d ee 3a 0f 77 a2 bc
       -0.041708764 -0.016099045 0.0018190725 -0.019832162
000270 a9 7a 39 3d d9 60 dc 3c 42 90 db bc c6 44 24 3d
       0.045282993 0.02690165 -0.026802186 0.04010465
000280 7d 4b 22 bd 60 d4 45 bc a8 3f a0 bb d4 e1 88 3b
       -0.039622772 -0.01207456 -0.004890401 0.0041773114
000290 35 2d 97 3a fc 26 fb bc 1f 46 00 bd 2f 23 a4 ba
       0.0011533858 -0.030658238 -0.031316873 -0.0012522693
0002a0 c1 fb 47 bc 51 7a 48 bd 89 59 de 3a 06 47 2d 3c
       -0.012206019 -0.048944775 0.0016963939 0.010576015
0002b0 20 06 d3 bc 80 44 82 bb 09 01 41 bc 7e 7d 90 bc
       -0.025759757 -0.003975451 -0.011780032 -0.017637964
0002c0 14 24 ff bb dd 5e 1f 3b 03 62 ea bb f5 9e 83 bd
       -0.0077862833 0.0024318018 -0.007152797 -0.06426803
0002d0 05 b3 1b 3c 3d de 83 bb 09 65 41 bd b9 71 c8 bc
       0.009503131 -0.0040242956 -0.047215495 -0.02446829
0002e0 00 b6 6f 3a 83 e8 3e bd e3 ae 65 bc 5c aa 08 3d
       0.00091442466 -0.04660846 -0.014018747 0.033365592
0002f0 86 ea 98 3c a1 c9 d3 3c 9e ed bd 3c 1a 5c 62 3c
       0.018666517 0.02585298 0.023184594 0.013815904
000300 14 e6 80 3c 54 c5 fa bc fd a6 07 bc 9d 1a 08 bc
       0.01573471 -0.030611672 -0.008279559 -0.008307126
000310 a7 d2 a9 bc e6 90 1c bd 1d 1f 01 bc 0f 97 25 bd
       -0.02073033 -0.038224123 -0.007880953 -0.040427264
000320 e8 5a be bc d6 ed 9f bd 94 eb fd bc 76 b3 e5 3c
       -0.023236707 -0.078090355 -0.030996121 0.028039675
000330 dc 7a 79 bd 18 c0 c9 3c f9 9b 42 bc 60 2c 4f 3c
       -0.060908183 0.02462773 -0.011878007 0.012644857
000340 a6 f6 23 3d 58 1a bc bc 02 a3 db bc f1 5d 47 bd
       0.040030144 -0.02296178 -0.026811127 -0.048673574
000350 a6 56 2d 3d f5 1f 94 3b 1e 68 92 bd ba 2c 80 3c
       0.042318963 0.004520411 -0.07148765 0.015646327
000360 03 6e 68 bc 9f 61 2a bd 3b 98 65 bd 99 de 46 bd
       -0.014186385 -0.041597005 -0.05605338 -0.04855213
000370 60 e1 35 bd f4 df 75 bc 9d df fe bc e2 b6 53 bc
       -0.044404387 -0.015007008 -0.031112486 -0.012922021
000380 55 20 09 bd 25 6c 9f 3c e8 26 4f 3c ea 5f 52 bd
       -0.0334781 0.019460747 0.012643553 -0.051361002
000390 85 d9 1f 3c 9c be 8e 3c b7 0c ab bb a2 4c aa 3c
       0.009756451 0.017424874 -0.0052200216 0.020788494
0003a0 eb d0 ed 3c fb 45 e1 bb 3a f9 59 bd 55 3e 1d 3d
       0.029030284 -0.0068747974 -0.053216197 0.038389523
0003b0 ad dc 3a 3d 6f ad 27 bc 5a 05 e5 3c f4 75 0e 3d
       0.04562061 -0.010234221 0.027956653 0.034780458
0003c0 3b b7 7d 3c e0 9d ba bd 41 df 52 3c 1d bc 84 bd
       0.01548558 -0.091121435 0.012870611 -0.06481192
0003d0 15 28 8f bd a6 7b 2b 3c 25 53 06 bd 79 db c6 bc
       -0.06990067 0.010466492 -0.032794137 -0.024274575
0003e0 a0 52 39 bd 82 0e cc 3c b4 f8 f3 bc 0f 24 b4 3b
       -0.045244813 0.024909262 -0.029781677 0.0054974626
0003f0 d2 37 51 bd ae fc 86 bd 8a f0 3a bd 40 28 32 bd
       -0.051078625 -0.065911636 -0.045639552 -0.043495417

l2.bias f4 [300]
000000 ed 0f 89 bd 97 b5 ce 3d 93 09 08 bf da d6 d9 bd
       -0.06692491 0.10093229 -0.5313961 -0.10636683
000010 02 f5 66 3c 97 29 2e bd fe 4b 92 bd f5 16 40 be
       0.0140965 -0.042520132 -0.071434006 -0.18758757
000020 e7 1e 2f bd 56 0f 90 bd d2 47 df bd d2 8a 58 be
       -0.04275408 -0.07034175 -0.109023705 -0.21146706
000030 a0 6b d4 be a7 b5 a1 bc 43 d0 01 bd a5 5f 86 bd
       -0.4148836 -0.019739939 -0.031692754 -0.065612115
000040 b5 75 0d bd 8c 32 9f bd f6 1e 53 be 60 25 b3 bd
       -0.034536082 -0.07773313 -0.2061728 -0.08747363
000050 8d 64 11 be 65 34 6f be 56 97 e8 be 31 20 51 be
       -0.14198513 -0.2335983 -0.4542796 -0.20422436
000060 7d a0 11 be c5 eb 84 bc 5c d9 06 3e a4 2c 3b 3d
       -0.14221378 -0.016225705 0.13168854 0.04569687
000070 e7 5b a9 bc 03 e8 c3 bd ea 9d d0 bd c5 19 0e bc
       -0.020673705 -0.09565737 -0.1018637 -0.008673136
000080 28 a3 b3 bd cb f1 58 be d2 df eb 3b 93 b8 e0 bd
       -0.08771354 -0.21185987 0.0071983123 -0.10972705
000090 14 b2 78 bd 5c f3 e2 bc a2 6d 57 bc 3d 14 a1 be
       -0.060716704 -0.027703933 -0.013148697 -0.31460753
0000a0 00 ed 3e ba 47 80 e0 bc f8 6b 4c 3c 64 db 90 b7
       -0.00072832406 -0.027404917 0.012476914 -1.72683e-05
0000b0 38 3b 8c 3d 77 59 42 bd 76 5e 14 be dd 8c 8f bd
       0.068472326 -0.0474486 -0.14489159 -0.070092894
0000c0 1a 87 e6 bd 6e b0 9a bd 67 b6 f9 bd 60 24 40 3e
       -0.11256237 -0.075531825 -0.121929936 0.18763876
0000d0 43 f0 64 bd 6e a8 93 bd e7 e6 5b bd 6e 58 0d 3d
       -0.055893194 -0.0720986 -0.053687003 0.03450816
0000e0 bf b5 a9 bd 72 dd 51 bd 4b 4f e7 bc 71 dc cd bd
       -0.082866184 -0.051236577 -0.028236052 -0.100518115
0000f0 eb 25 6b 3e 32 de 5c bc 29 30 c2 bb f0 39 34 be
       0.22963683 -0.01348071 -0.0059261513 -0.17600226
000100 e1 c4 40 bd c7 ce a6 bd 9f cf a0 bd db 46 9d be
       -0.04706276 -0.081449084 -0.078521006 -0.3071812
000110 bf 40 ad bd 29 eb c0 bd a6 a0 90 bd d5 e7 02 3e
       -0.08459615 -0.09419853 -0.07061891 0.1278375
000120 98 1a 87 be c9 79 c9 bc b8 1c 7a 3d ee 2b 45 be
       -0.26387477 -0.024594205 0.061062545 -0.19255039
000130 7d da 0d bd e7 5a 92 bd 01 fb c4 bd 18 ef bd bd
       -0.034632195 -0.071462445 -0.09618188 -0.09274119
000140 dd 72 8b bd 76 b8 0a 3d c7 1a 08 3d 92 fb d9 bc
       -0.06809018 0.033867322 0.033228662 -0.026609216
000150 31 7f e7 3b bc ef 7e bd 48 db 90 be 66 78 9e bd
       0.007064723 -0.062240347 -0.28292298 -0.07737808
000160 ef 1b a0 bd d0 df 35 bd b5 d0 82 bd cd fe 86 3e
       -0.07817828 -0.044402897 -0.06387464 0.26366273
000170 d4 7b d6 3d fa c4 86 bd 88 f9 bb bd d8 c6 7d bd
       0.10472837 -0.06580539 -0.09178454 -0.06195721
000180 41 68 56 3c 68 21 39 bd 9f 71 c9 be 16 00 9e bd
       0.0130863795 -0.045197874 -0.393445 -0.0771486
000190 b6 2f 21 3c 1e 95 62 bd b0 41 3a bd 9e 3e 9a be
       0.009838035 -0.05531799 -0.0454728 -0.30125898
0001a0 0d 06 07 bd 55 50 01 be a9 2c 4d bd a1 30 47 bd
       -0.032964755 -0.126283 -0.05009142 -0.04863036
0001b0 f5 74 0a be 2e 2d 9a bd bc 65 65 be 4d b9 ce 3d
       -0.13521178 -0.075281486 -0.2240209 0.10093937
0001c0 66 5d 96 bd 96 47 10 bd 63 e0 63 be b7 6d 8e be
       -0.07342033 -0.03522452 -0.22253565 -0.2781808
0001d0 ab 7a f5 3d 9f c5 ca be 1b 65 6d bd 21 27 15 be
       0.11986288 -0.39603898 -0.05795775 -0.14565708
0001e0 f3 bc e5 be e1 88 99 be 7b de c4 bd 35 b0 61 3e
       -0.4487072 -0.29987243 -0.09612747 0.22039874
0001f0 9f e8 c4 bd e6 a0 11 bd b2 12 df bd 8a 67 3e 3e
       -0.096146815 -0.035553835 -0.10892238 0.18594185
000200 b7 fe e6 3d 79 57 76 3e 02 dd e1 bd 10 78 bf bd
       0.11279052 0.24056806 -0.11028482 -0.09349072
000210 b6 54 1f bd be b0 95 bd d7 54 7f be c1 1e 59 bd
       -0.038899146 -0.073091015 -0.24934708 -0.053007845
000220 2b 2b 60 bd f7 fd a1 bd 2c f0 06 3d 9e c8 9d bd
       -0.05472867 -0.07909768 0.03294389 -0.0770428
000230 85 ae 09 bd 7f 79 32 3c c8 90 41 3a 12 f0 dd be
       -0.0336137 0.010893225 0.000738394 -0.43347222
000240 88 ea b1 bc 81 70 ee be e9 4b 69 3e 1b b7 b6 bd
       -0.021718279 -0.4657021 0.22782864 -0.08921643
000250 72 a2 5f bd 57 54 aa bd 0e 5d 61 bc 04 bf 67 bd
       -0.05459828 -0.08316868 -0.013755096 -0.05657865
000260 65 f0 8a bd b0 5f b5 bd 06 f4 10 be ef 73 a2 bd
       -0.06784133 -0.088561416 -0.14155588 -0.07932269
000270 c9 80 cc bd 7b 99 68 3e 7b d3 55 be fb a2 4e 3e
       -0.09985501 0.22714798 -0.20881455 0.2017936
000280 7d d7 01 bd 0f 2a 1e be 9f ef a3 bd c9 d7 ca bd
       -0.031699646 -0.15445732 -0.080046885 -0.09904439
000290 21 bb cb bd 0e 2e 0a bd 35 af 49 bc d1 c6 ce bc
       -0.099478014 -0.033735327 -0.012309839 -0.025241287
0002a0 50 74 e9 bd df 8c 28 bd ae 03 be 3d c0 30 15 3e
       -0.11399138 -0.04114997 0.092780456 0.14569378
0002b0 08 ad aa be 08 fa bd bc 0c 18 0b 3c a5 08 08 bd
       -0.33335137 -0.023190513 0.00848962 -0.03321137
0002c0 f2 48 57 bd e0 24 31 be 4d bc 8b bd 8f a3 a5 bd
       -0.0525598 -0.17299223 -0.06823025 -0.08087837
0002d0 2e 9d 98 bd e5 a8 43 3d 12 6f 60 be be 1a 44 be
       -0.07451855 0.047768492 -0.2191737 -0.19150826
0002e0 7d 32 94 3d 3e f4 90 bd 6b ba 9d be ab b1 a3 be
       0.072361924 -0.070778355 -0.30806288 -0.31971487
0002f0 03 6c 60 bd 63 c7 63 bd 6f a1 29 bd cd e7 8a bd
       -0.054790508 -0.055610072 -0.04141372 -0.06782494
000300 64 99 f3 bd ad cb 8a bd 43 4d e2 bd b6 92 a2 bd
       -0.11894491 -0.06777129 -0.11049893 -0.07938139
000310 4e be 93 bd d5 59 0e bd 29 49 8f be c8 7e af bd
       -0.07214032 -0.03475364 -0.27985504 -0.085691035
000320 67 67 a6 3d dd b8 10 3a ba f7 53 bd 50 51 3a bd
       0.08125191 0.0005520711 -0.051749922 -0.045487702
000330 73 0f 6b bc ab 96 29 be 94 3b b0 be 9d 2e 8d bd
       -0.014346945 -0.16561382 -0.34420455 -0.068936564
000340 cf 07 a7 bd fb 4d 00 3d 75 eb 89 bd 98 1e 44 b8
       -0.08155786 0.031324368 -0.06734363 -4.6758534e-05
000350 58 11 f0 3c 52 79 5d bd 49 04 4e bc 3b 8e 71 3d
       0.029305145 -0.05407078 -0.012574264 0.058973532
000360 aa 8b 52 be 65 b0 84 bd 45 44 90 be 66 71 1b bd
       -0.2056109 -0.06478957 -0.28177086 -0.037949942
000370 fa ae 4d 3b cd 4f 02 bd 78 4d b4 bd ed 91 d2 bd
       0.0031384812 -0.031814385 -0.088038385 -0.102817394
000380 4e ab 92 bd 65 b7 87 bd 3c be e4 bd 19 7c cc bd
       -0.0716158 -0.066267766 -0.11169097 -0.09984607
000390 7b 06 12 be 05 8b 0c bc da 5e d4 bd f9 32 c7 bd
       -0.14260285 -0.008578067 -0.10369654 -0.09726519
0003a0 d6 e3 10 bd f5 53 83 bd df cc ae bc be 1c ea 3c
       -0.03537353 -0.06412498 -0.021337925 0.028578158
0003b0 84 12 3c 3e a1 c0 c8 bc 31 61 cf 3d 4b e6 eb bc
       0.18366438 -0.024505915 0.1012596 -0.028796336
0003c0 85 e5 84 bd c5 32 0e bd 13 9e 9e bd 98 c2 ba bd
       -0.0648909 -0.034716386 -0.07744994 -0.09119147
0003d0 1e 65 9f bd 18 a8 b4 bd 1b 34 6b be 0a f9 d2 bd
       -0.077829584 -0.08821124 -0.22969095 -0.10301407
0003e0 fc 52 98 bd dd c1 02 bd 70 9d 32 bb 17 f0 79 be
       -0.07437703 -0.031923164 -0.0027254485 -0.24407993
0003f0 68 3f b4 bd 92 85 dc bd d3 c4 28 3e 72 1e dc bd
       -0.08801156 -0.10767664 0.16481332 -0.107479945

l3.weight f4 [4, 300]
000000 75 f8 8b bd 6a 70 7b be 5d 92 81 3e 6d bd 03 bd
       -0.06834499 -0.24554601 0.2530698 -0.032163072
000010 77 b3 77 3e c4 de 02 3c 75 49 0b 3d 2d 8d 5a be
       0.24189554 0.007987682 0.0340056 -0.21342917
000020 b3 33 66 bd 08 f3 ba 3c 01 40 c6 bb 70 50 43 3f
       -0.056201648 0.022820964 -0.0060501103 0.7629461
000030 f0 93 54 3e e3 58 fe be cc 75 4e 3d c3 c9 60 3c
       0.20759559 -0.4967719 0.05040531 0.013719979
000040 bf f0 34 3d fd 13 96 be 00 26 ba bf b6 73 1e 3b
       0.044174906 -0.29312125 -1.4542847 0.0024177856
000050 10 d9 e4 3e 5b f0 7f bf af a3 61 3d f8 cd 2f bf
       0.44696856 -0.9997613 0.05508774 -0.6867366
000060 51 51 9e be 7b 1c ea bc 27 9c 73 3c 85 d2 a7 be
       -0.30921414 -0.028578034 0.014868773 -0.327778
000070 c0 26 c5 3c 5f a9 d1 3d 5e 5d 99 bc fb 45 e1 bc
       0.024066329 0.10237383 -0.018721279 -0.02749919
000080 33 1c 6c bd 58 7a 90 3e 39 3b a9 3f 0a bb d4 3b
       -0.05764408 0.2821834 1.3221198 0.0064920234
000090 cb 54 e4 3c 3c f6 82 be 2d 32 ba bd 12 aa 7e be
       0.027872464 -0.25578487 -0.090916015 -0.24869564
0000a0 d1 f7 4a 3c 13 47 be bc a0 a3 99 3d e8 32 61 3a
       0.012388186 -0.02322725 0.07501912 0.00085906545
0000b0 d6 76 10 be be fe 89 be 1a dc 09 be 52 32 d4 bc
       -0.14107832 -0.26952165 -0.13462868 -0.0259029
0000c0 8e 15 10 3e 9d 80 90 3c c8 3b 99 3c 4e 82 6e 3e
       0.14070722 0.017639453 0.018705264 0.23291895
0000d0 f9 19 c7 3c 59 12 4e bc 9d 33 a2 3d f6 59 c3 3e
       0.024304377 -0.012577617 0.07920001 0.38154572
0000e0 73 e8 e4 3c fe ed 10 bd de e5 ae 3b ff 68 22 3d
       0.027942872 -0.035383217 0.005337461 0.039650913
0000f0 9c ee 8e 3d d0 87 08 bd 1e db 1c bb 7f 9a a0 3b
       0.06979105 -0.033332646 -0.0023934315 0.00490123
000100 65 3e 97 3a ae d1 22 bd d2 be 60 bd b5 bc 8a be
       0.0011538981 -0.039750747 -0.05486948 -0.27097097
000110 22 c0 e6 3c 8e e9 2a ba c9 33 dd bb 16 95 29 bd
       0.028167788 -0.0006519788 -0.006750558 -0.041401945
000120 0c f5 6d bf 77 7b 24 3b d6 ca 93 be da e3 92 3e
       -0.92952037 0.0025098005 -0.2886569 0.28689462
000130 3f 63 3d 39 e4 4c ce 3e 3c 37 f1 3b e5 4c 86 bb
       0.00018061417 0.40293038 0.007361321 -0.004098522
000140 ac fe 0e bc b9 2d 9b 3d 22 7c 81 3f f5 4b 15 3c
       -0.008727711 0.0757708 1.0116007 0.009112348
000150 e8 a8 08 bf 1d d6 88 bc ec 7e 54 bf 1f 8c 25 ba
       -0.5338273 -0.01670366 -0.8300617 -0.000631513
000160 8c c1 07 bc 3d 38 8e 3c 0d 4a 84 3c 6d 5d ce 3d
       -0.008285891 0.0173608 0.016148591 0.10076413
000170 9e 18 0b 3f 57 d8 4d 3d d7 01 25 3d 98 20 f2 3b
       0.5433444 0.050255146 0.040284958 0.0073891394
000180 12 69 00 bf 0c 31 84 bc b9 48 3b bc 06 0d a6 bb
       -0.50160325 -0.016136669 -0.011430913 -0.0050674705
000190 ee 62 10 bb 90 27 b7 3d 60 f4 b6 bc 47 d0 16 bf
       -0.0022031623 0.08943093 -0.022333324 -0.58911556
0001a0 72 75 5a 3d 95 c5 14 bd 39 c4 cd 3c ad 84 81 3c
       0.05333466 -0.03632124 0.02511798 0.015810335
0001b0 5a b7 58 be b8 12 c3 b9 5e 77 11 3f d2 9a 01 3e
       -0.21163693 -0.00037207245 0.56822765 0.12656716
0001c0 6b 6c eb 3b 46 5b 33 3c cd db 8c 3d 05 4c 1f bf
       0.0071845553 0.010947054 0.06877861 -0.6222537
0001d0 83 53 77 3e f7 9c a2 be b3 0d fd 3b c5 69 90 3f
       0.24152951 -0.3176038 0.0077225803 1.1282278
0001e0 6a 9d df 3e 78 9e 23 bf bd 56 42 3f b6 c2 d5 3e
       0.43674785 -0.6391368 0.759136 0.41750115
0001f0 ec fa 6a bc b5 6f 0e 3c 86 8d 9b bb c0 93 78 bd
       -0.014342051 0.008693625 -0.0047470955 -0.06068778
000200 06 9e 86 be c7 6e 02 3d 3c e6 b0 bb 02 3f db 3b
       -0.26292437 0.031843927 -0.00539854 0.0066908607
000210 65 86 0b bd 8f da a0 3d af 1c 40 3f a4 8a d7 3c
       -0.034063715 0.07854187 0.7504377 0.026311226
000220 0f fb 25 bd cd 43 84 bc 64 3e fe 3c 0c 11 01 3d
       -0.04052263 -0.016145611 0.03103561 0.031510398
000230 af cf 33 bd 31 e3 cf 3b eb f9 e2 39 74 ba 8d 3e
       -0.043899234 0.006344222 0.00043292282 0.27681315
000240 d1 0e 43 3b 83 79 aa be 4e 7c 51 bf 1f 08 ee 3c
       0.002976347 -0.3329583 -0.818303 0.029056607
000250 b1 11 c2 bb 78 9a 3c 3d c0 d6 dd 3d cd 18 5e be
       -0.005922519 0.04604575 0.10831976 -0.21689148
000260 ab 59 6b bd 9b 69 e6 bc 03 29 c4 3e b7 35 80 bb
       -0.05745856 -0.028126528 0.3831254 -0.0039126533
000270 10 7e 3e bd 0b e1 55 3d 66 d7 aa bd b3 11 77 bf
       -0.04650694 0.05221657 -0.08341865 -0.9651138
000280 7b e6 f2 bc 15 5a 43 be 70 54 ba bc 71 78 4d 3d
       -0.029650917 -0.19077332 -0.022745341 0.05016369
000290 1c 35 8e 3c 6d 9e 0c bf 58 ac 79 be 98 5c cb 3d
       0.017359309 -0.5492924 -0.2438215 0.0992977
0002a0 81 c6 03 3f ac 17 8f bd 64 bc 0c 3c a5 df da bc
       0.5147477 -0.06986937 0.008589838 -0.02671797
0002b0 5a 60 5b bf 75 20 16 bb 34 67 82 3e db fc 74 bc
       -0.85693896 -0.002290753 0.25469363 -0.014952864
0002c0 bd e3 00 3d 49 48 cb 3e 5c dc 88 bd b1 c6 da bb
       0.03146719 0.39703587 -0.06682655 -0.006676518
0002d0 cd 89 89 3c a0 59 33 3e 36 2f 55 bd bb 3c 5c ba
       0.016789341 0.17514658 -0.052046977 -0.00084013835
0002e0 b2 30 13 3f 07 84 27 bc 58 81 f5 be 60 07 8d 3e
       0.5749618 -0.010224349 -0.47950244 0.2754469
0002f0 60 13 b6 bc be 52 94 bd eb cb 72 3b 83 0e 61 bc
       -0.022226036 -0.07242344 0.0037047814 -0.01373637
000300 d8 6f cd bc be 83 10 3d 80 83 41 bd 34 67 fc 3d
       -0.025077745 0.03528189 -0.04724455 0.12324372
000310 af 65 b4 3c 37 1d 3b 3d 25 25 18 3f 91 02 85 3d
       0.022021143 0.04568216 0.5943168 0.0649463
000320 20 7b 43 3f 37 e6 bf 3c 15 51 84 39 6c d5 7f bb
       0.7635975 0.023425205 0.00025237413 -0.0039037121
000330 38 66 b3 3c df 39 b9 3e 00 60 b4 be b3 59 68 3d
       0.021899328 0.36176965 -0.35229492 0.05672617
000340 41 a7 53 3c 9c cd 77 3d 27 cb 24 bd f9 5e 94 3e
       0.012918294 0.06049882 -0.040232804 0.28978708
000350 7b 66 2d 3e 27 fe a8 3c 07 db a5 bd 93 49 3b 3e
       0.16933624 0.020629002 -0.08098417 0.18289785
000360 e1 26 52 bd 7a 26 80 3c 96 a1 8f bd 4f 4c a6 bc
       -0.05130661 0.015643347 -0.07013242 -0.020300059
000370 fd 5d e4 bd 26 6b 1b be a9 eb db 3c 53 ee 4c bb
       -0.11150739 -0.15177593 0.02684577 -0.0031269982
000380 41 4b da 3c da e1 53 3d 65 a7 13 be b5 9f 86 3d
       0.026647212 0.05172906 -0.14419325 0.065734304
000390 99 9d 3b be 05 cb 97 3d 3d f1 04 3d a8 99 3f 3c
       -0.18321837 0.0741177 0.032456625 0.011694349
0003a0 e3 c0 fb ba 90 0a b2 ba 31 02 cf 3b bf f7 4e 3f
       -0.0019207265 -0.001358347 0.0063174 0.8084678
0003b0 bc f8 4d 3e c6 85 15 3d 1a 66 d9 bd 2b 6b 66 3d
       0.20114416 0.03650453 -0.106151775 0.056254547
0003c0 0d b9 17 3d e9 7a c1 bc ef 49 08 bf ef 66 a0 3d
       0.037041713 -0.023618178 -0.53237814 0.07832133
0003d0 11 80 46 bd b5 72 81 bd 3a e9 2a 3d 21 f1 db 3c
       -0.048461977 -0.06320707 0.04172633 0.026848378
0003e0 d3 02 55 bf 78 fd 38 3c 69 b7 d2 bb 48 5f fc be
       -0.83207434 0.0112909 -0.0064305556 -0.49291444
0003f0 b6 5f 19 3d bc 95 0d bd 6c 3e 40 3e c3 ab 65 bc
       0.037444793 -0.034566626 0.18773812 -0.014018002

l3.bias f4 [4]
000000 58 01 21 bd e3 fb 5b be 4c 5e da 3c 90 3d c0 bd
       -0.039307922 -0.21482806 0.026656292 -0.09386742
