TD3-conf1/preTrained/TD3_BipedalWalker-v3_0_actor_ep600.pth (torch_old, 526982 bytes, 6 tensors)

l1.weight f4 [400, 24]
0.15908629 0.015029513 0.9495031 -0.46710485 0.76843107 -0.07111282 -0.39407712 0.07306093
-2.138306 -1.0255145 -0.22853348 -0.29924005 0.2210867 -0.3426305 -0.4955965 -0.19687241
-0.43305722 -0.49516696 -0.48343426 -0.41326126 -0.44592375 -0.25291649 -0.152458 0.01281306
0.3788108 1.165386 -2.3357937 0.63784957 0.30372503 -0.38352704 -0.30821225 -0.22825925
0.1600651 -0.71757853 -0.4934695 -0.6449706 -1.0762018 0.38958836 -0.18917267 -0.2818838
-0.18976437 -0.42731982 -0.2903112 -0.29065773 -0.3391471 -0.44281742 -0.037605185 -0.21305557
0.390089 1.1493478 -1.6275362 0.09519824 1.002753 -0.15904953 -0.029364107 -0.02377671
0.18605027 -0.032277387 0.14241186 0.8231728 -0.42649415 0.69205356 -0.6526095 -0.39870775
-0.6915754 -0.7228852 -0.39151347 -0.7079976 -0.43670854 -0.62917805 -0.7217521 -0.13967784
0.5412766 1.381762 -0.43433854 0.05962147 0.3761123 -0.24425042 0.33162284 0.17121911
-0.994315 -0.215911 -0.38258344 -0.33386 -0.29631516 -0.3020115 -0.51897943 -0.42097434
-0.6356044 -0.6219813 -0.552892 -0.5727486 -0.5127276 -0.6027519 -0.38903782 -0.6226121
1.0951309 -2.5450926 1.3028398 -1.7684267 0.6677282 -0.08174118 -0.20311749 0.542293
-0.61603785 0.4749935 -0.19499259 -0.15025371 0.3447304 0.2120183 -0.39096746 -0.3765055
-0.35739094 -0.3518963 -0.054218482 -0.21679759 0.0079094665 -0.23628578 0.069786064 -0.13486992
0.38325372 1.4338607 -1.8062656 1.7146512 -0.8458727 -0.06990116 0.24690871 -0.021405526
-1.0482053 -0.012168151 -0.1552913 0.8133924 0.5298745 -0.3367296 0.11898167 0.1390369
0.0851177 0.035904776 0.1604492 -0.16533624 -0.18084045 0.049081247 -0.18765959 -0.6728778
-0.7857384 1.1364458 -0.18750323 0.016563425 -0.5371965 -0.3511379 0.72891885 0.5088544
-0.5392174 0.82579046 -0.34931403 0.29418513 0.0014051348 0.5436582 -0.48610258 -0.46002588
-0.42411748 -0.3653566 -0.44458485 -0.56739384 -0.48280877 -0.66208714 -0.6401851 -0.16902845
1.1337217 3.5055559 -1.1540444 0.52988225 -0.34303078 -0.21546572 0.6395263 0.6840731
0.17917706 1.1474606 0.25956446 -0.52465224 0.34286594 0.17679788 -0.48883006 -0.5462502
-0.31296426 -0.19224465 -0.4738874 -0.4565518 -0.31853217 -0.4713925 -0.39811403 -0.6070206
-0.607729 0.43883404 -0.75395113 -1.658886 -0.12448192 0.4433415 0.85931766 -0.39028427
-0.6309582 -0.38091955 0.26995605 -0.21573564 0.82923865 -0.5170234 0.24174589 0.19938268
-0.021317374 -0.059189342 0.09588549 0.12610167 -0.102845736 0.07998785 0.06667972 -0.3936963
0.66560227 -2.8656619 2.362892 -1.2998878 0.815601 -0.0882258 -0.1557021 -0.12451875
-0.26683292 0.19375592 0.579821 0.9225021 0.08998331 -0.36417404 -0.061333112 -0.029338792
0.06787916 0.1427837 -0.12214632 -0.12693578 -0.03827258 -0.012549702 0.11840157 -0.006654059
-0.66691697 -1.6781061 0.94455546 0.55140156 -0.25972596 -0.19023155 0.2869827 0.81503385
-0.21212329 1.0367439 -0.85534596 0.03735281 -0.0994401 0.27648854 -0.5359629 -0.4500918
00000000: 84e7 223e 593e 763c a312 733f 5e28 efbe
00000010: e6b7 443f 99a3 91bd 7ac4 c9be f8a0 953d
00000020: 01da 08c0 0f44 83bf ae04 6abe fe35 99be
00000030: 8d64 623e 446d afbe d3be fdbe ec98 49be
00000040: adb9 ddbe 8686 fdbe b284 f7be fb96 d3be
00000050: 1e50 e4be 457e 81be f31d 1cbe deed 513c
00000060: 7df3 c13e 5e2b 953f a57d 15c0 1c4a 233f
00000070: d981 9b3e a85d c4be ffcd 9dbe cbbc 69be
00000080: 1be8 233e 3ab3 37bf 09a8 fcbe cb1c 25bf
00000090: fbc0 89bf 2078 c73e 7bb6 41be 1353 90be
000000a0: 9751 42be aac9 dabe aba3 94be 17d1 94be
000000b0: b0a4 adbe f7b8 e2be e507 1abd 3d2b 5abe
000000c0: bfb9 c73e d41d 933f 1b53 d0bf 4bf7 c23d
000000d0: 365a 803f e1dd 22be ff8c f0bc 60c7 c2bc
000000e0: f683 3e3e 4b35 04bd 6ad4 113e 74bb 523f
000000f0: 715d dabe 6c2a 313f 6b11 27bf 6c23 ccbe
00000100: 160b 31bf 010f 39bf 7474 c8be 553f 35bf
00000110: 4398 dfbe d011 21bf bfc4 38bf b507 0fbe
00000120: 1a91 0a3f 94dd b03f 9f61 debe a435 743d
00000130: cb91 c03e c81c 7abe 78ca a93e 1054 2f3e
00000140: 6e8b 7ebf c617 5dbe fae1 c3be b3ef aabe
00000150: 9fb6 97be 40a1 9abe d6db 04bf f389 d7be
00000160: f8b6 22bf 2b3a 1fbf 558a 0dbf a79f 12bf
00000170: 1e42 03bf f34d 1abf f72f c7be 8263 1fbf
00000180: 402d 8c3f cce2 22c0 74c3 a63f ce5b e2bf
00000190: 3cf0 2a3f eb67 a7bd 08fe 4fbe b7d3 0a3f
000001a0: a8b4 1dbf 5932 f33e 23ac 47be 1cdc 19be
000001b0: 8180 b03e 531b 593e e32c c8be 54c5 c0be
000001c0: f2fb b6be c02b b4be 3314 5ebd 3000 5ebe
000001d0: b596 013c e6f4 71be ffeb 8e3d 571b 0abe
000001e0: d539 c43e bf88 b73f b633 e7bf b179 db3f
000001f0: 1d8b 58bf 5728 8fbd a3d5 7c3e a45a afbc
00000200: 972b 86bf ed5c 47bc af04 1fbe 7c3a 503f
00000210: dba5 073f d267 acbe a9ac f33d b05f 0e3e
00000220: 3052 ae3d e310 133d cc4c 243e e74d 29be
00000230: 3d2e 39be 6b09 493d d629 40be b841 2cbf
00000240: 2726 49bf 0e77 913f d900 40be 05b0 873c
00000250: b685 09bf 59c8 b3be 6d9a 3a3f 4844 023f
00000260: 270a 0abf 0167 533f 4ad9 b2be 6f9f 963e
00000270: 802c b83a 2f2d 0b3f 70e2 f8be 8388 ebbe
00000280: ed25 d9be 0510 bbbe a0a0 e3be b940 11bf
00000290: b632 f7be 8b7e 29bf 2ce3 23bf cb15 2dbe
000002a0: cb1d 913f 075b 6040 bab7 93bf 5da6 073f
000002b0: bba1 afbe 0ca3 5cbe ffb7 233f 6a1f 2f3f
000002c0: 317a 373e fddf 923f a2e5 843e 9c4f 06bf
000002d0: 208c af3e 810a 353e ef47 fabe 0ed7 0bbf
000002e0: da3c a0be c8db 44be 5fa1 f2be 28c1 e9be
000002f0: a616 a3be 5c5a f1be 9ad5 cbbe b465 1bbf
00000300: 2194 1bbf dbae e03e f102 41bf 6056 d4bf
00000310: 60f0 febd a8fd e23e 3efc 5b3f 57d3 c7be
00000320: 7a86 21bf e307 c3be ae37 8a3e cee9 5cbe
00000330: fc48 543f a55b 04bf 3c8c 773e f92a 4c3e
00000340: c6a1 aebc 8670 72bd 9d5f c43d cc20 013e
00000350: c9a0 d2bd abd0 a33d 618f 883d 9092 c9be
00000360: e964 2a3f 0167 37c0 9f39 1740 b962 a6bf
00000370: 3acb 503f baaf b4bd 5f70 1fbe b003 ffbd
00000380: 539e 88be f467 463e 266f 143f 1929 6c3f
00000390: 2b49 b83d 0575 babe 6e38 7bbd e857 f0bc
000003a0: 3b04 8b3d e435 123e da27 fabd 74fb 01be
000003b0: b5c3 1cbd 449d 4dbc 867c f23d 4b0a dabb
000003c0: 12bb 2abf 2ecc d6bf 63ce 713f a728 0d3f
000003d0: cdfa 84be 0fcc 42be 65ef 923e 0fa6 503f
000003e0: d936 59be 06b4 843f f4f7 5abf 43ff 183d
000003f0: 40a7 cbbd e88f 8d3e dd34 09bf 6f72 e6be

l1.bias f4 [400]
-0.10325082 -0.3771992 -0.2004115 -0.7202442 0.0053097005 -0.86919916 -0.0530539 -0.24453193
-0.29228458 -0.081021704 -0.0505009 0.043531954 0.11939708 -0.34837195 -0.24958347 -0.18728378
-0.13106464 -0.19025199 -0.27363247 0.18010578 -0.10247136 0.2562218 -0.26022366 -0.3267326
-0.2990485 -0.18709518 -0.26601446 -0.21611302 0.5134666 0.015975464 -0.19348383 -0.45032397
0.31957954 -0.17213535 -0.016241236 -0.19633113 -0.10614893 0.030966278 -0.11161179 -0.20458345
-0.42158198 -0.41197723 0.37292504 -0.24782176 0.18683638 -0.03059872 0.14502871 -0.20048715
-0.29782978 0.068698056 -0.071817 -0.49705845 0.09867736 -0.4234147 -0.044363737 -0.16463119
-0.13344786 -0.73999083 0.033020485 -0.28579062 -0.2700212 -0.45376772 0.26984364 -0.107071914
0.033105463 -0.025054501 0.08733902 -0.21947105 -0.26915094 -0.1915083 -0.110371 -0.12904836
-0.21122828 -0.5252985 -0.5701071 0.6769363 -0.029546773 -0.3712834 -0.37554708 -0.25645062
-0.026288904 -0.3397 -0.0759622 -0.19275013 -0.5096813 -0.6540416 -0.22727674 0.019126594
0.076626115 -0.026753664 -0.28753632 -0.42112055 -0.05503586 -0.3618272 0.36717165 -0.098854505
-0.49055186 -0.38156882 -0.25540838 -0.12782383 -0.34819195 -0.19959229 -0.19116484 -0.109752975
-0.16956124 -0.44349644 0.15765783 -0.42241734 -0.11339318 -0.30775586 0.09046916 -0.048410453
0.024947783 -0.19437599 -0.13493368 -0.15461645 -0.14392133 -0.15979782 -0.29603654 -0.1613464
0.09668138 -0.18339857 0.10445994 -0.5609264 0.5201023 0.22027378 -0.2573274 -0.25169054
-0.013510461 -0.29789618 -0.28479564 -0.16131532 -0.58015037 0.17273495 0.22495875 -0.15492359
0.30105343 0.025239278 0.11779358 -0.3024936 -0.3022998 0.23188429 -0.29121327 -0.31975758
0.2232593 0.3979436 -0.025662793 -0.20474762 -0.55950505 -0.5354359 0.29753792 -0.46661356
0.16344593 -0.067130536 -0.088187724 0.17186683 0.098998316 -0.37217045 -0.21985403 0.02572721
-0.07512635 -0.5396924 -0.29830077 0.07762871 -0.008745383 -0.41137895 -0.5148047 0.280466
0.26683193 0.14896177 -0.3000566 -0.18767682 -0.32610178 -0.34727642 -0.20652694 -0.53484803
-0.053927615 0.6159775 -0.2756522 -0.035818197 0.08154292 -0.12304176 -0.25706893 0.19158281
0.6016479 -0.66523385 -0.4715445 -0.3120197 -0.21375223 -0.4126603 0.016242351 -0.46222794
0.22647153 -0.16274469 -0.08030961 -0.56173426 -0.3354478 -0.11894419 -0.5107686 -0.33872437
-0.20429502 0.05920718 0.04881379 -0.16627029 -0.1429027 -0.056264736 -0.37072945 0.13901223
-0.29066285 0.16512285 -0.108728275 -0.1637307 0.014839223 -0.50809556 -0.038704604 -0.38393012
-0.7760104 -0.40606245 -0.20943388 -0.33732596 0.20298964 -0.19878966 -0.18579459 -0.16640441
0.4250471 -0.17301212 -0.20083906 0.06448123 -0.10940195 -0.34290972 -0.1212934 -0.05042273
0.17245288 0.23730823 -0.48290965 0.08769066 -0.17930795 -0.27430743 -0.50171214 0.05939736
-0.05685872 0.20863967 0.22077249 0.101012185 0.25248268 -0.054382812 0.032995928 -0.056868743
-0.20623137 -0.4432284 -0.4468764 -0.48707128 0.053716287 0.71830535 -0.42234686 -0.4423163
00000000: 2a75 d3bd 4120 c1be ac38 4dbe ed61 38bf
00000010: fffc ad3b d683 5ebf 0c4f 59bd 9466 7abe
00000020: 53a6 95be b5ee a5bd 08da 4ebd 904e 323d
00000030: 7586 f43d cf5d b2be cf92 7fbe 52c7 3fbe
00000040: cf35 06be 6bd1 42be 8e19 8cbe a66d 383e
00000050: 81dc d1bd 812f 833e 093c 85be 7f49 a7be
00000060: e31c 99be e195 3fbe 0c33 88be bb4c 5dbe
00000070: 8c72 033f fade 823c a020 46be dd90 e6be
00000080: ee9f a33e 4044 30be 570c 85bc 070b 49be
00000090: 9c64 d9bd feac fd3c b994 e4bd 537e 51be
000000a0: 98d9 d7be aeee d2be 08f0 be3e fdc4 7dbe
000000b0: 0952 3f3e 2baa fabc 6882 143e 814c 4dbe
000000c0: 257d 98be 91b1 8c3d cb14 93bd 727e febe
000000d0: 5b17 ca3d d0c9 d8be c0b6 35bd 1495 28be
000000e0: 8ea6 08be 0a70 3dbf 7d40 073d 2653 92be
000000f0: 3840 8abe 3e54 e8be f228 8a3e 8548 dbbd
00000100: 9899 073d 193f cdbc cdde b23d 05bd 60be
00000110: 27ce 89be c01a 44be 310a e2bd 4125 04be
00000120: 3a4c 58be f679 06bf 8af2 11bf b34b 2d3f
00000130: 130c f2bc dc18 bebe b547 c0be 7f4d 83be
00000140: d45b d7bc 29ed adbe 1292 9bbd 4a60 45be
00000150: 797a 02bf 456f 27bf 3cbb 68be 60af 9c3c
00000160: 27ee 9c3d 802a dbbc f637 93be 1d9d d7be
00000170: 486d 61bd 6a41 b9be ecfd bb3e 3b74 cabd
00000180: 9d29 fbbe fd5c c3be e3c4 82be 40e4 02be
00000190: 3746 b2be ec61 4cbe b7c0 43be 2bc6 e0bd
000001a0: 76a1 2dbe f711 e3be 0e71 213e 1647 d8be
000001b0: af3a e8bd 2d92 9dbe e547 b93d 0a4a 46bd
000001c0: 4b5f cc3c 800a 47be 0e2c 0abe c653 1ebe
000001d0: 1d60 13be 0aa2 23be 1a92 97be fe37 25be
000001e0: e300 c63d d6cc 3bbe 18ef d53d df98 0fbf
000001f0: 6d25 053f 738f 613e 6bc0 83be 95dd 80be
00000200: fb5a 5dbc d985 98be bcd0 91be d82f 25be
00000210: bc84 14bf 6ee1 303e 965b 663e 4aa4 1ebe
00000220: ad23 9a3e 9ac2 ce3c c33d f13d 71e0 9abe
00000230: 0ac7 9abe 1373 6d3e e819 95be 44b7 a3be
00000240: 169e 643e 43bf cb3e c73a d2bc 5ca9 51be
00000250: b93b 0fbf 5412 09bf e456 983e f9e7 eebe
00000260: 5f5e 273e bc7b 89bd c49b b4bd dcfd 2f3e
00000270: a1bf ca3d 208d bebe 6a21 61be dfc1 d23c
00000280: d8db 99bd 4829 0abf e1ba 98be cdfb 9e3d
00000290: cb48 0fbc 43a0 d2be 3eca 03bf 3d99 8f3e
000002a0: 329e 883e 6f89 183e 05a1 99be 5a2e 40be
000002b0: d0f6 a6be 37ce b1be cc7b 53be cdeb 08bf
000002c0: 34e3 5cbd b4b0 1d3f 4922 8dbe 1ab6 12bd
000002d0: f9ff a63d 51fd fbbd 8a9e 83be 492e 443e
000002e0: 9905 1a3f c44c 2abf 486e f1be 0cc1 9fbe
000002f0: dde1 5abe 3648 d3be ae0e 853c 24a9 ecbe
00000300: 27e8 673e 8ba6 26be 5d79 a4bd d1cd 0fbf
00000310: d0bf abbe 0399 f3bd bbc1 02bf 486d adbe
00000320: b732 51be 3a83 723d f8f0 473d c242 2abe
00000330: 1655 12be da75 66bd 40d0 bdbe 3959 0e3e
00000340: c3d1 94be f715 293e eeac debd 05a9 27be
00000350: 3620 733c 8d12 02bf b888 1ebd 7d92 c4be
00000360: 9ea8 46bf 6be7 cfbe d675 56be fdb5 acbe
00000370: 84dc 4f3e 848f 4bbe f040 3ebe eb65 2abe
00000380: c69f d93e 172a 31be c1a8 4dbe bc0e 843d
00000390: 210e e0bd dd91 afbe ad68 f8bd 1188 4ebd
000003a0: 7d97 303e ee00 733e ef3f f7be 2997 b33d
000003b0: 819c 37be 0672 8cbe 3570 00bf a54a 733d
000003c0: b0e4 68bd a3a5 553e 2f12 623e 7adf ce3d
000003d0: 6945 813e 83c0 5ebd bd26 073d 33ef 68bd
000003e0: 512e 53be d5ee e2be fccc e4be 6861 f9be
000003f0: 9c05 5c3d dce2 373f d93d d8be 4877 e2be

l2.weight f4 [300, 400]
-0.04864453 -0.13108182 0.087383725 0.001495154 -0.3371236 0.2800382 -0.20561278 0.2987043
0.1729653 -0.15058105 0.34610268 0.055877067 -0.23684905 -0.96832865 -0.031296168 0.13764475
-0.9203912 0.16463974 -0.33658397 -0.02456017 -0.28698617 -0.083622776 0.01381566 0.34660748
-0.15217188 0.11605498 -0.36851838 0.32503766 -0.013816027 -0.28734472 0.20172164 0.5388774
-0.0003033911 -0.57736623 0.04258826 0.05253918 0.8165983 -0.015250284 0.44563955 -0.09463209
0.31605363 -0.1531654 0.012892711 -0.019899642 0.28947815 -0.25729635 -0.16693893 -0.6580073
-0.024370933 -0.5232255 0.37190467 0.016504694 -0.14284153 0.20190951 0.029425291 -0.011961959
-0.87133294 -0.0052388534 0.004495511 -0.97256696 0.042137403 0.102484554 0.17932995 -0.616298
0.15383883 -0.4499718 -0.029701792 0.4958095 -0.024579288 -0.11286254 -0.57601714 -0.68160987
-0.26422608 0.20865007 0.23402016 0.11387892 -0.6469819 -0.16924395 0.13112125 0.07813772
0.4799642 0.034790147 -0.009678134 -0.044476938 -0.25237477 -0.012697554 -0.25170597 0.32963994
-0.10679161 -0.37623549 0.017391715 -0.93289113 -1.1125112 0.17190835 -0.28286645 -0.15694417
-0.0024003712 0.21257095 -0.1993174 -0.4521168 0.1318345 0.07968967 0.040890947 -0.18311034
0.30765116 0.97729826 -0.81478965 0.31161195 0.3366017 0.0055742636 -0.45462796 0.014545599
0.25342777 0.52562356 0.313915 0.037748 -0.008850552 -0.811433 -0.21007204 -0.5614871
-0.027684532 -0.107963614 0.025343535 -0.037726022 0.33042148 -0.023337062 -0.41814047 0.61379594
0.1532873 0.0068639405 0.5093741 0.02086744 -0.4931726 -0.53427124 -0.24151942 -0.50320077
0.09880381 -0.59429693 0.19517562 -0.2835311 0.6548796 0.05452884 -0.1328223 -0.0241839
0.7561881 -0.021562262 -0.08889247 0.06878622 -0.3485151 0.024573537 0.14408587 -0.38027292
-0.21703555 -1.2415334 0.37862557 0.19809137 0.41214874 -0.06224372 -0.026802449 0.04010405
0.4426308 0.020547826 -0.2755863 -0.2601015 0.36266688 0.18627594 -0.009232036 0.18109213
-0.1558639 0.5608109 -0.442654 -0.26510927 0.66501063 -0.3565829 -1.2634838 -0.01763819
0.080629595 -0.20312314 -0.007152829 0.07465493 -0.8293237 0.5415772 -0.092805676 0.08510426
-0.12578638 0.75484407 -0.01401882 0.02987921 0.01866651 0.24634895 0.7695999 -0.3391331
0.24611434 -1.0815005 -0.008279653 -0.09949015 0.039631568 -0.018365804 -0.45019683 0.23149486
-0.25598672 0.2005795 -0.062957145 0.028039675 -0.7959479 -0.10330148 0.29755136 0.3724996
-1.3422343 -0.7325837 -0.2553953 0.47511798 0.02745422 -0.2017672 -0.011348792 0.40855002
-0.62945086 0.3474613 -0.05605359 -0.13024317 0.0978785 -0.015007008 -0.031112486 0.31862015
-0.19701901 -1.1926512 -0.24476498 0.44209972 -0.071920425 -0.31839457 -0.3093374 0.2322741
0.26484275 0.006041777 -0.44374007 -1.1558765 0.019464137 -0.20558187 0.6655822 0.16552238
-0.11877926 0.15411925 0.18131296 0.120284654 0.2640755 -0.17101401 -0.5503898 0.06955797
0.20488061 -1.090708 0.07895172 0.005497409 0.030544983 -0.06717185 -0.045639552 0.012553967
00000000: 7d3f 47bd 503a 06be 3df6 b23d 0bf9 c33a
00000010: 779b acbe 2b61 8f3e 288c 52be c5ef 983e
00000020: d11d 313e eb31 1abe 5f34 b13e 5adf 643d
00000030: 8f88 72be 63e4 77bf 6930 00bd bff2 0c3e
00000040: c29e 6bbf 5297 283e bc54 acbe 6932 c9bc
00000050: daef 92be 6b42 abbd 145b 623c 8976 b13e
00000060: f2d2 1bbe 3cae ed3d 71ae bcbe 566b a63e
00000070: 9e5c 62bc d91e 93be 1e90 4e3e dff3 093f
00000080: 7710 9fb9 46ce 13bf 0771 2e3d 5333 573d
00000090: 960c 513f 54dc 79bc de2a e43e 78ce c1bd
000000a0: c8d1 a13e 64d7 1cbe f33b 533c 9304 a3bc
000000b0: 7b36 943e 59bc 83be 0af2 2abe 2b73 28bf
000000c0: 8da5 c7bc 1bf2 05bf 4a6a be3e da34 873c
000000d0: 0d45 12be 5ec1 4e3e 4f0d f13c 18fc 43bc
000000e0: ad0f 5fbf b0aa abbb 144f 933b 26fa 78bf
000000f0: 4598 2c3d 6ce3 d13d 45a2 373e b5c5 1dbf
00000100: ed87 1d3e b462 e6be 2c51 f3bc beda fd3e
00000110: 815a c9bc 7a24 e7bd dc75 13bf fc7d 2ebf
00000120: a448 87be 5da8 553e fba2 6f3e 5a39 e93d
00000130: 9ba0 25bf 494e 2dbe a644 063e ab06 a03d
00000140: debd f53e 1d80 0e3d 0991 1ebc 732d 36bd
00000150: 4437 81be 6709 50bc 9bdf 80be 91c6 a83e
00000160: 8fb5 dabd f0a1 c0be 1279 8e3c f4d1 6ebf
00000170: c466 8ebf be08 303e dfd3 90be f9b5 20be
00000180: 8c4f 1dbb 33ac 593e dc19 4cbe da7b e7be
00000190: a0ff 063e 5634 a33d 447d 273d 4781 3bbe
000001a0: 7484 9d3e 3830 7a3f 0e96 50bf 9a8b 9f3e
000001b0: 0f57 ac3e 50a8 b63b ffc4 e8be aa50 6e3c
000001c0: 49c1 813e 448f 063f 78b9 a03e a69d 1a3d
000001d0: e801 11bc 13ba 4fbf 201d 57be 9ebd 0fbf
000001e0: acca e2bc 071c ddbd 3f9d cf3c 9a86 1abd
000001f0: 012d a93e 5e2d bfbc 8216 d6be bb21 1d3f
00000200: 59f7 1c3e e8ea e03b 5766 023f 32f2 aa3c
00000210: 1e81 fcbe 00c6 08bf de50 77be c4d1 00bf
00000220: a759 ca3d d823 18bf 1edc 473e fd2a 91be
00000230: 31a6 273f a259 5f3d 9202 08be 501d c6bc
00000240: 8b95 413f 57a3 b0bc 410d b6bd cadf 8c3d
00000250: 9270 b2be 714e c93c 3f8b 133e 22b3 c2be
00000260: 913e 5ebe 91ea 9ebf 36db c13e 77d8 4a3e
00000270: 2905 d33e 45f3 7ebd cf90 dbbc 2544 243d
00000280: 81a0 e23e ea53 a83c a619 8dbe 062c 85be
00000290: 79af b93e 1fbf 3e3e f741 17bc 3770 393e
000002a0: c99a 1fbe 4e91 0f3f 8ca3 e2be 67bc 87be
000002b0: 233e 2a3f 0992 b6be d6b9 a1bf f77d 90bc
000002c0: 2121 a53d 83ff 4fbe 4762 eabb afe4 983d
000002d0: 8f4e 54bf cea4 0a3f e710 bebd 244b ae3d
000002e0: 25ce 00be 763d 413f 31af 65bc 3fc5 f43c
000002f0: 82ea 983c e642 7c3e 8004 453f dba2 adbe
00000300: 6605 7c3e 9c6e 8abf 62a7 07bc 7ec1 cbbd
00000310: b654 223d e273 96bc 3380 e6be fd0c 6d3e
00000320: b110 83be b664 4d3e adef 80bd 76b3 e53c
00000330: 3ec3 4bbf ba8f d3bd a758 983e 44b8 be3e
00000340: 55ce abbf 9b8a 3bbf 2cc3 82be aa42 f33e
00000350: ace7 e03c 109c 4ebe 49f0 39bc 782d d13e
00000360: b123 21bf 73e6 b13e 7398 65bd 775e 05be
00000370: 8674 c83d f4df 75bc 9ddf febc 2e22 a33e
00000380: 5abf 49be cba8 98bf aca3 7abe e55a e23e
00000390: 044b 93bd 9d04 a3be 7961 9ebe 43d9 6d3e
000003a0: 7899 873e 19fa c53b e631 e3be c3f3 93bf
000003b0: 4173 9f3c 0e84 52be 9863 2a3f b37e 293e
000003c0: 8a42 f3bd 70d1 1d3e 1baa 393e cd57 f63d
000003d0: e734 873e 4c1e 2fbe 59e6 0cbf 6974 8e3d
000003e0: 39cc 513e 529c 8bbf 70b1 a13d 9c23 b43b
000003f0: 7939 fa3c 6591 89bd 8af0 3abd 27af 4d3c

l2.bias f4 [300]
-0.06761582 0.3430569 -0.8731156 -0.10636819 0.3999497 -0.042520616 -0.07143505 -0.21183868
-0.042754725 -0.07034257 -0.109023884 -0.2762017 -0.5729469 -0.4204845 0.020752039 -0.09136134
-0.03453636 0.303261 -0.44429132 -0.08747487 0.16292031 -0.023208521 -0.78059304 -0.7387789
-0.4484181 -0.016225798 0.3498117 0.08786953 -0.036123425 -0.30999348 -0.10186417 -0.030403314
-0.08771349 -0.4035864 -0.13272204 -0.14129414 -0.060716927 -0.32535532 -0.2628019 -0.27927583
0.08493156 0.34882855 0.17069659 -0.09150571 0.031666916 -0.15719354 -0.3620315 -0.07009299
-0.113192044 -0.07553281 0.12558149 -0.049096927 -0.05589378 -0.07209996 0.5822707 0.39883056
-0.082866296 -0.051237117 -0.037168603 -0.10051832 0.75836784 0.14024097 -0.0059261834 -0.17600383
-0.04706316 -0.71399283 -0.10998896 -0.7288714 0.002600925 -0.09419907 -0.102169044 0.57590383
-0.5557586 -0.024594536 -0.32549962 -0.1957892 -0.03463274 -0.45140874 -0.096182875 -0.09274176
-0.06809149 0.08526237 -0.72327286 -0.042497415 0.112725765 -0.062240962 -0.4881756 -0.07737833
-0.07817837 -0.044403147 -0.06387506 0.39486957 0.31861278 -0.06580687 -0.091784455 -0.1819885
0.22208816 -0.090288274 -1.1188384 -0.0771496 -0.019397112 -0.7109136 -0.04547325 -0.5380039
-0.05639344 -0.12628439 -0.1023125 -0.04863075 -0.13521384 -0.07528255 -0.7842151 0.21306461
-0.08063014 -0.03522503 -0.25415564 -0.61310863 0.27876905 -0.46217236 -0.05795777 -0.09117759
-1.4358655 -0.8497216 0.018766245 0.06261598 -0.41606152 -0.03555405 -0.10892237 0.50135994
-0.22787993 0.5683408 -0.11326804 -0.09349068 -0.03889955 -0.07309108 -0.30552423 -0.07121691
-0.054729 -0.07909901 0.001180591 -0.0770435 -0.06515988 0.36605904 0.0007383904 -0.86853945
-0.021718495 -0.9620182 0.77958626 -0.4406123 -0.05459856 -0.0831693 -0.08176907 -0.12420086
-0.09947704 -0.088562526 -0.43558678 -0.07932383 -0.09985554 0.14295158 0.39402843 0.035040483
0.06995629 0.12337469 -0.080047674 -0.099045224 -0.099478185 -0.32399982 -0.17310207 -0.025241533
-0.12584546 -0.0023856396 -0.0049440665 -0.024975292 -0.26654163 -0.023190672 0.18664493 -0.033211365
-0.08297659 -0.21565937 -0.06823019 -0.080879025 -0.10612392 -0.07615944 -0.26286927 -0.4155378
0.05680595 -0.07077903 -0.7734862 -0.6536967 -0.07914639 -0.08728906 -0.041413944 -0.06782554
-0.11894494 -0.067771256 -0.1418071 0.23806137 -0.07214067 0.15329579 -0.784117 -0.08757487
0.4779215 -0.031197248 -0.051750608 -0.20526157 -0.040494125 -0.35743833 -0.6187548 -0.06893674
-0.08155785 -0.23695314 -0.06734358 -0.39509058 0.059349243 0.13292763 -0.012574378 -0.3590615
-0.20561326 -0.06478998 -0.77365446 -0.06376902 -0.018331453 -0.018207291 -0.08803938 -0.1028275
-0.07161633 -0.053120933 -0.23094694 -0.099846944 -0.059842475 1.0204476 0.03095456 -0.09726653
-0.16492544 -0.06412557 -0.021338098 0.36789626 0.30124816 -0.02450598 0.14147392 -0.02879649
-0.42983878 -0.03471658 -0.23825833 0.014015242 -0.077830896 -0.08821261 -0.5620632 -0.13468966
-0.4805515 -0.031923804 -0.0027254843 -0.15457511 -0.6248565 -0.13907818 0.24459508 -0.107480176
00000000: 2a7a 8abd 27a5 af3e 8184 5fbf 91d7 d9bd
00000010: 35c6 cc3e 192a 2ebd 8a4c 92bd 3dec 58be
00000020: 941f 2fbd c40f 90bd ea47 dfbd 4f6a 8dbe
00000030: a6ac 12bf bf49 d7be 2e00 aa3c a71b bbbd
00000040: 0076 0dbd 0745 9b3e 277a e3be 0626 b3bd
00000050: 95d4 263e cc1f bebc f2d4 47bf 9d20 3dbf
00000060: 0f97 e5be f7eb 84bc 851a b33e f1f4 b33d
00000070: 28f6 13bd 77b7 9ebe 299e d0bd 5f10 f9bc
00000080: 21a3 b3bd e0a2 cebe 49e8 07be 69af 10be
00000090: 50b2 78bd f994 a6be f88d 86be 3efd 8ebe
000000a0: 99f0 ad3d a899 b23e 16cb 2e3e 5867 bbbd
000000b0: 2bb5 013d 58f7 20be 315c b9be ea8c 8fbd
000000c0: 3bd1 e7bd f2b0 9abd 6f98 003e dc19 49bd
000000d0: e0f0 64bd 25a9 93bd b10f 153f 8533 cc3e
000000e0: ceb5 a9bd 03de 51bd 1b3e 18bd 8ddc cdbd
000000f0: 6524 423f 549b 0f3e 6e30 c2bb 593a 34be
00000100: 4dc5 40bd 3cc8 36bf e441 e1bd 5197 3abf
00000110: 4874 2a3b 71eb c0bd 013e d1bd 6f6e 133f
00000120: 3246 0ebf 7b7a c9bc e3a7 a6be f77c 48be
00000130: 0fdb 0dbd 0c1f e7be 87fb c4bd 64ef bdbd
00000140: 8d73 8bbd 0a9e ae3d 6928 39bf c511 2ebd
00000150: c4dc e63d 61f0 7ebd 27f2 f9be 8878 9ebd
00000160: fb1b a0bd 13e0 35bd edd0 82bd 582c ca3e
00000170: 3721 a33e c1c5 86bd 7df9 bbbd 315b 3abe
00000180: 146b 633e 0fe9 b8bd 1936 8fbf 9c00 9ebd
00000190: b1e6 9ebc 6ffe 35bf 2942 3abd a0ba 09bf
000001a0: cffc 66bd b250 01be 3789 d1bd 0a31 47bd
000001b0: 7f75 0abe bd2d 9abd 52c2 48bf 9c2d 5a3e
000001c0: 6a21 a5bd 1f48 10bd b020 82be b0f4 1cbf
000001d0: d1ba 8e3e dba1 ecbe 2065 6dbd 51bb babd
000001e0: 71ca b7bf 5b87 59bf abbb 993c cf3c 803d
000001f0: 0406 d5be 20a1 11bd b112 dfbd 2059 003f
00000200: 5b59 69be c87e 113f 13f9 e7bd 0b78 bfbd
00000210: 2255 1fbd c7b0 95bd ac6d 9cbe 2cda 91bd
00000220: 842b 60bd a9fe a1bd 0fbe 9a3a fcc8 9dbd
00000230: 8b72 85bd 176c bb3e 8a90 413a 9a58 5ebf
00000240: fcea b1bc d346 76bf f792 473f ef97 e1be
00000250: bda2 5fbd aa54 aabd 8b76 a7bd 055d febd
00000260: 9eba cbbd 4560 b5bd 3b05 dfbe 8874 a2bd
00000270: 1081 ccbd e661 123e 18be c93e 9c86 0f3d
00000280: 3e45 8f3d dfab fc3d 09f0 a3bd 39d8 cabd
00000290: 38bb cbbd 4ee3 a5be ab41 31be 55c7 cebc
000002a0: a2dd 00be 6458 1cbb d601 a2bb fc98 ccbc
000002b0: 2578 88be 5dfa bdbc d91f 3f3e a408 08bd
000002c0: a1ef a9bd cfd5 5cbe 45bc 8bbd e7a3 a5bd
000002d0: 7f57 d9bd 7bf9 9bbd cd96 86be 5fc1 d4be
000002e0: 5bad 683d 99f4 90bd 3103 46bf ab58 27bf
000002f0: 8117 a2bd 9bc4 b2bd aba1 29bd 1ee8 8abd
00000300: 6899 f3bd a8cb 8abd e135 11be 5cc6 733e
00000310: 7dbe 93bd 92f9 1c3e e4bb 48bf 745a b3bd
00000320: 20b2 f43e 5f91 ffbc 72f8 53bd 1730 52be
00000330: 2bdd 25bd 2802 b7be b766 1ebf b52e 8dbd
00000340: cd07 a7bd d8a3 72be 6eeb 89bd 5049 cabe
00000350: 3118 733d 2e1e 083e c404 4ebc e9d6 b7be
00000360: 488c 52be 9cb0 84bd 380e 46bf 5599 82bd
00000370: d82b 96bc 7527 95bc fe4d b4bd 3997 d2bd
00000380: 95ab 92bd 5695 59bd 5b7d 6cbe 8e7c ccbd
00000390: 621d 75bd 079e 823f 6b94 fd3c ad33 c7bd
000003a0: 37e2 28be 4454 83bd 3ccd aebc e65c bc3e
000003b0: 333d 9a3e c4c0 c8bc 8ade 103e 9ee6 ebbc
000003c0: d413 dcbe f932 0ebd fef9 73be 30a0 653c
000003d0: ce65 9fbd d0a8 b4bd 60e3 0fbf 16ec 09be
000003e0: d90a f6be 89c2 02bd 0a9e 32bb f048 1ebe
000003f0: 98f6 1fbf 836a 0ebe 2277 7a3e 911e dcbd

l3.weight f4 [4, 300]
0.31953475 0.051168937 0.46394762 -0.032163493 0.12084376 0.007987541 0.034005787 -0.6992985
-0.05620212 0.022821149 -0.00605016 0.7543493 -0.44098562 -0.9242997 0.5145803 0.014152578
0.04417426 -0.47951958 -1.3848459 0.0024178068 1.739095 -0.8567148 0.15118632 -1.0319867
-1.0456328 -0.028578287 0.21172076 -0.28783518 0.020798216 0.23340032 -0.018721448 0.01954468
-0.057644274 0.3057856 1.1983618 0.0064920313 0.027872628 -0.96874875 0.009709066 -0.5413231
-0.5517453 0.36136156 -0.2524954 -0.26587865 -0.10285552 -0.017303202 0.3884319 -0.025903162
-1.1120213 0.017639263 0.034451984 0.6264997 0.024304565 -0.012577738 -0.0021598747 0.1827712
0.027943213 -0.03538386 -0.018805059 0.03965126 -0.099138066 -0.037063465 -0.0023934403 0.0049012857
0.0011538832 1.25486 -0.024728995 0.25293392 -0.49610037 -0.00065197627 0.0248642 0.48870176
-0.3191296 0.0025097998 -0.7162458 0.44802618 0.0001806133 0.41213 0.007361327 -0.0040986007
-0.008727551 0.6053112 0.16362715 -0.017580539 -0.074093744 -0.016703889 -1.4394013 -0.0006315155
-0.008285877 0.017360905 0.016148875 -0.43199608 0.82682335 0.050256684 0.04028514 -0.01828322
-1.2310026 0.072019875 0.35436076 -0.005067415 0.029219765 -0.08584702 -0.022333601 -0.14600025
0.023010988 -0.036320973 0.008792928 0.015810488 -0.21163958 -0.00037206913 0.6581014 0.42163545
-0.0031594592 0.010946859 0.03713079 -1.126627 0.18054439 -0.31946066 0.0077225612 0.8372653
0.25327814 -0.3171579 0.49643373 -0.20216306 -0.60895115 0.008693768 -0.004747095 -0.08417489
-0.42451334 -0.07963377 -0.008369217 0.0066909133 -0.034063723 0.07854183 0.15266532 0.025984488
-0.040523272 -0.016145866 0.060764898 0.031509783 -0.014427176 -0.036597513 0.00043292245 0.7618549
0.0029763852 -0.31093082 -0.39497665 0.020268818 -0.0059225988 0.04604582 -0.10136726 -0.13625538
-0.025793688 -0.028126817 0.21521743 -0.0039126924 -0.04650737 -0.37704384 -1.0349873 -0.32769144
-0.30500498 -0.15157542 -0.022745438 0.050164074 0.017359164 -0.21936463 0.2099659 0.09929714
0.79303926 -0.19250469 0.22058305 -0.040340554 -1.2305228 -0.0022907462 -0.84645075 -0.014952724
0.009882319 -0.712643 -0.06682632 -0.0066764522 -0.0070178458 -0.44755167 -0.07628017 -0.18703607
0.2148955 -0.010224485 -0.051562324 -0.6522588 -0.02203288 -0.073776096 0.0037047528 -0.0137364315
-0.025077661 0.035282567 -0.03773539 -0.69495386 0.022020787 0.1504581 0.25033715 0.07015915
0.6127952 -0.004822613 0.0002523782 -0.40465268 -0.008185448 0.60147476 -0.83910924 0.056726787
0.012918279 -0.5688248 -0.040233325 -0.6506003 -0.22227666 0.36202055 -0.080985546 -0.2553083
-0.051306386 0.015643062 -0.6774735 0.0082544815 -0.77941275 -0.36130512 0.026845718 -0.003116377
0.026647162 0.19874473 -0.06690034 0.065734915 -0.08416513 -0.25199658 -0.23888025 0.011694401
0.2442505 -0.0013583674 0.0063173985 0.2326858 0.52138555 0.036505166 -0.4056194 0.056254596
-0.4951498 -0.023618463 -0.15050098 0.2539362 -0.048461974 -0.06320822 0.31114355 -0.004328439
-1.312414 0.011291062 -0.0064304955 0.11891891 -0.36980286 -0.004175689 0.6585251 -0.014018106
00000000: 0f9a a33e 8596 513d 8b8a ed3e debd 03bd
00000010: ef7c f73d 2dde 023c a749 0b3d 3a05 33bf
00000020: 3234 66bd 6bf3 ba3c 6c40 c6bb 091d 413f
00000030: dec8 e1be e89e 6cbf 89bb 033f 37e0 673c
00000040: 12f0 343d 9783 f5be a142 b1bf 1174 1e3b
00000050: aa9a de3f a951 5bbf 96d0 1a3e 2418 84bf
00000060: 4cd7 85bf 031d eabc 54cd 583e 225f 93be
00000070: 0561 aa3c 7e00 6f3e b95d 99bc 2a1c a03c
00000080: 671c 6cbd ee8f 9c3e eb63 993f 1bbb d43b
00000090: 2355 e43c ebff 77bf c612 1f3c 2794 0abf
000000a0: 2e3f 0dbf 6204 b93e 1447 81be 3f21 88be
000000b0: eaa5 d2bd 72bf 8dbc 8ce0 c63e de32 d4bc
000000c0: b756 8ebf 3780 903c 861d 0d3d 4962 203f
000000d0: 5e1a c73c db12 4ebc af8c 0dbb 6028 3b3e
000000e0: 2ae9 e43c abee 10bd 110d 9abc 5c69 223d
000000f0: e608 cbbd dccf 17bd 44db 1cbb f79a a03b
00000100: e53d 973a 419f a03f 7694 cabc 8e80 813e
00000110: de00 febe 63e9 2aba 02b0 cb3c 1e37 fa3e
00000120: f464 a3be 747b 243b e25b 37bf b063 e53e
00000130: 0363 3d39 b402 d33e 4937 f13b 8e4d 86bb
00000140: 01fe 0ebc adf5 1a3f e08d 273e 1005 90bc
00000150: 76be 97bd 98d6 88bc 4d3e b8bf 4a8c 25ba
00000160: 7dc1 07bc 7538 8e3c a54a 843c 972e ddbe
00000170: b2aa 533f f4d9 4d3d 0802 253d b1c6 95bc
00000180: 7e91 9dbf 287f 933d c66e b53e 8f0c a6bb
00000190: 4a5e ef3c 90d0 afbd f5f4 b6bc 1781 15be
000001a0: 8a81 bc3c 4dc5 14bd 3710 103c ff84 813c
000001b0: 0cb8 58be 4612 c3b9 5579 283f 9ae0 d73e
000001c0: ee0e 4fbb 745a 333c 7516 183d 5035 90bf
000001d0: a1e0 383e 5990 a3be 8a0d fd3b 0557 563f
000001e0: acad 813e 8562 a2be 902c fe3e d503 4fbe
000001f0: 39e4 1bbf 4e70 0e3c 858d 9bbb e263 acbd
00000200: d059 d9be 0817 a3bd 0a1f 09bc 733f db3b
00000210: 6786 0bbd 8ada a03d 4c54 1c3e 6cdd d43c
00000220: bbfb 25bd 5644 84bc 9de4 783d 6710 013d
00000230: f65f 6cbc 46e7 15bd def9 e239 ec08 433f
00000240: 750f 433b 5332 9fbe 613a cabe cb0a a63c
00000250: 5c12 c2bb 8b9a 3c3d a399 cfbd 8886 0bbe
00000260: 494d d3bc 366a e6bc f561 5c3e 0b36 80bb
00000270: 837e 3ebd e40b c1be 777a 84bf 2cc7 a7be
00000280: 9d29 9cbe 9636 1bbe a454 babc d878 4d3d
00000290: ce34 8e3c 1fa1 60be 4d01 573e 4d5c cb3d
000002a0: 9f04 4b3f f31f 45be 86e0 613e 233c 25bd
000002b0: c581 9dbf 5820 16bb ffb0 58bf 45fc 74bc
000002c0: 73e9 213c c66f 36bf 3ddc 88bd 24c6 dabb
000002d0: f5f5 e5bb 7e25 e5be c738 9cbd 6286 3fbe
000002e0: 910d 5c3e 9984 27bc 0433 53bd 6ffa 26bf
000002f0: 4c7e b4bc ec17 97bd 70cb 723b c50e 61bc
00000300: ab6f cdbc 7484 103d 6d90 1abd 7fe8 31bf
00000310: f064 b43c b011 1a3e 312c 803e 9aaf 8f3d
00000320: 25e0 1c3f 0307 9ebb a151 8439 a32e cfbe
00000330: 421c 06bc 40fa 193f ddcf 56bf 595a 683d
00000340: 30a7 533c 819e 11bf b3cb 24bd be8d 26bf
00000350: 7e9c 63be c25a b93e c0db a5bd c5b7 82be
00000360: a526 52bd e125 803c e76e 2dbf ce3d 073c
00000370: 9887 47bf fcfc b8be 8deb db3c 213c 4cbb
00000380: 264b da3c bd83 4b3e 0c03 89bd 07a0 863d
00000390: c55e acbd b205 81be 069d 74be df99 3f3c
000003a0: ce1c 7a3e 3f0b b2ba 2e02 cf3b 3045 6e3e
000003b0: 8679 053f 7186 153d 59ad cfbe 386b 663d
000003c0: 4684 fdbe 827b c1bc ee1c 1abe ed03 823e
000003d0: 1080 46bd 5073 81bd 354e 9f3e 94d5 8dbb
000003e0: 2ffd a7bf 26fe 383c e8b6 d2bb c28b f33d
000003f0: cd56 bdbe 38d4 88bb 1a95 283f 33ac 65bc

l3.bias f4 [4]
-0.47116578 -0.18381517 -0.26240355 0.39841226
00000000: a43c f1be 0b3a 3cbe c259 86be b1fc cb3e
