TD3-conf1/preTrained/TD3_BipedalWalker-v3_0_actor_target_ep500.pth (torch_old, 526986 bytes, 6 tensors)

l1.weight f4 [400, 24]
0	0x3ec9f2a1	0.39442924
1	0x3cf897fb	0.030345907
2	0x3f8aebae	1.0853174
3	0xbe68c970	-0.22733092
4	0x3f23ec86	0.6403278
5	0xbe1a9dfc	-0.15099329
6	0xbf257262	-0.6462766
7	0xbcdf50be	-0.02726018
8	0xc007df3d	-2.1230004
9	0xbf54fea0	-0.83201027
10	0x3c89aa79	0.01680492
11	0xbead2624	-0.3381816
12	0x3e1e8e2d	0.15483923
13	0x3e3a606f	0.18200849
14	0xbef1fee5	-0.47264782
15	0xbe32399c	-0.17404789
16	0xbed2026e	-0.4101748
17	0xbef1da40	-0.47236824
18	0xbeec1578	-0.4611013
19	0xbec8507a	-0.391239
20	0xbed88645	-0.4228994
21	0xbe6a47c7	-0.22878943
22	0xbe205f6d	-0.15661402
23	0xbd053ba5	-0.032527585
24	0x3ec49496	0.38394612
25	0x3f86d2a5	1.0533034
26	0xc005dab3	-2.0914733
27	0x3f54ec51	0.8317309
28	0x3ed2494e	0.41071552
29	0xbec0a98f	-0.37629363
30	0xbea454a8	-0.32095838
31	0xbeb96fb5	-0.36218038
32	0xbe1e6625	-0.15468653
33	0xbf32034a	-0.6953627
34	0xbec6bbc9	-0.38815144
35	0xbf243611	-0.64145
36	0xbe52f23b	-0.20600216
37	0x3e603466	0.21894988
38	0xbe71fdca	-0.23631969
39	0xbea84b7a	-0.32870084
40	0xbe722f9f	-0.23650979
41	0xbef2be5a	-0.47410852
42	0xbeacb6e4	-0.33733284
43	0xbeacc698	-0.33745265
44	0xbec50900	-0.3848343
45	0xbef9e7e4	-0.4880973
46	0xbda40a2b	-0.08009752
47	0xbe715f94	-0.23571616
48	0x3ee3c2c1	0.44484523
49	0x3f876894	1.057879
50	0xbfd4e812	-1.6633322
51	0x3e998593	0.29984722
52	0x3f846eac	1.0346274
53	0x3dfc803d	0.12329147
54	0xbe9fe449	-0.31228855
55	0xbea830d6	-0.3284976
56	0x3f085fbd	0.53271085
57	0xbd169c47	-0.03677013
58	0xbe34bf8c	-0.17651194
59	0x3f6b5862	0.91931736
60	0xbda42378	-0.080145776
61	0x3e6948dc	0.227817
62	0xbf0011e8	-0.5002732
63	0xbe7b32a5	-0.24531038
64	0xbf0990e7	-0.5373673
65	0xbf118c45	-0.5685466
66	0xbe72c85c	-0.23709244
67	0xbf0dcbf6	-0.55389345
68	0xbe909b1f	-0.28243348
69	0xbef23d6b	-0.47312483
70	0xbf0de440	-0.55426407
71	0xbd328868	-0.04358712
72	0x3f12b575	0.5730813
73	0x3fb4ee67	1.4135255
74	0xbece2131	-0.40259698
75	0x3ce431a3	0.0278557
76	0x3eb04e08	0.34434533
77	0xbe5996ca	-0.21248928
78	0x3eba0faf	0.3634009
79	0x3e4fdf48	0.20300019
80	0xbf7e8af4	-0.99430776
81	0xbe7d9e3b	-0.24767391
82	0xbed42761	-0.41436294
83	0xbebb34a7	-0.36563608
84	0xbe97b075	-0.29626814
85	0xbe9aa195	-0.30201402
86	0xbef9749c	-0.48721778
87	0xbec74749	-0.38921574
88	0xbf1a9516	-0.6038374
89	0xbf17181e	-0.59021175
90	0xbf0568c5	-0.5211299
91	0xbf0a7d8d	-0.54097825
92	0xbef6404c	-0.4809593
93	0xbf122bf6	-0.5709833
94	0xbeb6ebc8	-0.35726762
95	0xbf1740be	-0.59083164
96	0x3f748d05	0.9552768
97	0xbfeeefdd	-1.866695
98	0x3fc7d312	1.5611289
99	0xbfb59c7a	-1.4188378
100	0x3edb5858	0.42840838
101	0x3e704f5d	0.23467775
102	0xbdff8432	-0.12476386
103	0x3e85271d	0.26006404
104	0xbeec047c	-0.4609717
105	0x3f281ab6	0.6566576
106	0xbd864193	-0.06555476
107	0xbe73bf1d	-0.23803373
108	0x3dd377ee	0.10325609
109	0x3e3f3ca1	0.18675472
110	0xbeb58c04	-0.35458386
111	0xbeafc0d6	-0.3432681
112	0xbea7a91a	-0.32746202
113	0xbea6de01	-0.3259125
114	0xbd0c01ec	-0.03418152
115	0xbe4fc3a0	-0.20289469
116	0x3c8a3fe7	0.016876174
117	0xbe6b3d25	-0.22972544
118	0x3dc79d06	0.09746747
119	0xbdf77c05	-0.12084202
120	0x3f06bf9d	0.5263613
121	0x3fc50d70	1.5394726
122	0xbfea7e50	-1.8319798
123	0x3fc0b7d6	1.5056102
124	0xbf4a51bb	-0.7903096
125	0xbe4eb4c5	-0.20186146
126	0x3da023ec	0.078193516
127	0xbdd80c4e	-0.10549222
128	0xbf66dd9b	-0.90181893
129	0x3c2bac70	0.010478124
130	0xbea7a5c2	-0.3274365
131	0x3f4264d6	0.75935113
132	0x3f38d009	0.72192436
133	0xbea2ef71	-0.31823304
134	0x3e63bd41	0.22240163
135	0x3e77e08c	0.24206752
136	0x3e40c900	0.18826675
137	0x3e0edf89	0.1395246
138	0x3e87aa43	0.26497087
139	0xbd7a1216	-0.061052404
140	0xbd9e0124	-0.07715061
141	0x3e1c28f4	0.15249997
142	0xbcb11951	-0.021618517
143	0xbedb68aa	-0.4285329
144	0xbf618e44	-0.88107705
145	0x3f47144a	0.77765334
146	0xbd9ddff9	-0.07708735
147	0x3dc565cf	0.09638559
148	0xbf04eb7d	-0.51921827
149	0xbed4c8c7	-0.4155943
150	0x3eb4d61a	0.35319597
151	0x3ee15406	0.44009417
152	0xbf280e0f	-0.6564645
153	0x3f394d30	0.72383404
154	0xbe37e76e	-0.17959377
155	0x3ed3223a	0.4123705
156	0x3e8303c6	0.25588816
157	0x3efa0ffb	0.48840317
158	0xbed0ca38	-0.4077928
159	0xbec2f447	-0.38076994
160	0xbeb02df8	-0.3441007
161	0xbe90fe57	-0.28319046
162	0xbeb87cc2	-0.36032683
163	0xbef5f6a4	-0.48039734
164	0xbec78a6d	-0.38972798
165	0xbf0e9cbb	-0.557079
166	0xbf12db8b	-0.57366246
167	0xbe231141	-0.1592455
168	0x3f8b1693	1.0866264
169	0x4042e07d	3.0449517
170	0xbf820c26	-1.0159957
171	0x3e5b4fd0	0.21417165
172	0xbf24f349	-0.64433724
173	0xbecab7ec	-0.39593446
174	0x3f30f1fe	0.6911925
175	0x3ef4a484	0.47781765
176	0x3ea7eef0	0.32799482
177	0x3f6d2050	0.9262743
178	0x3e2fcf27	0.17168866
179	0xbf13eacd	-0.5778015
180	0x3d18c44f	0.03729659
181	0x3f08d761	0.5345364
182	0xbed804be	-0.42191118
183	0xbef86dc8	-0.48521256
184	0xbe842861	-0.25812057
185	0xbe110c73	-0.14164905
186	0xbed8b984	-0.42329037
187	0xbecdcfde	-0.40197653
188	0xbe80d7d0	-0.25164652
189	0xbec8a8de	-0.39191335
190	0xbea4ef26	-0.32213706
191	0xbf0e6650	-0.55624866
192	0xbef24e96	-0.4732558
193	0x3efc6871	0.49298432
194	0xbf33241a	-0.6997696
195	0xbfd58f21	-1.6684304
196	0xbe737287	-0.23774157
197	0x3d41cb73	0.047313165
198	0x3f422da6	0.75850904
199	0xbec77494	-0.3895613
200	0xbf96c9d0	-1.1780338
201	0xbed03cb9	-0.40671328
202	0x3e69fdcf	0.22850727
203	0xbf094164	-0.53615403
204	0x3ea69609	0.32536343
205	0xbf024f31	-0.50902086
206	0x3e93564f	0.28776786
207	0x3e7d422e	0.24732277
208	0x3cebe59d	0.028796012
209	0xbbde2e34	-0.00678041
210	0x3e1a030e	0.15040228
211	0x3e3c0df8	0.18364704
212	0xbd23727b	-0.0399041
213	0x3e1cf2ae	0.1532695
214	0x3e0f753e	0.14009568
215	0xbe95089e	-0.29108137
216	0x3f107278	0.56424665
217	0xc02cc7a4	-2.699685
218	0x4001f657	2.0306604
219	0xbf6148ab	-0.8800151
220	0x3f52517e	0.821556
221	0x3d19e732	0.037574
222	0xbf08d620	-0.5345173
223	0xbebe2b57	-0.3714244
224	0x3e09e4f4	0.13466245
225	0x3e5e2a56	0.21695837
226	0x3ec23885	0.37933746
227	0x3f813fe7	1.0097626
228	0x3e20ff15	0.15722306
229	0xbea6f344	-0.32607472
230	0xbd01e971	-0.031716768
231	0xbb91a9dd	-0.004445298
232	0x3db45aa1	0.088063486
233	0x3e209f27	0.15685712
234	0xbdee2bec	-0.11629471
235	0xbe01e7ec	-0.12686127
236	0xbd35ffd1	-0.04443342
237	0xbca45d04	-0.020063885
238	0x3e2656dc	0.16244072
239	0x3da1f20e	0.079074964
240	0xbe66763f	-0.22506045
241	0xbfc92f26	-1.5717514
242	0x3f4a7c11	0.7909556
243	0x3f34e7ac	0.70666003
244	0xbef62849	-0.4807761
245	0xbceb60c2	-0.028732661
246	0x3f11c0d4	0.5693486
247	0x3f1c9dcd	0.61178285
248	0xbccc0306	-0.024903785
249	0x3f4debfe	0.8043822
250	0xbf32c070	-0.69824886
251	0x3e36617c	0.17810625
252	0xbd254467	-0.040348437
253	0x3e56dc7f	0.2098255
254	0xbf0aa01e	-0.5415057
255	0xbeeaa625	-0.45829883

l1.bias f4 [400]
0	0xbe1c3a4d	-0.15256615
1	0xbecd6dae	-0.4012274
2	0xbddc3198	-0.10751647
3	0xbf303f30	-0.68846416
4	0x3cb928fd	0.022602553
5	0xbf1e7211	-0.618928
6	0xbdca70db	-0.09884807
7	0xbe50ba84	-0.2038365
8	0xbe40e887	-0.18838702
9	0x3bef6677	0.007305916
10	0xbd728141	-0.059205297
11	0xbdb07c34	-0.0861744
12	0xbd96b35e	-0.0735843
13	0xbeb62b5d	-0.3557996
14	0xbe7f923c	-0.24958128
15	0xbdae207a	-0.08502288
16	0xbdc8a492	-0.09797014
17	0xbe76745c	-0.24067825
18	0xbe4494dd	-0.19197412
19	0x3d958e82	0.07302572
20	0xbdc2cb01	-0.09511376
21	0x3e5bb493	0.21455602
22	0xbe853b75	-0.26021925
23	0xbea26ab0	-0.3172202
24	0xbe8d3482	-0.27579123
25	0xbea502d5	-0.32228723
26	0xbe264a7a	-0.16239348
27	0xbda0cce4	-0.0785158
28	0x3ecffee0	0.40624142
29	0x3da5b84f	0.08091795
30	0xbe51122d	-0.2041709
31	0xbed8958c	-0.42301595
32	0x3e9e14e1	0.30875304
33	0xbe430b30	-0.19047236
34	0xbc850bcd	-0.016240979
35	0xbe5276f8	-0.20553195
36	0xbe9f052a	-0.31058627
37	0x3cfdad13	0.030966317
38	0x3cf5e5cf	0.030016808
39	0xbea40dfe	-0.32041925
40	0xbec25282	-0.37953573
41	0xbea0f02e	-0.31433243
42	0x3eb5a22f	0.354753
43	0xbe74046c	-0.23829812
44	0x3e12595b	0.14291899
45	0xbc294648	-0.010331698
46	0x3e5a9c14	0.21348602
47	0xbe3f7835	-0.18698199
48	0xbe987d26	-0.2978298
49	0x3cb76f54	0.022391953
50	0xbe2db050	-0.16961789
51	0xbefe7e74	-0.4970585
52	0x3df8f30f	0.12155735
53	0xbf105f6f	-0.5639562
54	0xbd35b668	-0.04436341
55	0xbe2894af	-0.16462968
56	0xbc861a02	-0.016369823
57	0xbf355bc8	-0.7084317
58	0x3d0740a4	0.03302063
59	0xbed145b7	-0.408735
60	0xbea41e8c	-0.32054555
61	0xbeb47962	-0.35248858
62	0x3e56b3a2	0.20966962
63	0xbe74e604	-0.23915869
64	0x3d9ff62b	0.07810625
65	0xbd906def	-0.07052218
66	0x3dbff08b	0.09372052
67	0xbe6a8b5a	-0.22904721
68	0xbe97d2db	-0.29653057
69	0xbe1bba23	-0.15207724
70	0xbda589f5	-0.08082954
71	0xbd8c673d	-0.06855629
72	0xbdc44a0d	-0.095844366
73	0xbec3e7a2	-0.3826266
74	0xbeff3033	-0.4984146
75	0x3f1f7cc2	0.6229974
76	0xbc2a3483	-0.010388496
77	0xbe671c70	-0.22569442
78	0xbec2c2f8	-0.38039374
79	0xbeb0e1f2	-0.34547383
80	0x3df566fc	0.11982533
81	0xbea75eb8	-0.32689452
82	0xbdbb4649	-0.09144265
83	0xbe455fc9	-0.1927482
84	0xbeb24fe8	-0.3482659
85	0xbf18dda6	-0.5971321
86	0xbe399e80	-0.18126869
87	0xbd8544c0	-0.06507254
88	0x3de61f19	0.112364
89	0xbdf6c7cd	-0.12049828
90	0xbe9337ee	-0.28753608
91	0xbeecb221	-0.46229652
92	0xbc64fda6	-0.01397649
93	0xbec8c521	-0.39212897
94	0x3ebf7999	0.3739746
95	0xbd8d2115	-0.068910755
96	0xbefb2954	-0.49054968
97	0xbec173b5	-0.3778359
98	0xbe9ddc4f	-0.30832145
99	0xbe26c37e	-0.16285512
100	0xbe3a8a44	-0.18216807
101	0xbe9712bc	-0.2950648
102	0xbd8a8d05	-0.067651786
103	0xbe2e3857	-0.1701368
104	0xbe42bfa7	-0.19018422
105	0xbee54c05	-0.4478456
106	0x3e0116f5	0.12606414
107	0xbed5d18c	-0.41761434
108	0xbe2d51a3	-0.16925673
109	0xbe9d91ee	-0.30775398
110	0xbc710d41	-0.014712633
111	0xbd464961	-0.048409823
112	0x381633d0	3.581104e-05
113	0xbe827638	-0.2548082
114	0xbd5896cf	-0.052878197
115	0xbe1e53ae	-0.15461609
116	0xbe135fc6	-0.14392003
117	0xbe4d35d2	-0.20040062
118	0xbe8358aa	-0.25653583
119	0xbead75fe	-0.33879083
120	0x3d7fbfc9	0.06243876
121	0xbe664096	-0.22485575
122	0x3de12c6d	0.10994802
123	0xbf0f9895	-0.56092197
124	0x3ecb25d8	0.3967731
125	0x3e65bf41	0.22436239
126	0xbe946d01	-0.28989413
127	0xbe531965	-0.20615156
128	0xbd6bbef4	-0.057555154
129	0xbe8e7d80	-0.27830124
130	0xbe54eb78	-0.20792949
131	0xbe252f27	-0.16131268
132	0xbeda301c	-0.4261483
133	0x3dfdc3b4	0.12390843
134	0x3e36baad	0.17844649
135	0xbe8c1de8	-0.27366567
136	0x3e3dc631	0.18532635
137	0x3d80613a	0.062685445
138	0x3d9bdaa7	0.07610064
139	0xbea6d540	-0.32584572
140	0xbd489fa4	-0.04898037
141	0x3e855e3f	0.26048467
142	0xbe476f5f	-0.19476078
143	0xbe574ec3	-0.21026139
144	0x3d4fb6fa	0.05071161
145	0x3e9d3a09	0.3070834
146	0xbd5ae5e8	-0.053441912
147	0xbe05c752	-0.13064316
148	0xbeabbae4	-0.33541024
149	0xbedf1e1f	-0.43577668
150	0x3e766488	0.24061787
151	0xbed2a4a9	-0.4114125
152	0x3dfb6f28	0.12277061
153	0xbd22714b	-0.039658826
154	0xbe119a34	-0.1421898
155	0x3e9b0a70	0.302814
156	0x3da74a78	0.08168501
157	0xbebb41ac	-0.3657354
158	0xbe612143	-0.21985345
159	0x3cd2c259	0.025727438
160	0xbe034680	-0.12819862
161	0xbf0f3007	-0.5593266
162	0xbe9d8d04	-0.3077165
163	0x3d47cb50	0.04877788
164	0xbd4471b5	-0.047960002
165	0xbee9b790	-0.4564786
166	0xbefd48b0	-0.4946952
167	0x3eb39c4b	0.3508018
168	0x3eac90ec	0.33704317
169	0x3dfa786c	0.1223
170	0xbe9a6c15	-0.30160585
171	0xbe646556	-0.22304282
172	0xbe8c5cc9	-0.2741454
173	0xbec796ef	-0.3898234
174	0xbe3114ab	-0.1729304
175	0xbf08eb35	-0.534839
176	0xbdd3641b	-0.10321828
177	0x3ed50d86	0.4161188
178	0xbe8d221d	-0.2756509
179	0xbe174094	-0.14770728
180	0xbe32a6c2	-0.17446426
181	0xbe89174b	-0.26775584
182	0xbe06de72	-0.13170794
183	0x3e3ac2ff	0.18238448
184	0x3ec9b602	0.39396673
185	0xbf182d6a	-0.59444296
186	0xbef16dec	-0.47154176
187	0xbe9892a2	-0.29799372
188	0xbe5ae142	-0.21374992
189	0xbf07b1b4	-0.5300553
190	0x3dd8e338	0.105902135
191	0xbedd5417	-0.43228218
192	0xbe1affca	-0.15136638
193	0xbdb476d4	-0.08811727
194	0xbda4791f	-0.080309145
195	0xbeed0def	-0.46299693
196	0xbea78fa7	-0.32726786
197	0xbe35f3c4	-0.1776877
198	0xbedb194a	-0.42792732
199	0xbe8a4063	-0.27002248
200	0xbe937de7	-0.28806993
201	0x3db5fdb0	0.08886278
202	0x3dbf1a79	0.09331221
203	0xbe2a425f	-0.16626881
204	0xbde143e5	-0.10999278
205	0xbde0f5c8	-0.10984379
206	0xbe8f2fa0	-0.27966022
207	0x3e1ad4b2	0.151202
208	0xbe5849d7	-0.21121918
209	0x3e033a81	0.12815286
210	0xbe1439ed	-0.14475222
211	0xbe48a83f	-0.19595431
212	0x3d50f48f	0.05101448
213	0xbeed2e29	-0.4632428
214	0x3d1b0a5e	0.037851684
215	0xbe7d2826	-0.24722347
216	0xbf3b55e3	-0.7317793
217	0xbed82d6d	-0.42222157
218	0xbe56753a	-0.20943156
219	0xbea1292e	-0.3147673
220	0x3d9be5ba	0.07612176
221	0xbe4b8f61	-0.19878913
222	0xbe3e4058	-0.18579233
223	0xbe051b5f	-0.12998722
224	0x3eaea4e2	0.3411017
225	0xbe32f275	-0.17475303
226	0xbdd71795	-0.10502545
227	0xbd1417ae	-0.036155395
228	0xbe39c3c4	-0.18141085
229	0xbe425c32	-0.18980482
230	0xbde9a423	-0.1140826
231	0xbc77dc0f	-0.01512815
232	0x3e284f15	0.16436417
233	0x3e31ca6a	0.17362371
234	0xbf27f9f5	-0.6561578
235	0x3d15010c	0.03637795
236	0xbdf12d49	-0.117762156
237	0xbe900949	-0.28132084
238	0xbee7117f	-0.45130536
239	0x3d3296da	0.043600895
240	0xbb95a605	-0.00456691
241	0x3e00b506	0.12569055
242	0x3e532f26	0.20623454
243	0x3d8ba6c8	0.068189204
244	0x3e7df893	0.24801855
245	0x3daafbf5	0.08348838
246	0xbddad2da	-0.10684748
247	0xbe01a521	-0.12660648
248	0xbe22033a	-0.15821543
249	0xbee9e771	-0.45684388
250	0xbec95489	-0.39322308
251	0xbef96114	-0.48706877
252	0xbd810fba	-0.06301828
253	0x3f3359a6	0.7005867
254	0xbed83d7a	-0.42234403
255	0xbef11273	-0.47084388

l2.weight f4 [300, 400]
0	0xbcd6d749	-0.026225703
1	0xbddbacea	-0.1072634
2	0x3e9a6fe1	0.30163482
3	0x3ac3f869	0.0014951351
4	0xbe84a0c2	-0.25903898
5	0x3e9d3b3b	0.30709252
6	0xbbc00cf4	-0.005860919
7	0xbf00f6da	-0.50376666
8	0x3e972822	0.29522806
9	0xbe35493a	-0.17703715
10	0x3e72b6a2	0.23702481
11	0x3dcce4c4	0.10004571
12	0xbd57a06e	-0.052643232
13	0xbf273c37	-0.65326256
14	0xbd00303f	-0.03129601
15	0x3dc98193	0.098391674
16	0xba2a6ea3	-0.00065014715
17	0xbd153503	-0.03642751
18	0xbeabc4ad	-0.3354849
19	0x3d453b81	0.04815245
20	0x3e438f6d	0.19097681
21	0xbaab4f72	-0.0013069941
22	0x3c625b52	0.013815718
23	0x3e03fe66	0.12890014
24	0x3e489a59	0.19590129
25	0x3e8f78cc	0.28021848
26	0xbdce0477	-0.10059445
27	0x3d9ddab4	0.0770773
28	0x3da69e18	0.08135623
29	0xbcb80d91	-0.022467406
30	0x3e236d52	0.15959671
31	0x3e207b2e	0.1567199
32	0x3e1e926a	0.1548554
33	0xbe979f41	-0.2961369
34	0x3d2e7176	0.042588674
35	0x3e204227	0.15650235
36	0x3e8bb5c6	0.2728712
37	0xbc79dc54	-0.015250284
38	0x3ec1ce82	0.37852865
39	0x3c8026d1	0.01564351
40	0xbe38784a	-0.18014637
41	0xbe8337d4	-0.2562853
42	0xbcb93e77	-0.022612793
43	0xbd11ce9b	-0.035597425
44	0xbd75c849	-0.06000546
45	0xbe17c98f	-0.14822982
46	0xbea0ae19	-0.31382826
47	0xbe5c0393	-0.21485738
48	0xbcc7a509	-0.024370687
49	0xbe279145	-0.1636401
50	0x3e91c825	0.2847301
51	0x3c8734ec	0.016504727
52	0xbe53f5a0	-0.20699167
53	0x3e5cd56c	0.21565789
54	0x3cf10dd3	0.029425537
55	0xbc43fc18	-0.011961959
56	0xbe84bcef	-0.25925395
57	0xbbabaab0	-0.0052388534
58	0x3b934f5d	0.004495545
59	0x3dcf8704	0.10133174
60	0xbe5d1fd2	-0.2159417
61	0x3e0fb4c3	0.14033799
62	0xbcfa8f38	-0.03058587
63	0xbdd4d1a5	-0.10391549
64	0x3ea29138	0.31751418
65	0xbe4a6018	-0.1976322
66	0xbe34d966	-0.17661056
67	0x3e562bdb	0.20915167
68	0xbe99b423	-0.30020246
69	0x3dbf59f0	0.09343326
70	0xbd92efef	-0.0717467
71	0xbe55884a	-0.20852771
72	0x3d624dd7	0.055250015
73	0x3da981e2	0.08276726
74	0x3e588b9a	0.21147004
75	0x3dccb46e	0.09995352
76	0x3ec3a394	0.38210738
77	0xbe8af8cc	-0.27142942
78	0x3cf89813	0.030345952
79	0xbe18d3b0	-0.14924502
80	0x3d9268fc	0.071489304
81	0xbe8265f3	-0.25468406
82	0xbcfd56d8	-0.0309252
83	0xbd362d73	-0.044476938
84	0xbe6e5326	-0.23273906
85	0x3ce828c2	0.028339747
86	0x3cb9179b	0.022594264
87	0xbe378511	-0.17921855
88	0xbd816641	-0.063183315
89	0xbdfbc4ca	-0.12293394
90	0x3c8e7915	0.01739172
91	0xbe66e421	-0.22547962
92	0xbeaf5b32	-0.34249264
93	0xbe1a3a86	-0.15061387
94	0x3e1ecf5c	0.15508789
95	0xbdae44d1	-0.085092194
96	0xbb1d4f86	-0.0024003698
97	0xbdc7c7e1	-0.09754921
98	0xbe0caeff	-0.1373863
99	0xbe5986fb	-0.21242897
100	0x3e23eeaa	0.16009012
101	0x3e1803a9	0.14845146
102	0x3e1615d7	0.14656769
103	0x3c0ff5a3	0.008786592
104	0x3d3c8670	0.046026647
105	0x3f0e954e	0.5569657
106	0xbec4d951	-0.3844705
107	0x3e76a74c	0.24087256
108	0x3e9a5623	0.30143842
109	0x3bb6a850	0.0055742636
110	0xbec89792	-0.3917814
111	0x3c6e510a	0.014545688
112	0xbe588dda	-0.21147862
113	0x3dfc2aab	0.12312826
114	0xbea86ec7	-0.32897016
115	0x3d1a9e75	0.037748773
116	0xbc1101e8	-0.008850552
117	0xbebbc5d7	-0.36674377
118	0xbdadba63	-0.08482816
119	0xbf14b290	-0.58084965
120	0xbe96b350	-0.2943368
121	0xbe215095	-0.15753396
122	0xba79225a	-0.0009503715
123	0xbd1a863e	-0.03772568
124	0xbe54c9f5	-0.20780165
125	0xb8cad591	-9.6718904e-05
126	0xbee9216e	-0.45533317
127	0x3e9df450	0.30850458
128	0x3d0a26d5	0.03372844
129	0x3c8b33c3	0.016992455
130	0x3e42e761	0.19033577
131	0x3caaf232	0.02086744
132	0xbee293b1	-0.44253305
133	0xbd645d59	-0.055753086
134	0xbeab6e12	-0.33482414
135	0xbe2e4770	-0.17019439
136	0x3cdacbfc	0.026708595
137	0xbf147d15	-0.5800336
138	0xbcb43df3	-0.022002196
139	0xbe754984	-0.23953825
140	0x3e071035	0.13189776
141	0x3d21f8b5	0.039543826
142	0xbe137d87	-0.14403354
143	0x3de488a6	0.11158876
144	0x3ee6a16a	0.45045024
145	0x3eb83a62	0.35982043
146	0x3d433dbe	0.047666304
147	0xbe3f6f73	-0.18694858
148	0xbe7a737e	-0.2445812
149	0xbe0ce3c4	-0.1375876
150	0xbd0310b7	-0.031998362
151	0xbe2624d6	-0.1622499
152	0xbbac885d	-0.005265279
153	0xbd948c57	-0.0725333
154	0xbe933f8a	-0.28759414
155	0x3df784b3	0.12085857
156	0x3ecab384	0.39590085
157	0xbd169842	-0.036766298
158	0xbcdb9042	-0.026802186
159	0x3d2444c6	0.04010465
160	0x3e84bd98	0.259259
161	0xbc5fb53a	-0.013654048
162	0xbda2232c	-0.07916865
163	0x3d646cab	0.055767696
164	0x3f128580	0.57234955
165	0xbd136a13	-0.035989832
166	0xbd786000	-0.060638428
167	0x3e802008	0.25024438
168	0xbe8802e4	-0.26564705
169	0x3e05539b	0.13020174
170	0xbd32b7d1	-0.043632332
171	0xbf1803e6	-0.5938095
172	0x3e3fada7	0.18718587
173	0xbd4f5629	-0.050619278
174	0xbf04a209	-0.51809746
175	0xbc907d7e	-0.017637964
176	0x3d896307	0.06708341
177	0xbec90779	-0.39263514
178	0xbbea6203	-0.007152797
179	0xbe272cc2	-0.16325668
180	0x3dacca6e	0.08437048
181	0x3d7a4e84	0.061110035
182	0x3d1dd10c	0.03852944
183	0x3dd6d147	0.10489135
184	0x3db29a4b	0.08720835
185	0x3dcb188a	0.0991679
186	0xbc65aee3	-0.014018747
187	0xbc9f0514	-0.019411601
188	0x3c98ea86	0.018666517
189	0x3d393748	0.045218736
190	0x3f1594c3	0.5843012
191	0xbdf192d5	-0.11795584
192	0x3ea40d18	0.3204124
193	0xbebf1de0	-0.3732748
194	0xbc07a6fd	-0.008279559
195	0xbe117ee4	-0.14208561
196	0xbe35811f	-0.17725037
197	0xbe35c1a9	-0.17749657
198	0xbe0fa942	-0.1402941
199	0xbda2c2ff	-0.07947349
200	0x3ea48a3a	0.32136708
201	0x3d5c01c0	0.053712606
202	0xbe062cd2	-0.13103035
203	0x3ce5b376	0.028039675
204	0xbe7635ad	-0.24043913
205	0x3cda14eb	0.026621303
206	0x3f1db98b	0.6161124
207	0x3ec604f6	0.3867566
208	0xbe967399	-0.2938507
209	0xbe8c9ba9	-0.2746251
210	0xbf337f24	-0.70115876
211	0x3e981c43	0.29709062
212	0xbbe72c6b	-0.0070548556
213	0x3e96b092	0.29431587
214	0xbe3dd407	-0.18537913
215	0x3e1bb3d7	0.15205322
216	0xbecc60bf	-0.3991756
217	0x3edb2093	0.4279829
218	0xbd65983b	-0.05605338
219	0xbdaf2b67	-0.085532
220	0x3ea5bc5e	0.32370275
221	0xbc75dff4	-0.015007008
222	0xbcfedf9d	-0.031112486
223	0x3e4f85db	0.20265906
224	0xbdb5a2ad	-0.088689186
225	0xbdea6739	-0.114454694
226	0xbe55a962	-0.20865396
227	0x3e8a80fe	0.27051538
228	0x3de5de82	0.112240806
229	0x3d27b0ba	0.040940024
230	0x3e4dd7cc	0.20101851
231	0xbddfa10a	-0.10919388
232	0x3e588453	0.21144228
233	0xbe2579f7	-0.16159807
234	0xbe585f12	-0.21130016
235	0xbf0f4cfa	-0.5597683
236	0x3ebf7787	0.3739588
237	0xbd2ad60e	-0.041708045
238	0x3e915551	0.28385404
239	0xbe40fe0f	-0.18846916
240	0x3e8b1cdf	0.27170464
241	0x3d5ca1ba	0.053865172
242	0x3f16c45e	0.5889338
243	0x3d24d677	0.040243592
244	0xbd4db357	-0.05021986
245	0xbe89e78a	-0.26934463
246	0x3cd420f4	0.02589462
247	0xbc993b7f	-0.018705128
248	0xbe52c167	-0.2058159
249	0x3e47b837	0.19503866
250	0x3e6d13dd	0.23152108
251	0x3bb4240f	0.0054974626
252	0x3cf52e13	0.029929196
253	0x3bd0b3d8	0.0063690953
254	0xbd3af08a	-0.045639552
255	0xbb097ee9	-0.0020980185

l2.bias f4 [300]
0	0xbe49b505	-0.1969796
1	0x3efa51d1	0.48890546
2	0xbf5f83fa	-0.87310755
3	0xbdd9d6da	-0.10636683
4	0x3e47578d	0.19466992
5	0xbd2e2997	-0.042520132
6	0xbd924bfe	-0.071434006
7	0xbe0960b2	-0.13415793
8	0xbd2f1ee7	-0.04275408
9	0xbd900f56	-0.07034175
10	0xbddf47d2	-0.109023705
11	0xbe8d69fd	-0.27619925
12	0xbee7ec2c	-0.45297372
13	0xbeb68920	-0.35651493
14	0xbd520f3d	-0.051284064
15	0xbdbb1ba8	-0.091361344
16	0xbd0d75b5	-0.034536082
17	0x3e4bd557	0.19905601
18	0xbee37a0b	-0.4442905
19	0xbdb32560	-0.08747363
20	0x3c2df6cf	0.010617926
21	0xbea0bd39	-0.31394365
22	0xbf2a4ca9	-0.66523224
23	0xbf37cf9c	-0.7180116
24	0xbea18f77	-0.31554767
25	0xbc84ebc5	-0.016225705
26	0x3ea30590	0.3184018
27	0x3e2f8d20	0.17143679
28	0xbca95be7	-0.020673705
29	0xbe311965	-0.17294843
30	0xbdd09dea	-0.1018637
31	0xbcf90fd4	-0.030403055
32	0xbdb3a328	-0.08771354
33	0xbecea2e1	-0.40358642
34	0xbd885b80	-0.06658077
35	0xbe10aeb6	-0.14129147
36	0xbd78b214	-0.060716704
37	0xbe84c0b3	-0.25928268
38	0xbe4cd849	-0.20004381
39	0xbecaeaef	-0.39632365
40	0x3d16d0ef	0.03682035
41	0x3e5cc3c0	0.21559048
42	0x3dad48e7	0.08461171
43	0xbcd14af0	-0.025548428
44	0x3e38cc0d	0.18046589
45	0xbe35fd19	-0.1777233
46	0xbda9f932	-0.08299483
47	0xbd8f8cdd	-0.070092894
48	0xbe33082f	-0.1748359
49	0xbd9ab06e	-0.075531825
50	0xbe863cca	-0.26218253
51	0x3cd7db4c	0.026349686
52	0xbd64f043	-0.055893194
53	0xbd93a86e	-0.0720986
54	0x3e95f831	0.29290918
55	0x3e800e6a	0.25010997
56	0xbda9b5bf	-0.082866184
57	0xbd51dd72	-0.051236577
58	0xbd183dde	-0.037168376
59	0xbdcddc71	-0.100518115
60	0x3f14c8d8	0.58118963
61	0xbaa56970	-0.0012619924
62	0xbbc23029	-0.0059261513
63	0xbe3439f0	-0.17600226
64	0xbd40c4e1	-0.04706276
65	0xbec3f8ae	-0.38275665
66	0xbde1414b	-0.10998782
67	0xbf1acab3	-0.60465544
68	0xbe272449	-0.16322435
69	0xbdc0eb29	-0.09419853
70	0xbdd13d4a	-0.10216768
71	0x3edfbf0a	0.4370044
72	0xbf0e4585	-0.5557483
73	0xbcc979c9	-0.024594205
74	0xbe6de21b	-0.23230784
75	0xbe64e15d	-0.22351594
76	0xbd0dda7d	-0.034632195
77	0xbed8ceb6	-0.42345208
78	0xbdc4fb01	-0.09618188
79	0xbdbdef18	-0.09274119
80	0xbd8b72dd	-0.06809018
81	0x3e8c74b8	0.274328
82	0xbf11be81	-0.5693131
83	0xbd2e115f	-0.042497035
84	0x3ba67a3a	0.0050804885
85	0xbd7eefbc	-0.062240347
86	0xbef38b3d	-0.47567168
87	0xbd9e7866	-0.07737808
88	0xbda01bef	-0.07817828
89	0xbd35dfd0	-0.044402897
90	0xbd82d0b5	-0.06387464
91	0x3ed9c3ff	0.42532346
92	0x3e52383a	0.20529261
93	0xbd86c535	-0.06580583
94	0xbdbbf988	-0.09178454
95	0xbe361e9d	-0.17785116
96	0x3e1414c1	0.14461042
97	0xbdb8e860	-0.09028697
98	0xbf4cef21	-0.8005238
99	0xbd9e0016	-0.0771486
100	0xbc9ee68e	-0.019397046
101	0xbf0020b7	-0.5004992
102	0xbd3a41b0	-0.0454728
103	0xbf019dad	-0.5063122
104	0xbd07060d	-0.032964755
105	0xbe015055	-0.126283
106	0xbd4d2ca9	-0.05009142
107	0xbd4730a1	-0.04863036
108	0xbe0a74f5	-0.13521178
109	0xbd9a2d2e	-0.075281486
110	0xbf3e8ac2	-0.7443048
111	0x3ea8efd9	0.3299549
112	0xbd965d66	-0.07342033
113	0xbd104796	-0.03522452
114	0xbe822025	-0.2541515
115	0xbee94ad0	-0.4556489
116	0x3eac53f8	0.33657813
117	0xbedde45a	-0.4333828
118	0xbd6d651b	-0.05795775
119	0xbdce0f9e	-0.100615725
120	0xbf993b40	-1.1971207
121	0xbf1db2de	-0.61601055
122	0xbdfac341	-0.12244273
123	0xbd84cf1e	-0.06484817
124	0xbedc5522	-0.430337
125	0xbd11a0e6	-0.035553835
126	0xbddf12b2	-0.10892238
127	0x3eb89519	0.36051252
128	0xbe69592b	-0.22787921
129	0x3edaf5b1	0.42765573
130	0xbde7f8d3	-0.11326756
131	0xbdbf7810	-0.09349072
132	0xbd1f54b6	-0.038899146
133	0xbd95b0be	-0.073091015
134	0xbe8cddf4	-0.27513087
135	0xbd91d9ee	-0.07121645
136	0xbd602b2b	-0.05472867
137	0xbda1fdf7	-0.07909768
138	0x3a9abe7d	0.0011806038
139	0xbd9dc89e	-0.0770428
140	0xbd857225	-0.06515912
141	0x3e86d2d8	0.26332736
142	0x3a4190c8	0.000738394
143	0xbf06904f	-0.5256395
144	0xbcb1ea88	-0.021718279
145	0xbf5fb4ba	-0.8738514
146	0x3f33f081	0.70288855
147	0xbea66025	-0.32495227
148	0xbd5fa272	-0.05459828
149	0xbdaa5457	-0.08316868
150	0xbd4d3f63	-0.05010928
151	0x3e5bfd33	0.21483307
152	0xbdcbba59	-0.09947652
153	0xbdb55fb0	-0.088561416
154	0xbedf04a2	-0.43558222
155	0xbda273ef	-0.07932269
156	0xbdcc80c9	-0.09985501
157	0x3a842341	0.0010081307
158	0x3e05eae9	0.13077892
159	0x3de68f38	0.112577856
160	0x3d3127b4	0.043250754
161	0x3e07964f	0.13240932
162	0xbda3ef9f	-0.080046885
163	0xbdcad7c9	-0.09904439
164	0xbdcbbb21	-0.099478014
165	0xbe86c2dd	-0.26320544
166	0xbe903894	-0.28168166
167	0xbccec6d1	-0.025241287
168	0x3d15d28f	0.036577757
169	0xbd4e1ecd	-0.050322343
170	0xbd4c603f	-0.049896475
171	0x3e46c401	0.19410707
172	0xbe92ef2c	-0.286981
173	0xbcbdfa08	-0.023190513
174	0x3e8e4426	0.27786368
175	0xbd0808a5	-0.03321137
176	0xbda84a39	-0.08217282
177	0xbe39a421	-0.18129016
178	0xbd8bbc4d	-0.06823025
179	0xbda5a38f	-0.08087837
180	0xbdd713af	-0.10501801
181	0xbdfcb7dd	-0.12339757
182	0xbe0314c2	-0.12800887
183	0xbf0fc135	-0.56154186
184	0x3dbd7c08	0.09252173
185	0xbd90f43e	-0.070778355
186	0xbf187121	-0.5954762
187	0xbe742d0f	-0.23845313
188	0xbda216f7	-0.079145364
189	0xbd63c763	-0.055610072
190	0xbd29a16f	-0.04141372
191	0xbd8ae7cd	-0.06782494
192	0xbdf39964	-0.11894491
193	0xbd8acbad	-0.06777129
194	0xbe1135de	-0.14180705
195	0x3d560b4c	0.052256867
196	0xbd93be4e	-0.07214032
197	0xbd5788a9	-0.052620564
198	0xbefd27cc	-0.49444425
199	0xbdb359b8	-0.08757347
200	0x3e968e1a	0.2940529
201	0xbcff90ac	-0.031196915
202	0xbd53f7ba	-0.051749922
203	0xbe254c07	-0.16142283
204	0xbd25dc97	-0.040493574
205	0xbe8f9a77	-0.28047535
206	0xbf03dbc6	-0.5150722
207	0xbd8d2e9d	-0.068936564
208	0xbda707cf	-0.08155786
209	0xbe683feb	-0.22680633
210	0xbd89eb75	-0.06734363
211	0xbe99333b	-0.29921898
212	0x3cd115e8	0.025523141
213	0xbcb6fcb4	-0.022337295
214	0xbc4e0449	-0.012574264
215	0xbeb670d7	-0.35632965
216	0xbe528baa	-0.2056109
217	0xbd84b065	-0.06478957
218	0xbf1f279b	-0.6216981
219	0xbd1b7166	-0.037949942
220	0xbe2b8668	-0.1675049
221	0xbd024fcd	-0.031814385
222	0xbdb44d78	-0.088038385
223	0xbdd2969a	-0.10282631
224	0xbd92ab4e	-0.0716158
225	0xbd87b765	-0.066267766
226	0xbe7c3138	-0.2462815
227	0xbdcc7c19	-0.09984607
228	0x3da56640	0.08076143
229	0x3f2d58f5	0.6771386
230	0xbdd45eda	-0.10369654
231	0xbdc732f9	-0.09726519
232	0xbe41f398	-0.1894058
233	0xbd8353f5	-0.06412498
234	0xbcaeccdf	-0.021337925
235	0x3df70169	0.12060816
236	0x3e2c5e6e	0.16832897
237	0xbcc8c0a1	-0.024505915
238	0x3e0aea18	0.13565862
239	0xbcebe64b	-0.028796336
240	0xbeaab4d3	-0.33341083
241	0xbd0e32c5	-0.034716386
242	0xbe636ed3	-0.22210245
243	0xbdcaf4f6	-0.09910004
244	0xbd9f651e	-0.077829584
245	0xbdb4a818	-0.08821124
246	0xbeaa65a2	-0.33280665
247	0xbe09eb75	-0.13468726
248	0xbe173201	-0.14765169
249	0xbd02c1dd	-0.031923164
250	0xbb329d70	-0.0027254485
251	0xbe7632cf	-0.2404282
252	0xbeb95851	-0.36200193
253	0xbe0e6a3d	-0.13907714
254	0x3e56e526	0.2098585
255	0xbddc1e72	-0.107479945

l3.weight f4 [4, 300]
0	0x3e99c25f	0.30031106
1	0xbcceb1c8	-0.025231257
2	0x3eed8a9a	0.46394807
3	0xbd03bd6d	-0.032163072
4	0x3d50ebf7	0.051006284
5	0x3c02dec4	0.007987682
6	0x3d0b4975	0.0340056
7	0xbe8640aa	-0.2622121
8	0xbd6633b3	-0.056201648
9	0x3cbaf308	0.022820964
10	0xbbc64001	-0.0060501103
11	0x3f411d28	0.75435114
12	0xbe850ec5	-0.2598783
13	0xbf7b9f08	-0.9828954
14	0x3e2207d5	0.158233
15	0x3c67dfd3	0.014152485
16	0x3d34f0bf	0.044174906
17	0xbf1c4a4a	-0.61050856
18	0xbfb14357	-1.3848675
19	0x3b1e73b6	0.0024177856
20	0x3fd5d6a2	1.6706126
21	0xbf46ef04	-0.7770846
22	0x3eb0266a	0.34404308
23	0xbf2d3d5b	-0.67671746
24	0xbf28b361	-0.6589871
25	0xbcea1c7b	-0.028578034
26	0x3da595e7	0.08085232
27	0xbe442d8b	-0.19157998
28	0x3cc526c0	0.024066329
29	0x3d0fb4f5	0.035084683
30	0xbc995d5e	-0.018721279
31	0x3ca01bef	0.01954457
32	0xbd6c1c33	-0.05764408
33	0x3e9c901d	0.305787
34	0x3f746bda	0.9547707
35	0x3bd4bb0a	0.0064920234
36	0x3ce454cb	0.027872464
37	0xbf7200f3	-0.945327
38	0x3c1f124e	0.009708954
39	0xbedaee7c	-0.42760074
40	0x3d4bc2c7	0.0497463
41	0x3d936170	0.07196319
42	0xbe9bc1ae	-0.30421203
43	0x3ad214dd	0.0016027946
44	0x3d4d84b5	0.050175387
45	0xbb78c1de	-0.003795735
46	0x3e5d58a6	0.21615848
47	0xbcd43252	-0.0259029
48	0xbf5feaff	-0.8746795
49	0x3c90809d	0.017639453
50	0x3c539f71	0.012916432
51	0x3de3bbe8	0.11119825
52	0x3cc719f9	0.024304377
53	0xbc4e1259	-0.012577617
54	0x3d70d16a	0.058793463
55	0x3e91635b	0.28396115
56	0x3ce4e873	0.027942872
57	0xbd10edfe	-0.035383217
58	0xbc9a0c5e	-0.018804725
59	0x3d2268ff	0.039650913
60	0x3dff3ce7	0.12462788
61	0xbe0b0ea2	-0.135798
62	0xbb1cdb1e	-0.0023934315
63	0x3ba09a7f	0.00490123
64	0x3a973e65	0.0011538981
65	0x3f0d91a0	0.5530033
66	0xbcca9498	-0.024729058
67	0xbceb37cf	-0.028713135
68	0xbee9f736	-0.4569642
69	0xba2ae98e	-0.0006519788
70	0x3ccbaf69	0.024863916
71	0x3e2f1607	0.17098247
72	0xbea36556	-0.3191325
73	0x3b247b77	0.0025098005
74	0xbf305f38	-0.6889529
75	0xbf263baf	-0.6493482
76	0x393d633f	0.00018061417
77	0x3e8dda28	0.27705503
78	0x3bf1373c	0.007361321
79	0xbb864ce5	-0.004098522
80	0xbc0efeac	-0.008727711
81	0x3e643ab0	0.22288013
82	0x3ed9222d	0.42408887
83	0xbc900466	-0.017580222
84	0xbe31dff2	-0.17370585
85	0xbc88d61d	-0.01670366
86	0xbfa3ff8a	-1.2812359
87	0xba258c1f	-0.000631513
88	0xbc07c18c	-0.008285891
89	0x3c8e383d	0.0173608
90	0x3c844a0d	0.016148591
91	0xbeb2de86	-0.34935397
92	0x3f41bd89	0.7567983
93	0x3d4dd951	0.050256077
94	0x3d2501d7	0.040284958
95	0xbc1fa9c6	-0.009745067
96	0xbfe2c1f8	-1.7715445
97	0x3d937f06	0.07201962
98	0x3dbc00af	0.09179818
99	0xbba60d06	-0.0050674705
100	0x3cef5dcb	0.029219529
101	0xbd98001b	-0.07421895
102	0xbcb6f460	-0.022333324
103	0xbe35f41f	-0.17768906
104	0x3d5a7572	0.05333466
105	0xbd14c595	-0.03632124
106	0x3ccdc439	0.02511798
107	0x3c8184ad	0.015810335
108	0xbe58b75a	-0.21163693
109	0xb9c312b8	-0.00037207245
110	0x3f48ec37	0.78485435
111	0x3e9fca65	0.31209102
112	0x3beb6c6b	0.0071845553
113	0x3c335b46	0.010947054
114	0x3d1816cd	0.03713112
115	0xbf90d8ea	-1.1316197
116	0x3ea4ccf6	0.32187623
117	0xbee972f3	-0.45595512
118	0x3bfd0db3	0.0077225803
119	0x3f2e2762	0.68028843
120	0x3e83c104	0.25733197
121	0xbeabbf7d	-0.3354453
122	0x3e875fbd	0.2644023
123	0x3dd0bcd7	0.10192268
124	0xbf0fde1c	-0.56198287
125	0x3c0e6fb5	0.008693625
126	0xbb9b8d86	-0.0047470955
127	0xbd6775b4	-0.056508735
128	0xbed95aa1	-0.42451957
129	0x3c86604f	0.016403345
130	0xbc091ec5	-0.008369152
131	0x3bdb3f02	0.0066908607
132	0xbd0b8665	-0.034063715
133	0x3da0da8f	0.07854187
134	0x3e5869d3	0.21134119
135	0x3cd4de31	0.025984855
136	0xbd25fb0f	-0.04052263
137	0xbc8443cd	-0.016145611
138	0x3d78e414	0.060764387
139	0x3d01110c	0.031510398
140	0xbc6c602a	-0.014427224
141	0x3d5c86ae	0.053839378
142	0x39e2f9eb	0.00043292282
143	0x3ee5e01b	0.4489754
144	0x3b430ed1	0.002976347
145	0xbe36531f	-0.17805146
146	0xbf1a33d6	-0.60235345
147	0x3e2dbea3	0.16967253
148	0xbbc211b1	-0.005922519
149	0x3d3c9a78	0.04604575
150	0x3e4a936f	0.19782804
151	0x3cb54572	0.02212784
152	0xbcd34d69	-0.025793748
153	0xbce6699b	-0.028126528
154	0x3e5c6269	0.21521915
155	0xbb8035b7	-0.0039126533
156	0xbd3e7e10	-0.04650694
157	0x3e4f0616	0.20217165
158	0xbf629c3d	-0.8851965
159	0xbed282a4	-0.41115296
160	0xbdaff398	-0.08591384
161	0xbc0552fb	-0.00813746
162	0xbcba5470	-0.022745341
163	0x3d4d7871	0.05016369
164	0x3c8e351c	0.017359309
165	0xbedeaf7a	-0.43493253
166	0x3cd9d3c3	0.026590234
167	0x3dcb5c98	0.0992977
168	0x3f510083	0.81641406
169	0xbdc82bef	-0.09774005
170	0xbd82b5b6	-0.06382315
171	0xbd8deb56	-0.069296524
172	0xbf3f2573	-0.7466652
173	0xbb162075	-0.002290753
174	0xbdb0ff1a	-0.08642407
175	0xbc74fcdb	-0.014952864
176	0x3c2b434f	0.010453059
177	0xbe6935de	-0.22774455
178	0xbd88dc5c	-0.06682655
179	0xbbdac6b1	-0.006676518
180	0xbbcaa5e2	-0.0061843256
181	0xbeeaae1f	-0.4583597
182	0x3c6e9694	0.014562268
183	0x3dfa18ac	0.12211737
184	0x3e2d448b	0.16920678
185	0xbc278407	-0.010224349
186	0xbe8da935	-0.27668157
187	0xbf66b0e5	-0.9011367
188	0xbcb47eaf	-0.022033064
189	0xbd9452be	-0.07242344
190	0x3b72cbeb	0.0037047814
191	0xbc610e83	-0.01373637
192	0xbccd6fd8	-0.025077745
193	0x3d1083be	0.03528189
194	0xbd1a912d	-0.037736107
195	0x3e108128	0.14111769
196	0x3cb465af	0.022021143
197	0x3d41ea22	0.047342427
198	0x3db5c3b5	0.08875219
199	0x3d8faf3d	0.07015846
200	0x3f2632b5	0.6492112
201	0xbb9e0656	-0.0048225326
202	0x39845115	0.00025237413
203	0xbf21a676	-0.63144624
204	0xbc061bad	-0.008185309
205	0x3f3c474d	0.73546296
206	0xbf5de8f2	-0.8668357
207	0x3d6859b3	0.05672617
208	0x3c53a741	0.012918294
209	0xbf119e8d	-0.56882554
210	0xbd24cb27	-0.040232804
211	0xbe877040	-0.26452827
212	0xbdc4ddf7	-0.09612649
213	0x3d91c0b1	0.07116831
214	0xbda5db07	-0.08098417
215	0xbcd5e8e4	-0.026112027
216	0xbd5226e1	-0.05130661
217	0x3c80267a	0.015643347
218	0xbed52c7a	-0.41635495
219	0xbca64c4f	-0.020300059
220	0xbecebbca	-0.40377647
221	0xbe1b6b26	-0.15177593
222	0x3cdbeba9	0.02684577
223	0xbb4c3cd0	-0.0031164177
224	0x3cda4b41	0.026647212
225	0x3d53e1da	0.05172906
226	0xbc6712d5	-0.014103611
227	0x3d869fb5	0.065734304
228	0xbda01b88	-0.07817751
229	0xbdf6d335	-0.12052003
230	0x3d04f13d	0.032456625
231	0x3c3f99a8	0.011694349
232	0x3f360b03	0.7111055
233	0xbab20a90	-0.001358347
234	0x3bcf0231	0.0063174
235	0x3eff5046	0.4986593
236	0x3e123e57	0.14281593
237	0x3d1585c6	0.03650453
238	0xbee842f8	-0.45363593
239	0x3d666b2b	0.056254547
240	0xbc8b78e7	-0.017025424
241	0xbcc17ae9	-0.023618178
242	0x3e9128e3	0.28351507
243	0x3e1e96ea	0.15487257
244	0xbd468011	-0.048461977
245	0xbd8172b5	-0.06320707
246	0x3edf9bd7	0.43673584
247	0xbb8dd505	-0.0043283724
248	0xbf78172a	-0.96910346
249	0x3c38fd78	0.0112909
250	0xbbd2b769	-0.0064305556
251	0x3e0f9a7f	0.1402378
252	0xbef37483	-0.4754983
253	0xbb88d48c	-0.004175728
254	0x3edff778	0.4374349
255	0xbc65abc3	-0.014018002

l3.bias f4 [4]
0	0xbebe1fc6	-0.37133616
1	0xbe2789a1	-0.16361095
2	0x3e549839	0.20761193
3	0x3ee4e5e2	0.44706637
