TD3-conf1/preTrained/TD3_BipedalWalker-v3_0_crtic_1_ep300.pth (torch_old, 529774 bytes, 5 tensors)

l1.weight f4 [400, 28]
000000 84 6d 2b 3e f5 3b 9b 3f 2d 8c e6 be 33 f7 1a c0
       0.16740996 1.2127672 -0.4502882 -2.4213378
000010 6c fb b4 3e f2 f3 9b be 82 be de be d5 5e f2 bd
       0.3534807 -0.30459553 -0.4350472 -0.11834494
000020 53 fc 54 bf 9a 59 c5 3e 00 2d cd be 0c ce 0c bf
       -0.83197516 0.38544923 -0.40073395 -0.550019
000030 42 e8 c4 3d 8c 97 f2 3e e2 c9 bb be 58 8b c4 be
       0.09614612 0.47381246 -0.36677462 -0.3838756
000040 83 9e 89 be 63 92 16 bf 5c f2 b8 be 52 29 8e be
       -0.26878747 -0.5881712 -0.36122406 -0.277659
000050 08 1b a0 be 59 1e 96 be 62 47 0e bf 27 43 45 be
       -0.31270623 -0.29320028 -0.5557767 -0.19263898
000060 25 8b 0c be 28 d0 b7 3d 91 25 f9 be 85 1d 9d 3e
       -0.13724954 0.089752495 -0.48661473 0.30686584
000070 2f cd 03 bf 5a 54 17 3f 45 63 33 c0 11 36 ee 3f
       -0.5148496 0.59113085 -2.802934 1.861025
000080 f6 2d 13 be 23 27 ed 3d 4d 2a 12 bc d2 f6 36 3d
       -0.14373001 0.1157973 -0.008921218 0.04466898
000090 ca c2 2a be 45 1a 7b 3e 59 18 af bd 9d a7 f1 be
       -0.16675869 0.2452174 -0.08549566 -0.4719819
0000a0 09 3c 91 bd 60 c3 07 3c 4a ba 03 3e 65 98 ac 3d
       -0.07091529 0.008286327 0.12864032 0.084275045
0000b0 4f bf 0e be b3 49 1f bd 45 0a b9 bd f8 65 74 bc
       -0.13940166 -0.038888644 -0.09035162 -0.014916889
0000c0 e5 72 db bc c5 e7 bf 3c 19 9d 7e bd a5 90 04 bb
       -0.026788184 0.023425946 -0.06216154 -0.0020227816
0000d0 ae a5 36 3d 10 69 c5 3c a2 77 02 3d 04 93 a8 3d
       0.0445916 0.02409795 0.031852372 0.08231166
0000e0 16 91 9b 3f 9f f2 77 3f ed b7 d6 bf 5d 2d 43 bf
       1.2153652 0.96854585 -1.677488 -0.76241094
0000f0 86 95 de be ab 90 aa bd 73 95 35 be 6f a9 2c be
       -0.43473452 -0.083283745 -0.17732792 -0.16861509
000100 b8 83 c1 bc 69 96 96 be 25 33 1b 3e 38 61 88 be
       -0.023622379 -0.2941163 0.15156229 -0.26636672
000110 27 09 c1 bd c2 21 46 3e 06 ff de be 9a 61 06 bf
       -0.09425574 0.19348815 -0.43553942 -0.5249268
000120 48 57 8b be a2 9b 75 be ad 11 92 be fc 0b ee be
       -0.27215028 -0.2398515 -0.2852911 -0.46493518
000130 59 f3 10 bf 03 d8 b3 be 09 9b 08 bf 24 92 9a be
       -0.5662132 -0.3512574 -0.53361565 -0.3018962
000140 5c 6a 19 be 83 ee b4 bb 67 32 99 bd ed 3c 3a 3c
       -0.14981979 -0.005521597 -0.074803166 0.011367065
000150 fe 2f 77 be 12 c5 95 3e 81 63 5c be 95 35 70 be
       -0.24139401 0.29251915 -0.21522333 -0.2345794
000160 11 f6 0e 3f 50 10 45 bf 2f 1b 98 be f3 dd 22 3f
       0.5584422 -0.76978016 -0.2970824 0.6361992
000170 e6 07 ad 3c 12 83 c8 be 4b c8 0e 3e d1 24 b6 3b
       0.02112193 -0.391625 0.13943593 0.005558588
000180 a5 70 33 3f 3e 0b 47 be 8f 47 b2 be 58 be 8b be
       0.70093757 -0.19437882 -0.3482022 -0.27293658
000190 a5 75 95 be cd 60 8b be 2a ed 34 be 82 e8 16 be
       -0.29191318 -0.2722229 -0.17668596 -0.14737132
0001a0 b2 19 81 be bc af 89 be 5c 9b df bd 9e 50 b3 be
       -0.25214916 -0.26891887 -0.10918304 -0.35022444
0001b0 22 68 86 3c 05 18 c4 3e 23 49 b1 3e 13 41 a2 be
       0.016407076 0.38299575 0.3462611 -0.31690273
0001c0 17 69 ca bd 5a 72 84 3d 07 fd 76 3f 6e 29 9a bf
       -0.098833255 0.06467123 0.9647984 -1.2043893
0001d0 f4 85 90 bd 1f 6c 21 3e 7d f7 e2 be 51 40 3a bf
       -0.070567995 0.15763901 -0.44329444 -0.7275439
0001e0 60 2b a8 bf 28 bc c8 be e3 d8 d0 3e 2e c1 34 bf
       -1.3138237 -0.39206052 0.4079047 -0.7060727
0001f0 a7 bb cd be 7e f5 c0 3c df 62 07 bf 82 1f 2a bf
       -0.4018223 0.02355456 -0.5288524 -0.6645433
000200 ac de 45 bf 12 78 51 bf 99 c3 2e bf 3d 1a 5e bf
       -0.77292895 -0.8182384 -0.6826721 -0.86758786
000210 2c c6 14 bf 23 a3 50 bf 59 0e 10 bf 3a a2 e1 bd
       -0.58114886 -0.81498927 -0.5627189 -0.110172704
000220 52 52 1a 3e fc 01 c4 3d 20 e0 2a bd 80 6d 9e bd
       0.15070465 0.09570691 -0.04171765 -0.07735729
000230 4d 21 98 3e 66 1c 12 40 b8 c0 73 3f 96 d1 a9 3e
       0.29712906 2.2829833 0.9521594 0.33167714
000240 88 69 fa 3e cf cb 38 3f 1f d8 ac 3e cc 65 48 3e
       0.4890864 0.7218599 0.33758637 0.19570082
000250 87 c3 39 bf d7 61 31 be 4d f4 b3 be 90 21 16 3f
       -0.72563976 -0.17322479 -0.35147324 0.5864496
000260 59 31 08 bd a1 b5 24 bc 8f b2 0a bf 87 7b a5 be
       -0.033250187 -0.010053069 -0.5417871 -0.32320806
000270 d4 a6 8f be aa 64 87 be a3 25 99 be 75 20 f6 be
       -0.28056967 -0.26443988 -0.29911527 -0.48071638
000280 a2 cb f3 be a7 1a e1 be e1 54 01 bf 21 8a 04 bf
       -0.47616297 -0.43965647 -0.5052014 -0.5177327
000290 d0 d4 97 3e 02 55 e5 3e c8 ba 87 be a2 e0 e8 3d
       0.2965455 0.44791418 -0.2650969 0.1137097
0002a0 bf 0f 0b 3f 54 3a e0 bf 4b 49 d1 bd b4 eb 8b 3f
       0.543209 -1.75178 -0.10219058 1.0931306
0002b0 29 29 27 bf d1 22 e4 3d 2b a7 ef 3e 38 25 53 3e
       -0.6529718 0.11139453 0.46807227 0.20619667
0002c0 60 4b a0 be fe d2 49 be c3 8b 85 3d 1a c1 a3 be
       -0.31307507 -0.19709393 0.06520798 -0.31983262
0002d0 f3 b2 62 3e 38 dd 8e 3d 69 97 29 be c3 8b 4a be
       0.22138576 0.06975788 -0.16561665 -0.19779877
0002e0 2b 1b 8f be 50 29 b0 b8 a8 3c d6 bc 60 46 e0 bc
       -0.27950415 -8.400029e-05 -0.02615197 -0.027377307
0002f0 fd ab eb bc 11 51 56 be b8 06 c8 bd fb 28 98 be
       -0.028768534 -0.20929362 -0.097669065 -0.29718766
000300 d7 d1 aa 3d 88 e4 4a be 2d ba 27 be b2 7a 21 3b
       0.08340805 -0.1981374 -0.16379614 0.0024639782
000310 c9 ee af be cc e2 2c c0 a1 17 ec 3f 65 ca 87 bf
       -0.34361866 -2.7013426 1.8444711 -1.0608641
000320 9b c9 cc be b8 a0 99 3c 0a 62 4e bd 54 b8 3d 3e
       -0.39997563 0.018753394 -0.050386466 0.18527347
000330 f1 a0 6e bd 67 db ab 3c fb ad b9 3e b2 3c e1 be
       -0.058258954 0.020978643 0.3626555 -0.4399162
000340 f4 ed 15 be 86 2d b7 3d f6 5e 70 bd 28 4a a1 be
       -0.14641553 0.0894423 -0.05868431 -0.3150189
000350 ca ed 18 be 80 26 86 bc 9e 11 9f be 4f f6 67 be
       -0.1493446 -0.01637578 -0.31068128 -0.22652553
000360 3d 84 9f be de 42 2f 3d 7b ed 22 3e bc 8c 44 3d
       -0.31155577 0.04278838 0.15910904 0.047985777
000370 d7 35 ee 3d 70 8e 53 3e ca 23 d6 bd 0a db 74 be
       0.11631363 0.20659804 -0.10456045 -0.23911682
000380 de 8b e0 3c 2b a1 07 bf a7 47 d7 3e d7 85 79 bf
       0.027410444 -0.529803 0.42046854 -0.9746985
000390 47 e7 cb be 95 d6 d0 3e 1c 1f e3 3d ad a8 c4 3e
       -0.39824888 0.40788713 0.11089918 0.3840994
0003a0 a7 08 3d bd d7 a3 2a be 9d 34 13 bf 54 f3 2d be
       -0.04615083 -0.16664062 -0.57502156 -0.16987354
0003b0 20 fe 5a 3e 21 34 54 bb 49 d5 6b be bb f2 a8 bd
       0.21386003 -0.0032379704 -0.2303058 -0.08249422
0003c0 80 7c b1 be e3 6c 08 be 78 06 8d be 09 c4 da be
       -0.34665298 -0.13322787 -0.27543998 -0.42727688
0003d0 e6 6e 1e be f6 e3 b8 be 7d 2c b3 bd 3e c9 42 be
       -0.15471992 -0.3611142 -0.0874872 -0.1902208
0003e0 2c 75 46 3f 1a 6e 8f 3e cf ef ed be 84 eb 67 bd
       0.7752254 0.28013688 -0.46472022 -0.05662109
0003f0 68 3f 24 3e 82 1f 15 3e 31 fa 70 3f ec 3b 54 be
       0.16039813 0.145628 0.9413176 -0.20725983

l1.bias f4 [400]
000000 bf 7d 3e be 38 e1 ec be 0f 4f 8d be 41 b1 a4 3e
       -0.18602656 -0.46265578 -0.2759938 0.32166484
000010 4e 12 53 3e eb f6 84 be a6 a3 67 be 8a 37 fc 3e
       0.20612451 -0.25969633 -0.2262102 0.49261123
000020 b7 73 64 be 74 15 ab be e3 a4 40 bd bd 3b 19 3d
       -0.22309767 -0.33414805 -0.04703225 0.037410486
000030 9d aa 2c bd da 7b 97 be 06 c2 f8 be da 13 41 be
       -0.042154897 -0.2958668 -0.48585528 -0.18855229
000040 3d dd d7 3b 06 f0 a0 bd 57 41 e8 bb 6e 8c 53 3e
       0.006587653 -0.07858281 -0.0070878672 0.20659038
000050 ca 51 7e be 16 9b 97 be ba 06 5e bd c2 3a 78 be
       -0.24835888 -0.2961051 -0.054205634 -0.24241164
000060 1d 3f 8b be b5 91 26 bf cd 8f f3 be 37 fa 8d 3e
       -0.2719659 -0.6506608 -0.4757065 0.2772996
000070 dc 54 69 be 97 1e e8 3c a4 90 9d bd bb 4a e7 be
       -0.22786278 0.028334899 -0.07693604 -0.45174202
000080 f1 13 9a be d9 e3 b7 3c ef 1e be be 81 19 8b be
       -0.3009334 0.022447513 -0.37132975 -0.27167895
000090 23 99 23 bf b0 1e d1 be eb 04 d3 3e ac 4e b5 3e
       -0.63905543 -0.40843725 0.4121469 0.35411584
0000a0 a7 a5 be 3e d6 fc 14 3f c2 62 b3 be c2 16 f9 be
       0.37235758 0.581983 -0.35036284 -0.48650175
0000b0 f4 cd fd 3d 28 14 d1 be ea 7b bb be 22 37 e5 be
       0.12392798 -0.4083569 -0.36617976 -0.44768625
0000c0 06 49 dc bd ae 65 4e be 3a 47 5a be bf 00 16 bf
       -0.107561156 -0.20155975 -0.21316233 -0.5859489
0000d0 f1 28 ee 3e 28 53 68 3e c2 ae e2 be c9 f5 a4 bb
       0.4651561 0.22687972 -0.44273955 -0.0050341827
0000e0 eb ac b7 be 3d b4 a5 be ed 07 00 be 12 2e 30 be
       -0.35874113 -0.32364073 -0.12503023 -0.17205074
0000f0 2b f5 98 be a9 05 cb 3e c6 ff 0d 3f c6 72 7c bd
       -0.29874548 0.39652756 0.55468404 -0.061632894
000100 58 ba 0c be 96 e2 1e bc 0d 9f 10 be f3 93 b7 be
       -0.1374296 -0.009697577 -0.14123173 -0.35855064
000110 3f 1a a3 be 24 a9 07 3f c0 d5 38 bf 47 ed 73 be
       -0.31855962 0.52992463 -0.72201157 -0.23820983
000120 17 6e 87 bd b8 69 c9 bd 35 2b b0 be 08 15 5c 3e
       -0.06612795 -0.098346174 -0.34407964 0.21492398
000130 ad ac 07 bf b1 db 0b be 39 6e 9e bd e1 94 8c be
       -0.5299786 -0.13658024 -0.07735867 -0.27457336
000140 a2 48 72 bd e9 f3 70 be d8 fc 9b 3d f2 79 64 be
       -0.0591513 -0.23530544 0.076165855 -0.22312143
000150 91 0c 97 3e 8a 77 01 3f 66 db ca 3c 06 75 5c be
       0.29501775 0.5057303 0.02476282 -0.21529016
000160 69 fc 44 be 53 21 18 bc a4 a0 98 be 46 fd 17 3e
       -0.19236912 -0.009285289 -0.2981006 0.1484271
000170 32 01 2a 3f 2d bb d6 3e ef a7 8f 3e 22 9c 18 be
       0.66408074 0.4193968 0.2805781 -0.1490331
000180 0e 21 2b 3e f5 ea 12 be 87 ea d9 3e 7e 3c 3f 3c
       0.16711828 -0.14347441 0.42561743 0.011672137
000190 be e7 41 3f 49 21 12 bf d1 b4 25 be 2b 6e c6 bd
       0.75744236 -0.5708204 -0.16182257 -0.096889816
0001a0 f9 ff d9 bd e6 23 2e 3c 76 df 3e 3e 6a 05 c3 3e
       -0.10644526 0.010628676 0.18639931 0.38090068
0001b0 98 a1 87 be 22 ca e4 be ee d5 8e 3e 01 46 77 be
       -0.26490474 -0.44685465 0.2789759 -0.24147798
0001c0 42 9c 5a 3d 49 b6 0a 3f df d8 8d be 99 88 c7 bc
       0.053371675 0.54184395 -0.27704522 -0.024357127
0001d0 57 97 85 3d ac 14 ee bd dc 71 90 3e 88 6f 4f 3e
       0.065230064 -0.116250366 0.28211868 0.2025739
0001e0 3f 48 54 be 9f 1f 10 be f2 90 11 3d 3a ca 8f bb
       -0.20730685 -0.14074562 0.03553862 -0.004388121
0001f0 7d c9 8c be 47 1e d8 3d 43 e7 05 be 60 b4 15 be
       -0.27497473 0.1055265 -0.130765 -0.14619589
000200 f0 db e5 3e 84 77 4d 3e 63 45 85 be 1e 60 7c be
       0.44894361 0.20065123 -0.260295 -0.24646041
000210 e3 78 b2 3d a8 b8 15 be 92 4d 13 3e de d5 5c be
       0.087144636 -0.14621222 0.1438506 -0.21565959
000220 1b 2f c2 be 62 05 fc 3e a0 6f 8a be fd ce aa be
       -0.37926564 0.49222857 -0.27038288 -0.33361045
000230 c9 e6 cb be 04 00 05 3f e5 9b dc be 57 24 ab be
       -0.39824513 0.5195315 -0.43087688 -0.33426163
000240 54 ed eb be 85 69 97 be d5 a9 74 bc 0b 23 b5 be
       -0.46079504 -0.29572693 -0.014933069 -0.35378298
000250 f6 9b f8 3e 85 92 98 be d2 cc 72 3e bd e5 12 3f
       0.4855649 -0.29799286 0.23710945 0.573818
000260 dd 58 2d 3d 8f 65 da 3e 68 f6 ad bd d9 3a 04 bf
       0.042321075 0.42655608 -0.08494264 -0.51652294
000270 01 8c 64 be 94 9b 11 bf 27 be 1e bd 48 47 25 3e
       -0.22319032 -0.5687802 -0.038755562 0.16140473
000280 da 07 ca bd 78 ae 3f be 82 ca 9d be 87 7d 9b be
       -0.09864779 -0.18718898 -0.30818564 -0.30369207
000290 53 8e 98 3d 1d da 12 3f 36 ca 28 3c 23 72 67 be
       0.07449021 0.57364064 0.010302117 -0.22602133
0002a0 65 73 b1 3c 48 a9 e3 be 2d d6 28 bd ad 2e 07 bf
       0.02166147 -0.4446509 -0.04121988 -0.52805597
0002b0 e6 1d a5 be bd fb 09 bf 76 5a 19 3e 77 5c 85 3e
       -0.32249373 -0.5389975 0.14975914 0.26047108
0002c0 5e 7b 10 3e b0 5c 87 be b9 13 b6 3e 37 a9 0f 3e
       0.14109561 -0.26437902 0.35561922 0.14029394
0002d0 be 60 d6 be 36 a5 f5 3e 5b 6b 0d bf 7f 51 4a 3f
       -0.41870683 0.47977608 -0.55241936 0.79030603
0002e0 49 30 82 3b c2 64 9c 3d 0f d1 95 be 24 6a 97 be
       0.003973041 0.076364055 -0.29261062 -0.29573166
0002f0 2e db f4 be 18 60 ae bd d9 31 6f be 55 6f 2f 3e
       -0.4782347 -0.08514422 -0.23358859 0.17132314
000300 b1 97 ac be 7c b0 9d be 40 c0 86 be 0e c5 ee be
       -0.3370948 -0.3079871 -0.2631855 -0.46634716
000310 7f 05 0b bf ea 07 a5 bc 80 7a 1a 3f 02 b3 7e be
       -0.5430526 -0.020145375 0.6034317 -0.24872974
000320 8f 70 c3 be f2 a9 67 be c9 4b 8b be f1 c6 59 3f
       -0.38171813 -0.22623423 -0.27206257 0.85069185
000330 2d a7 ca be 53 f8 1a 3e 5e 16 b5 bc 18 22 d9 be
       -0.3958067 0.1513379 -0.022105392 -0.42408824
000340 11 6a ad be 23 db b8 3e 67 b8 d0 3c 03 83 17 3f
       -0.33869985 0.36104688 0.025478555 0.59184283
000350 ef 15 dc 3c 9b 47 04 be 83 06 b6 be 54 d2 83 3e
       0.026865928 -0.1291794 -0.35551843 0.25746405
000360 bd 19 ec bd 1d 31 aa 3c 23 54 b0 be 51 4b b6 be
       -0.11528347 0.020775372 -0.3443919 -0.35604337
000370 d7 bd 85 be 39 93 a2 3e b1 42 ad be e0 aa a9 3d
       -0.261214 0.31752947 -0.33839944 0.08284545
000380 e1 1e c1 be c6 15 0c 3f 79 50 da be d3 ad 49 be
       -0.3771887 0.54720724 -0.4263952 -0.19695215
000390 61 cb 99 bd 5a 7a 4d be 75 cd 78 bd 7d 11 98 be
       -0.075094946 -0.20066205 -0.060742814 -0.29700842
0003a0 3c 01 5a be 7d f7 68 be 77 0b 53 be 14 43 07 bf
       -0.21289533 -0.2275066 -0.20609842 -0.5283673
0003b0 57 a2 b9 3d 24 1d 8d be 0c de 95 be 3c bf 85 bd
       0.09064167 -0.27561295 -0.2927097 -0.06530616
0003c0 a0 76 2d be bb 34 4a 3e 10 87 51 be 4e 57 d1 3e
       -0.16939783 0.19746678 -0.20461679 0.4088692
0003d0 b0 24 bf be 61 fc d4 bb 8d a6 02 bf 19 0a 35 bd
       -0.37332678 -0.0064998125 -0.51035386 -0.044199083
0003e0 8a 82 48 bf 15 fc bb be c5 42 68 3d 31 a8 aa be
       -0.78324187 -0.3671576 0.0567043 -0.33331445
0003f0 de 14 cc bc 81 de 27 bf 02 0a 8a be 2e a1 27 be
       -0.024912294 -0.6557389 -0.2696076 -0.16370079

l2.weight f4 [300, 400]
000000 4e 52 29 bd 3f 51 fe 3c 72 00 33 bd f3 20 4a 3c
       -0.041338257 0.0310446 -0.043701597 0.012336957
000010 56 44 da 3b 42 54 4c bd d8 a3 64 ba 01 41 a6 bc
       0.0066609783 -0.049885042 -0.00087219244 -0.020294668
000020 df 0e c5 3c 23 24 44 3c c0 3c 78 bc e7 a8 62 bd
       0.024054943 0.011971506 -0.015151203 -0.05533686
000030 6e dd 16 3d 28 dd fa bb 0b b9 44 bd 3c 5b 5a 3d
       0.036832266 -0.0076557584 -0.048028033 0.053309664
000040 5b d8 45 bd 46 e6 89 bc 3e 5f 99 bc 10 c4 4d bb
       -0.048302036 -0.016833436 -0.018722173 -0.003139738
000050 22 9f 80 3c 70 7b bf bb 52 34 5c bd 54 8a 01 bd
       0.01570088 -0.0058435723 -0.053760834 -0.03162606
000060 c0 1b 82 bd 79 4e 2c bd 37 41 88 bc b9 eb 34 bd
       -0.06352949 -0.042067025 -0.01663266 -0.044170115
000070 11 ec 40 3d 7c eb a4 bd 90 32 c0 3b e0 57 34 bb
       0.04710013 -0.080527276 0.0058654025 -0.0027518198
000080 28 d0 82 3c 54 b1 c0 3b 6a 30 16 bd 4b 2f 2c bd
       0.015968397 0.005880514 -0.036667265 -0.04203729
000090 eb 48 fd 3b 61 04 60 bc 44 09 17 bd 5e 84 75 bd
       0.0077296398 -0.013672919 -0.03687407 -0.05994069
0000a0 61 d0 ae bc 54 2f 26 3c 96 98 ea bb 3d ca 21 3d
       -0.021339597 0.01014312 -0.007159303 0.03949951
0000b0 1c 7b 05 3c d0 b7 58 bd 97 cf 46 bd 28 ba 43 bc
       0.008147027 -0.052909672 -0.048537817 -0.011946239
0000c0 0d 7b 58 bc d7 7a e9 3c d8 98 5b 3c 2d 33 df 3c
       -0.013212931 0.028500957 0.01340314 0.027246082
0000d0 2c e0 32 bd b2 53 81 bd 97 6a 9c bd e3 1f 68 3c
       -0.04367082 -0.06314792 -0.07637518 0.014167759
0000e0 aa b5 95 3c e5 0e 4d bd d0 a9 ec 3c b4 79 16 bd
       0.0182751 -0.050063033 0.028889567 -0.03673716
0000f0 10 71 36 bc f1 61 d3 3c b4 82 30 bc 69 85 57 bd
       -0.011135355 0.025803538 -0.01077335 -0.052617464
000100 f1 86 84 bb 08 c5 1d bc 52 6c f4 3c c8 8e 90 bc
       -0.0040444066 -0.009629495 0.029836807 -0.017646208
000110 6e de 08 bd 24 94 74 bc 29 81 87 3d 06 50 41 bd
       -0.03341525 -0.014927898 0.06616432 -0.047195457
000120 36 05 4a bc 04 36 10 bd df cb 80 bc 41 95 1e bd
       -0.012330344 -0.035207763 -0.015722213 -0.03871656
000130 5c c1 4a bd b0 0d 56 bd 3f 58 4b bd 56 60 3b bc
       -0.049500808 -0.052259147 -0.049644705 -0.0114365425
000140 ef 03 20 bc 50 a8 5c 3b 56 f2 ec bc 3b a7 6a bd
       -0.009766563 0.0033669658 -0.028924149 -0.05728839
000150 7e 9c a1 3c a5 9a 4f bd a2 c1 39 bd 03 a7 44 bd
       0.019727942 -0.05068459 -0.04535068 -0.048010837
000160 08 9a 64 bd 9c 7c 2b bc 86 36 90 3c 80 da d7 3b
       -0.05581096 -0.010466721 0.017604124 0.0065873265
000170 2e bc f7 bc 51 7a 09 3d c2 b4 65 bc b0 be b5 3b
       -0.030241098 0.033563916 -0.014020147 0.0055464134
000180 a3 f4 95 bd 70 a5 d2 bb 4b f1 37 bd ce a7 8a bb
       -0.073220514 -0.006428413 -0.04490785 -0.0042314297
000190 49 bc 59 3c e7 bb 61 bc 7f 79 b2 3c 95 54 06 3d
       0.01328952 -0.01377771 0.02178645 0.032795507
0001a0 b5 da 8c bd 77 5f e3 bc f5 bf 2b bd ad ad 29 bd
       -0.068776526 -0.027755482 -0.04193111 -0.041425396
0001b0 3e 9d 11 3a 44 80 c3 bc 11 fb a7 bd b9 4e 24 bd
       0.0005554742 -0.023864873 -0.08202184 -0.04011414
0001c0 68 67 47 3c 7d 21 3d bd b1 ca 68 bd bb b0 d4 bc
       0.01217065 -0.046174515 -0.056833927 -0.025963178
0001d0 ef f1 2b bd 30 b7 3e 3c 5d dd c2 bd ba d9 37 3b
       -0.041978773 0.011640355 -0.09514878 0.002805336
0001e0 12 f1 4e bc e1 86 19 bd 20 e5 82 bd 2b 30 d9 3c
       -0.012630718 -0.037482146 -0.063913584 0.026512226
0001f0 ce 41 29 bd 4d b7 d9 bb cf 17 19 3d 01 91 87 bd
       -0.041322522 -0.0066441656 0.03737622 -0.06619454
000200 5e a8 93 bd c3 bb 7d bd 5f 1a 9b bd fb f7 06 bc
       -0.07209848 -0.06194664 -0.07573389 -0.008237834
000210 e7 09 85 3d 96 29 2d bc 6e 78 19 bd 98 2b d3 3c
       0.06496029 -0.010568997 -0.037468366 0.025777623
000220 2f 68 22 bd d4 df 1b 3c 06 b9 b5 bc 95 01 d9 3c
       -0.03965014 0.009513814 -0.022182953 0.026490012
000230 26 aa b0 bc e1 47 b3 3c 51 e1 07 bd dd c5 c2 bc
       -0.021565508 0.02188486 -0.033173863 -0.02377599
000240 7a a9 0c 3a 01 2c 5e bb f1 9e 15 3c c2 e8 38 bd
       0.000536583 -0.003390074 0.009132133 -0.04514385
000250 2e 9e ec bc 9a 41 5d bc 04 ce ca bc fd 56 ba bd
       -0.02888402 -0.01350441 -0.024756439 -0.09098623
000260 40 b3 06 bc d7 38 20 bd 01 35 4a bd 42 5c 17 3c
       -0.0082214475 -0.039116707 -0.049366955 0.009238305
000270 05 38 da 3b 3b 8f ff 3c c3 a8 c8 bc 88 70 91 bd
       0.00665951 0.031196227 -0.024494534 -0.07101542
000280 a0 6c 24 bd 5c ec 94 bc b8 27 71 bd e0 40 8c bd
       -0.040142655 -0.018179111 -0.05887577 -0.068483114
000290 72 b4 20 bd 58 9b 79 bd 30 1e 78 bd 4a d1 4b bd
       -0.039234586 -0.060939163 -0.060575664 -0.04976014
0002a0 6b bb 49 bd 56 7e 68 bd 79 3e 80 bd 0a c9 9e 3c
       -0.049251 -0.05676111 -0.06261916 0.019382972
0002b0 25 3e e3 bb 31 6a b0 3c 56 92 35 bd fc f8 b9 bb
       -0.0069348984 0.021535011 -0.04432901 -0.005675433
0002c0 01 85 c0 bc 36 c6 24 bd 78 09 95 bd c6 39 2b 3d
       -0.023500921 -0.04022809 -0.07277197 0.041803144
0002d0 ad 0b 77 bd 9e 46 23 bd d6 16 96 bc c1 0d 7c 3c
       -0.06031387 -0.039862268 -0.018321436 0.015384139
0002e0 5c f6 45 bd 0c 89 0f bd 72 6b 23 bd f7 10 4f 3c
       -0.04833065 -0.035042807 -0.03989739 0.012638322
0002f0 2e 04 f6 ba f9 47 42 bd 9d 6c 2a bd 38 8c ec 3c
       -0.0018769556 -0.04743192 -0.041607488 0.028875455
000300 4e c7 ab bc 11 73 ac bb 1b 80 e9 39 b8 fc 2b bc
       -0.02096906 -0.0052627404 0.0004453667 -0.010497265
000310 49 74 ef bb 51 6e 1e bd 3a 15 d9 bb a4 2b 49 bd
       -0.0073075634 -0.038679425 -0.006624845 -0.049113885
000320 66 36 f7 bb 87 55 a5 bc c9 40 04 bc b8 da 4a bd
       -0.0075443266 -0.020182384 -0.008072087 -0.049524993
000330 71 25 b2 bc 51 5b a2 bc 45 44 75 bc 18 e8 db 3c
       -0.02174637 -0.019818934 -0.01496989 0.02684407
000340 e0 8e 18 3d c5 f5 a3 3c 0d d4 05 3d 38 3d ba bd
       0.03724563 0.020014653 0.03267293 -0.09093708
000350 c2 ea 34 bd 20 60 36 3c 17 f8 a4 bc 5c 07 b0 3b
       -0.044169195 0.011131316 -0.02013783 0.005371971
000360 0d e2 ec bc e3 42 4c bd 96 ee 3a bd e9 73 60 bb
       -0.028916383 -0.049868476 -0.04563769 -0.0034248775
000370 ca 4a 12 bd 63 bb 44 3c ce 21 cd bb 0f 9d fa 3b
       -0.035715856 0.012007567 -0.0062601333 0.0076481174
000380 b5 34 38 3c cb ea de bc 76 2e 3c bc b1 01 14 bd
       0.011243035 -0.027211567 -0.0114856865 -0.036134426
000390 78 42 05 bd ef 85 02 bd 75 0a aa ba a2 3d ef 3c
       -0.032534093 -0.03186601 -0.0012973087 0.029204194
0003a0 8c 67 29 3d 70 28 be bc e2 45 f8 3c 69 b8 4a 3d
       0.041358516 -0.023212641 0.03030676 0.049492273
0003b0 21 52 bb 3c 3e 11 6f bc cb 07 cb bc b5 46 89 bc
       0.02286631 -0.014591513 -0.02478399 -0.016757349
0003c0 42 cd 87 bc 05 13 bb 3c 63 7b 8c bd 34 7f d1 bc
       -0.016577367 0.022836218 -0.06859472 -0.02557335
0003d0 72 1a 5c bc 1a 28 9d 3b ac 97 38 3a 2c 48 29 bc
       -0.013434039 0.0047960402 0.0007041644 -0.0103321485
0003e0 7d 9c 27 bd d6 99 72 bd a9 0f d7 3c e9 06 fa bc
       -0.040920723 -0.05922874 0.026252585 -0.030520873
0003f0 ee d5 52 bd b1 79 67 bd da 33 b0 bd 6f ff 28 bd
       -0.05147355 -0.05651254 -0.0860364 -0.041259225

l2.bias f4 [300]
000000 09 0a b6 bd da 0f 9f bd d9 ca 31 3d dc e6 68 bd
       -0.08888633 -0.07766695 0.04340634 -0.05686079
000010 2c a5 d2 bd 0c a1 d1 bd 5e 40 a3 bd 37 39 bc 3c
       -0.1028541 -0.102357954 -0.079712614 0.0229765
000020 3b 1c e4 bc 57 81 bf bc de 89 62 bd b8 74 d1 3b
       -0.027845493 -0.023377104 -0.05530726 0.006392088
000030 63 88 eb 3d d7 3a 01 3e 64 c9 19 3d 51 68 95 bc
       0.11500623 0.12620102 0.037545577 -0.018238219
000040 be 46 40 bd 19 fe 2b 3c fe f2 a5 bd c6 ea 35 3d
       -0.046942465 0.010497593 -0.08102988 0.04441335
000050 b3 86 9e bd 36 ac 32 bd 7b 78 50 3d 92 c4 16 bd
       -0.077405356 -0.043621264 0.05089615 -0.036808558
000060 d6 ca 6e bd 95 6f 57 bd 55 1c ea bb 16 09 41 bd
       -0.05829891 -0.052596647 -0.0071444907 -0.047127806
000070 32 91 09 3f d1 45 c5 bc 9f 12 5e 3d 36 54 71 3e
       0.53737175 -0.024081143 0.054216977 0.2356728
000080 d4 b2 31 bd e9 82 8c bd 26 c3 b2 bd 86 f7 fe 3c
       -0.043383434 -0.06860907 -0.08728628 0.031123888
000090 d5 7b 14 3e 34 1c b0 3d 31 0c b7 bc a4 b4 aa 3d
       0.14500363 0.08599129 -0.02234468 0.08335236
0000a0 bf 0b b1 3a b3 e3 38 bd 71 da f9 bb be a9 a8 3d
       0.0013507529 -0.045139026 -0.007624917 0.08235501
0000b0 08 24 70 bd 2c 5e 97 3d f1 3a be 3d 47 15 6b bd
       -0.058628112 0.07391009 0.09288586 -0.05739334
0000c0 50 b1 b3 bc 72 78 da bc 82 18 97 bd 3d 60 4d 3d
       -0.021935135 -0.02666876 -0.07377721 0.050140608
0000d0 35 47 20 3d b7 7c 0f bd e0 ef da bc d4 2f 30 3c
       0.03913041 -0.035031047 -0.02672571 0.010753591
0000e0 24 d5 59 3d b4 51 52 bd 5b 3d e4 3d 89 e2 8b bd
       0.053181782 -0.05134745 0.11144515 -0.068303175
0000f0 3e 7b db 3e c5 02 3c bd 05 c3 b6 bd 59 47 08 3f
       0.42867464 -0.04590108 -0.08923916 0.5323387
000100 11 3f 4e bd d2 c2 89 bd 10 39 8e bc 75 7e 48 3d
       -0.050353114 -0.06726612 -0.017361194 0.048948724
000110 ee f3 c7 bd 66 bc 82 be 79 f3 84 3c 1d 67 a3 3c
       -0.09763323 -0.25534362 0.016229378 0.01994663
000120 65 49 0d bd 53 96 95 bf e5 aa 27 be f9 45 90 bd
       -0.034493823 -1.16865 -0.16373785 -0.07044596
000130 e9 ba 07 3d 2d a3 49 3c dd 43 a2 bd e7 78 82 bd
       0.033137236 0.012306971 -0.079231 -0.063707165
000140 d4 04 1e bc 4d 9d 7f bd 69 7f a9 bd 32 ae a2 bd
       -0.009644706 -0.062405873 -0.08276255 -0.07943381
000150 f5 bf 45 bd 74 0b f7 bc dc 4a 6d bd 09 86 04 bd
       -0.048278768 -0.030156828 -0.05793272 -0.03235439
000160 96 49 38 bf 5a 83 93 3d 2a d6 99 bd 70 bd 59 3d
       -0.71987283 0.07202788 -0.07511552 0.053159177
000170 a3 70 bf be 99 10 94 bd cb 30 ab bd 29 ec 15 3c
       -0.37390622 -0.07229728 -0.08358916 0.009150543
000180 75 ab 4f bd c5 d6 bb 3d a4 f2 c4 3d 8a 59 b9 bd
       -0.050700624 0.091718234 0.096165925 -0.09050281
000190 e2 82 6e bc b3 22 1b bc 6a ca 47 bd dd bd 35 3d
       -0.014557572 -0.009468722 -0.04877702 0.04437052
0001a0 b0 cb ab bd 88 3c 74 bd 25 7a e3 3d f8 ef 2f 3e
       -0.0838846 -0.05962804 0.111072816 0.17181385
0001b0 34 3a a9 3d 36 f6 74 bd 85 09 00 3f e8 51 06 3f
       0.082630545 -0.059805118 0.50014526 0.5246873
0001c0 9e 46 75 bd 46 c3 8e bd 74 c6 83 bd 0f 7c d4 bd
       -0.0598818 -0.06970839 -0.06434336 -0.10375225
0001d0 8f 28 50 3d 1f 9c 66 bf 64 28 8c bd 40 2c ee 3d
       0.05081993 -0.9008197 -0.068436414 0.11629534
0001e0 99 a1 30 bd 8d ac 84 3d 93 c5 58 bc 09 1f 82 bd
       -0.04312286 0.06478224 -0.013230699 -0.06353576
0001f0 da 3f 68 bd 35 69 3c 3d 28 82 0b 3d bb 79 ad bd
       -0.05670152 0.04599877 0.034059674 -0.08470484
000200 42 67 bf 3d 60 a4 22 bd 84 de 45 bd 3e fc 3f bc
       0.09345867 -0.03970754 -0.04830791 -0.011717854
000210 0d 33 9a 3d 69 b7 5a 3b 04 81 27 3d d9 72 bb bd
       0.075292684 0.003337348 0.040894523 -0.09152765
000220 96 6e fd 3e d0 1f 82 bd 99 9c 2d bd bb dc cc 3b
       0.49498433 -0.06353724 -0.04238567 0.006251899
000230 2f 8e 51 bd ad b4 52 bd 30 cd 94 bd 8c 2f 4c bc
       -0.051160987 -0.051441837 -0.07265699 -0.012462508
000240 15 9e 0f 3c 18 94 b0 bd c8 7c 28 3d 77 a9 7f 3c
       0.008765717 -0.08621997 0.041134626 0.015604368
000250 f1 99 51 bb 2b ab 0d bd 0d 3a 9c bd b4 9e 01 3f
       -0.0031982625 -0.034587067 -0.0762826 0.50632787
000260 bf c9 aa bd cc 95 36 bd ea 1a 11 bc 8d ac a5 3d
       -0.08339261 -0.04457645 -0.0088565145 0.08089552
000270 6c a0 8b bd 4a bc 4b bd 01 21 1a 3e 5d e5 83 bd
       -0.068177074 -0.049740113 0.15051652 -0.06440232
000280 0c 2a aa bd eb 80 b9 bc d3 86 e5 b9 c7 ad 77 bd
       -0.08308801 -0.02264448 -0.00043778736 -0.06046846
000290 d6 59 d4 bd 6b 73 93 bd 46 04 02 3e c5 1a 6c bd
       -0.10368697 -0.071997486 0.12696943 -0.057642717
0002a0 ba d1 57 bf 18 69 d0 bc 08 a8 16 3d af b3 bc be
       -0.8430439 -0.025440738 0.03678134 -0.36855838
0002b0 62 cd 26 3d 04 ef 8f bd 6e 54 93 3d 6c a2 b7 3c
       0.040723212 -0.070280105 0.07193838 0.022416316
0002c0 a0 29 83 bd 8b 44 f9 3d 7b 33 f8 3d 25 e2 ae 3d
       -0.06404424 0.12171277 0.12119194 0.085392274
0002d0 6b 23 5a bd 58 4d 9d bd dc 4e dd 3d 3b 30 2f bd
       -0.053256433 -0.07680768 0.10806057 -0.042770606
0002e0 5d e9 24 bd c2 42 64 3f 7f f7 cb bb b2 07 a6 bc
       -0.040261615 0.89164364 -0.006224572 -0.020267341
0002f0 5c b3 d3 3b 3f dc 08 bd d8 e7 08 3e e9 86 9b bd
       0.0064605903 -0.033413168 0.13369691 -0.075940914
000300 a9 ab de 3d 33 16 96 bd 68 29 f3 bc f5 7d 0c bc
       0.10872585 -0.07328453 -0.02968283 -0.008574952
000310 de 49 82 3d 60 28 16 bd 0e 8d ee bc f7 ed 14 3d
       0.06361745 -0.0366596 -0.029119994 0.036359753
000320 21 f0 e0 bd 17 37 9f bd d1 81 c7 3a 45 67 7a 3c
       -0.10983301 -0.077741794 0.0015221183 0.01528341
000330 71 5d b4 bd 8e c2 08 bc 9a 61 9a 3d bb 12 ad bd
       -0.08806885 -0.008347167 0.07538147 -0.08450838
000340 a8 77 99 bc db be 07 bd 2a b4 7e 3d 22 6a 48 bf
       -0.018733814 -0.033141 0.062183537 -0.78286946
000350 f4 1f 32 bd 0e d7 50 3d 52 b7 8a bd 66 df e5 3d
       -0.043487504 0.050986342 -0.06773247 0.112242505
000360 ce eb f0 bc a3 08 a2 bf 8a e8 7e 3d 97 94 12 bd
       -0.029409315 -1.2658886 0.062233485 -0.035786238
000370 ab 19 8b bd 40 f1 fb 3e 2d 4f 08 3d 3a 00 21 bd
       -0.06792005 0.49207497 0.033278633 -0.039306857
000380 66 b1 99 bc 70 bd d1 3c e5 17 b5 bb bb 6d 82 bd
       -0.018761348 0.025603026 -0.00552653 -0.06368586
000390 c5 b6 bf 3d 21 de 0f bd 27 71 ae bd 6b 70 03 3f
       0.093610324 -0.035123948 -0.08517676 0.5134341
0003a0 c4 37 a5 bd c9 40 ed 3d e9 c0 50 3d dc cd af bd
       -0.08067277 0.115846224 0.050965223 -0.085841864
0003b0 8b ef f1 3c f4 27 96 3e ac b3 51 bd 1b 82 07 3f
       0.029533168 0.29327357 -0.05119674 0.529329
0003c0 4b 4c 6a bd 10 04 11 bd 16 c1 8a 3f 1c 0d 89 bd
       -0.057201665 -0.035404265 1.0840175 -0.066919535
0003d0 60 84 3d 3b 55 5f ab bd cc 14 b1 3d 46 27 07 bd
       0.0028918013 -0.083677925 0.08646545 -0.03299644
0003e0 b6 ce 8a bc 21 2b 06 3f 70 d5 c3 3d b6 18 83 bc
       -0.01694427 0.5240956 0.09562194 -0.016002994
0003f0 15 4f 6e 3c 06 e1 d6 bb 0d e5 87 3d a0 8e 7d ba
       0.014545222 -0.0065575866 0.06635485 -0.0009672437

l3.weight f4 [1, 300]
000000 b1 01 73 3c 5c 37 7f bc 52 87 70 be 55 34 78 3c
       0.014831946 -0.015577164 -0.2348912 0.015149196
000010 48 01 eb 3c 93 bd ff 3c 69 b8 81 3b 07 f8 81 3e
       0.028687134 0.031218326 0.003958751 0.25384542
000020 e3 75 c7 3b 0e 67 e1 bc c2 1f c0 bc 7b 5e a4 3b
       0.0060870512 -0.02751496 -0.023452643 0.0050161458
000030 88 1b 82 3e b6 f7 a5 be a6 21 7f 3e 09 8b 8a 3b
       0.2541163 -0.3241555 0.2491518 0.004228
000040 10 87 fb 3b d8 ce 5e 3c c8 18 df 3c 78 20 54 be
       0.007676013 0.01359912 0.027233496 -0.20715511
000050 90 a4 ef 3b c6 92 e3 3b 7e b0 66 be 70 56 3e bd
       0.0073133186 0.006944987 -0.22528264 -0.046469152
000060 1f d8 c1 b8 b5 e8 59 bb 21 df 18 3d f4 92 f6 3c
       -9.243213e-05 -0.0033250276 0.037322167 0.03009937
000070 6f db 8f be 3c fa ca 3b bc 62 73 be d3 a4 a4 bf
       -0.28097102 0.006194381 -0.23768133 -1.28628
000080 e1 fe b6 bb 33 5c 2b bc 4c 57 a0 bb b9 ca 76 be
       -0.005584583 -0.010458994 -0.004893219 -0.2410077
000090 59 24 6d be 31 4a 85 be 6c 9b 8d b9 6e da 5f be
       -0.23158397 -0.26033166 -0.00027009414 -0.21860668
0000a0 37 b6 3f 3d 0c 57 ac bc 7c 72 f1 3b dc e1 42 be
       0.046804633 -0.021037601 0.007368384 -0.19031471
0000b0 23 46 b2 b9 1e 17 ac be 8e a3 71 be 6e 7f 0e 3c
       -0.00034003062 -0.33611387 -0.23597547 0.008697374
0000c0 08 a3 5f bc 70 b3 c7 3c 8b d6 34 bc db b7 87 be
       -0.0136497095 0.024377555 -0.011037479 -0.26507458
0000d0 cd 0b aa 3e dd 4f 1a bd c0 fb 8a 3c 4d d9 db bb
       0.33212128 -0.03767382 0.016965747 -0.006709254
0000e0 df c9 7d bd be 92 25 bc b1 c7 8a 3e f9 fc c1 bc
       -0.061960097 -0.010105787 0.27105477 -0.023680197
0000f0 39 39 39 be 0d f1 86 bc d7 56 a1 bc 0c 73 81 be
       -0.18088235 -0.016472364 -0.019694729 -0.25283086
000100 e3 06 01 bd 81 36 68 bc 83 21 09 bd 2a e8 90 be
       -0.03150071 -0.014173151 -0.033479225 -0.28302127
000110 b6 48 3c 3d 0c cf 08 3f 61 e5 d6 3c 60 f2 e1 3c
       0.04596778 0.5344093 0.026232423 0.027581394
000120 c8 e7 43 3c 98 65 38 3f 4e f1 e8 be de d4 5b bc
       0.011957116 0.7203002 -0.454966 -0.013417451
000130 a0 f0 18 3d 03 e2 19 3c 51 7d 17 3d 7e 3a e7 bc
       0.037338853 0.009392264 0.036984745 -0.028226133
000140 b5 76 6f 3d be a0 92 3c 14 3d 5c 3b 5b 42 95 3c
       0.058462817 0.017898913 0.0033605741 0.018220117
000150 f5 de b0 bb f6 bc 8a 3c e3 22 c5 3d f1 44 c4 3c
       -0.0053976723 0.016935807 0.09625795 0.023958655
000160 9a 3a 4f 3f 4a 62 4f be ba d4 f4 bc 73 9f 90 3e
       0.80948794 -0.20252338 -0.029886592 0.2824665
000170 c3 6a 31 3f 9d 71 8c 3c 84 49 1f 3d dd dd bf 3c
       0.6930353 0.017144019 0.03888847 0.023421222
000180 51 40 f7 3f 68 fb 5a be 64 68 f7 be 68 ba 5d 39
       1.9316503 -0.21384966 -0.4832183 0.00021145644
000190 40 af e4 3c a8 bd 42 bd 85 70 17 3d 14 fe 43 be
       0.027915597 -0.04754415 0.03697254 -0.19139892
0001a0 06 a9 7b 3f 6c bf f6 3c e5 b2 96 be 7b da f9 be
       0.98304784 0.030120574 -0.2943336 -0.487995
0001b0 eb 92 86 be 6e 45 70 bc 98 53 97 be 9b 9e 8b be
       -0.26283965 -0.014664991 -0.29555964 -0.27269444
0001c0 44 9c 38 bc 6a 8d a8 bc 45 c3 f5 bc 4d 71 79 be
       -0.011267725 -0.020575244 -0.030000338 -0.24359627
0001d0 0a 33 bf be 5a 6e b5 3e 71 8c ad bc dc ab 4a be
       -0.37343627 0.35435754 -0.021185132 -0.19792122
0001e0 fe 2d 04 3d e3 58 5e be 15 17 95 bc 2e 0b b4 3a
       0.032270424 -0.21713595 -0.018199483 0.0013736242
0001f0 9b 0d 74 bc b1 be 89 be b1 55 7c be a6 dc 28 3c
       -0.014895822 -0.26903298 -0.24642064 0.010306513
000200 f6 a5 8c be c7 2b b9 bc 9a 21 2b bb 8c 40 27 3c
       -0.27470368 -0.022603882 -0.0026112557 0.01020826
000210 94 e7 ce 3e a1 e4 1e bc fa 2e aa 3e f1 54 84 bc
       0.40411055 -0.009698064 0.33238965 -0.016153784
000220 80 ba 7a be ca f2 eb 3b 3b 2f 87 3c 22 8c 35 bd
       -0.24485207 0.0072005736 0.016502013 -0.044323094
000230 8f 69 d4 3c 98 f3 70 3b ef f5 fd 3c 45 ee 00 3d
       0.02592924 0.0036766287 0.03100106 0.03147723
000240 72 59 b0 3b ec a7 14 bc 3c 7a 82 be 38 8e ab 3c
       0.0053817565 -0.009073239 -0.25483882 0.020941839
000250 27 a4 8c be f0 7a 95 bc 38 5d 8e bc 6b 90 a3 be
       -0.27468988 -0.018247098 -0.017378435 -0.3194612
000260 87 65 b1 3b 8a 54 fb 3c fc 0a ea 3a 53 69 42 be
       0.0054137143 0.03067996 0.0017856057 -0.1898549
000270 b3 00 97 bc 5a ee ce bc 2d e5 86 be 9a 07 09 bc
       -0.01843295 -0.02526014 -0.26346722 -0.008363629
000280 0d a1 76 3d c2 2a 5b bb 8a aa e8 bc a1 38 5e bb
       0.060212184 -0.0033442234 -0.028401632 -0.0033908265
000290 6f 86 d5 bc 13 46 3d bc 39 35 a4 be 9f 8a 4b 3b
       -0.02606508 -0.0115523515 -0.32071856 0.0031057966
0002a0 c5 87 25 3f c1 2f d4 bc 28 21 b7 ba b8 d5 0d 40
       0.6466029 -0.025901677 -0.0013971673 2.2161694
0002b0 ca 4a 55 be 95 5b fb 3a 23 ee 6e be c5 9b 24 3d
       -0.20829311 0.0019177074 -0.2333303 0.040187616
0002c0 61 cf da bc 3e 2a 85 3e 39 d2 bf be e2 8f 55 be
       -0.026710214 0.2600879 -0.37465075 -0.20855668
0002d0 bb a7 c9 3c 5f 9e 4d 3d 06 8c a7 be e0 c9 36 bc
       0.024616113 0.050199863 -0.32724017 -0.011156529
0002e0 0e ea ff bc 61 ae ad bf 6e bf 70 3c c6 ac db bc
       -0.031239536 -1.3568841 0.014694078 -0.026815783
0002f0 2f 82 b5 3e e1 e9 48 bd 04 d3 3c bf 9f 68 86 3b
       0.35450885 -0.04905117 -0.73759484 0.0041018273
000300 d6 3b 73 be 47 3c 47 3c ef 94 04 bf ee 6f 54 bc
       -0.23753294 0.012160367 -0.51789755 -0.012966139
000310 9d 29 94 bd 41 79 4b 3c ec 80 1c bd 83 a8 83 be
       -0.072344996 0.012419046 -0.038208887 -0.25714502
000320 b3 ae b2 3c 77 90 f6 3c b6 a2 44 39 9c 83 a5 3e
       0.021811819 0.030098183 0.00018752631 0.32326972
000330 f6 95 95 3c a2 a6 a4 bb 76 5c 5a be 03 d9 6d 3c
       0.018259984 -0.005024747 -0.21324334 0.014517072
000340 1d 1d c8 bb 1b 28 4c be 3a 1f 5d be 64 a5 52 3f
       -0.006106986 -0.19937174 -0.21593943 0.82283616
000350 5a bc 91 3d 66 b5 73 be f8 6c c6 3c ff e1 15 3e
       0.07116003 -0.23799667 0.024221882 0.14636992
000360 e3 5a fc 3a bd dd 35 3f 73 1e 89 be b5 a9 80 3c
       0.001925316 0.7104147 -0.26781043 0.015705923
000370 0e d4 87 3b da 33 97 be d3 99 7d be 9f 4f 2b bc
       0.004145152 -0.29531747 -0.2476571 -0.010455995
000380 eb e0 cd bd 1f 87 51 be ce 68 9e 3b 25 15 f5 bc
       -0.10052665 -0.20461701 0.004834271 -0.029917309
000390 61 f4 92 be d0 1c 45 3e ec 1f dc bc 43 cf 95 be
       -0.2870207 0.19249272 -0.02687069 -0.2925969
0003a0 f8 54 98 3a e8 99 8a 3e 7a d0 7e be be b6 94 3c
       0.0011622002 0.27070546 -0.24884215 0.018153545
0003b0 96 07 86 be 27 6a 0d bf 5e ba 5b 3d 3d 84 ab be
       -0.26177663 -0.552401 0.05364453 -0.33499327
0003c0 3a 43 45 3c 87 1a 44 3c 22 d2 cc bf 87 db 5d bc
       0.012039954 0.011969215 -1.6001627 -0.013541109
0003d0 17 22 84 3e 1c 33 f3 3c e5 31 75 be 57 9e 81 3b
       0.25807258 0.029687457 -0.23944815 0.003955643
0003e0 18 14 25 3d 58 27 a2 be fe ae 74 be 7c 9c d0 bb
       0.040302366 -0.31670642 -0.23894879 -0.0063663106
0003f0 0f 2e 57 be 3f 7b f2 3c 49 3b 4c be 7e f8 85 3e
       -0.21013664 0.029599784 -0.1994449 0.26166147
