TD3-conf1/preTrained/TD3_BipedalWalker-v3_0_critic_1_target_ep400.pth (torch_old, 529768 bytes, 5 tensors)

l1.weight f4 [400, 28]
0.22480735 0.91418546 -0.6724464 -2.9152136 0.26094335 -0.48901758 -0.33492562 -0.24286705
-1.3632528 0.6697556 -0.3604121 -0.8970416 -0.0033146206 0.45117196 -0.52824247 -0.544693
-0.4274871 -0.74442863 -0.51486677 -0.42730585 -0.45810282 -0.43415993 -0.6985642 -0.32498866
-0.30892685 0.30978012 -0.46347246 -0.0068396777 -0.41738826 -0.8658431 -3.8405876 2.829843
-0.43854475 -0.07500622 -0.010490964 -0.008667978 -0.11687241 0.13897733 -0.06961874 -0.3008129
-0.1059417 0.047039036 0.20530324 0.16109084 -0.06647847 0.02618716 -0.0318463 0.03662374
0.019922143 0.056038734 -0.038307797 -0.15715782 -0.0022873438 -0.021668812 -0.01078241 -0.029793626
1.208296 2.1900673 -2.1468694 -1.5375556 -0.42962298 -0.41475144 -0.4518935 -0.17904621
-0.32342333 -0.26572016 -0.20169888 -0.26524153 -0.2790675 -0.025535194 -0.4550901 -0.544695
-0.29215315 -0.26034638 -0.30733848 -0.489017 -0.5916366 -0.3785645 -0.57598656 -0.3909368
-0.5617155 0.15397172 -0.099042416 0.032314215 -0.13115829 0.10752199 -0.68493646 0.04398212
0.7087451 -0.69152594 -0.29149544 0.584741 0.057447236 -0.07599172 0.34086046 -0.049666606
0.55881166 -0.23192097 -0.43034956 -0.35488895 -0.37495545 -0.3566647 -0.26128224 -0.22582829
-0.32515538 -0.34569144 -0.10636551 -0.32161257 -0.3805129 0.31973988 0.6596893 -0.5768358
-0.15510346 0.17800865 0.8920516 -1.569284 -0.08506774 -0.06316551 -0.49263567 -0.7500792
-1.5444145 -0.4473306 0.16287905 -0.7062468 -0.27909935 -0.10740349 -0.60474396 -0.74053127
-0.84899825 -0.89522916 -0.76150846 -0.9478904 -0.66171825 -0.8936548 -0.6412021 -0.13435312
0.28483272 0.22280464 0.13735098 0.08801599 0.31291535 2.242225 0.5060038 0.33591166
0.54502964 0.80793387 0.5118796 0.29111812 -0.7511044 -0.281354 -0.5801603 -0.2114938
0.1469324 0.5019281 -0.6647035 -0.44670594 -0.40455097 -0.38867286 -0.4233021 -0.6045636
-0.59988326 -0.56364995 -0.61318314 -0.56937927 0.26836362 0.59174323 0.008909981 0.59056795
1.2059506 -1.9476463 -0.99672496 1.5645101 -0.40071657 0.13986614 -0.08373451 0.1702143
-1.2903969 -0.33684742 0.01785396 -0.13728926 0.055611096 -0.35435727 -0.3103275 -0.34203267
-0.42285088 -0.14416587 -0.17103694 -0.17218241 -0.17336152 -0.35144052 -0.067672886 -0.20330195
0.050275076 -0.07764138 0.03328364 0.08610592 -0.4027692 -2.8161983 2.1408377 -1.0424485
-0.1722792 0.004826479 -0.048124928 0.26509532 0.26739472 0.10283904 0.29625726 -0.7603932
-0.059412297 0.1121505 -0.15992877 -0.4305298 -0.2803236 -0.16098613 -0.4667703 -0.3888398
-0.48394302 -0.13815749 0.18500696 0.23961279 0.09375966 0.27582264 0.011339392 -0.103158146
0.48753196 0.90237457 -0.30454794 -1.1430659 -0.7900027 -0.23765369 0.06544863 -0.14039761
0.13153076 -0.39215177 -0.49471167 -0.3447146 -0.10568127 0.0005484094 -0.32736602 -0.17901239
-0.44272295 -0.22922798 -0.37055758 -0.52100176 -0.24698354 -0.4533373 -0.18876536 -0.4870984
1.0517644 0.21677841 -0.24803871 -0.32442316 0.16040072 0.14563067 0.94131917 -0.20726193
00000000: e633 663e 0f08 6a3f 7325 2cbf dc92 3ac0
00000010: 5e9a 853e 8360 fabe 5f7b abbe 24b2 78be
00000020: 117f aebf 1a75 2b3f ef87 b8be 85a4 65bf
00000030: 1b3a 59bb 0300 e73e e63a 07bf 0071 0bbf
00000040: 97df dabe e092 3ebf 4fce 03bf d5c7 dabe
00000050: 748c eabe 364a debe 1ad5 32bf ea64 a6be
00000060: a92b 9ebe 809b 9e3e 434c edbe 601f e0bb
00000070: eab3 d5be e5a7 5dbf 30cc 75c0 261c 3540
00000080: f088 e0be dc9c 99bd 4be2 2bbc 2304 0ebc
00000090: cd5a efbd 1350 0e3e 4594 8ebd 2604 9abe
000000a0: f6f7 d8bd 01ac 403d 033b 523e fff4 243e
000000b0: dd25 88bd 7486 d63c 4471 02bd c602 163d
000000c0: c333 a33c df88 653d a3e8 1cbd fbed 20be
000000d0: 43e7 15bb cb82 b1bc b5a8 30bc c311 f4bc
000000e0: 71a9 9a3f 102a 0c40 4f66 09c0 9fce c4bf
000000f0: 8bf7 dbbe 4d5a d4be 965e e7be e457 37be
00000100: be97 a5be 790c 88be 278a 4ebe bdcd 87be
00000110: efe1 8ebe 2f2f d1bc 9201 e9be 2271 0bbf
00000120: 1995 95be 1f4c 85be 785b 9dbe 7060 fabe
00000130: 7f75 17bf 35d3 c1be db73 13bf de28 c8be
00000140: 96cc 0fbf c3aa 1d3e c0d6 cabd e95b 043d
00000150: 5c4e 06be 7d34 dc3d ff57 2fbf 9826 343d
00000160: 5270 353f d807 31bf e43e 95be 96b1 153f
00000170: cb4d 6b3d 8ca1 9bbd 4385 ae3e 366f 4bbd
00000180: 480e 0f3f b17c 6dbe c756 dcbe 01b4 b5be
00000190: 29fa bfbe c19c b6be c9c6 85be 883f 67be
000001a0: c47a a6be 78fe b0be 29d6 d9bd 67aa a4be
000001b0: 96d2 c2be f2b4 a33e 66e1 283f 83ab 13bf
000001c0: 71d3 1ebe e647 363e 7e5d 643f 4cde c8bf
000001d0: ff37 aebd eb5c 81bd be3a fcbe 3105 40bf
000001e0: 60af c5bf 8408 e5be c4c9 263e 97cc 34bf
000001f0: 1ce6 8ebe 5cf6 dbbd 80d0 1abf 7593 3dbf
00000200: f357 59bf bd2d 65bf 38f2 42bf f2a8 72bf
00000210: 5e66 29bf 90c6 64bf d225 24bf dd93 09be
00000220: 98d5 913e e626 643e bca5 0c3e ba41 b43d
00000230: 7136 a03e 9d80 0f40 7789 013f 9dfc ab3e
00000240: 1087 0b3f c1d4 4e3f 8b0a 033f 6f0d 953e
00000250: 6148 40bf a20d 90be 6385 14bf d591 58be
00000260: 7275 163e 5c7e 003f 022a 2abf a4b6 e4be
00000270: 4e21 cfbe 2100 c7be 0ebb d8be aec4 1abf
00000280: f391 19bf 5d4b 10bf 92f9 1cbf d7c2 11bf
00000290: f566 893e 7c7c 173f 2bfb 113c 762f 173f
000002a0: 975c 9a3f 794c f9bf 5e29 7fbf de41 c83f
000002b0: b92a cdbe 1239 0f3e 007d abbd a84c 2e3e
000002c0: ba2b a5bf 4477 acbe 7842 923c 8e95 0cbe
000002d0: 76c8 633d 516e b5be 3fe3 9ebe e81e afbe
000002e0: e97f d8be 38a0 13be 4f24 2fbe 9650 30be
000002f0: af85 31be 03f0 b3be 1598 8abd 632e 50be
00000300: 3ded 4d3d 7202 9fbd 6d54 083d 4d58 b03d
00000310: c437 cebe 983c 34c0 7c03 0940 f46e 85bf
00000320: f569 30be 7127 9e3b a51e 45bd 93ba 873e
00000330: f6e7 883e 469d d23d 08af 973e 21a9 42bf
00000340: 4f5a 73bd 29af e53d 5ec4 23be 676e dcbe
00000350: 9386 8fbe 8cd9 24be 84fc eebe 0316 c7be
00000360: 61c7 f7be 2879 0dbe 7772 3d3e 0e5d 753e
00000370: 1105 c03d a038 8d3e dbc8 393c 9444 d3bd
00000380: ca9d f93e 0502 673f b5ed 9bbe fc4f 92bf
00000390: 9e3d 4abf 7d5b 73be ee09 863d 64c4 0fbe
000003a0: 00b0 063e 1ec8 c8be d94a fdbe 6f7e b0be
000003b0: 6c6f d8bd 22c3 0f3a 859c a7be 064f 37be
000003c0: 95ac e2be bdba 6abe b9b9 bdbe 5f60 05bf
000003d0: 41e9 7cbe d41b e8be b54b 41be f664 f9be
000003e0: 37a0 863f 29fb 5d3e dcfd 7dbe cb1a a6be
000003f0: 1640 243e 3520 153e 4bfa 703f 793c 54be

l1.bias f4 [400]
-0.36299866 -0.66855294 -0.37795606 0.41113693 0.32920897 -0.36743087 -0.15055485 0.7765391
-0.52721304 -0.33414695 -0.2565406 0.023076465 -0.11981232 -0.29586285 -0.7741226 -0.5678598
0.0535292 -0.32173514 -0.09809791 -0.014905915 -0.21832782 -0.29610127 -0.32851046 -0.32447937
-0.5276707 -0.89714926 -0.832402 0.18520819 -0.22786133 -0.10029501 -0.3319066 -0.6043662
-0.47483143 0.056250695 -0.2913771 -0.39937824 -0.69372004 -0.5430608 0.5207547 0.532964
0.5598864 0.8369031 -0.66804785 -0.55924344 0.011628869 -0.79422176 -0.3661785 -0.5644796
-0.14579758 -0.29853374 -0.27727926 -0.8634692 0.47352976 0.08267986 -0.59106445 -0.1406491
-0.443679 -0.55461514 -0.23598202 -0.44584703 -0.6296979 0.36469197 0.4888346 -0.24176936
-0.13742907 -0.06836918 -0.37139788 -0.59697735 -0.6298844 0.6599235 -0.8919311 -0.3102936
-0.31490457 -0.43017945 -0.5372575 0.29202816 -0.76809496 -0.32833868 -0.07735871 -0.37900057
-0.21616 -0.23530298 -0.2891045 -0.33981252 0.42074966 0.6131161 0.018392267 -0.21528772
-0.30283713 -0.2076762 -0.6859318 0.027841011 0.7880464 0.66953397 0.51619977 -0.11670552
0.09274827 -0.143473 0.65626955 0.058613706 1.0406357 -0.88145983 -0.2687456 -0.2622727
-0.14178023 0.010628728 0.12483251 0.48385045 -0.4996242 -0.69127625 0.06756565 -0.36110362
-0.014260891 0.6688441 -0.25187168 -0.13201775 -0.056155454 -0.116249286 0.44643396 0.13124864
-0.24195209 -0.1407431 -0.10391857 -0.13664606 -0.50613964 0.105527885 -0.07177191 -0.13212822
0.58716553 0.2452539 -0.63244766 -0.4736182 0.20995395 -0.3432246 0.0074572065 -0.44545126
-0.5076768 0.72075874 -0.37452477 -0.45324704 -0.66454786 0.808732 -0.65888774 -0.7415745
-0.65304947 -0.27690268 0.107335575 -0.40693623 0.6939194 -0.39037803 0.081083 0.7098156
-0.14319184 0.5057558 -0.21370251 -0.6125662 -0.22452472 -0.8618454 -0.08541428 -0.25057253
-0.09864653 -0.193558 -0.30818313 -0.48243257 -0.056981817 0.8138907 0.0035417764 -0.43952337
0.2047446 -0.638503 -0.12886873 -0.72396016 -0.3918103 -0.5608394 0.015035372 0.14064474
0.20551595 -0.4519363 0.22620189 -0.2299474 -0.76686186 0.7395001 -0.86892337 0.98902684
-0.19765367 -0.0641071 -0.5220359 -0.30492872 -0.52699673 -0.1752721 -0.5451041 0.11720909
-0.7136173 -0.30798644 -0.43102846 -0.7691843 -0.77290016 0.10954055 0.7373194 -0.3624894
-0.5942882 -0.53415173 -0.41563886 1.2364488 -0.60297984 0.124702625 -0.22381109 -0.5665071
-0.6084397 0.41371992 -0.09864334 0.89209056 -0.08324324 -0.08470634 -0.7462181 0.16542156
-0.35008958 -0.17419417 -0.45539343 -0.4716548 -0.34235305 0.41611117 -0.41030347 0.005979633
-0.63459736 0.840598 -0.623887 -0.19695033 -0.19919114 -0.234628 -0.24643683 -0.5058128
-0.3592998 -0.22750668 -0.15117645 -0.70182365 0.029515399 -0.26031724 -0.3583107 -0.06530515
-0.083514296 0.12628801 -0.4889202 0.29419264 -0.5468081 -0.17732035 -0.79713917 -0.092207775
-1.1318043 -0.48261762 0.05670456 -0.5503198 -0.029439116 -0.89850146 -0.43794978 -0.22807232
00000000: f6da b9be 4926 2bbf 7583 c1be 8a80 d23e
00000010: 148e a83e e61f bcbe 0d2b 1abe 44cb 463f
00000020: 6ff7 06bf 4f15 abbe 4a59 83be db0a bd3c
00000030: 2960 f5bd 567b 97be e62c 46bf 435f 11bf
00000040: 6f41 5b3d 78ba a4be 8fe7 c8bd f037 74bc
00000050: 5491 5fbe 969a 97be 8632 a8be 2922 a6be
00000060: 6d15 07bf 93ab 65bf 4c18 55bf 37a7 3d3e
00000070: 7b54 69be 7867 cdbd a9ef a9be beb7 1abf
00000080: 1b1d f3be 2167 663d 612f 95be 4e7b ccbe
00000090: a397 31bf 0806 0bbf 2e50 053f 5470 083f
000000a0: b754 0f3f 483f 563f 2f05 2bbf 942a 0fbf
000000b0: 0387 3e3c 1e52 4bbf c07b bbbe bc81 10bf
000000c0: f64b 15be 6ad9 98be 8cf7 8dbe 510c 5dbf
000000d0: 7e72 f23e 0f54 a93d 0050 17bf 5106 10be
000000e0: e529 e3be 42fb 0dbf 45a5 71be 1046 e4be
000000f0: e233 21bf e8b8 ba3e 8748 fa3e 6392 77be
00000100: 35ba 0cbe 2405 8cbd dd27 bebe 82d3 18bf
00000110: 1b40 21bf bff0 283f 9955 64bf cede 9ebe
00000120: 2c3b a1be 7b40 dcbe b589 09bf b784 953e
00000130: dfa1 44bf 021c a8be 3e6e 9ebd 5d0c c2be
00000140: 0c59 5dbe 44f3 70be 8105 94be e8fb adbe
00000150: 806c d73e 2df5 1c3f 61ab 963c 6274 5cbe
00000160: 780d 9bbe 12a9 54be 3a99 2fbf d512 e43c
00000170: 69bd 493f 9466 2b3f ab25 043f 4e03 efbd
00000180: cef2 bd3d 96ea 12be 4801 283f ed14 703d
00000190: 8d33 853f 5aa7 61bf 0699 89be 9b48 86be
000001a0: d62e 11be 1e24 2e3c 30a8 ff3d 3fbb f73e
000001b0: bece ffbe 7bf7 30bf dc5f 8a3d 93e2 b8be
000001c0: 83a6 69bc 5e39 2b3f 53f5 80be a92f 07be
000001d0: 4303 66bd 1b14 eebd fe92 e43e 0b66 063e
000001e0: 4ac2 77be f61e 10be 42d3 d4bd f2ec 0bbe
000001f0: 5e92 01bf 011f d83d 27fd 92bd 9f4c 07be
00000200: 7b50 163f d723 7b3e 17e8 21bf 167e f2be
00000210: 2bfe 563e 23bb afbe 955b f43b 3012 e4be
00000220: 1bf7 01bf a583 383f b6c1 bfbe ff0f e8be
00000230: cf1f 2abf 0f09 4f3f deac 28bf d4d7 3dbf
00000240: 402e 27bf 30c6 8dbe c1d2 db3d f259 d0be
00000250: b4a4 313f a1df c7be d80e a63d 7ab6 353f
00000260: e2a0 12be 3679 013f d5d4 5abe 23d1 1cbf
00000270: cfe9 65be e6a1 5cbf afed aebd 0b4b 80be
00000280: 3107 cabd 1134 46be 2eca 9dbe 6701 f7be
00000290: c465 69bd 245b 503f 261d 683b 3509 e1be
000002a0: 92a8 513e ef74 23bf 2af6 03be 7455 39bf
000002b0: 5c9b c8be 2c93 0fbf ec56 763c 2d05 103e
000002c0: c672 523e 3264 e7be 78a1 673e 5577 6bbe
000002d0: 0f51 44bf e14f 3d3f c371 5ebf dd30 7d3f
000002e0: b965 4abe 954a 83bd 25a4 05bf 9e1f 9cbe
000002f0: 42e9 06bf 887a 33be f18b 0bbf 520b f03d
00000300: a0af 36bf 66b0 9dbe c3af dcbe 43e9 44bf
00000310: c9dc 45bf cc56 e03d f7c0 3c3f 3698 b9be
00000320: 4523 18bf 2bbe 08bf 9ece d4be f443 9e3f
00000330: e35c 1abf 1764 ff3d bc2e 65be 9c06 11bf
00000340: b4c2 1bbf 19d3 d33e 8505 cabd 0c60 643f
00000350: 6f7b aabd 857a adbd 2608 3fbf 4564 293e
00000360: f13e b3be f55f 32be 5429 e9be bd7c f1be
00000370: e648 afbe 860c d53e 4c13 d2be ccf0 c33b
00000380: f974 22bf 6e31 573f 0fb7 1fbf 59ad 49be
00000390: c3f8 4bbe 5342 70be f059 7cbe f37c 01bf
000003a0: 25f6 b7be 83f7 68be 00ce 1abe b7aa 33bf
000003b0: 47ca f13c 4d48 85be 8074 b7be b5be 85bd
000003c0: 8b09 abbd a551 013e c053 fabe 6ba0 963e
000003d0: 9efb 0bbf 7793 35be 5011 4cbf 6ed7 bcbd
000003e0: f7de 90bf a819 f7be 0a43 683d c2e1 0cbf
000003f0: 4d2a f1bc 3104 66bf f43a e0be ca8b 69be

l2.weight f4 [300, 400]
-0.041337725 0.03104455 -0.043701053 0.012337148 0.006661058 -0.04988504 -0.0008721903 -0.02029447
0.024055153 0.011971697 -0.015151203 -0.055336636 0.03683235 -0.0076557584 -0.04802761 0.05330933
-0.04830179 -0.0168333 -0.018722024 -0.003139701 0.01570088 -0.0058435723 -0.053760834 -0.031625886
-0.06352893 -0.04206639 -0.016632507 -0.044169694 0.04710013 -0.0805267 0.0058654286 -0.0027518198
0.015968287 0.005880609 -0.036666952 -0.04203659 0.0077296584 -0.013672854 -0.03687408 -0.059940353
-0.021339415 0.010143137 -0.0071592233 0.03949892 0.008147124 -0.052909233 -0.04853723 -0.011946239
-0.01321278 0.02850129 0.013403327 0.027246239 -0.043670505 -0.06314746 -0.07637523 0.014167944
0.01827536 -0.050062362 0.028889839 -0.036736988 -0.011135183 0.025803806 -0.010773271 -0.05261717
-0.004044319 -0.009629419 0.029836811 -0.01764616 -0.03341477 -0.014927905 0.06616346 -0.04719538
-0.012330257 -0.035207383 -0.015722046 -0.03871586 -0.04950059 -0.052258797 -0.049644385 -0.011436373
-0.009766511 0.0033669658 -0.028924113 -0.057287943 0.019728225 -0.050684486 -0.04535061 -0.048010837
-0.055810492 -0.010466679 0.017604435 0.0065873903 -0.030241005 0.033564523 -0.014020051 0.0055464134
-0.073219165 -0.006428414 -0.0449073 -0.0042314217 0.013289706 -0.013777721 0.021786822 0.032795623
-0.06877563 -0.02775549 -0.04193079 -0.041424897 0.00055548205 -0.023864793 -0.08202129 -0.040113594
0.01217065 -0.0461739 -0.056833457 -0.025962878 -0.041978475 0.011640518 -0.09514774 0.0028053557
-0.012630702 -0.037482046 -0.06391338 0.026512356 -0.04132208 -0.0066441083 0.03737699 -0.06619326
-0.07209711 -0.06194605 -0.07573299 -0.008237836 0.064959444 -0.010568938 -0.03746789 0.02577773
-0.03965017 0.009513934 -0.022182822 0.026490377 -0.02156517 0.02188517 -0.03317337 -0.023775758
0.0005365878 -0.0033900407 0.009132278 -0.045143485 -0.02888388 -0.0135042835 -0.024756255 -0.090985835
-0.0082214475 -0.039116707 -0.049366478 0.009238449 0.006659568 0.03119654 -0.024494367 -0.07101528
-0.04014265 -0.018179111 -0.058875665 -0.06848208 -0.039234426 -0.06093873 -0.060575143 -0.04976014
-0.049250994 -0.05676044 -0.062618844 0.019383261 -0.0069348677 0.021535365 -0.04432839 -0.0056753457
-0.023500832 -0.04022759 -0.07277064 0.04180264 -0.060313627 -0.039861765 -0.018321436 0.015384252
-0.048330102 -0.03504272 -0.039896782 0.012638338 -0.0018769545 -0.047431562 -0.041607436 0.028875312
-0.020968748 -0.005262676 0.0004453676 -0.010497226 -0.00730749 -0.038679354 -0.00662483 -0.049113903
-0.0075443257 -0.02018234 -0.0080720605 -0.04952443 -0.021746218 -0.019818751 -0.014969815 0.02684428
0.03724586 0.0200147 0.03267293 -0.09093666 -0.04416895 0.011131457 -0.02013783 0.0053720134
-0.028916383 -0.049867902 -0.04563746 -0.0034248724 -0.035715513 0.012007646 -0.0062601236 0.0076481677
0.011243216 -0.027211223 -0.011485547 -0.036134236 -0.03253411 -0.031865794 -0.0012972987 0.029204253
0.041358583 -0.023212641 0.03030694 0.049491648 0.022866411 -0.01459151 -0.024783822 -0.016757304
-0.016577372 0.022836609 -0.06859384 -0.025573213 -0.0134338755 0.0047960826 0.0007041678 -0.01033201
-0.040920723 -0.059228078 0.026252704 -0.030520774 -0.051473506 -0.056512337 -0.08603567 -0.04125875
00000000: bf51 29bd 2451 fe3c e0ff 32bd c021 4a3c
00000010: 0145 da3b 4154 4cbd b3a3 64ba 9740 a6bc
00000020: 500f c53c f024 443c c03c 78bc aba8 62bd
00000030: 85dd 163d 28dd fabb 99b8 44bd e25a 5a3d
00000040: 19d8 45bd fde5 89bc ee5e 99bc 71c3 4dbb
00000050: 229f 803c 707b bfbb 5234 5cbd 258a 01bd
00000060: 751b 82bd cf4d 2cbd e540 88bc 48eb 34bd
00000070: 11ec 403d 2feb a4bd c832 c03b e057 34bb
00000080: edcf 823c 20b2 c03b 1630 16bd 8f2e 2cbd
00000090: 1349 fd3b 1b04 60bc 4609 17bd 0484 75bd
000000a0: ffcf aebc 662f 263c eb97 eabb 9fc9 213d
000000b0: 847b 053c 5ab7 58bd f9ce 46bd 28ba 43bc
000000c0: 6a7a 58bc 8a7b e93c a199 5b3c 8133 df3c
000000d0: d8df 32bd 7553 81bd 9e6a 9cbd aa20 683c
000000e0: 35b6 953c 310e 4dbd 62aa ec3c 8679 16bd
000000f0: 5870 36bc 8162 d33c 6082 30bc 1a85 57bd
00000100: 3586 84bb b6c4 1dbc 546c f43c ae8e 90bc
00000110: eddd 08bd 2c94 74bc b580 873d f14f 41bd
00000120: d904 4abc 9e35 10bd 85cb 80bc 8694 1ebd
00000130: 21c1 4abd 520d 56bd e957 4bbd a05f 3bbc
00000140: b703 20bc 50a8 5c3b 43f2 ecbc c3a6 6abd
00000150: 169d a13c 899a 4fbd 90c1 39bd 03a7 44bd
00000160: 8b99 64bd 6f7c 2bbc 2d37 903c 09db d73b
00000170: fcbb f7bc f47a 093d 5bb4 65bc b0be b53b
00000180: eef3 95bd 72a5 d2bb b8f0 37bd bda7 8abb
00000190: 11bd 593c f3bb 61bc 477a b23c b454 063d
000001a0: 3dda 8cbd 7b5f e3bc 9fbf 2bbd 27ad 29bd
000001b0: c59d 113a 1980 c3bc c7fa a7bd 274e 24bd
000001c0: 6867 473c d820 3dbd 33ca 68bd 1ab0 d4bc
000001d0: 9ff1 2bbd dfb7 3e3c d1dc c2bd 0fda 373b
000001e0: 01f1 4ebc c686 19bd 05e5 82bd 7130 d93c
000001f0: 5741 29bd d2b6 d9bb 9d18 193d 5590 87bd
00000200: a6a7 93bd 24bb 7dbd e619 9bbd fdf7 06bc
00000210: 7509 853d 5729 2dbc ee77 19bd d12b d33c
00000220: 3768 22bd 55e0 1b3c c0b8 b5bc 5902 d93c
00000230: 70a9 b0bc 8748 b33c cde0 07bd 61c5 c2bc
00000240: cca9 0c3a 722b 5ebb 8d9f 153c 60e8 38bd
00000250: e39d ecbc 1241 5dbc a1cd cabc c856 babd
00000260: 40b3 06bc d738 20bd 8134 4abd dd5c 173c
00000270: 8138 da3b e38f ff3c 69a8 c8bc 7670 91bd
00000280: 9f6c 24bd 5cec 94bc 9c27 71bd 5540 8cbd
00000290: 47b4 20bd e49a 79bd a41d 78bd 4ad1 4bbd
000002a0: 69bb 49bd a37d 68bd 4f3e 80bd a5c9 9e3c
000002b0: e33d e3bb ef6a b03c b091 35bd 40f8 b9bb
000002c0: d184 c0bc afc5 24bd c608 95bd 3f39 2b3d
000002d0: 6c0b 77bd 1746 23bd d616 96bc 3b0e 7c3c
000002e0: c9f5 45bd f588 0fbd cf6a 23bd 0811 4f3c
000002f0: 2404 f6ba 9947 42bd 8f6c 2abd eb8b ec3c
00000300: a7c6 abbc 8772 acbb 3a80 e939 8ffc 2bbc
00000310: ab73 efbb 3e6e 1ebd 1a15 d9bb a92b 49bd
00000320: 6436 f7bb 6f55 a5bc ad40 04bc 21da 4abd
00000330: 2025 b2bc ef5a a2bc f443 75bc 89e8 db3c
00000340: 1d8f 183d def5 a33c 0dd4 053d 003d babd
00000350: 80ea 34bd b760 363c 17f8 a4bc b707 b03b
00000360: 0de2 ecbc 4942 4cbd 58ee 3abd d373 60bb
00000370: 6e4a 12bd b8bb 443c b921 cdbb 7b9d fa3b
00000380: 7735 383c 12ea debc e02d 3cbc 7e01 14bd
00000390: 7d42 05bd b585 02bd 1f0a aaba c23d ef3c
000003a0: 9e67 293d 7028 bebc 4346 f83c c1b7 4a3d
000003b0: 5752 bb3c 3b11 6fbc 7107 cbbc 9d46 89bc
000003c0: 45cd 87bc d713 bb3c ed7a 8cbd ea7e d1bc
000003d0: c219 5cbc 7528 9d3b e797 383a 9747 29bc
000003e0: 7d9c 27bd 2499 72bd e90f d73c b406 fabc
000003f0: e2d5 52bd 7b79 67bd 7833 b0bd effe 28bd

l2.bias f4 [300]
-0.08888626 -0.07766567 0.04340675 -0.05686028 -0.102853134 -0.102356926 -0.07971161 -0.038009897
-0.02784527 -0.023376778 -0.055306833 0.006392185 0.02627699 0.07693849 0.020368109 -0.04964066
-0.07859551 0.010497784 -0.08102887 0.04441407 -0.0774049 -0.046796024 0.050896827 -0.068571486
-0.05829824 -0.07683121 -0.0071444153 -0.04712758 0.8183023 -0.02408086 0.05421755 0.24746792
-0.043382913 -0.06860874 -0.087285876 0.03112427 0.14500482 0.08599245 -0.0223445 0.083353445
0.0013507566 -0.08572721 -0.007624885 0.08235656 -0.05862756 0.07391057 0.092887215 -0.057392996
-0.02193509 -0.026668448 -0.07377647 0.050141335 0.00805824 -0.0350308 -0.026725445 0.010753713
0.05318192 -0.0830599 0.058983676 -0.068301775 0.6332304 -0.045900464 -0.08923793 0.80588394
-0.050352935 -0.067266144 -0.017361173 0.04894924 -0.09763325 -0.6063577 0.016229428 0.0199469
-0.066251375 -1.6951079 -0.06965468 -0.07044457 0.033137605 0.01230716 -0.0792303 -0.06370626
-0.009644693 -0.06240575 -0.08276188 -0.07943296 -0.048278693 -0.030156814 -0.057932418 -0.032353807
-1.2815574 0.072028555 -0.07511459 0.039705586 -0.7212903 -0.07229678 -0.08358889 0.009150718
-0.11380407 0.091718964 0.032635435 -0.09050155 -0.014557424 -0.009468673 -0.048776392 0.044370856
-0.09674749 -0.07478826 0.111074105 0.14009637 0.08263074 -0.09156102 0.7847403 0.804195
-0.059881493 -0.069708444 -0.064342536 -0.103751674 0.009105642 -1.2897282 -0.068435885 0.11355515
-0.043122888 0.0647836 -0.013230661 -0.06353489 -0.07234596 0.045999553 0.034059986 -0.0847035
0.06169347 -0.039707538 -0.04830775 -0.011717819 0.0022392434 0.0033373742 0.04370486 -0.12329009
0.7650262 -0.06353638 -0.042385276 0.0062519275 -0.05116058 -0.05144147 -0.0726559 -0.020355938
0.008765895 -0.08621895 0.041135065 0.015604417 -0.0031982348 -0.034586746 -0.076281354 0.7958353
-0.083392195 -0.04457575 -0.008856421 0.08089624 -0.068176605 -0.049739752 0.11875268 -0.06440214
-0.11485156 -0.022644386 -0.00043778316 -0.060467854 -0.10368611 -0.07199727 0.09520584 -0.05764259
-1.3243378 -0.025440592 0.036781687 -0.4182181 0.040723793 -0.07027916 0.07193915 -0.019426476
-0.06404302 0.05601328 0.12119349 0.085393414 -0.05325643 -0.076807365 0.07629625 -0.04277047
-0.040261116 1.4066757 -0.006224547 -0.020267276 -0.0018806407 -0.05867748 0.06783699 -0.07594012
0.108727165 -0.07486127 -0.029682584 -0.03221597 0.06361833 -0.0366595 -0.02911969 0.036359984
-0.109832846 -0.07774167 0.0015221201 -0.009889879 -0.08806819 -0.008347173 0.07538281 -0.08450829
-0.018733572 -0.03314059 0.06218372 -1.2950282 -0.04348722 0.05098698 -0.06773106 -0.010685001
-0.029409148 -1.7730912 0.062233638 -0.03578555 -0.067918815 0.77635145 0.033279166 -0.07106446
-0.01876114 0.025603386 -0.0055265203 -0.063685395 0.061846208 -0.090042904 -0.085175864 0.79766655
-0.08067273 0.05929155 0.050965372 -0.08584046 0.029533198 0.20841528 -0.051196344 0.82149065
-0.057201516 -0.03540408 1.6175305 -0.06691895 -0.021573339 -0.1385854 0.086466305 -0.032996047
-0.04870263 0.81319785 0.095623076 -0.016002933 0.014545316 -0.0065575885 0.066355675 -0.011826723
00000000: 000a b6bd 2e0f 9fbd 47cb 313d 53e6 68bd
00000010: aaa4 d2bd 82a0 d1bd d73f a3bd 44b0 1bbd
00000020: c31b e4bc a880 bfbc 6b89 62bd 8975 d13b
00000030: d842 d73c ed91 9d3d 05db a63c 0154 4bbd
00000040: aff6 a0bd e6fe 2b3c 77f2 a5bd 87eb 353d
00000050: 7686 9ebd 30ad 3fbd 3179 503d 356f 8cbd
00000060: 23ca 6ebd ae59 9dbd b31b eabb d908 41bd
00000070: 427c 513f 3945 c5bc 3913 5e3d 3b68 7d3e
00000080: 48b2 31bd bd82 8cbd f0c2 b2bd 53f8 fe3c
00000090: 257c 143e cf1c b03d d00b b7bc 36b5 aa3d
000000a0: df0b b13a bf91 afbd 2cda f9bb 8eaa a83d
000000b0: 7423 70bd 6d5e 973d a73b be3d eb14 6bbd
000000c0: 38b1 b3bc ca77 dabc 1e18 97bd 0061 4d3d
000000d0: b506 043c 757c 0fbd 52ef dabc 5730 303c
000000e0: 49d5 593d 4f1b aabd de98 713d cde1 8bbd
000000f0: 631b 223f 2002 3cbd 60c2 b6bd 694e 4e3f
00000100: e13e 4ebd d5c2 89bd 0539 8ebc 007f 483d
00000110: f1f3 c7bd 423a 1bbf 94f3 843c ae67 a33c
00000120: cdae 87bd 4cf9 d8bf 1da7 8ebd 3e45 90bd
00000130: 4cbb 073d f8a3 493c 7f43 a2bd 6d78 82bd
00000140: c604 1ebc 2c9d 7fbd 0f7f a9bd bfad a2bd
00000150: e1bf 45bd 6c0b f7bc 8b4a 6dbd 6d85 04bd
00000160: 130a a4bf b583 933d aed5 99bd 53a2 223d
00000170: 7ba6 38bf 5610 94bd a730 abbd e5ec 153c
00000180: 1c12 e9bd 27d7 bb3d bcac 053d e058 b9bd
00000190: 4382 6ebc 7e22 1bbc c1c9 47bd 37be 353d
000001a0: 8c23 c6bd 962a 99bd d27a e33d 6c75 0f3e
000001b0: 4e3a a93d 5884 bbbd bee4 483f b9df 4d3f
000001c0: 4c46 75bd 4dc3 8ebd 05c6 83bd c27b d4bd
000001d0: d52f 153c d015 a5bf 1d28 8cbd 9a8f e83d
000001e0: a0a1 30bd 44ad 843d 6ac5 58bc 951e 82bd
000001f0: 1e2a 94bd 076a 3c3d 7c82 0b3d 0779 adbd
00000200: 4bb2 7c3d 5fa4 22bd 59de 45bd 18fc 3fbc
00000210: 45c0 123b d9b7 5a3b de03 333d 847f fcbd
00000220: c2d8 433f 5d1f 82bd 2f9c 2dbd f8dc cc3b
00000230: c28d 51bd 4ab4 52bd 9ecc 94bd 7fc1 a6bc
00000240: d49e 0f3c 9093 b0bd 3e7d 283d aba9 7f3c
00000250: 7a99 51bb d5aa 0dbd 6639 9cbd ddbb 4b3f
00000260: 87c9 aabd 1095 36bd 861a 11bc eeac a53d
00000270: 2da0 8bbd e9bb 4bbd 9b34 f33d 45e5 83bd
00000280: 4b37 ebbd b880 b9bc 4386 e5b9 24ad 77bd
00000290: 6259 d4bd 4e73 93bd 48fb c23d a31a 6cbd
000002a0: e783 a9bf ca68 d0bc 65a8 163d af20 d6be
000002b0: fecd 263d 85ee 8fbd d554 933d 4624 9fbc
000002c0: fd28 83bd 2e6e 653d 4b34 f83d bee2 ae3d
000002d0: 6a23 5abd 2e4d 9dbd 3541 9c3d 1730 2fbd
000002e0: d7e8 24bd f30d b43f 49f7 cbbb 8f07 a6bc
000002f0: d57f f6ba cc57 70bd 1fee 8a3d 7e86 9bbd
00000300: 59ac de3d de50 99bd e428 f3bc e5f4 03bd
00000310: 544a 823d 4628 16bd 6b8c eebc 35ee 143d
00000320: 0bf0 e0bd 0637 9fbd e081 c73a 2909 22bc
00000330: 185d b4bd 95c2 08bc 4d62 9a3d af12 adbd
00000340: 2677 99bc 6dbe 07bd 5bb4 7e3d 7cc3 a5bf
00000350: a81f 32bd b9d7 503d 95b6 8abd 2410 2fbc
00000360: 74eb f0bc a7f4 e2bf b3e8 7e3d de93 12bd
00000370: 0519 8bbd f8be 463f bc4f 083d 3e8a 91bd
00000380: f6b0 99bc 31be d13c d017 b5bb 7d6d 82bd
00000390: 7352 7d3d 6a68 b8bd af70 aebd e033 4c3f
000003a0: bf37 a5bd b2db 723d 11c1 503d 20cd afbd
000003b0: 9bef f13c d16a 553e 42b3 51bd 364d 523f
000003c0: 234c 6abd de03 11bd 3d0b cf3f cd0c 89bd
000003d0: 92ba b0bc 55e9 0dbe 3f15 b13d dd26 07bd
000003e0: 697c 47bd bc2d 503f 08d6 c33d 9518 83bc
000003f0: 7a4f 6e3c 0ae1 d6bb 7ce5 873d dfc4 41bc

l3.weight f4 [1, 300]
0.014831793 -0.015577222 -0.2348917 0.015149187 0.028686812 0.03121852 0.003958823 0.184286
0.0060870834 -0.027515206 -0.023452403 0.0050161546 0.314185 -0.26445115 0.15336606 -0.027337883
-0.010494432 0.0135992775 0.027233202 -0.20715763 0.007313264 0.006472931 -0.22528341 -0.0147338165
-9.2433125e-05 0.012845466 0.0373226 0.030099442 -0.2369447 0.006194372 -0.23768418 -0.8513632
-0.0055846344 -0.010458856 -0.0048932205 -0.24101011 -0.2315866 -0.26033247 -0.00027009833 -0.21860768
0.04680496 -0.0067602443 0.0073683984 -0.19031632 -0.00034002913 -0.33611983 -0.2359765 0.0086973505
-0.013649755 0.024377393 -0.011037394 -0.265077 0.28220412 -0.037674267 0.016965548 -0.006709208
-0.0619602 0.02164191 0.201092 -0.023680018 -0.06732023 -0.01647269 -0.019694699 -0.20962356
-0.031500716 -0.01417316 -0.033479586 -0.28302398 0.04596752 0.53273815 0.026232587 0.027581517
-0.019803477 0.58765656 -1.2600077 -0.013417483 0.03733899 0.009392118 0.03698509 -0.028225994
0.058462895 0.017898735 0.0033606107 0.018220225 -0.005397718 0.016936116 0.096259356 0.02395867
0.9189327 -0.20252633 -0.029886357 0.24603592 0.6982418 0.017143989 0.03888871 0.02342148
2.474385 -0.21385123 -0.4196916 0.00021145554 0.027915675 -0.047544807 0.036973167 -0.19140112
1.1862113 0.019750578 -0.29433694 -0.44188243 -0.26284182 0.017092953 -0.255095 -0.23242196
-0.011267803 -0.020575356 -0.030000351 -0.24359696 -0.32612413 0.33386862 -0.021184815 -0.19595492
0.03227036 -0.21713842 -0.018199366 0.0013736207 -0.017050484 -0.26903474 -0.24642222 0.010306677
-0.24294727 -0.02260378 -0.0026112215 0.010208144 0.39095283 -0.009697964 0.2889601 0.015611496
-0.19551128 0.007200574 0.01650212 -0.044323172 0.025928978 0.0036766091 0.031001335 0.0022514046
0.0053817923 -0.009073233 -0.25484288 0.020941924 -0.27469122 -0.01824705 -0.01737831 -0.27779576
0.005413644 0.030679844 0.0017855916 -0.18985736 -0.018433312 -0.025259914 -0.23170581 -0.0083635645
0.02846888 -0.003344266 -0.028401455 -0.0033907858 -0.026064951 -0.0115522295 -0.2889606 0.0031058006
0.66979426 -0.02590141 -0.001397183 1.8804836 -0.20829608 0.001917723 -0.23333302 0.059128985
-0.026710171 0.15674223 -0.37465426 -0.20855834 0.024616182 0.050200194 -0.29548135 -0.011156603
-0.031239383 -1.5865732 0.014694142 -0.026815597 0.2974157 -0.01307606 -0.7931687 0.0041017816
-0.23753516 -0.015461552 -0.5178993 0.004495266 -0.07234595 0.012419105 -0.03820922 -0.25714958
0.021812154 0.030097954 0.00018752925 0.2681296 0.018259715 -0.0050247232 -0.21324624 0.01451719
-0.0061070137 -0.19937325 -0.21594037 0.9334733 0.07116131 -0.2379971 0.024221675 0.17302948
0.0019253365 0.625699 -0.26781285 0.015705654 0.004145088 -0.25080788 -0.24765901 0.02130626
-0.10052705 -0.20461847 0.0048342673 -0.029917277 -0.2552601 0.10804794 -0.026870359 -0.25401598
0.0011622101 0.18381546 -0.24884515 0.018153915 -0.26178086 -0.54977584 0.0536446 -0.29436347
0.012040056 0.011969276 -1.754258 -0.013540978 0.23339415 0.031973828 -0.23944847 0.003955564
0.008578327 -0.27789176 -0.23895077 -0.006366295 -0.21013786 0.02959988 -0.19944775 0.22757606
00000000: 0c01 733c 9b37 7fbc 7387 70be 4c34 783c
00000010: 9b00 eb3c fbbd ff3c 04b9 813b 78b5 3c3e
00000020: 2876 c73b 9267 e1bc 411f c0bc 8e5e a43b
00000030: dbdc a03e 2466 87be fe0b 1d3e b2f3 dfbc
00000040: d7f0 2bbc 81cf 5e3c 2a18 df3c 2121 54be
00000050: 1ba4 ef3b e11a d43b b2b0 66be 1b66 71bc
00000060: a8d8 c1b8 ca75 523c 95df 183d 1b93 f63c
00000070: a2a1 72be 29fa ca3b 7b63 73be f0f2 59bf
00000080: 4fff b6bb 9f5b 2bbc 4f57 a0bb 5bcb 76be
00000090: 0a25 6dbe 4c4a 85be fc9b 8db9 b1da 5fbe
000000a0: 8fb6 3f3d 0a85 ddbb 9b72 f13b 48e2 42be
000000b0: f045 b2b9 e617 acbe d3a3 71be 557f 0e3c
000000c0: 39a3 5fbc 19b3 c73c 30d6 34bc 2cb8 87be
000000d0: 0f7d 903e 5550 1abd 55fb 8a3c ead8 dbbb
000000e0: fbc9 7dbd 604a b13c 10eb 4d3e 99fc c1bc
000000f0: 30df 89bd bcf1 86bc c756 a1bc 8fa7 56be
00000100: e506 01bd 8b36 68bc e421 09bd 85e8 90be
00000110: 7048 3c3d 8761 083f b9e5 d63c a2f2 e13c
00000120: e73a a2bc a970 163f ef47 a1bf 01d5 5bbc
00000130: c5f0 183d 66e1 193c ad7d 173d 333a e7bc
00000140: ca76 6f3d 5ea0 923c b13d 5c3b 9542 953c
00000150: 57df b0bb 9cbd 8a3c a023 c53d f944 c43c
00000160: 2c3f 6b3f 1063 4fbe 3cd4 f4bc d7f0 7b3e
00000170: f9bf 323f 8d71 8c3c c549 1f3d 67de bf3c
00000180: 535c 1e40 d1fb 5abe d1e1 d6be 2aba 5d39
00000190: 6aaf e43c 58be 42bd 2d71 173d a8fe 43be
000001a0: c6d5 973f f7cb a13c 55b3 96be 6a3e e2be
000001b0: 3493 86be 8506 8c3c d09b 82be 0600 6ebe
000001c0: 979c 38bc a68d a8bc 4cc3 f5bc 7b71 79be
000001d0: bef9 a6be d4f0 aa3e c78b adbc 68a8 48be
000001e0: ed2d 043d 8959 5ebe d616 95bc 100b b43a
000001f0: 75ad 8bbc ecbe 89be 1b56 7cbe 56dd 283c
00000200: 2bc7 78be 902b b9bc 0721 2bbb 0f40 273c
00000210: f82a c83e 36e4 1ebc 94f2 933e 5cc7 7f3c
00000220: 1c34 48be cbf2 eb3b 742f 873c 378c 35bd
00000230: 0269 d43c 44f3 703b 83f6 fd3c 4d8c 133b
00000240: bf59 b03b e6a7 14bc c47a 82be 668e ab3c
00000250: 54a4 8cbe d67a 95bc f55c 8ebc 3f3b 8ebe
00000260: f064 b13b 4c54 fb3c 830a ea3a f869 42be
00000270: 7501 97bc e1ed cebc 4a44 6dbe 5507 09bc
00000280: 9237 e93c 792b 5bbb 2baa e8bc f237 5ebb
00000290: 2a86 d5bc 9045 3dbc a5f2 93be b08a 4b3b
000002a0: a377 2b3f 322f d4bc af21 b7ba b0b3 f03f
000002b0: 914b 55be 1b5c fb3a daee 6ebe 3c31 723d
000002c0: 4acf dabc 0981 203e afd2 bfbe 5190 55be
000002d0: e0a7 c93c b89e 4d3d 5549 97be 2fca 36bc
000002e0: bce9 ffbc d514 cbbf b3bf 703c 62ac dbbc
000002f0: df46 983e f93c 56bc 1b0d 4bbf 3d68 863b
00000300: 6b3c 73be 7352 7dbc 0c95 04bf 064d 933b
00000310: 1d2a 94bd 8079 4b3c 4581 1cbd 1ca9 83be
00000320: 67af b23c fc8f f63c 80a3 4439 4848 893e
00000330: 6695 953c 6fa6 a4bb 395d 5abe 82d9 6d3c
00000340: 581d c8bb 8028 4cbe 791f 5dbe 1bf8 6e3f
00000350: 05bd 913d 83b5 73be 896c c63c a42e 313e
00000360: 935b fc3a cf2d 203f c41e 89be 25a9 803c
00000370: 85d3 873b e469 80be 539a 7dbe 778a ae3c
00000380: 20e1 cdbd 8187 51be c668 9e3b 1415 f5bc
00000390: 74b1 82be 3d48 dd3d 3a1f dcbc 620e 82be
000003a0: 4d55 983a 1f3a 3c3e 43d1 7ebe 85b7 943c
000003b0: 2408 86be 1cbe 0cbf 71ba 5b3d cfb6 96be
000003c0: a843 453c c81a 443c 878b e0bf fada 5dbc
000003d0: e0fe 6e3e fdf6 023d fb31 75be ad9d 813b
000003e0: 1c8c 0c3c d447 8ebe 83af 74be 5a9c d0bb
000003f0: 612e 57be 737b f23c 083c 4cbe b309 693e
