TD3-conf1/preTrained/TD3_BipedalWalker-v3_0_crtic_2_ep400.pth (torch_old, 529772 bytes, 5 tensors)

l1.weight f4 [400, 28]
000000 be 94 07 be 2c f3 90 3d be e3 11 be f1 c7 22 3e
       -0.13240334 0.07077631 -0.14247033 0.15896584
000010 8f fc a1 bd 06 18 89 bb 3a ec 3a 3e a2 72 0e be
       -0.079095 -0.004183772 0.18254176 -0.13910916
000020 2f f1 71 be ee 88 2f 3d 1e 11 cf 3d bc ba 6a 3e
       -0.2362716 0.042855196 0.10110687 0.22922796
000030 6c e6 c7 bc 6c 72 4b be 37 8f 8f be 63 60 f1 be
       -0.024401866 -0.19867867 -0.28038952 -0.4714385
000040 81 a5 05 bf d6 30 fd be 59 ce 93 be 82 48 65 be
       -0.52205664 -0.4945132 -0.28868368 -0.22390941
000050 c4 35 fb be dc 1a 9c be 30 4e 04 bf 33 f8 fa be
       -0.49064457 -0.30489242 -0.51681805 -0.49017486
000060 cc 8b 31 3e 81 cf 7d bd 83 02 05 3e 2f 58 f3 bd
       0.17338485 -0.06196547 0.1298924 -0.11882054
000070 54 a9 df bd 05 5a f6 bf 55 7a 04 c0 be f2 0b 40
       -0.10920969 -1.9246222 -2.0699666 2.1866908
000080 2d 1c 89 3f 9f 0f 3f 3d 22 66 a3 be 09 eb 5a 3d
       1.0711724 0.046645757 -0.3191386 0.053446803
000090 e4 bc 59 be 6f b7 14 3f cb 4e 6a bd 51 fb 1a be
       -0.21263462 0.580924 -0.05720405 -0.15134932
0000a0 f0 0c 87 bd 05 7c 8c 3d 56 4e 36 3e 09 7b d8 3d
       -0.065942645 0.06859592 0.1780332 0.10570342
0000b0 6c 40 1f bd 24 b4 e7 bc 60 04 61 3c 23 14 56 3e
       -0.038879797 -0.02828414 0.013733953 0.20906119
0000c0 e8 24 d9 3d a5 4a 5f 3d 40 25 b1 be ed 57 1b bd
       0.106027424 0.054514546 -0.34598732 -0.03792565
0000d0 f5 b7 bf 3b 37 bf af bd 30 1e 83 3d 10 4b 27 bb
       0.005850787 -0.08581393 0.06402242 -0.0025526918
0000e0 12 8e da 3e e5 55 88 3f cb 59 03 c0 a3 7c 5f c0
       0.42686516 1.0651213 -2.0523555 -3.4919822
0000f0 17 f3 42 bf 96 be 15 3e 4d 20 c7 bd 44 f8 14 3d
       -0.76152176 0.14623484 -0.09722958 0.036369577
000100 4f 52 4c 3d da c9 d1 3e c2 df 3a bf a4 cb 7e be
       0.049883183 0.40974313 -0.7299768 -0.2488237
000110 00 91 d1 3e c6 85 8d be 93 83 05 bf a0 ea 27 bf
       0.4093094 -0.27641124 -0.5215389 -0.65592384
000120 2b a3 c1 be c9 8a ab be f2 d1 aa be 2d 53 94 be
       -0.378198 -0.33504322 -0.333633 -0.28969708
000130 3a 77 d7 be b3 fa f9 be 52 e9 92 be c2 a9 4a be
       -0.4208315 -0.4882408 -0.28693634 -0.1979132
000140 8b 0c 83 3c 78 71 d5 3e 9b 6a 49 3e 9f 88 1b 3e
       0.015997192 0.41688132 0.19669573 0.15188836
000150 0a f5 ed 3c 24 25 75 3e a9 68 26 3f 47 bf 3c be
       0.029047508 0.2393995 0.6500345 -0.18432342
000160 47 3a 37 3e dd 59 85 be 00 99 a1 3e 2e 4c 11 3e
       0.17893325 -0.26045123 0.31562042 0.14189216
000170 94 97 b1 be d9 63 90 3e 85 29 77 bd 17 db 8e 3c
       -0.34685957 0.28201178 -0.06034233 0.017438455
000180 8b f4 21 3e 44 f3 21 be a7 d1 c6 be b6 2b c7 be
       0.15815942 -0.15815455 -0.38831827 -0.38900536
000190 88 ba 90 be 80 95 0a bf 61 f3 bd be 25 1d a9 be
       -0.28267312 -0.5413437 -0.37099746 -0.33030048
0001a0 b0 a0 22 bf cf 2e 1e bf 5a 67 02 bf 31 a1 a1 be
       -0.6352644 -0.61790174 -0.5093895 -0.31568292
0001b0 aa 9c a1 3e 73 08 36 3e 1e 1c 92 3e c3 bb 68 be
       0.31564838 0.1777666 0.28537077 -0.22727875
0001c0 8d 92 a5 bd 36 10 65 3e af 5d 24 3f 67 1e 0c be
       -0.08084593 0.22369465 0.6420545 -0.13683473
0001d0 ba ed 93 bd 5a 59 e6 be 1b cd 44 3e 85 67 fc 3b
       -0.07223077 -0.44990045 0.19218867 0.00770277
0001e0 2a d5 90 be c7 4c c0 bd 99 32 36 3e f7 2f 02 bd
       -0.2828763 -0.09389644 0.17792739 -0.031784024
0001f0 68 06 04 3e aa be 14 be ac 76 40 bf f1 87 11 bf
       0.12893069 -0.14525858 -0.7518108 -0.56848055
000200 6f 48 48 bf b3 0c 03 bf 96 3e f0 be 68 90 34 bf
       -0.78235525 -0.5119125 -0.4692275 -0.70532846
000210 99 43 e7 be 9d ea 02 bf 47 77 43 bf 9b 15 1e bf
       -0.4516876 -0.5113924 -0.7635388 -0.6175172
000220 79 29 d9 3e b1 01 4c 3e 73 57 2c 3e 4f 77 d8 bd
       0.42414454 0.1992252 0.16830234 -0.10569631
000230 a3 f6 b9 be c6 c5 60 3f 4d c6 5f 3e e7 cc ca bf
       -0.3632098 0.8780178 0.2185299 -1.5843781
000240 24 84 24 bc f9 a9 61 be 7a dc df be 1d 6f 08 be
       -0.01004127 -0.22037496 -0.43722898 -0.13323636
000250 b2 6a da be 14 a1 6a 3f e5 54 60 3f 82 9f 6a bf
       -0.42659527 0.91652036 0.8762954 -0.9164964
000260 b5 57 ea 3e 5f a0 5a be 04 8b 84 be ac ac 52 be
       0.4577004 -0.21350239 -0.2588731 -0.20573682
000270 f5 56 cc be 95 5a 90 be 3c 7b e1 be 31 c6 93 be
       -0.39910093 -0.2819411 -0.44039333 -0.28862146
000280 b7 b5 92 be 2f d8 b3 be 61 14 9f be 78 23 75 be
       -0.28654262 -0.35125872 -0.31070235 -0.23939312
000290 c7 15 c0 3e 6f 7a 5d be 17 00 d4 3e f5 44 d1 3d
       0.37516615 -0.21628736 0.4140632 0.10218231
0002a0 3c fe 98 3e e1 81 36 bf 9a 74 60 bf 57 5f 27 bd
       0.29881465 -0.7129193 -0.8767792 -0.040862408
0002b0 fb fc 41 3f b5 25 99 bf 36 70 cf 3e fa 82 17 bf
       0.7577664 -1.1964632 0.40515298 -0.5918423
0002c0 50 b4 82 bf 98 40 95 be e0 d4 42 3f ce 23 23 bf
       -1.0211277 -0.29150844 0.7610607 -0.6372651
0002d0 26 f6 65 3e 03 eb b4 bf 91 5f e0 be 96 fd 04 be
       0.2245718 -1.413422 -0.4382291 -0.1298736
0002e0 35 e1 09 be f1 7e f2 be 71 fc af be 32 51 ea be
       -0.13464816 -0.47362474 -0.34372285 -0.45765072
0002f0 4b b6 4a be 81 48 87 be 54 40 af be a4 c5 c9 be
       -0.19796102 -0.26422504 -0.34228766 -0.394086
000300 5c dd c2 be 5e 5b 63 3e ec a7 b3 3e f8 3d d5 bd
       -0.3805951 0.22202823 0.35089052 -0.1041221
000310 21 3f 5f 3d 31 26 8b 3d 15 55 5c 3b 46 ec 9f bd
       0.054503564 0.06794394 0.0033620049 -0.078087375
000320 83 9b 77 3b 77 d2 8c bd ba 7d d2 3d 06 cd 9e 3d
       0.0037781901 -0.068760805 0.10277887 0.07753949
000330 3b c2 83 3d 39 f3 d7 3d fd 51 2a bd 3c ec 7b 3d
       0.06433531 0.10544438 -0.041582096 0.061504588
000340 73 3d fb 3d 8b ff a3 3d ad e3 a8 be bb 58 c7 bd
       0.1226758 0.08007725 -0.32986203 -0.09733721
000350 ef af 1d be 1b fb 40 be f4 23 e5 bd 9a e2 c6 be
       -0.15399145 -0.18845789 -0.11188498 -0.38844758
000360 43 b2 2a bd 67 f3 60 be 2d 29 37 be f4 34 b9 be
       -0.04167391 -0.2196785 -0.17886801 -0.36173213
000370 e1 0a ae 3d 8e fe ae bd 24 3a 01 3e a6 ad 3e bd
       0.08498169 -0.08544646 0.12619835 -0.046552323
000380 6b 4b f4 bd 0e 44 4c 3e ef bf 30 be e7 a5 a9 bb
       -0.11928447 0.19947836 -0.17260717 -0.005177248
000390 23 ae 77 3d ca 60 fb bd 75 da 0e 3e ea 5f 2b 3e
       0.060468804 -0.122743204 0.13950522 0.16735807
0003a0 a1 3d ce bd 4d 8e 19 be c4 41 0c 3e 98 51 e6 3d
       -0.100703485 -0.1499569 0.13696963 0.112460315
0003b0 08 fa 34 3d a8 7e 8b 3c 3a dd e1 be 07 59 bd be
       0.04418376 0.017028168 -0.44114095 -0.36981985
0003c0 12 85 bf be b4 1a 10 bf 18 a1 ac be 35 0f fd be
       -0.37406212 -0.56290746 -0.33716655 -0.49425665
0003d0 2b 6d 8c be 2d 1b 03 bf 83 59 c0 be fb 7b 84 be
       -0.2742704 -0.5121334 -0.37568292 -0.2587584
0003e0 3a ed 23 3d c8 5f b0 3c 6a 9b b8 3d cd 4f f2 3c
       0.04002116 0.021530047 0.09014018 0.029579068
0003f0 5e db 11 bf 33 42 52 c0 98 f0 f0 3f 04 11 1a c0
       -0.5697535 -3.2852905 1.8823423 -2.4072886

l1.bias f4 [400]
000000 46 e6 15 be 91 51 b5 be f7 35 c2 3e be 90 53 be
       -0.14638624 -0.35413793 0.37931797 -0.20660684
000010 3c 53 dd bd dc 49 f1 3c 74 9d 0d bf 6f 59 4e bc
       -0.10806891 0.029454164 -0.5531838 -0.012594565
000020 02 14 8b be 96 4b 71 be 12 ab 21 3e d1 c9 a9 be
       -0.27163702 -0.2356399 0.15787914 -0.33161786
000030 1c 48 03 be fc 9d 39 be 53 59 d1 be 12 a1 4b be
       -0.12820476 -0.18126673 -0.4088846 -0.19885662
000040 72 93 64 3d 81 37 11 be 72 9a d2 be 1d 67 92 bd
       0.055804677 -0.1418133 -0.41133457 -0.071485735
000050 6d 7a 2b 3e 55 37 53 bf 32 87 2b bd 55 4b d7 be
       0.1674592 -0.82506305 -0.04187698 -0.4204966
000060 55 5b 5c 3e 9d 81 c3 bc ec 1c 02 bf 3a 2a a8 be
       0.21519215 -0.023865515 -0.5082538 -0.32844716
000070 fa b5 89 be af 55 fb be e7 5f 0c bf 94 0f ca be
       -0.2689665 -0.4908881 -0.54833835 -0.3946501
000080 39 95 be 3e 14 6c 9e be b9 cf 06 bf f0 0a 05 bf
       0.37223223 -0.30941832 -0.5266071 -0.51969814
000090 8f ea a9 be 02 85 5d be 4d 0b f4 3d a0 85 3f 3e
       -0.33186767 -0.2163277 0.11916218 0.18703318
0000a0 e9 05 c5 be 53 74 12 3f 61 a1 dd be f1 c6 22 bf
       -0.38481072 0.57208747 -0.43287185 -0.6358481
0000b0 67 a5 b1 be 6e cd 33 be ab bb 21 be 81 7e 90 be
       -0.34696504 -0.17558834 -0.15794246 -0.28221515
0000c0 bc b0 11 be 05 30 35 3d 3b a5 12 bf 5a 38 5f 3e
       -0.14227575 0.044235248 -0.5728337 0.2179884
0000d0 4f 65 05 bf 8a 36 00 bf 7c ac 86 be ef 3b 47 be
       -0.5210771 -0.5008322 -0.2630347 -0.19456457
0000e0 28 05 02 bd 09 88 71 3e 43 5e 0b 3f 2b de cd 3e
       -0.0317432 0.2358705 0.54440707 0.40208563
0000f0 2c 98 32 3e af fd 7b be bd 16 59 be cd 13 61 be
       0.17440861 -0.24608491 -0.2120008 -0.2198021
000100 9a 09 82 be 43 d7 e1 be 33 a2 9c bd 41 76 b8 3e
       -0.2539795 -0.44109544 -0.076481245 0.3602772
000110 ad fc c9 bd 62 d6 11 bf dc 8a 8c be bf 65 f8 3e
       -0.09862647 -0.5696775 -0.2744969 0.48515126
000120 5c c5 7e 3f 3e e9 07 bf aa 77 9f be bc 5d 13 bf
       0.99519897 -0.53090274 -0.31145984 -0.575649
000130 fc c7 c4 bd f4 5f e7 3e 13 be 90 3d 51 52 8d be
       -0.096084565 0.45190394 0.07067504 -0.27601865
000140 17 54 01 bf 1c b8 34 3f 8d 7b c2 be 7e 0b 11 bf
       -0.50518936 0.7059343 -0.37984887 -0.5665816
000150 3b 70 07 bf eb 0c d9 3d 8d 91 bd be fa 88 8b be
       -0.52905625 0.10598167 -0.3702511 -0.27252942
000160 4a e5 53 3d 60 12 3e 3e ce 8e 07 bf 76 b7 1a bf
       0.05173234 0.18561697 -0.5295228 -0.6043619
000170 97 f7 82 bd be d5 11 3f 0d e7 06 be 10 e2 09 bd
       -0.0639488 0.5696677 -0.13174076 -0.033662856
000180 cb ab e8 be 71 15 6e be 6f 95 98 be 8b 8b 9b 3e
       -0.45443568 -0.23250367 -0.2980151 0.303799
000190 18 6d 5d be aa da 92 be f0 3d bf 3e 8c a8 de be
       -0.21623647 -0.28682452 0.37351942 -0.43487966
0001a0 73 7d fd bd ed a8 9a be 9b 74 e4 bd b7 3a c3 be
       -0.12377443 -0.30207005 -0.11155053 -0.38130733
0001b0 00 f3 f3 bd 59 70 1e bf 6e bf 82 3f 1b be a4 be
       -0.11911583 -0.6189018 1.021467 -0.3217629
0001c0 d6 da 33 3e 59 a1 39 be af b9 e7 be 8d 9d 8b 3e
       0.17563948 -0.18127955 -0.45258853 0.2726864
0001d0 37 cc 2b 3e 37 1a 15 bf be a5 7b bc 26 3f 13 bd
       0.1677712 -0.58243126 -0.01535934 -0.035948895
0001e0 55 61 65 bd 86 85 ab be 1e 77 9a 3b c1 79 08 bf
       -0.056001026 -0.33500308 0.004713907 -0.5331078
0001f0 88 29 e7 3d 59 8b 68 bd f0 de 9b 3f b2 d8 e8 be
       0.11287218 -0.056773517 1.217741 -0.45477825
000200 67 51 34 be 15 5d 61 be 36 e1 98 be ae 12 3f be
       -0.17609178 -0.22008164 -0.29859322 -0.1865947
000210 d2 02 d3 be f9 0c 9b be c2 f0 6c bd 42 48 6b be
       -0.4121309 -0.30283335 -0.057846792 -0.22976783
000220 24 b8 1d bf 64 2c 18 be 28 01 2b bf 0b 93 0d bf
       -0.616091 -0.14860684 -0.6679864 -0.55302495
000230 a4 d0 b1 bd 2e 5b fb be 68 fa 47 3d 5c 45 39 be
       -0.08682373 -0.49093002 0.04882279 -0.18092865
000240 64 92 17 3f 3d 74 1e be 70 93 bc be c7 ae 26 3f
       0.5920775 -0.15474029 -0.36831236 0.6511044
000250 ea 8b 86 3f ad 1c 35 3d ec 38 de 3d 7b 14 02 bf
       1.0511448 0.0442168 0.10850701 -0.508125
000260 17 ab 15 bf a7 e9 3a be 39 91 03 be dd c4 76 be
       -0.5846419 -0.18253194 -0.12848367 -0.24098535
000270 53 3f 65 be 6d 55 e0 be 65 ab 74 bc f5 9c 72 be
       -0.22387438 -0.43815175 -0.014933442 -0.23692687
000280 97 44 8a 3c af 4e 04 3f fa 64 23 bf 1d 8f d2 be
       0.01687841 0.5168256 -0.63825953 -0.41124812
000290 a2 48 40 bf 8e e7 96 be f7 c1 9e 3e eb 71 b8 be
       -0.7511083 -0.29473537 0.31007358 -0.36024413
0002a0 ba 05 0f bf 44 2b 98 be c2 55 d8 bd 32 3f 44 3d
       -0.55868113 -0.2972051 -0.10563232 0.04791183
0002b0 4f 71 13 bf 79 6b 08 be 99 b7 1d be c8 8d 46 be
       -0.5759477 -0.13322248 -0.15402068 -0.19390023
0002c0 6e 08 50 bc 66 72 1e bf 05 23 de be 9d 64 4b bf
       -0.012697322 -0.6189331 -0.43386093 -0.794504
0002d0 49 3a eb be 76 88 95 3d 5d 30 43 be 4a 84 bf be
       -0.45942906 0.073014185 -0.19061418 -0.37405616
0002e0 6b 6b 22 bf 1b 77 f4 be 7c 5a 5a be 5f 1e 9d be
       -0.63445157 -0.4774712 -0.2132358 -0.30687234
0002f0 01 62 fa be a0 d7 ff bd 49 01 55 bf 9f 77 5f be
       -0.48902896 -0.12492299 -0.83205086 -0.21822976
000300 c0 cb 04 bf 45 0a 23 bf 5e 25 d2 be 46 05 e6 3e
       -0.518734 -0.63687545 -0.41044134 0.44925898
000310 de 58 c2 3e 3e 48 04 3f 74 a1 fa be e5 09 5c bf
       0.37958425 0.5167273 -0.48951304 -0.859526
000320 bc 16 16 bf 5a 3d 1f bf 5e d6 8b 3e c6 8c bc bd
       -0.5862844 -0.6220299 0.27311987 -0.09206538
000330 6d b0 2e bf c8 bf 9e be ed ba 36 be 82 15 61 be
       -0.68237954 -0.31005692 -0.17844744 -0.21980861
000340 f1 75 4a bf 05 21 18 3e 86 b3 d4 be 0f 0f 93 be
       -0.79086214 0.14856346 -0.41543216 -0.28722426
000350 98 87 6e be e1 a3 21 bf 87 49 10 bf 45 7a 53 be
       -0.23293912 -0.63140684 -0.56362194 -0.20652111
000360 de 4c 62 bf 5c 7d 26 bf 6f 08 41 be 89 64 d2 3e
       -0.8839854 -0.65035033 -0.18850873 0.41092327
000370 b1 70 34 bf e1 d6 fe be 3d 65 7b be 0d c6 8d be
       -0.70484453 -0.49773315 -0.24550338 -0.27690163
000380 2c bc c9 be 08 46 f2 be a1 22 a2 3d 91 32 aa be
       -0.39401376 -0.47319055 0.07916761 -0.33241704
000390 9b d7 d6 3c 19 a5 3f 3f fe 37 45 be 1e 7d 59 bf
       0.026225856 0.74861294 -0.1925964 -0.8495654
0003a0 27 52 cf be 53 28 f4 be 2a 74 d4 3e c1 ed 0b be
       -0.40492365 -0.47687015 0.41494876 -0.13664915
0003b0 90 53 b9 bd 68 9b b5 3e 01 ad ab 3d e4 79 60 3f
       -0.090491414 0.35470128 0.08382607 0.8768599
0003c0 95 6f 6f 3f d1 7c 51 be f6 c4 ba be 70 f3 76 3d
       0.93529636 -0.2045777 -0.36478394 0.060290754
0003d0 30 8a f7 be 25 19 b1 3e 26 d8 9d be 32 c9 4f bf
       -0.48347616 0.34589496 -0.3082897 -0.81166375
0003e0 0d c5 df 3e 48 0f 08 be d1 b6 49 3e d6 da 6a bd
       0.43705025 -0.1328708 0.19698645 -0.057337604
0003f0 80 d0 81 3f d8 bc a6 bd 72 51 26 be 01 ab 23 bf
       1.0141754 -0.08141488 -0.16242006 -0.63932806

l2.weight f4 [300, 400]
000000 72 17 0b bd bc 95 da bb 12 2b 97 bc 20 cc 46 bb
       -0.033957906 -0.0066706818 -0.018453155 -0.003033407
000010 83 e2 fd bb 21 39 ec 3b 2a 5d 08 bd a9 f1 bf bc
       -0.0077479496 0.0072089587 -0.033291973 -0.023430662
000020 41 1a 5c bd 2f d8 09 bc 05 e5 c0 3c 8f e4 02 3d
       -0.053735975 -0.008413359 0.023546705 0.03195625
000030 8a e8 fb bc 7e 0b 16 bd 33 35 45 3d d8 2b de 3c
       -0.030750532 -0.036632054 0.048146438 0.027120516
000040 ee af a7 3c 2c 84 1f bc 9e 11 94 3c f4 1f b7 3b
       0.020469632 -0.009736102 0.018074807 0.005588526
000050 82 96 e0 3b 78 5a 08 bc 86 f9 dc bc 9f e0 07 3d
       0.0068538794 -0.008322351 -0.02697445 0.0331732
000060 7f 49 63 3c f4 10 eb bc 4b 11 38 bd 68 83 47 3c
       0.013872503 -0.028694607 -0.044938367 0.012177326
000070 7f f0 34 3d 51 f7 a5 3c ef cd 0a 3b 6b ba ec 3b
       0.044174667 0.020259531 0.0021179875 0.007224371
000080 28 66 23 3d 6a 58 e5 3c a6 37 59 3c 09 b6 1f 3d
       0.039892346 0.02799626 0.0132578965 0.03899196
000090 35 5e 23 3d da 29 82 bc b8 e4 8f bc 1f 35 e9 3b
       0.039884765 -0.015889097 -0.017565116 0.007116928
0000a0 0e 67 28 bd 74 1f 40 bc 25 41 b3 3c 66 a9 9e 3c
       -0.041113906 -0.011726249 0.02188165 0.019367885
0000b0 d3 09 3e 3d d4 13 03 bd 65 7d d0 3c 2c bb 2d bc
       0.046396088 -0.03200133 0.025450418 -0.010603707
0000c0 ea 3c ba bc c4 39 cc bc 70 1a 0f 3d 8b ad 35 bc
       -0.022734124 -0.024929889 0.034937322 -0.011088739
0000d0 b0 79 1b bd 95 5d 18 bd b0 57 88 3c b0 7b af 3b
       -0.037957847 -0.03719862 0.016643375 0.005355321
0000e0 a3 a4 87 3c fb 50 2e bd a3 bb 0f 3d 72 ca 68 bd
       0.016557997 -0.042557698 0.035091054 -0.056833692
0000f0 79 9d c5 bc 9a 35 ca 3c 40 58 e3 bb ee ee 09 bd
       -0.02412294 0.024683762 -0.0069380105 -0.033675127
000100 67 72 e1 bc 93 de 33 bd 92 ba 1c 3b 39 55 16 3d
       -0.027520372 -0.043913435 0.0023914916 0.03670237
000110 ba 4f c4 bc 4b f0 20 bd 98 3e 71 b8 fa 1a 04 bd
       -0.023963798 -0.03929166 -5.7517173e-05 -0.03225229
000120 01 f0 08 3c c5 e2 a4 bc c6 90 e6 bc 48 e6 42 3c
       0.008358003 -0.020127663 -0.028145205 0.011895724
000130 8b ec 1f 3d f4 84 e9 3c 6f 8b 2e 3d 55 df 3b bd
       0.039043944 0.02850578 0.042613443 -0.045867283
000140 dc a1 95 3b ba ff b3 bc 00 c5 b6 ba a8 9c de 3c
       0.0045664143 -0.021972526 -0.0013944209 0.027174309
000150 ca 7f 20 bd 2a 00 05 bd db 8d ae bc df 4c c1 bc
       -0.03918437 -0.03247086 -0.021307876 -0.023596225
000160 5e 09 07 bc 5f 35 f4 3c b9 18 fe 3c 48 1d 06 bc
       -0.008241979 0.029810606 0.031017648 -0.008185692
000170 f3 e7 3b bd 73 ff 48 bc 32 62 b4 3c 73 e1 07 3d
       -0.0458755 -0.012267935 0.02201948 0.03317399
000180 1b 14 21 3d bd e8 d5 bc e0 79 6d bc cb 9b e1 bc
       0.039325815 -0.026111955 -0.014494389 -0.027540108
000190 f9 c3 f2 3b ff e4 3b bc ac 76 e7 bb e7 77 47 bd
       0.0074086157 -0.011468171 -0.0070637073 -0.048698332
0001a0 be be 8d 3c 08 11 3b bc 11 08 bb bb 8e ca 85 bc
       0.017302867 -0.011417635 -0.0057077487 -0.016331937
0001b0 a8 1a fe ba 1e 9c 12 bd 1f 62 3d bd 71 0c 37 3d
       -0.0019386606 -0.035793416 -0.046236154 0.0446896
0001c0 b5 77 4a 3b ad 9b 2a bd b6 1b de 3c 9e 3c 23 3d
       0.0030894105 -0.04165237 0.027112823 0.03985273
0001d0 10 85 2d bd 65 fb 34 bd 4a d2 40 bd 84 84 0b 3d
       -0.042363226 -0.04418506 -0.047075547 0.034061924
0001e0 80 dc 1f bd 02 c3 19 3d 88 3d 1c bc 3e 90 6c bd
       -0.039028645 0.03753949 -0.009536155 -0.057754748
0001f0 28 56 f0 bb 70 b5 cd bc 9b eb 14 3d aa 4d e0 bc
       -0.0073344894 -0.02511093 0.036357503 -0.027380783
000200 e3 b3 4b 3d 2d 88 41 bd 1e d3 27 3b 7d ca 15 3d
       0.0497321 -0.047249008 0.0025608013 0.03657006
000210 f0 5e e2 3b cf 90 e1 bc 4b 6e 68 bd a8 01 23 3c
       0.00690829 -0.02753487 -0.05674581 0.009949125
000220 02 31 46 bc 52 d6 8a bc 12 5b ef ba b9 fe 9e 3b
       -0.012096645 -0.016947899 -0.0018261394 0.0048521427
000230 4f 79 05 bd ef a8 7f bc da 60 a9 3c f0 b9 ae bc
       -0.032586392 -0.015604242 0.020676065 -0.021328896
000240 c6 2b d4 bc 18 2e 70 bc c3 66 a3 bc 11 55 d9 bb
       -0.025899779 -0.014659427 -0.019946462 -0.006632455
000250 95 54 92 bc de 76 b3 bc f9 3f d4 bc 89 84 16 3d
       -0.017862597 -0.021907266 -0.02590941 0.03674749
000260 25 be 3d bd de ed f5 3c 30 35 9d bb 06 ef ec 3c
       -0.046323914 0.03002065 -0.0047976 0.028922569
000270 8c 7b 3b 3d 76 11 a0 3c a8 08 01 3c 7f d8 38 bd
       0.04577212 0.019539576 0.007875599 -0.04512834
000280 57 a1 ee bc b5 95 7d 3c a5 35 ea 3c 82 87 f6 3c
       -0.029129667 0.0154775875 0.028590033 0.030093912
000290 2a f1 d4 bc 5a f4 24 bd a5 9f 93 bc 38 37 2f bc
       -0.025993902 -0.040272094 -0.01802046 -0.0106943175
0002a0 90 8e c0 bc d5 91 e8 bc 2d b3 31 bd 4f 80 3b 3d
       -0.02350548 -0.02838985 -0.043383766 0.04577666
0002b0 9c 4a 88 3c 84 09 57 3c 77 04 47 3b e1 8e 42 3d
       0.016637139 0.013124827 0.0030367651 0.04749954
0002c0 cf 39 35 bd 91 5c 7a 3b 79 44 14 3d 9d e2 ac bc
       -0.044244584 0.0038202147 0.036198113 -0.021104151
0002d0 17 e1 27 3d 04 bf 0c bc 46 4e 94 3c 6f 6a 0f bd
       0.040986147 -0.008590464 0.01810373 -0.035013612
0002e0 25 3f 47 3d e7 17 c0 bc 12 ea 1e bd ac 67 0b bc
       0.048644204 -0.023448898 -0.038797446 -0.008508604
0002f0 e2 40 8b 3c 71 c0 25 3d 6a 64 ea bc 6c 68 38 3c
       0.016998712 0.04046673 -0.028612334 0.011255365
000300 dc 7e 2d bc aa 3a e2 3c 63 b2 e1 ba 17 8e b4 3c
       -0.010589328 0.027615864 -0.0017219301 0.02204041
000310 29 94 bc 3c 31 20 67 bd 82 fc 06 bd 3e fb f1 3c
       0.023019867 -0.056427184 -0.032955654 0.029538747
000320 eb 11 4e bd c0 e8 42 3c 62 1d 38 3c 82 59 0d 3d
       -0.050310057 0.011896312 0.011237474 0.03450919
000330 a4 71 3c bd d0 02 3b bd d2 0e 83 3c 8c 0c 5f 3c
       -0.046006814 -0.04565698 0.015998278 0.013613831
000340 21 7f e2 3a a3 48 9f 3c 27 67 a2 bc 36 56 83 bc
       0.0017280319 0.019443816 -0.019824577 -0.01603232
000350 79 aa fc bc 12 e7 bc bc fd 6c 9d bc fc 1d f5 bc
       -0.030843006 -0.023059402 -0.019217009 -0.029921524
000360 5a ee 4d bd 45 71 23 bd bb f2 52 bd 40 e3 2b 3c
       -0.050276138 -0.039902944 -0.051501017 0.010491192
000370 d0 8d 62 bb 80 5c 11 3c 4f 8e 37 bd 6b 75 3a bd
       -0.003456939 0.008872151 -0.04481345 -0.045522135
000380 df 8f 09 bc 0b f8 ef bc d1 46 35 bd ba 58 0b 3d
       -0.008396118 -0.02929308 -0.04425699 0.034020163
000390 fe ae dc bc 5f 38 08 bb 7a 33 b0 bc 4c 46 21 bd
       -0.026938912 -0.0020785553 -0.021508921 -0.03937368
0003a0 10 c6 db bc 18 4e 2e bd 08 9d 03 bd e0 b8 77 bb
       -0.026827842 -0.042554945 -0.03213218 -0.0037799403
0003b0 ef c7 bf bc 4d 0e 17 3d e8 92 38 bc c9 70 3b 39
       -0.023410765 0.036878873 -0.011265494 0.00017875725
0003c0 a9 ff 7c bc f8 16 00 3c e0 c2 00 bd a4 a8 2f 3b
       -0.0154418135 0.007817976 -0.031435847 0.0026803399
0003d0 6a 7a ca 3c 7b e3 99 bc 5a 17 5d bd 5e 9b 99 3c
       0.024716575 -0.018785229 -0.053977348 0.018750843
0003e0 70 15 f6 3b f5 6e 36 bd b0 b2 54 bd c0 58 92 3a
       0.00750988 -0.04453941 -0.051928222 0.0011165366
0003f0 9a db 52 bd 0d b6 1e bd 74 36 44 3c 2d 63 13 bd
       -0.05147896 -0.038747836 0.011975873 -0.035983253

l2.bias f4 [300]
000000 7e 0c 20 bd fb e1 9d bc ac 87 cf 3c 6f b8 62 bc
       -0.039074413 -0.019272795 0.025333248 -0.013837918
000010 ee bb 54 bd 10 89 67 bd 00 c9 d2 bd 07 84 8b 3d
       -0.051937036 -0.056527197 -0.10292244 0.068122916
000020 5e 5c 0c bd bc a7 71 3c bf f7 8e bd 27 da 11 3d
       -0.034267776 0.014749464 -0.069808476 0.035608437
000030 da a5 36 be da 5a f6 bc e0 ee 6b 3d c8 d1 ac bd
       -0.17836705 -0.030072618 0.057600856 -0.0843845
000040 b6 7d 6e bc 57 b2 9b 3d b1 8f a9 bd 56 11 8a bc
       -0.014556339 0.07602375 -0.0827936 -0.01685397
000050 59 3c 0c 3e 83 75 be 3d b9 8d 7e 3e 19 ae 20 bd
       0.13694896 0.09299757 0.2485875 -0.039228532
000060 37 74 17 bd 4d 59 5a 3f 6f aa 0e 3e cd 97 9b bb
       -0.036976065 0.8529251 0.13932203 -0.0047483207
000070 e8 72 2f bc 6d 9b 95 bd d7 1f 28 3c b9 72 db 3c
       -0.010708548 -0.07305036 0.010261497 0.026788102
000080 4f be 59 3d 41 0e c5 3c df 96 80 bd ce 1d 8d bd
       0.053160008 0.024054648 -0.062787764 -0.068904504
000090 1b 0f 9c 3c d4 c5 06 bd f2 00 1d 3d 2b 3d 97 bd
       0.019050172 -0.032903507 0.03833098 -0.07384714
0000a0 a3 99 33 bc 44 fd 2a 3d df eb 8c 3d f2 a2 bd 3d
       -0.010961923 0.04174544 0.06880926 0.09259595
0000b0 c3 a6 51 3f 2c 4e 49 3f 0d 9f d2 3c 9c 1c a5 bd
       0.81895083 0.78634906 0.025710607 -0.080620974
0000c0 4d c8 1e 3d 44 75 79 bd a8 d3 22 bc 2d 4d 96 bf
       0.03876524 -0.06090285 -0.009938158 -1.1742302
0000d0 28 fd ac bd 6a e1 0c bd 70 49 d0 3c 16 d2 3d 3d
       -0.08446723 -0.03439466 0.025425643 0.04634293
0000e0 02 ec 72 3d 5e 83 6b 3d f6 65 3f bd 50 bf bf 3c
       0.059307106 0.05749833 -0.046728097 0.023406655
0000f0 26 cd 4d bc 9c a7 3d bd f4 b2 88 3d 48 f8 56 3d
       -0.012561118 -0.046302423 0.066747576 0.052482873
000100 17 78 af 3a 1e e6 d8 bc a8 2e 43 bc 81 0d 7c 3b
       0.001338723 -0.026476916 -0.011912979 0.0038460197
000110 0d dc 81 3d ec 80 20 3c f0 00 4f bd 1d 47 d3 bd
       0.063407995 0.009796362 -0.050538003 -0.10316298
000120 ce 67 5a 3d 48 14 7b 3f 34 70 17 bd 38 01 57 3c
       0.053321652 0.9807782 -0.03697224 0.013122849
000130 52 a5 5e 3f 20 26 a3 bc ee 10 5b 3f 09 55 f5 be
       0.8697101 -0.01991564 0.8557271 -0.4791644
000140 15 83 29 bd dd b2 de 3c 2e b0 97 3e b3 83 3a 3d
       -0.041384775 0.027184898 0.29626602 0.045535754
000150 bf f9 87 bd a9 f5 ba bd cc 10 0f bd a5 23 30 bd
       -0.06639432 -0.09128887 -0.034928128 -0.043002743
000160 4c b6 8d bc f6 2f 6a bb 09 3a 42 bc b7 91 97 bd
       -0.01729884 -0.0035734153 -0.011854657 -0.0740084
000170 ee ae b3 3d 58 5c 6b 3c dd 96 7d 3c 40 6b 43 3d
       0.087735996 0.014365278 0.015477863 0.047709703
000180 62 ae ba bd cf 35 d9 3b 96 34 d2 3c 74 22 66 bd
       -0.09115292 0.006628729 0.02565984 -0.0561852
000190 17 03 16 bb aa 62 1f bd f1 60 a1 3b 40 8a 40 bd
       -0.0022890025 -0.038912453 0.0049248864 -0.047006845
0001a0 00 bf 34 3f 84 c5 72 bc 82 04 8a 3d 01 cb 17 bc
       0.7060394 -0.014817599 0.06739141 -0.0092647085
0001b0 4c d6 53 bd 3a 1b 04 3d a8 7c b2 bd 11 c5 71 3d
       -0.05171804 0.032252528 -0.087151825 0.059025828
0001c0 f3 94 fc 3c bf c9 8b bc ae 3c 39 3c b8 3e 9d bd
       0.030832743 -0.017063973 0.011305971 -0.07677978
0001d0 50 c6 86 bf 0a dd 3a 3d 68 ec d1 bf 37 b2 1c be
       -1.052927 0.045620956 -1.640027 -0.15302359
0001e0 b5 63 64 3d 38 ac d8 bd 61 36 54 bd 78 21 c4 bd
       0.05575915 -0.10579723 -0.051809672 -0.09576696
0001f0 f1 13 8c bd 7a 25 25 bb 72 f9 b5 bf 04 e3 f5 3c
       -0.06839741 -0.002519934 -1.421675 0.030015476
000200 70 18 43 bd 8a e6 9e bd 87 29 da ba 55 2b 0a be
       -0.047630727 -0.077588156 -0.0016644456 -0.13493092
000210 a1 21 7a 3d 60 16 20 3e 50 00 51 bd 3e 87 07 bc
       0.061067227 0.15633535 -0.05102569 -0.00827199
000220 71 53 01 bc 42 dd 50 bd e7 b0 70 bd 10 d2 0c bc
       -0.007893429 -0.050992258 -0.058762457 -0.008595005
000230 20 d2 bb bc ca 12 6c bd 42 ee 9d bc 7d bd 9d bc
       -0.022927344 -0.057635106 -0.01927865 -0.019255394
000240 38 e5 38 3d 81 a2 d9 3d 00 f0 97 bd a9 42 7e 3d
       0.045140475 0.10626698 -0.07418823 0.06207529
000250 22 72 27 bc 99 ea 36 bd bc c2 73 bd 43 1c 5f bd
       -0.0102200825 -0.044657324 -0.059511885 -0.05447031
000260 f7 c8 0f 3e 5f 98 5a be 9a 62 6b ba d3 32 bd 3c
       0.14041506 -0.21347187 -0.00089792314 0.023095524
000270 66 01 a6 bd 89 a3 ed bd 5d f4 ed 3d 0d f8 86 3d
       -0.081057355 -0.116034575 0.11618874 0.06590281
000280 82 dd 42 3f b0 f5 28 bd c3 03 5f 3b ae 1c 9b 3c
       0.76119244 -0.04124993 0.0034029342 0.018934574
000290 03 38 7b bc 03 bf bd bd 00 fb 37 bd db 64 2d 3c
       -0.015333178 -0.09264948 -0.044917107 0.010583128
0002a0 52 d0 4e bd c5 77 e8 3d be af 7e 3c 77 9b ba bc
       -0.05049164 0.11350969 0.01554483 -0.02277921
0002b0 81 72 35 bb ac fb 37 bc d7 22 45 3d a6 d1 7c bd
       -0.0027686658 -0.011229437 0.04812893 -0.061723374
0002c0 23 fa 21 bd fd d8 c9 3f f5 46 fc 3c 6a 49 ad bd
       -0.03954519 1.5769345 0.030795554 -0.08461268
0002d0 dc 59 b0 b9 93 93 40 bd cd 7a 39 3d 88 ec b3 bc
       -0.00033636286 -0.047015738 0.045283128 -0.021963373
0002e0 b2 e0 9c bd 59 08 84 3d 4c 14 ff bc d3 b1 3a bd
       -0.07660045 0.06446905 -0.031137608 -0.045579743
0002f0 3e 2e db 3a 3f c4 2f 3b b2 6f 0b bd e8 e7 99 bb
       0.0016722155 0.0026819853 -0.034042068 -0.004696835
000300 54 26 0b bd 97 67 4a 3f 7a 5a 71 be 08 7d f6 3d
       -0.0339721 0.79064316 -0.2356967 0.120355666
000310 a1 6f ba bd 8a 09 ae 3f 1d c6 b7 bb 50 8b 87 bd
       -0.09103323 1.3596661 -0.0056083337 -0.066183686
000320 6e 47 ef bc ab d7 0b 3d e9 92 ea 3d 02 c4 51 3e
       -0.029208865 0.034141224 0.11453802 0.20484927
000330 44 6a 0c 3f 9f 9f f0 bc ac fc 72 bb 22 15 bc bd
       0.5484965 -0.029372988 -0.0037076874 -0.09183718
000340 0c 42 dd 3b 4a bb 73 bc 3d 67 dd bd 78 f9 cd bc
       0.006752258 -0.014876196 -0.10810707 -0.02514337
000350 c3 f0 ba bc 9a e2 46 bd 3c e9 98 bd 0f 0c f3 3c
       -0.022819882 -0.048555948 -0.07466361 0.029668836
000360 c5 a4 2e bd d0 3c a7 bc 4a d2 17 bd 02 a9 00 be
       -0.042637605 -0.02041474 -0.03706578 -0.12564471
000370 17 86 74 3e c8 6f a1 bd 46 09 77 bb 1d 97 c9 3f
       0.23879276 -0.07882649 -0.0037694736 1.5749241
000380 20 1d 0d bd e8 4e 9e bd 3e 30 31 3b fa 46 b7 bc
       -0.034451604 -0.07729894 0.0027036811 -0.022372711
000390 8b ff b8 bd c6 9c 6f bc 79 cd 2d 3c 29 f9 a2 bd
       -0.09033116 -0.01462478 0.0106080705 -0.0795768
0003a0 b8 12 5a bc c6 ca 24 3d 80 b4 37 3f 92 37 4f 3c
       -0.013310127 0.040232442 0.71759796 0.012647526
0003b0 be 89 82 bd c3 a2 24 bd 1b d2 b2 bd 4f e4 0f bd
       -0.063739285 -0.040194284 -0.08731481 -0.03512984
0003c0 8f b3 60 3d bd d9 89 bd df d9 aa bd be 06 a5 3c
       0.05485874 -0.067309834 -0.08342337 0.020144816
0003d0 b2 b1 c8 bd 18 49 17 bd 34 5d 2a bc d7 cd c1 3f
       -0.09799518 -0.036934942 -0.010398198 1.5140942
0003e0 9a f2 9b bc 48 49 95 bf a9 3d 2b 3d 52 60 39 3d
       -0.01903658 -1.1662989 0.04180685 0.045257874
0003f0 08 22 80 bd 5e 0f ce bc bf d5 52 3d 57 3a 40 3b
       -0.06256491 -0.025153812 0.051473375 0.0029331648

l3.weight f4 [1, 300]
000000 6f 16 c9 bc d4 b8 89 3d 9c 66 12 3d 8b 70 13 be
       -0.02454683 0.06724706 0.035742387 -0.143984
000010 38 26 b9 3b b8 4b 69 3c b1 7e 94 3d 52 33 22 be
       0.005650308 0.014239244 0.07250727 -0.1583989
000020 a2 31 d1 3c 56 66 07 bd b3 25 0e 3f e1 04 21 be
       0.025536362 -0.03305658 0.55526274 -0.15724517
000030 86 b2 af be 5d 74 a5 3d 0d d4 25 be c2 ad 09 3c
       -0.3431589 0.08078835 -0.16194172 0.0084032435
000040 e8 2c a1 3c 16 96 2a 3e 48 cb 2a 3f 31 32 e8 3c
       0.019674733 0.16658816 0.6671643 0.028344246
000050 47 3c ca be 28 de 52 be 4e f9 f3 be 9a 05 07 3b
       -0.39499113 -0.20592558 -0.47651142 0.0020602704
000060 d9 b0 0e bc 05 a1 f7 be cb 6e 0e bf d0 52 41 3e
       -0.008709156 -0.48365036 -0.55637807 0.18879247
000070 f4 53 0c 3d ce 41 89 3d 34 76 16 3d d7 79 27 3c
       0.03425975 0.067020044 0.03673382 0.01022192
000080 26 43 2e be b7 a7 f1 bd 91 dd 8d 3a 21 30 81 3d
       -0.17017803 -0.11799567 0.0010823478 0.06308008
000090 1d 44 23 bb 00 5e 2b 3e 0b 24 16 3e d7 8e 24 3c
       -0.0024912425 0.16735077 0.14662187 0.010043821
0000a0 3c 92 0d 3e f1 ec 22 be d4 55 24 be 6e a9 4b be
       0.13825315 -0.15910698 -0.16048366 -0.19888851
0000b0 58 b6 83 be 88 ee 83 be 9f eb b6 be 92 53 7c 3c
       -0.25725055 -0.25767922 -0.3572664 0.015400784
0000c0 31 94 38 3e 21 0d af 3c 6d 34 21 bc 0f 9c a1 3f
       0.1802528 0.021368565 -0.009839159 1.262575
0000d0 82 be e2 3c 68 32 fd 3c 48 38 58 3e 26 f1 a5 bf
       0.027678732 0.030907825 0.2111522 -1.2964218
0000e0 b3 c3 69 be 3e ce a3 bd 15 72 16 3d 12 a7 37 be
       -0.2282856 -0.07998322 0.03672989 -0.17934826
0000f0 8e 8f 23 bd 37 6f 17 be e7 52 82 bd d5 70 71 3e
       -0.039931826 -0.14788519 -0.063634686 0.23578198
000100 03 a1 18 be 7b 4e ef 3d fc c4 1c 3e 8a 1b e4 bf
       -0.14905171 0.11684891 0.15309519 -1.7820904
000110 51 c0 3a be 0b f2 a1 3d a5 52 00 3d 1a 57 9e 3b
       -0.18237425 0.07907494 0.031328816 0.0048321607
000120 93 6b 10 be 29 47 de bf 14 a0 e5 3c bd 25 36 be
       -0.14103536 -1.7365466 0.028030433 -0.17787834
000130 92 6d 89 be c6 d7 fe bd f7 8c 8e be 3e 29 d6 3f
       -0.26841408 -0.12443499 -0.27841923 1.6731336
000140 7e da a5 3c ae 84 4c 3e 39 c3 27 bf 6c b8 40 be
       0.020245787 0.19972488 -0.6553226 -0.18820351
000150 0a 60 00 bd 71 e5 84 3c 4b de f4 bb 06 9d d3 bc
       -0.03134159 0.016222687 -0.0074727884 -0.02583171
000160 29 e0 27 bd b4 61 e0 3b 09 00 4c 3c 33 09 c9 bc
       -0.04098526 0.0068475846 0.01245118 -0.02454052
000170 f1 ee 94 be 14 00 2f 3e 03 c8 e1 bd 00 c4 c3 3e
       -0.29088548 0.17089874 -0.11024477 0.38235474
000180 82 e0 54 3c ba a4 0e be 7d b9 4d be 9f 9f 46 3d
       0.01299298 -0.13930026 -0.2009029 0.04849207
000190 44 ac e5 3b 01 57 05 3c e7 ad 8f bc 10 7d 0b bd
       0.007009061 0.008138419 -0.017538978 -0.034054816
0001a0 33 9b 3f bf 9b 05 d6 bd d8 48 03 be fa fd 07 3e
       -0.7484619 -0.10450288 -0.12820756 0.13280478
0001b0 75 2d 03 bc db fb e1 be 57 4a ea 3c 42 5b e6 bd
       -0.008006443 -0.44137463 0.028599901 -0.11247875
0001c0 e4 db 41 3e 17 41 49 3b 95 3b 14 be 03 9c a1 3c
       0.18931538 0.0030708963 -0.14475854 0.019727712
0001d0 46 7a a0 3f c6 31 59 3e 67 d2 73 3f 8f 04 74 bf
       1.2537315 0.21210393 0.95242923 -0.95319456
0001e0 b0 ea 1a 3e cd 9a 2d bc 4c bb 89 3b 60 ec 17 3e
       0.15128589 -0.010595989 0.0042032357 0.14836264
0001f0 8c 0f 71 3c 85 59 3a 3e c7 94 35 3f d1 61 09 3e
       0.014713179 0.18198211 0.7093014 0.1341622
000200 46 16 27 bc ab 6f bd 3d 1c 10 d0 ba 68 6e ef 3c
       -0.0101981815 0.092498146 -0.0015873942 0.02922745
000210 b7 7b 3c be 61 22 bd be 37 b3 9d 3d f2 2d 07 3e
       -0.18406568 -0.36940292 0.07700198 0.1320112
000220 12 b6 21 3d 9e 19 ab bc 43 b4 d1 be 06 8e 93 3d
       0.039480276 -0.020886239 -0.4095784 0.07204823
000230 e8 94 d7 3c e9 3d 05 3d b3 93 c3 3c 2c ae f1 bd
       0.026316121 0.032529745 0.02387414 -0.11800799
000240 8b 59 7c be 51 ab 9a be ce 8b 4c bf 0e 4f f7 bd
       -0.24643533 -0.3020883 -0.79900825 -0.12075625
000250 e7 5d a1 3c 3d e4 4e bb 51 3f 3b bc ae 23 15 3c
       0.019698096 -0.0031569146 -0.01142867 0.009102745
000260 14 78 a9 be 6b 91 9a 3d 57 95 ae bc 11 67 c7 bd
       -0.33099425 0.075472675 -0.021311445 -0.09736455
000270 32 5c 0f 3d fb de c2 3b 25 c6 6b bf 1b 7d 56 be
       0.035000034 0.0059469915 -0.9209922 -0.20946161
000280 97 e3 6f be 0c ca d2 3c e6 09 1c be 7a d9 3e 3e
       -0.23426662 0.02573111 -0.15238151 0.18637648
000290 92 1a 5e bc 76 5e 4d 3b 1e e1 82 3d 7c 46 48 bc
       -0.01355614 0.003133682 0.06390594 -0.012223836
0002a0 75 cc a3 3d 93 04 d6 be a8 68 48 3e 2a 2f 84 3c
       0.079979815 -0.41800365 0.19571173 0.01613577
0002b0 e2 79 87 3b 26 1b 88 bc 89 eb 3c be 3a 36 c9 3b
       0.0041344026 -0.016614508 -0.18449225 0.0061404975
0002c0 54 a5 3b 3d e8 ba a7 bf e8 47 85 3e 96 1c 98 bb
       0.045811966 -1.3103914 0.26031423 -0.0046420796
0002d0 52 82 2c 3e ba 72 58 3c a4 2f 4d be 45 90 ec bd
       0.16846588 0.013210947 -0.20037705 -0.11550955
0002e0 dc ce d5 bc e3 de 83 be ff 71 c3 3b 6b 79 a8 3c
       -0.026099615 -0.25755987 0.005964517 0.02056571
0002f0 b3 c2 1e bc b7 8c aa 3a 8f a6 e1 3c 43 dc 1f be
       -0.009689975 0.0013011907 0.027545242 -0.15611367
000300 07 b3 f3 bc 00 89 80 be 01 d1 23 bf 9a d1 69 be
       -0.029748453 -0.25104523 -0.6399079 -0.22833863
000310 7a 59 df bc f9 8d 2f bf 3a 71 8f 3d d3 3c 87 be
       -0.027264345 -0.6857601 0.07004018 -0.26413593
000320 f0 f8 df bc 2e fb 3f be a6 87 c0 be 3a e9 bd 3b
       -0.027340382 -0.18748161 -0.37603492 0.005795625
000330 d4 5f fe bf 78 71 0b 3d 63 cd 27 3e 09 f0 3b 3d
       -1.9872994 0.03404376 0.16386943 0.045883212
000340 1e 2e 4c bc cb c6 67 39 8a 04 8c 3b 93 07 a1 3d
       -0.012462167 0.00022103933 0.004273002 0.07862773
000350 cb 40 37 bb 37 e2 92 bc 37 70 aa 3b df 6d 24 be
       -0.0027962204 -0.017930133 0.0052013653 -0.16057537
000360 cd ba 06 bd 7e fe 0b 3e b8 24 9f bb a6 35 ce be
       -0.03289299 0.136713 -0.004856672 -0.40275306
000370 4b 54 f2 be 87 93 8d bf 83 80 04 bb 7c 87 af bf
       -0.47329935 -1.1060647 -0.00202182 -1.3713222
000380 8a 3e d0 3c 93 0f d3 3c 02 4e ae 3d 17 68 cc bd
       0.025420446 0.025764262 0.085109726 -0.09980791
000390 39 4c b1 3c 83 71 7e 3c dd 2e 49 be a8 2c 7b bc
       0.021642791 0.015529993 -0.19646783 -0.015330471
0003a0 ea b3 81 bc 0f 04 51 be 35 38 0b bf da 1b 05 3e
       -0.01583286 -0.20411704 -0.5438264 0.12998906
0003b0 07 a0 da 3c 66 cb 17 bc d0 9c 25 bd 75 1a 05 3b
       0.026687635 -0.009264803 -0.04043275 0.002030996
0003c0 4c e6 59 be db fd fb 3c f4 00 cc bc bd d7 22 3e
       -0.21279258 0.030760696 -0.024902798 0.1590261
0003d0 cb 09 be 3b 2b cf 0e 3e 2b ec 2c 3e c4 72 a5 bf
       0.0057995073 0.13946216 0.16886966 -1.2925649
0003e0 41 a3 68 3d ea cd 99 3f a3 16 0e be 98 69 4b be
       0.056796316 1.2015965 -0.13875823 -0.198645
0003f0 b3 cd df bc 84 48 ea 3d 4e 4d 7d bd 7b 93 96 3c
       -0.027319765 0.114396125 -0.0618413 0.018380871
