TD3-conf1/preTrained/TD3_BipedalWalker-v3_0_crtic_2_ep200.pth (torch_old, 529772 bytes, 5 tensors)

l1.weight f4 [400, 28]
-0.21995854 -0.041710224 -0.20758648 0.093425475 -0.10464398 -0.0074345684 0.23139837 0.027208997
-0.19837628 0.21428077 0.1777366 0.21343695 0.115485646 -0.11757199 -0.13239317 -0.3238159
-0.37481782 -0.34773514 -0.14203098 -0.077765726 -0.34583303 -0.16092817 -0.3720387 -0.31975833
0.30953854 0.005619306 0.1380924 0.024069848 -0.10981467 -0.6030902 0.059310462 0.23422514
0.57858497 0.27256265 -0.118720315 0.14394139 -0.35958034 0.6914171 -0.032448158 -0.21029158
0.009226786 -0.056478433 0.19830357 0.122976944 -0.026036125 -0.01978956 0.01745764 0.20213148
0.08520015 0.013400757 -0.09711951 0.2089475 0.1267671 0.093264006 -0.100893885 0.21456757
-0.14849102 0.069220416 -0.20676687 -0.7229879 -0.27301678 -0.2883336 0.09854913 0.11984603
0.41954795 -0.019608589 -0.20180644 0.27128735 -0.06780809 0.06848236 -0.32397258 -0.46378756
-0.18928415 -0.15254001 -0.15943818 -0.1145546 -0.23100689 -0.25741422 -0.09344494 -0.16566727
0.2827659 0.15204847 0.38130677 0.22796053 -0.008076191 0.26461905 0.6355013 -0.21362476
0.03819044 -0.11216747 0.24863097 0.14990652 -0.28332824 0.22699603 -0.0053401073 -0.118190415
0.30264917 -0.12638876 -0.22223908 -0.22295277 -0.11658249 -0.3751689 -0.2046941 -0.1638387
-0.46892744 -0.45283142 -0.3453523 -0.18553257 0.3228946 0.17293082 0.23289786 -0.006011597
-0.11633131 0.17965055 0.66718245 -0.17778672 -0.1061656 -0.29052445 0.24067532 0.038407974
-0.2828763 -0.07568794 0.16365911 -0.014127083 0.14978512 -0.14525858 -0.62430763 -0.44097725
-0.6548522 -0.38440895 -0.34172356 -0.57782483 -0.32418326 -0.38388824 -0.63603544 -0.49088657
0.27575672 0.24621274 0.15168484 -0.080582924 -0.05905655 0.1896095 -0.13949807 -0.6650346
-0.3079956 -0.2679239 -0.0589027 -0.19048102 -0.19534631 0.19916403 0.7262735 0.053947687
0.44033304 -0.13039868 -0.18037501 -0.13063532 -0.32578284 -0.20748462 -0.36194986 -0.20326771
-0.19016226 -0.24412839 -0.23724899 0.08545572 -0.12127074 0.11988476 0.26536074 0.052950677
-0.09565994 -0.4458567 -0.7619595 -0.0796451 0.5245702 -0.15661837 -0.14394292 -0.16424073
-0.62562835 0.008389437 0.5772202 -0.07521386 0.12424609 -0.14349487 -0.2999696 0.008235618
0.003230983 -0.3361037 -0.20666695 -0.32128268 -0.062264305 -0.12846105 -0.24828924 -0.04058021
-0.06928368 -0.14494139 0.21411361 0.10345786 0.05986942 0.0676103 -0.050658558 -0.09504195
-0.014361469 -0.0821954 0.11041379 0.083755486 0.08249237 0.12363704 -0.016155086 0.080859266
0.090916194 0.09823431 -0.31208968 -0.07956463 -0.13621897 -0.17068559 -0.09411306 -0.37065086
-0.023785535 -0.20175925 -0.16082542 -0.3433866 0.10191899 -0.035460982 0.14370811 0.001415466
-0.14576179 0.06998575 -0.110484615 -0.091859214 -0.075964935 -0.1512793 0.12566322 0.22081389
-0.105279736 0.022561202 0.15481707 0.14824232 0.041749183 0.14356047 -0.2625432 -0.19125916
-0.1955299 -0.3844292 -0.15876384 -0.3159819 -0.09628158 -0.33462355 -0.19841857 -0.082806066
-0.050594915 -0.024362952 0.20587164 0.12151484 -0.17630714 -0.8342542 0.4630789 -0.6653892
00000000: d03c 61be 57d8 2abd 8d91 54be db55 bf3d
00000010: 954f d6bd ae9d f3bb b2f3 6c3e 67e5 de3c
00000020: 2723 4bbe 6b6c 5b3e 9500 363e 378f 5a3e
00000030: bd83 ec3d 95c9 f0bd 1392 07be 33cb a5be
00000040: 1fe8 bfbe 570a b2be 9270 11be a343 9fbd
00000050: 0711 b1be 5bca 24be db7b bebe 5db7 a3be
00000060: d67b 9e3e 2822 b83b 1868 0d3e 212e c53c
00000070: 84e6 e0bd 1f64 1abf 87ef 723d b7d8 6f3e
00000080: 251e 143f 558d 8b3e a323 f3bd 5f65 133e
00000090: ea1a b8be b600 313f 5ce8 04bd ad56 57be
000000a0: f22b 173c ee55 67bd 1710 4b3e 56db fb3d
000000b0: b649 d5bc b71d a2bc 5303 8f3c 8efb 4e3e
000000c0: 6b7d ae3d d98e 5b3c 98e6 c6bd 55f6 553e
000000d0: 3ccf 013e 3301 bf3d 74a1 cebd 9ab7 5b3e
000000e0: 080e 18be 6fc3 8d3d b2ba 53be bc15 39bf
000000f0: dbc8 8bbe 76a0 93be 20d4 c93d d671 f53d
00000100: fdce d63e 31a2 a0bc 59a6 4ebe 2de6 8a3e
00000110: f8de 8abd 7b40 8c3d bcdf a5be 9075 edbe
00000120: b4d3 41be 7333 1cbe c343 23be 9a9b eabd
00000130: 128d 6cbe cccb 83be 1060 bfbd aea4 29be
00000140: b1c6 903e 98b2 1b3e a43a c33e 7c6e 693e
00000150: 0052 04bc 267c 873e 37b0 223f 73c0 5abe
00000160: 946d 1c3d 0fb8 e5bd 1e99 7e3e 1881 193e
00000170: 6610 91be a671 683e 11fc aebb d10d f2bd
00000180: d5f4 9a3e 0e6c 01be a492 63be bb4d 64be
00000190: cdc2 eebd 2316 c0be 559b 51be 55c5 27be
000001a0: 4217 f0be 85d9 e7be 04d2 b0be 40fc 3dbe
000001b0: 7152 a53e c714 313e c77c 6e3e eefc c4bb
000001c0: 1c3f eebd 50f6 373e 78cc 2a3f b90d 36be
000001d0: 5a6d d9bd 9fbf 94be 9773 763e ae51 1d3d
000001e0: 2ad5 90be 4702 9bbd 4196 273e 4875 67bc
000001f0: 4561 193e aabe 14be a0d2 1fbf c5c7 e1be
00000200: 65a4 27bf 40d1 c4be 64f6 aebe 54ec 13bf
00000210: 59fb a5be 008d c4be 38d3 22bf 7c55 fbbe
00000220: fc2f 8d3e 311f 7c3e 4553 1b3e a908 a5bd
00000230: 48e5 71bd fe28 423e 95d8 0ebe b53f 2abf
00000240: 99b1 9dbe 522d 89be f543 71bd 750d 43be
00000250: dd08 48be a8f1 4b3e 0fed 393f 40f8 5c3d
00000260: 5573 e13e 3b87 05be 3ab4 38be 44c5 05be
00000270: 02cd a6be d976 54be 7e51 b9be 6925 50be
00000280: e5b9 42be cbfc 79be 66f1 72be 6903 af3d
00000290: cb5c f8bd 2486 f53d 5ddd 873e cfe2 583d
000002a0: 5ce9 c3bd 5447 e4be c70f 43bf f81c a3bd
000002b0: 3c4a 063f 9160 20be c665 13be b92e 28be
000002c0: 2e29 20bf d973 093c b4c4 133f b909 9abd
000002d0: bc74 fe3d 52f0 12be 9e95 99be afee 063c
000002e0: e6be 533b c915 acbe 80a0 53be 2a7f a4be
000002f0: db08 7fbd 4b8b 03be 893f 7ebe 6f37 26bd
00000300: 9ae4 8dbd 846b 14be 9940 5b3e b7e1 d33d
00000310: a339 753d 4577 8a3d 597f 4fbd 5ba5 c2bd
00000320: 5e4c 6bbc 1056 a8bd a020 e23d ff87 ab3d
00000330: c2f1 a83d 6b35 fd3d ac57 84bc 8b99 a53d
00000340: 4532 ba3d 122f c93d 38ca 9fbe c8f2 a2bd
00000350: fc7c 0bbe 34c8 2ebe 59be c0bd f3c5 bdbe
00000360: e2d9 c2bc fa99 4ebe 6baf 24be 5ed0 afbe
00000370: e7ba d03d 893f 11bd 3828 133e 2887 b93a
00000380: 9442 15be b054 8f3d c245 e2bd af20 bcbd
00000390: 8193 9bbd f6e8 1abe dcad 003e 091d 623e
000003a0: e79c d7bd 45d2 b83c 5e88 1e3e d6cc 173e
000003b0: 3101 2b3d 8401 133e 106c 86be 71d9 43be
000003c0: fd38 48be e7d3 c4be fd92 22be 61c8 a1be
000003d0: 472f c5bd c753 abbe 3d2e 4bbe 3a96 a9bd
000003e0: 9d3c 4fbd d094 c7bc 04d0 523e c6dc f83d
000003f0: dc89 34be af91 55bf ad18 ed3e f256 2abf

l1.bias f4 [400]
-0.04686833 -0.11910025 0.3583746 -0.1060076 -0.05684178 0.22456661 -0.19862488 0.005562551
-0.13684404 0.17355795 0.3532581 -0.29985222 -0.04483092 0.027261412 0.05284169 0.26367757
0.14193723 -0.05338527 -0.090584755 -0.03971996 0.12725481 -0.25161642 0.17916672 -0.014194816
0.33791238 -0.11564962 0.045187116 -0.08001668 -0.17395124 0.22143373 -0.17408445 -0.034500416
0.0005044183 -0.23023471 -0.15676647 -0.18319613 -0.112969905 -0.2163277 0.21307628 0.17195863
0.1566084 0.41136476 -0.023285596 -0.23213895 0.067919105 0.14899911 -0.1155641 0.07652369
0.02648485 0.16929513 0.037852388 0.21761598 -0.08133673 -0.14435855 0.1099949 -0.09729375
-0.0317432 0.06116579 0.26219863 0.3087066 0.25817642 0.07558481 -0.17416963 -0.17865169
-0.030100172 0.08167346 0.03189112 0.116751514 -0.043029953 -0.10898815 -0.1920682 0.09103447
0.37731203 -0.1333551 -0.043856334 -0.0994114 0.1998376 0.32385418 0.17668395 -0.24427426
-0.0646554 0.4576544 -0.16535045 -0.16910107 -0.019229993 0.1929031 -0.048517335 -0.010557881
0.08317347 0.24891914 -0.21068904 -0.15977757 -0.010326838 0.4119499 -0.099974975 -0.033662856
-0.1216269 0.13297655 -0.23094006 0.2980002 -0.18447205 0.021523958 0.3308918 0.12756467
0.0060749366 -0.23855214 0.08248639 0.1392428 0.052491613 -0.27096555 0.4197797 -0.28999722
0.16282143 0.060941897 -0.035811458 0.33478814 0.2512059 -0.1525671 0.15382499 0.008055303
-0.056001026 0.0024388307 0.08670251 0.09541134 0.22097084 0.033607822 0.3760307 -0.16515796
-0.11256026 -0.13712671 -0.071281254 -0.14598203 -0.24627864 0.113652274 0.09864756 -0.22976783
-0.31145146 -0.12628852 -0.23232621 -0.028942574 0.052789886 -0.1671794 0.0397605 -0.17287157
0.134966 -0.102276534 -0.037461594 0.30367935 0.4047748 0.1126754 0.1518331 -0.055900104
-0.31074056 -0.11457572 -0.12848367 -0.20921966 -0.036913887 0.008804143 -0.008724441 0.0411795
0.11756054 0.20863242 -0.092685714 -0.03730621 -0.083954565 -0.069904484 0.11573183 -0.19319357
-0.12104902 0.115050256 -0.073866546 0.023383927 -0.19702221 -0.13322248 0.24146794 0.21103564
0.14414309 -0.13178134 -0.3444674 -0.22524095 0.024572965 0.22691023 -0.16981515 -0.16347249
-0.21503285 -0.043992415 0.020574842 -0.24671823 -0.077850856 -0.111307815 -0.2163439 -0.13806662
0.02450757 -0.041042373 -0.12126767 0.33978495 0.16275282 0.2706827 -0.11852934 -0.20415625
-0.10663261 -0.1878037 0.029680694 0.16263953 -0.22053744 0.057284344 -0.05434606 0.20442681
-0.08145394 0.12558258 -0.048143618 -0.07169373 -0.0862607 -0.20255202 0.041011546 0.04744859
-0.26493254 -0.23287962 0.04629632 0.20926033 0.2078125 0.2333234 -0.106069304 -0.075853236
0.07524398 -0.19221722 0.07916761 0.08226152 0.25345486 0.37845486 -0.12909596 -0.059092447
0.0833285 -0.13559738 0.32003513 -0.0010747905 0.30473736 0.40314582 -0.004758055 0.34557384
0.4601429 0.0009700582 -0.12228682 0.060290754 -0.110920325 0.3373542 -0.1116773 -0.2532093
0.38860545 0.13229316 0.31625527 -0.025827758 0.39474443 -0.08141488 -0.16242006 -0.1658791
00000000: 02f9 3fbd d5ea f3bd e07c b73e 831a d9bd
00000010: edd2 68bd caf4 653e 5264 4bbe 0f46 b63b
00000020: d820 0cbe 2db9 313e 3fde b43e 3b86 99be
00000030: a0a0 37bd 5353 df3c 8770 583d bf00 873e
00000040: fe57 113e 83aa 5abd 8084 b9bd 66b1 22bd
00000050: 164f 023e ded3 80be 7b77 373e 6091 68bc
00000060: da02 ad3e b5d9 ecbd 2016 393d c9df a3bd
00000070: 4620 32be 86bf 623e 3243 32be 4f50 0dbd
00000080: f03a 043a a6c2 6bbe 6487 20be c497 3bbe
00000090: c45c e7bd 0285 5dbe ab30 5a3e ec15 303e
000000a0: f45d 203e 679e d23e 6fc1 bebc d5b5 6dbe
000000b0: 2c19 8b3d 3993 183e dfac ecbd 74b8 9c3d
000000c0: c2f6 d83c b45b 2d3e 1b0b 1b3d b9d6 5e3e
000000d0: df93 a6bd bad2 13be 0245 e13d f241 c7bd
000000e0: 2805 02bd fb88 7a3d e63e 863e cb0e 9e3e
000000f0: b32f 843e 35cc 9a3d 8659 32be 78f0 36be
00000100: a394 f6bc 6a44 a73d 43a0 023d 6b1b ef3d
00000110: 2d40 30bd 2e35 dfbd 87ad 44be 4870 ba3d
00000120: 0b2f c13e 3d8e 08be b3a2 33bd 3498 cbbd
00000130: 3aa2 4c3e 37d0 a53e a3ec 343e 0823 7abe
00000140: 0d6a 84bd ad51 ea3e a151 29be d528 2dbe
00000150: 3888 9dbc 6488 453e 1dba 46bd f6fa 2cbc
00000160: da56 aa3d a9e4 7e3e debe 57be bb9c 23be
00000170: e631 29bc 19eb d23e aebf ccbd 10e2 09bd
00000180: 8617 f9bd 012b 083e 8d7b 6cbe 7b93 983e
00000190: 3ee6 3cbe 0353 b03c a66a a93e 50a0 023e
000001a0: 4310 c73b 0347 74be a0ee a83d aa95 0e3e
000001b0: 7201 573d ffbb 8abe 5ded d63e 847a 94be
000001c0: a9ba 263e 369e 793d 09af 12bd 5a69 ab3e
000001d0: 0f9e 803e 8d3a 1cbe 4c84 1d3e 64fa 033c
000001e0: 5561 65bd cad4 1f3b 1691 b13d 0567 c33d
000001f0: 2e46 623e 5ba8 093d 1987 c03e 2b1f 29be
00000200: fe85 e6bd f26a 0cbe e8fb 91bd 507c 15be
00000210: 7830 7cbe 86c2 e83d bb07 ca3d 4248 6bbe
00000220: 9176 9fbe c751 01be ece6 6dbe fa18 edbc
00000230: 353a 583d 1431 2bbe e8db 223d 3f05 31be
00000240: 8734 0a3e 5c76 d1bd 5471 19bd dc7b 9b3e
00000250: a53e cf3e 5cc2 e63d 237a 1b3e 82f7 64bd
00000260: 6319 9fbe ada6 eabd 3991 03be ae3d 56be
00000270: 0433 17bd 413f 103c f5f0 0ebc d6ab 283d
00000280: 95c3 f03d bda3 553e 02d2 bdbd 65ce 18bd
00000290: 5ff0 abbd 152a 8fbd cf04 ed3d 89d4 45be
000002a0: 8ce8 f7bd 789f eb3d 5847 97bd a68f bf3c
000002b0: 31c0 49be 796b 08be 5f43 773e ba19 583e
000002c0: 3f9a 133e b0f1 06be 085e b0be 90a5 66be
000002d0: 3e4d c93c 285b 683e 06e4 2dbe 5565 27be
000002e0: 9231 5cbe 6431 34bd 928c a83c b4a3 7cbe
000002f0: 4570 9fbd 5af5 e3bd 4189 5dbe 5661 0dbe
00000300: 19c4 c83c 0c1c 28bd 2f5b f8bd 4bf8 ad3e
00000310: ada8 263e ec96 8a3e 83bf f2bd 560e 51be
00000320: 3362 dabd 9d4f 40be ed24 f33c fa8a 263e
00000330: 91d4 61be fda2 6a3d f999 5ebd 4355 513e
00000340: 53d1 a6bd b898 003e 3e32 45bd 2ad4 92bd
00000350: 73a9 b0bd cc69 4fbe b9fb 273d 7459 423d
00000360: 3da5 87be ff77 6ebe 36a1 3d3d 5748 563e
00000370: cdcc 543e 54ec 6e3e dd3a d9bd f158 9bbd
00000380: 8419 9a3d 97d4 44be a122 a23d ba78 a83d
00000390: d6c4 813e d6c4 c13e bb31 04be ec0a 72bd
000003a0: 22a8 aa3d 0ada 0abe a5db a33e fcdf 8cba
000003b0: 8906 9c3e 2169 ce3e 75e9 9bbb 0eef b03e
000003c0: da97 eb3e 814b 7e3a 8371 fabd 70f3 763d
000003d0: 322a e3bd b1b9 ac3e 11b7 e4bd a6a4 81be
000003e0: 4bf7 c63e dc77 073e 36ec a13e bc94 d3bc
000003f0: f11b ca3e d8bc a6bd 7251 26be 36dc 29be

l2.weight f4 [300, 400]
-0.033957906 -0.0066706818 -0.018453155 -0.003033407 -0.0077479496 0.0072089587 -0.033291973 -0.023430662
-0.053735975 -0.008413359 0.023546705 0.03195625 -0.030750532 -0.036632054 0.048146438 0.027120516
0.020469632 -0.009736102 0.018074807 0.005588526 0.0068538794 -0.008322351 -0.02697445 0.0331732
0.013872503 -0.028694607 -0.044938367 0.012177326 0.044174667 0.020259531 0.0021179875 0.007224371
0.039892346 0.02799626 0.0132578965 0.03899196 0.039884765 -0.015889097 -0.017565116 0.007116928
-0.041113906 -0.011726249 0.02188165 0.019367885 0.046396088 -0.03200133 0.025450418 -0.010603707
-0.022734124 -0.024929889 0.034937322 -0.011088739 -0.037957847 -0.03719862 0.016643375 0.005355321
0.016557997 -0.042557698 0.035091054 -0.056833692 -0.02412294 0.024683762 -0.0069380105 -0.033675127
-0.027520372 -0.043913435 0.0023914916 0.03670237 -0.023963798 -0.03929166 -5.7517173e-05 -0.03225229
0.008358003 -0.020127663 -0.028145205 0.011895724 0.039043944 0.02850578 0.042613443 -0.045867283
0.0045664143 -0.021972526 -0.0013944209 0.027174309 -0.03918437 -0.03247086 -0.021307876 -0.023596225
-0.008241979 0.029810606 0.031017648 -0.008185692 -0.0458755 -0.012267935 0.02201948 0.03317399
0.039325815 -0.026111955 -0.014494389 -0.027540108 0.0074086157 -0.011468171 -0.0070637073 -0.048698332
0.017302867 -0.011417635 -0.0057077487 -0.016331937 -0.0019386606 -0.035793416 -0.046236154 0.0446896
0.0030894105 -0.04165237 0.027112823 0.03985273 -0.042363226 -0.04418506 -0.047075547 0.034061924
-0.039028645 0.03753949 -0.009536155 -0.057754748 -0.0073344894 -0.02511093 0.036357503 -0.027380783
0.0497321 -0.047249008 0.0025608013 0.03657006 0.00690829 -0.02753487 -0.05674581 0.009949125
-0.012096645 -0.016947899 -0.0018261394 0.0048521427 -0.032586392 -0.015604242 0.020676065 -0.021328896
-0.025899779 -0.014659427 -0.019946462 -0.006632455 -0.017862597 -0.021907266 -0.02590941 0.03674749
-0.046323914 0.03002065 -0.0047976 0.028922569 0.04577212 0.019539576 0.007875599 -0.04512834
-0.029129667 0.0154775875 0.028590033 0.030093912 -0.025993902 -0.040272094 -0.01802046 -0.0106943175
-0.02350548 -0.02838985 -0.043383766 0.04577666 0.016637139 0.013124827 0.0030367651 0.04749954
-0.044244584 0.0038202147 0.036198113 -0.021104151 0.040986147 -0.008590464 0.01810373 -0.035013612
0.048644204 -0.023448898 -0.038797446 -0.008508604 0.016998712 0.04046673 -0.028612334 0.011255365
-0.010589328 0.027615864 -0.0017219301 0.02204041 0.023019867 -0.056427184 -0.032955654 0.029538747
-0.050310057 0.011896312 0.011237474 0.03450919 -0.046006814 -0.04565698 0.015998278 0.013613831
0.0017280319 0.019443816 -0.019824577 -0.01603232 -0.030843006 -0.023059402 -0.019217009 -0.029921524
-0.050276138 -0.039902944 -0.051501017 0.010491192 -0.003456939 0.008872151 -0.04481345 -0.045522135
-0.008396118 -0.02929308 -0.04425699 0.034020163 -0.026938912 -0.0020785553 -0.021508921 -0.03937368
-0.026827842 -0.042554945 -0.03213218 -0.0037799403 -0.023410765 0.036878873 -0.011265494 0.00017875725
-0.0154418135 0.007817976 -0.031435847 0.0026803399 0.024716575 -0.018785229 -0.053977348 0.018750843
0.00750988 -0.04453941 -0.051928222 0.0011165366 -0.05147896 -0.038747836 0.011975873 -0.035983253
00000000: 7217 0bbd bc95 dabb 122b 97bc 20cc 46bb
00000010: 83e2 fdbb 2139 ec3b 2a5d 08bd a9f1 bfbc
00000020: 411a 5cbd 2fd8 09bc 05e5 c03c 8fe4 023d
00000030: 8ae8 fbbc 7e0b 16bd 3335 453d d82b de3c
00000040: eeaf a73c 2c84 1fbc 9e11 943c f41f b73b
00000050: 8296 e03b 785a 08bc 86f9 dcbc 9fe0 073d
00000060: 7f49 633c f410 ebbc 4b11 38bd 6883 473c
00000070: 7ff0 343d 51f7 a53c efcd 0a3b 6bba ec3b
00000080: 2866 233d 6a58 e53c a637 593c 09b6 1f3d
00000090: 355e 233d da29 82bc b8e4 8fbc 1f35 e93b
000000a0: 0e67 28bd 741f 40bc 2541 b33c 66a9 9e3c
000000b0: d309 3e3d d413 03bd 657d d03c 2cbb 2dbc
000000c0: ea3c babc c439 ccbc 701a 0f3d 8bad 35bc
000000d0: b079 1bbd 955d 18bd b057 883c b07b af3b
000000e0: a3a4 873c fb50 2ebd a3bb 0f3d 72ca 68bd
000000f0: 799d c5bc 9a35 ca3c 4058 e3bb eeee 09bd
00000100: 6772 e1bc 93de 33bd 92ba 1c3b 3955 163d
00000110: ba4f c4bc 4bf0 20bd 983e 71b8 fa1a 04bd
00000120: 01f0 083c c5e2 a4bc c690 e6bc 48e6 423c
00000130: 8bec 1f3d f484 e93c 6f8b 2e3d 55df 3bbd
00000140: dca1 953b baff b3bc 00c5 b6ba a89c de3c
00000150: ca7f 20bd 2a00 05bd db8d aebc df4c c1bc
00000160: 5e09 07bc 5f35 f43c b918 fe3c 481d 06bc
00000170: f3e7 3bbd 73ff 48bc 3262 b43c 73e1 073d
00000180: 1b14 213d bde8 d5bc e079 6dbc cb9b e1bc
00000190: f9c3 f23b ffe4 3bbc ac76 e7bb e777 47bd
000001a0: bebe 8d3c 0811 3bbc 1108 bbbb 8eca 85bc
000001b0: a81a feba 1e9c 12bd 1f62 3dbd 710c 373d
000001c0: b577 4a3b ad9b 2abd b61b de3c 9e3c 233d
000001d0: 1085 2dbd 65fb 34bd 4ad2 40bd 8484 0b3d
000001e0: 80dc 1fbd 02c3 193d 883d 1cbc 3e90 6cbd
000001f0: 2856 f0bb 70b5 cdbc 9beb 143d aa4d e0bc
00000200: e3b3 4b3d 2d88 41bd 1ed3 273b 7dca 153d
00000210: f05e e23b cf90 e1bc 4b6e 68bd a801 233c
00000220: 0231 46bc 52d6 8abc 125b efba b9fe 9e3b
00000230: 4f79 05bd efa8 7fbc da60 a93c f0b9 aebc
00000240: c62b d4bc 182e 70bc c366 a3bc 1155 d9bb
00000250: 9554 92bc de76 b3bc f93f d4bc 8984 163d
00000260: 25be 3dbd deed f53c 3035 9dbb 06ef ec3c
00000270: 8c7b 3b3d 7611 a03c a808 013c 7fd8 38bd
00000280: 57a1 eebc b595 7d3c a535 ea3c 8287 f63c
00000290: 2af1 d4bc 5af4 24bd a59f 93bc 3837 2fbc
000002a0: 908e c0bc d591 e8bc 2db3 31bd 4f80 3b3d
000002b0: 9c4a 883c 8409 573c 7704 473b e18e 423d
000002c0: cf39 35bd 915c 7a3b 7944 143d 9de2 acbc
000002d0: 17e1 273d 04bf 0cbc 464e 943c 6f6a 0fbd
000002e0: 253f 473d e717 c0bc 12ea 1ebd ac67 0bbc
000002f0: e240 8b3c 71c0 253d 6a64 eabc 6c68 383c
00000300: dc7e 2dbc aa3a e23c 63b2 e1ba 178e b43c
00000310: 2994 bc3c 3120 67bd 82fc 06bd 3efb f13c
00000320: eb11 4ebd c0e8 423c 621d 383c 8259 0d3d
00000330: a471 3cbd d002 3bbd d20e 833c 8c0c 5f3c
00000340: 217f e23a a348 9f3c 2767 a2bc 3656 83bc
00000350: 79aa fcbc 12e7 bcbc fd6c 9dbc fc1d f5bc
00000360: 5aee 4dbd 4571 23bd bbf2 52bd 40e3 2b3c
00000370: d08d 62bb 805c 113c 4f8e 37bd 6b75 3abd
00000380: df8f 09bc 0bf8 efbc d146 35bd ba58 0b3d
00000390: feae dcbc 5f38 08bb 7a33 b0bc 4c46 21bd
000003a0: 10c6 dbbc 184e 2ebd 089d 03bd e0b8 77bb
000003b0: efc7 bfbc 4d0e 173d e892 38bc c970 3b39
000003c0: a9ff 7cbc f816 003c e0c2 00bd a4a8 2f3b
000003d0: 6a7a ca3c 7be3 99bc 5a17 5dbd 5e9b 993c
000003e0: 7015 f63b f56e 36bd b0b2 54bd c058 923a
000003f0: 9adb 52bd 0db6 1ebd 7436 443c 2d63 13bd

l2.bias f4 [300]
-0.039074413 -0.0057537444 0.025333248 0.0462396 -0.051937036 -0.056527197 -0.08164549 0.09988803
-0.0025378612 0.014749464 -0.0573562 0.07560503 -0.054089732 -0.023635222 0.09464423 -0.06251853
0.017198801 0.01746891 -0.019759886 -0.01685397 0.1536267 0.1247631 0.13234073 -0.0056219916
-0.019651676 0.38755292 0.192349 -0.035949484 -0.010708548 -0.04502402 0.010261497 0.059029177
0.097161934 0.024054648 -0.062787764 -0.06687442 0.019050172 -0.055567425 0.01623743 -0.042086005
-0.055591334 0.04174544 0.09823866 0.09259595 0.39163488 0.35314158 0.025710607 -0.080620974
0.0068659573 -0.02915088 0.012320741 -0.1749232 -0.05270846 0.02121089 -0.016913693 0.08842274
0.059307106 0.0994502 -0.046728097 0.07487603 -0.012561118 0.033410452 0.09851298 0.010990432
0.03396146 -0.025898341 -0.032154046 0.0014187816 0.09517317 -0.022241939 -0.004635928 -0.07148622
0.10608679 0.4569422 -0.0054507474 0.07700514 0.43910185 0.027394757 0.42420116 -0.14127505
-0.041384775 -0.021924278 0.07900072 0.077301495 -0.024369886 -0.070520565 -0.003255811 -0.043002743
-0.01729884 0.028132915 0.007007071 -0.0740084 0.12862043 -0.020671401 0.015477863 -0.053393476
-0.078204356 0.038394466 0.02565984 -0.0561852 -0.0022890025 -0.038912453 0.036683507 -0.014952673
0.085294314 0.022842625 0.102576375 -0.03342504 -0.01995595 0.08627249 -0.055731166 0.07319013
-0.012767761 -0.00082167995 0.088580355 -0.058931034 -0.08069161 0.001553684 -0.31503063 0.02768455
0.018891918 -0.10579723 -0.051809672 -0.058498733 -0.06839741 -0.027933741 -0.18189666 -0.030883284
-0.01988375 -0.067219526 0.03008535 -0.10321929 0.09796565 0.18452208 -0.07736144 -0.056219608
-0.007893429 -0.019271605 -0.08008252 -0.05483704 0.024353417 -0.057635106 -0.01927865 0.043969847
0.045140475 0.14131379 -0.087673776 0.09952699 -0.0102200825 0.0266295 -0.027761536 -0.05447031
0.18651932 -0.04953845 0.030682312 0.04518438 -0.049537268 -0.084313355 -0.0010884119 0.06590281
0.3368588 -0.04124993 0.021286445 0.008577704 -0.015333178 -0.09264948 -0.06410838 0.010583128
-0.05043775 0.14573264 -0.001997014 0.008973667 0.020480335 -0.011229437 0.04812893 -0.029961439
-0.03954519 0.5189375 0.0065184315 -0.08461268 -0.061404105 0.0011822669 0.09196273 0.04834339
-0.07660045 0.06446905 -0.0069378046 -0.045579743 0.0016722155 0.0026819853 -0.034042068 0.027068274
-0.0045137336 0.36098966 -0.08759903 0.16970883 -0.059280973 0.44179365 -0.020253826 -0.011653851
-0.029208865 0.06590696 0.18139131 0.29131168 0.4266114 -0.01871824 -0.03343702 -0.025374034
0.006752258 -0.014876196 -0.048841804 -0.021900412 0.008917679 -0.016807413 -0.04293809 0.086980365
-0.012813598 -0.036893692 -0.03706578 -0.0146563435 0.08814545 0.0075870026 0.027988594 0.5083724
-0.034451604 -0.07729894 -0.012427535 0.056281216 -0.09033116 0.014257093 0.038748484 -0.051758356
-0.013310127 0.06304314 0.3954876 -0.03573298 -0.044608053 -0.0010781909 -0.05908721 -0.03512984
0.05485874 -0.035921242 -0.05987301 -0.00059200835 -0.09799518 -0.058971267 -0.0688414 0.4380238
-0.01903658 -0.16162808 0.0929783 0.0770236 -0.06256491 -0.01470138 0.052395906 0.03152037
00000000: 7e0c 20bd e889 bcbb ac87 cf3c bc65 3d3d
00000010: eebb 54bd 1089 67bd c035 a7bd 1892 cc3d
00000020: 3f52 26bb bca7 713c 56ee 6abd cfd6 9a3d
00000030: 328d 5dbd a79e c1bc d6d4 c13d b709 80bd
00000040: 80e4 8c3c f61a 8f3c 7cdf a1bc 5611 8abc
00000050: 5150 1d3e cc83 ff3d 5484 073e af38 b8bb
00000060: 8dfc a0bc 566d c63e 23f7 443e c43f 13bd
00000070: e872 2fbc 1b6b 38bd d71f 283c 94c8 713d
00000080: d6fc c63d 410e c53c df96 80bd 75f5 88bd
00000090: 1b0f 9c3c ab9a 63bd 5c04 853c 6062 2cbd
000000a0: bdb3 63bd 44fd 2a3d 5a31 c93d f2a2 bd3d
000000b0: 5e84 c83e f9ce b43e 0d9f d23c 9c1c a5bd
000000c0: d3fb e03b d4cd eebc efdc 493c 111f 33be
000000d0: d3e4 57bd 76c2 ad3c 968e 8abc fb16 b53d
000000e0: 02ec 723d 8cac cb3d f665 3fbd 9b58 993d
000000f0: 26cd 4dbc 66d9 083d 2cc1 c93d 3711 343c
00000100: 2c1b 0b3d c228 d4bc f6b3 03bd 69f6 b93a
00000110: 27ea c23d ba34 b6bc fce8 97bb 5e67 92bd
00000120: 0844 d93d 54f4 e93e 2f9c b2bb dfb4 9d3d
00000130: f5d1 e03e f86a e03c e530 d93e 68aa 10be
00000140: 1583 29bd 8b9a b3bc 21cb a13d 3f50 9e3d
00000150: 5ba3 c7bc 166d 90bd 725f 55bb a523 30bd
00000160: 4cb6 8dbc 0077 e63c 929b e53b b791 97bd
00000170: 13b5 033e 1257 a9bc dd96 7d3c 1eb3 5abd
00000180: 9b29 a0bd 8443 1d3d 9634 d23c 7422 66bd
00000190: 1703 16bb aa62 1fbd 7241 163d 0efc 74bc
000001a0: c9ae ae3d 7520 bb3c 9013 d23d b2e8 08bd
000001b0: a97a a3bc a2af b03d 5d46 64bd b5e4 953d
000001c0: df2f 51bc 0266 57ba 9e69 b53d ab61 71bd
000001d0: a541 a5bd fca4 cb3a b24b a1be b6ca e23c
000001e0: 39c3 9a3c 38ac d8bd 6136 54bd 5e9c 6fbd
000001f0: f113 8cbd 4dd5 e4bc 1e43 3abe f1fe fcbc
00000200: 3fe3 a2bc 64aa 89bd 8d75 f63c a364 d3bd
00000210: 37a2 c83d 5bf3 3c3e ad6f 9ebd 8846 66bd
00000220: 7153 01bc 7cdf 9dbc 4e02 a4bd ce9c 60bd
00000230: d180 c73c ca12 6cbd 42ee 9dbc ba19 343d
00000240: 38e5 383d 90b4 103e 4f8e b3bd ced4 cb3d
00000250: 2272 27bc 1c26 da3c 296c e3bc 431c 5fbd
00000260: ecfe 3e3e d4e8 4abd 7959 fb3c 4213 393d
00000270: 97e7 4abd 7bac acbd 0ba9 8eba 0df8 863d
00000280: c278 ac3e b0f5 28bd e960 ae3c 8089 0c3c
00000290: 0338 7bbc 03bf bdbd 414b 83bd db64 2d3c
000002a0: d097 4ebd f03a 153e 56e0 02bb 4a06 133c
000002b0: 60c6 a73c acfb 37bc d722 453d b171 f5bc
000002c0: 23fa 21bd 17d9 043f 9198 d53b 6a49 adbd
000002d0: df82 7bbd 4bf6 9a3a f556 bc3d b803 463d
000002e0: b2e0 9cbd 5908 843d 8656 e3bb d3b1 3abd
000002f0: 3e2e db3a 3fc4 2f3b b26f 0bbd 49be dd3c
00000300: f1e7 93bb a3d3 b83e 1f67 b3bd 27c8 2d3e
00000310: 9bd0 72bd c732 e23e 5aeb a5bc cbef 3ebc
00000320: 6e47 efbc 3afa 863d a5be 393e ce26 953e
00000330: cf6c da3e ff56 99bc 42f5 08bd 35dd cfbc
00000340: 0c42 dd3b 4abb 73bc 580e 48bd 7e68 b3bc
00000350: 751b 123c b3af 89bc dadf 2fbd c322 b23d
00000360: 20f0 51bc d71d 17bd 4ad2 17bd 2921 70bc
00000370: 9a85 b43d 649c f83b 5648 e53c b224 023f
00000380: 201d 0dbd e84e 9ebd dc9c 4bbc 2287 663d
00000390: 8bff b8bd 9596 693c bbb6 1e3d 9200 54bd
000003a0: b812 5abc c31c 813d 5a7d ca3e bf5c 12bd
000003b0: efb6 36bd 1552 8dba 6e05 72bd 4fe4 0fbd
000003c0: 8fb3 603d 2722 13bd 673d 75bd 0231 1bba
000003d0: b2b1 c8bd db8b 71bd b8fc 8cbd a844 e03e
000003e0: 9af2 9bbc d581 25be 686b be3d 8dbe 9d3d
000003f0: 0822 80bd 0fde 70bc 179d 563d 811b 013d

l3.weight f4 [1, 300]
-0.02454683 0.1893817 0.035742387 -0.1930906 0.005650308 0.014239244 0.23256429 -0.19016413
-0.0061872993 -0.03305658 0.18904099 -0.2053961 0.2235423 0.21303503 -0.21429326 -0.027083043
0.051347885 0.21100491 0.21998113 0.028344246 -0.30862984 -0.23769057 -0.17406282 -0.03479877
-0.031143526 -0.5063502 -0.28904682 0.26330873 0.03425975 0.21806243 0.03673382 -0.21404256
-0.19399141 -0.11799567 0.0010823478 0.22932075 -0.0024912425 0.2577987 0.21871069 0.041793253
0.2566628 -0.15910698 -0.16865067 -0.19888851 -0.36503476 -0.40387213 -0.3572664 0.015400784
0.24424957 -0.010386471 0.004814051 0.69701517 0.059399936 -0.003258884 0.2323004 -0.28240117
-0.2282856 -0.23783524 0.03672989 -0.2095867 -0.039931826 -0.1961233 -0.095399484 0.2680133
-0.1383778 0.22591354 0.25134027 -0.021438848 -0.2141396 0.21527405 0.033124223 0.036537495
-0.21292691 -0.44117865 -0.0036778117 -0.1612167 -0.37681457 -0.1865743 -0.3728285 0.5768311
0.020245787 0.2596094 -0.31662995 -0.2199692 -0.02895878 0.023752753 0.023746224 -0.02583171
-0.04098526 -0.024612043 0.03758105 -0.02454052 0.1618841 0.21782117 -0.11024477 0.23774949
0.022196736 -0.17105588 -0.2009029 0.04849207 0.007009061 0.008138419 0.014219922 0.0029085546
-0.31525514 -0.15506247 -0.15388563 0.24264441 -0.039761633 -0.32834598 -0.0028391131 -0.15629658
0.22138329 -0.024304627 -0.21828115 0.035533622 0.4537756 0.25335392 0.80308855 -0.17894174
0.19880918 -0.010595989 0.0042032357 0.21183729 0.014713179 0.25352758 0.29689166 0.22612692
-0.008286703 0.19766603 0.03009597 -0.0025113968 -0.23461288 -0.4596483 0.21857058 0.18967342
0.039480276 -0.0517695 0.22274208 0.21570629 0.04692883 0.032529745 0.02387414 -0.2272871
-0.24643533 -0.27102938 0.20163652 -0.171684 0.019698096 0.005011475 0.019764196 0.009102745
-0.26066878 0.20531197 0.008944905 -0.14343862 0.06403986 0.037615925 -0.45036975 -0.20946161
-0.36846963 0.02573111 -0.17282452 0.23072374 -0.01355614 0.003133682 0.20993854 -0.012223836
0.2082098 -0.19820592 0.20985217 -0.0155953895 0.03221464 -0.016614508 -0.18449225 0.03789512
0.045811966 -0.78856647 0.26834056 -0.0046420796 0.2487098 0.0101273395 -0.21039955 -0.15004131
-0.026099615 -0.25755987 0.018965205 0.02056571 -0.009689975 0.0013011907 0.027545242 -0.18787763
-0.0024936933 -0.3909376 0.1913848 -0.18693988 0.00449003 -0.47546017 0.22850722 0.1995751
-0.027340382 -0.21924731 -0.3322651 -0.27792493 -0.219421 0.2384591 0.2564316 0.0019438488
-0.012462167 0.00022103933 0.04420496 0.20614614 -0.03397628 0.013765199 0.036715683 -0.20745507
0.006750383 0.2756663 -0.004856672 0.20001696 -0.2412573 0.20247991 0.029704576 -0.82482255
0.025420446 0.025764262 0.23385873 -0.19384877 0.021642791 0.042381894 -0.205893 3.5888665e-05
-0.01583286 -0.21594775 -0.13883275 0.24945982 0.05183 -0.00040280927 0.002232427 0.002030996
-0.21279258 -0.0009853323 0.0017334054 0.23476231 0.0057995073 0.21029358 0.24427861 -0.8326413
0.056796316 0.62149143 -0.180716 -0.2304103 -0.027319765 0.20672043 -0.20672306 0.04324847
00000000: 6f16 c9bc 47ed 413e 9c66 123d 8bb9 45be
00000010: 3826 b93b b84b 693c 5525 6e3e 63ba 42be
00000020: d4be cabb 5666 07bd f693 413e 5b53 52be
00000030: 46e8 643e db25 5a3e b16f 5bbe 42dd ddbc
00000040: 2952 523d ac11 583e bc42 613e 3132 e83c
00000050: bb04 9ebe 2865 73be 863d 32be 2889 0ebd
00000060: b520 ffbc 2ba0 01bf f2fd 93be 67d0 863e
00000070: f453 0c3d c24b 5f3e 3476 163d f92d 5bbe
00000080: afa5 46be b7a7 f1bd 91dd 8d3a 0fd3 6a3e
00000090: 1d44 23bb 31fe 833e b2f5 5f3e 672f 2b3d
000000a0: 4e69 833e f1ec 22be c3b2 2cbe 6ea9 4bbe
000000b0: d6e5 babe 54c8 cebe 9feb b6be 9253 7c3c
000000c0: 8f1c 7a3e 042c 2abc 30bf 9d3b 966f 323f
000000d0: 594d 733d 0093 55bb 28e0 6d3e e396 90be
000000e0: b3c3 69be 158b 73be 1572 163d e59d 56be
000000f0: 8e8f 23bd 8cd4 48be ce60 c3bd 0a39 893e
00000100: e9b2 0dbe e155 673e acaf 803e 86a0 afbc
00000110: 6947 5bbe cd70 5c3e 44ad 073d 57a8 153d
00000120: 8309 5abe 2be2 e1be 7107 71bb fe15 25be
00000130: d7ed c0be 550d 3fbe 61e3 bebe 34ab 133f
00000140: 7eda a53c 86eb 843e 521d a2be 9b3f 61be
00000150: f73a edbc 2295 c23c 7187 c23c 069d d3bc
00000160: 29e0 27bd 329f c9bc 96ee 193d 3309 c9bc
00000170: f2c4 253e 830c 5f3e 03c8 e1bd 9a74 733e
00000180: eed5 b53c 4629 2fbe 7db9 4dbe 9f9f 463d
00000190: 44ac e53b 0157 053c adfa 683c 739d 3e3b
000001a0: 1f69 a1be b2c8 1ebe 3294 1dbe c777 783e
000001b0: 18dd 22bd f71c a8be 6a10 3abb 360c 20be
000001c0: 4db2 623e 7f1a c7bc 1885 5fbe b48b 113d
000001d0: 4755 e83e 9bb7 813e 3697 4d3f 813c 37be
000001e0: a294 4b3e cd9a 2dbc 4cbb 893b e0eb 583e
000001f0: 8c0f 713c 5ece 813e 2f02 983e d18d 673e
00000200: f4c4 07bc f768 4a3e d38b f63c 3f96 24bb
00000210: 5c3e 70be 0657 ebbe f7d0 5f3e c039 423e
00000220: 12b6 213d 410c 54bd 8016 643e 1ce2 5c3e
00000230: 7238 403d e93d 053d b393 c33c f3bd 68be
00000240: 8b59 7cbe 5dc4 8abe ce79 4e3e eecd 2fbe
00000250: e75d a13c 4d37 a43b 86e8 a13c ae23 153c
00000260: 6176 85be 4d3d 523e a78d 123c 93e1 12be
00000270: 5527 833d 2813 1a3d dd96 e6be 1b7d 56be
00000280: 0da8 bcbe 0cca d23c e9f8 30be d842 6c3e
00000290: 921a 5ebc 765e 4d3b 21fa 563e 7c46 48bc
000002a0: f334 553e 7ef6 4abe 7de3 563e ce83 7fbc
000002b0: 80f3 033d 261b 88bc 89eb 3cbe ea37 1b3d
000002c0: 54a5 3b3d 7edf 49bf ef63 893e 961c 98bb
000002d0: c8ad 7e3e 24ed 253c fb72 57be 6ea4 19be
000002e0: dcce d5bc e3de 83be eb5c 9b3c 6b79 a83c
000002f0: b3c2 1ebc b78c aa3a 8fa6 e13c fe62 40be
00000300: 3b6d 23bb f928 c8be 61fa 433e 2b6d 3fbe
00000310: 1a21 933b 846f f3be ccfd 693e 6a5d 4c3e
00000320: f0f8 dfbc 5e82 60be a71e aabe 2d4c 8ebe
00000330: e6af 60be 9f2e 743e 014b 833e bec8 fe3a
00000340: 1e2e 4cbc cbc6 6739 4310 353d f917 533e
00000350: b62a 0bbd 6e87 613c 2f63 163d 1a6f 54be
00000360: 5132 dd3b 2224 8d3e b824 9fbb 3fd1 4c3e
00000370: 270c 77be e556 4f3e 0357 f33c 9227 53bf
00000380: 8a3e d03c 930f d33c aa78 6f3e 4b80 46be
00000390: 394c b13c a398 2d3d 9dd5 52be 2987 1638
000003a0: eab3 81bc 6821 5dbe 2c2a 0ebe 6572 7f3e
000003b0: b24b 543d 2530 d3b9 e94d 123b 751a 053b
000003c0: 4ce6 59be 4426 81ba 6f33 e33a 8865 703e
000003d0: cb09 be3b 3357 573e 2c24 7a3e fb27 55bf
000003e0: 41a3 683d 101a 1f3f 9d0d 39be adf0 6bbe
000003f0: b3cd dfbc 85ae 533e 36af 53be 4f25 313d
