TD3-conf1/preTrained/TD3_BipedalWalker-v3_0_critic_1_target_ep100.pth (torch_old, 529768 bytes, 5 tensors)

l1.weight f4 [400, 28]
000000 8e 05 e7 3e ce c8 b6 3e 33 7b 09 bb 8e fa 2b bf
       0.45121425 0.35700077 -0.0020977973 -0.6717919
000010 b8 49 c4 3d aa 6c 90 bd d9 77 26 bd 68 57 cb bc
       0.09584373 -0.07051976 -0.04064164 -0.024821952
000020 0f 0e 58 bf 51 50 c2 3d dd 8c cb bc 44 c7 53 be
       -0.8439645 0.094879754 -0.024847442 -0.20681483
000030 0a 19 8f 3e 04 70 c8 3d 5c 35 81 be 3b 40 8a be
       0.2794879 0.0978699 -0.25236022 -0.2700213
000040 ed f9 24 be 8e cc f9 be c3 02 8c be c7 38 50 be
       -0.16110964 -0.48788875 -0.27345857 -0.20334159
000050 9e 04 7d be c7 56 6e be 0a 6d ec be 63 d1 f1 3d
       -0.24708793 -0.2327529 -0.4617694 0.118075155
000060 53 f7 99 bd 10 98 91 be 88 7b 12 3d cb e6 35 3d
       -0.075178765 -0.28436327 0.03576234 0.044409554
000070 5b 4e 6d 3e 8f e6 06 3e d0 e1 2f be dd 3c d7 3e
       0.23174421 0.13173889 -0.17175984 0.42038622
000080 e2 29 18 bd 8d 91 3f 3e e3 da a7 3d 5b 9e 02 3e
       -0.037149318 0.18707867 0.08196046 0.1275572
000090 51 a3 5e be 14 44 4f 3e 19 41 d9 bd ea e4 79 bd
       -0.21741988 0.20240813 -0.106081195 -0.061009325
0000a0 77 79 7b be d8 95 97 3c 36 a8 be 3e 86 00 aa 3e
       -0.24558054 0.018504068 0.3723771 0.33203524
0000b0 7a 13 ec 3d d9 84 63 3e ad ed 35 3e 98 4e 89 3e
       0.11527152 0.22218646 0.17766447 0.26817775
0000c0 68 f4 87 3e db 59 9a 3e 44 5f 3b 3e 34 a2 6e 3e
       0.26553655 0.3014668 0.1829806 0.23304063
0000d0 9a df 32 3e 1b 8f 28 3a cc 6f 1f be c3 59 2e bd
       0.1746811 0.0006430016 -0.15569991 -0.042566072
0000e0 e6 28 29 3f f5 1d 4a 3f a1 4e e8 bd a5 c0 2e bf
       0.6607803 0.7895196 -0.11343122 -0.682627
0000f0 38 56 8d 3e 96 6f ff 3b 3d aa 83 3d a6 88 1a bc
       0.27604842 0.0077952845 0.06428955 -0.009431994
000100 dd 7d 43 be df a8 31 3e f0 44 0e 3d ae 98 df bd
       -0.19090982 0.17349575 0.034733713 -0.10917793
000110 46 21 8f bc 1b 77 84 3d d5 46 ab be ff c7 d8 be
       -0.01747192 0.0646803 -0.33452478 -0.42340085
000120 81 94 2f be 1a e0 0f be a3 32 3b be 6d a8 b4 be
       -0.17146493 -0.14050332 -0.18281035 -0.3528475
000130 e8 7e e4 be 0a 81 6b be e7 12 bd be dd cb 87 3e
       -0.44628072 -0.22998443 -0.36928484 0.26522723
000140 77 85 85 bd 73 28 2f bd 22 7d 39 bd 5a 50 39 3c
       -0.06519597 -0.042763185 -0.04528535 0.011310661
000150 2d 79 d1 be 53 3e 40 be 47 11 79 3e d0 10 43 be
       -0.40912762 -0.18773775 0.24322997 -0.19049382
000160 ce d4 34 be 7a 77 6f be d2 6b 65 bd 73 6a 67 3e
       -0.17659304 -0.2338542 -0.05601103 0.22599201
000170 4b 1a 80 3d 13 a9 45 be 35 61 b7 3d 11 04 0d 3b
       0.06255015 -0.19302778 0.08954088 0.0021517316
000180 f4 56 cb 3e d4 9e db bc ac 92 b4 be 22 e1 8e be
       0.39714777 -0.026809134 -0.35268152 -0.27906138
000190 fd 21 99 be 6c 6f 8f be 8c f6 3c be 92 49 1e be
       -0.29908744 -0.28014696 -0.18453425 -0.15457752
0001a0 d3 c6 84 be 31 c4 8d be 38 fd 22 be 2e 79 5a be
       -0.2593294 -0.27688745 -0.15916908 -0.21335289
0001b0 72 16 64 be ce 99 01 be f3 1b ee 3d ae 9c 89 bd
       -0.22274187 -0.12656328 0.11626425 -0.067193374
0001c0 8e 76 c4 bd d0 24 6b 3e 31 9d 80 3f c3 62 d5 be
       -0.09592925 0.22963262 1.0047971 -0.41676912
0001d0 b6 9f 5e be 94 3a 81 3e fe 06 da bd f7 36 67 be
       -0.21740612 0.25240004 -0.10645865 -0.22579561
0001e0 c2 2c e5 be cb df 81 be b9 ca bf 3e a4 8e 78 be
       -0.4476071 -0.25366053 0.37459353 -0.24273163
0001f0 1f 07 a9 be 3f 71 e3 be ad 1b 69 be 4d 11 ba be
       -0.33013245 -0.44422337 -0.22764464 -0.36341324
000200 a1 a2 f1 be e6 59 04 bf 27 1d c3 be 51 fc 10 bf
       -0.47194389 -0.51699674 -0.3810818 -0.56635004
000210 2a e2 8f be ad 39 04 bf 1c b0 84 be 19 96 dc 3d
       -0.28102237 -0.51650506 -0.2591561 0.10770816
000220 e3 e7 50 3a 7c ac c0 3d aa df 12 3d df 7c 2f be
       0.0007969124 0.09407899 0.035857834 -0.17137478
000230 7e 46 2d 3e 01 45 f6 3e b8 fb a8 3e 22 e5 84 be
       0.16921422 0.4809952 0.33004546 -0.25956064
000240 5e 6c 6f 3e b9 de 48 be 94 dd c3 3e 3e 12 b4 3e
       0.23381183 -0.19616212 0.38254988 0.35170168
000250 de d4 10 bf 03 25 45 bd e9 f5 4f be 17 1d 0f 3e
       -0.5657481 -0.048131 -0.20308651 0.1397594
000260 04 ab f9 3e 66 9d 87 be df 8f cf be 75 94 40 be
       0.48763287 -0.26487273 -0.40539452 -0.18806632
000270 b1 cb 16 be b3 fa 07 be 26 e0 2a be 0f b5 b1 be
       -0.1472614 -0.13279228 -0.16687068 -0.3470845
000280 c3 ed ae be 7c a6 9c be 7b f5 1f be 98 2c 9e 3d
       -0.34165773 -0.30595767 -0.15620987 0.07723349
000290 1a 06 fc 3e 98 c1 1b 3d 93 8b b5 3e fe 95 b3 bd
       0.49223405 0.038026422 0.3545805 -0.08768843
0002a0 55 79 76 3e de 3a d1 3b 79 dd 49 3e ba 5b ad be
       0.24069722 0.0063851913 0.19713391 -0.33859044
0002b0 73 1a 6a be 24 5d 98 3e 5e ea 9e 3d cf d8 2b be
       -0.22861652 0.2975856 0.07759546 -0.16781925
0002c0 5f 6e 84 be 66 7e 0f bc c2 50 c9 3d 96 ac d7 3c
       -0.25865456 -0.008758163 0.098298565 0.026327413
0002d0 ed 0b 4a be 59 0f 02 3d 5c cc f8 3d 63 95 b0 3d
       -0.19731112 0.031752918 0.121483535 0.08622243
0002e0 75 e1 8b 3a 34 5f 8c 3e af ce 75 3e a4 d7 64 3e
       0.001067205 0.27416384 0.24004625 0.22347885
0002f0 63 35 55 3e a8 2d d4 3c 3e 29 cb 3d aa ea 52 3d
       0.20821147 0.025900677 0.09919976 0.051493324
000300 40 b6 34 3e 92 0a 17 be e9 df f7 3c 65 3d fb bd
       0.17647648 -0.14750126 0.030258136 -0.122675695
000310 88 8b 42 bc 40 20 68 bd 75 88 87 3f c2 97 ba be
       -0.011874087 -0.05667138 1.0588518 -0.36443907
000320 b8 db 08 3e 43 6d d2 3d 70 d7 25 3e dc ec 08 bd
       0.13365066 0.10274746 0.16195464 -0.03342901
000330 cf aa 5f bd 89 75 33 be d8 fd 88 3e 2d 98 db bc
       -0.054606255 -0.17525305 0.26756167 -0.026805962
000340 55 15 cd be 55 5c 43 3e a5 7c 2d 3d a6 55 5c be
       -0.40055338 0.1907819 0.0423552 -0.21517047
000350 80 1e 52 bd d8 a8 9f 3d d6 16 60 be b5 48 14 be
       -0.05129862 0.07795876 -0.21883711 -0.1448086
000360 ff 33 70 be 2b bc fe 3d 8d 84 bd 3d 56 ea aa bc
       -0.23457335 0.12438234 0.09253798 -0.020863693
000370 3f 81 94 3e 9e 83 ca 3e 67 b0 3a be df 7a 31 be
       0.29004857 0.3955354 -0.18231355 -0.17332028
000380 57 89 d2 3b c2 02 a5 3b 2c 57 47 3f 4c 14 f7 bd
       0.0064250636 0.005035729 0.7786739 -0.12064418
000390 1e 44 28 be 9e 14 82 bd 0c ed 4d 3c 0d 26 81 3d
       -0.16432235 -0.06351589 0.012568723 0.06306086
0003a0 d0 ee bb bd 2b 98 27 3e 58 97 fb be 76 cb b8 3e
       -0.09176409 0.16366641 -0.49138904 0.36092728
0003b0 6a ec b7 3e 8d 63 d7 be 40 f2 39 be f4 ae 23 bd
       0.35922557 -0.4206814 -0.18158817 -0.03996177
0003c0 62 c7 9d be f6 28 c2 bd 1c 67 73 be 8f 4e c4 be
       -0.3081618 -0.09480469 -0.23769802 -0.38341185
0003d0 c6 a6 d7 bd 11 b3 a0 be 7b 43 56 bd ba c2 1f 3a
       -0.105298564 -0.31386617 -0.05231045 0.0006094385
0003e0 18 77 f2 3e 64 f9 82 bd 48 7c a2 3e c2 f3 17 bd
       0.47356486 -0.06395224 0.31735444 -0.0370977
0003f0 13 20 88 3e 8b c7 9a 3e 86 e2 0a 3f a9 f7 9a be
       0.2658697 0.30230364 0.542519 -0.30267075

l1.bias f4 [400]
000000 e0 7b ee 3d eb d0 81 be 56 2c 86 3e e8 82 8c 3e
       0.11644721 -0.25354704 0.262057 0.27443624
000010 a3 f9 89 3d f0 f8 69 3e 1a 83 30 3e d9 a3 a7 3e
       0.067370676 0.22848868 0.17237511 0.32742193
000020 8f 06 e0 3d 80 be 2b be 7d 60 ea 3d 37 a6 bc 3d
       0.10938751 -0.16771889 0.11444185 0.092113905
000030 4e 19 82 3e 94 53 75 be 65 be 45 be b5 b5 47 3e
       0.2540993 -0.23957664 -0.19310911 0.1950291
000040 4f 09 d1 bc de f2 df bc 4c d9 a9 bd 7d 79 b1 3e
       -0.025517134 -0.027337488 -0.08293399 0.34663
000050 ed 56 31 be 5c d1 5c be 5d c1 23 bd 0c d0 30 be
       -0.17318316 -0.2156424 -0.039979327 -0.17266864
000060 07 c1 cd bd 21 d1 eb 3c cf c7 41 be b7 83 2a 3e
       -0.10046583 0.028786244 -0.18923877 0.16651808
000070 21 cd 48 be b1 e5 88 3c cd 41 eb 3d 7e 1f 88 be
       -0.196095 0.016711088 0.1148716 -0.26586527
000080 5f fb 51 bd 97 91 55 3d 20 ef 3f be f1 b3 11 bd
       -0.051265117 0.0521408 -0.18743563 -0.035571996
000090 79 18 2a 3e ab d2 9f be f0 1a 96 3e 11 9d 8e 3e
       0.16610898 -0.31215414 0.29317427 0.27854207
0000a0 87 39 cf 3e fa 49 a3 3e 29 a4 c5 bd b6 88 25 be
       0.40473577 0.31892377 -0.09650452 -0.16165432
0000b0 ac 5a f1 3c f9 16 b3 bd 3b ba 8c be f6 8f a5 3d
       0.029462181 -0.08744616 -0.27485833 0.08084099
0000c0 21 19 36 3e 9f 51 d5 bd 4d 4a 05 3b b8 05 a7 3e
       0.17783023 -0.104159586 0.0020338476 0.3262155
0000d0 c5 dd cf 3e 48 8b 1e 3e 05 2b 9d be bd 68 15 be
       0.40598884 0.15482819 -0.30696884 -0.14590736
0000e0 15 44 f5 bd 58 da d0 bd d1 a2 a5 bd ba cd 96 3e
       -0.11975876 -0.10197896 -0.080876954 0.29453832
0000f0 e6 28 2c 3e ee 8c a2 3e 19 19 e8 3e 4b f1 9a 3e
       0.16812477 0.31748146 0.45331648 0.30262217
000100 c0 12 dc bd 2c 1d 40 3e 1e 63 c9 bd 12 3d 6f be
       -0.10745764 0.18761128 -0.09833358 -0.2336314
000110 78 63 9e bd a8 f9 4e 3e 68 74 29 be 35 0e a8 bd
       -0.07733816 0.20212424 -0.16548312 -0.08205835
000120 19 11 dd bc 85 cb dd 3e b5 24 58 be d2 ae 6c 3e
       -0.026985692 0.43319336 -0.21107753 0.23113564
000130 62 9c 85 be 36 69 c7 bd 1e a6 77 bc 24 29 20 be
       -0.26095873 -0.09736864 -0.015115289 -0.15640694
000140 11 9e 6f bd 40 6c 50 be 31 e3 b2 3e 94 42 44 ba
       -0.058500353 -0.20353794 0.34938958 -0.00074867276
000150 9a 8f 4d 3e 6e 54 86 3e e2 26 8e 3d 28 22 3c be
       0.20074311 0.2623629 0.0694101 -0.18372405
000160 59 32 27 be 9c 92 40 bd 7f c7 7a 3d 6c 81 9a 3e
       -0.163278 -0.047014818 0.06122541 0.30176866
000170 6b fa a5 3e f0 17 c7 3e 56 31 37 3e 85 30 85 be
       0.32417616 0.3888545 0.17889914 -0.2601358
000180 3e 30 11 be 96 ea 12 be 9d 5e bf 3e f5 59 08 3e
       -0.14178559 -0.143473 0.37376872 0.13315566
000190 0f 54 85 3e 2d 6f 4e be 69 0b e7 bd 62 d2 c6 3d
       0.26040694 -0.20159598 -0.11281473 0.09708096
0001a0 f0 f5 a3 bd 5e 4e d5 3d 9a dd 3c 3e 16 83 b4 3d
       -0.08005893 0.10415338 0.1844391 0.08814065
0001b0 a7 b0 ee bd eb 60 d8 bd f4 2d 4e 3e 71 c4 0b be
       -0.116547875 -0.10565361 0.20134717 -0.13649155
0001c0 bc f9 0d 3d 1b 87 dd 3e ba 67 1e 3c 6f 27 30 3e
       0.034661993 0.4326714 0.009668285 0.17202543
0001d0 60 4a 82 3e f8 24 83 bd 62 1b fc 3d da f0 8b 3e
       0.2544737 -0.064035356 0.1230991 0.27332193
0001e0 38 0e 2e bd a6 15 82 bb 87 fe a7 3d d5 0c 69 bc
       -0.04249403 -0.003969866 0.08202844 -0.014224251
0001f0 b9 52 0e be b0 23 12 3e 0a 37 98 3d 05 8c 0d 3e
       -0.13898744 0.14271426 0.07432373 0.13822944
000200 ed 87 b9 3e af 76 30 3e 44 8c 72 be bf fb e6 bc
       0.36236516 0.17232774 -0.2368632 -0.028196214
000210 c9 76 fb 3d a7 2f 8b 3e 67 98 d1 3d fc 44 13 3e
       0.12278516 0.27184793 0.102341466 0.14381784
000220 cb 19 a8 bc e3 0c 89 3e f6 27 91 3c 34 96 75 be
       -0.020520112 0.26767644 0.01771925 -0.23983079
000230 f1 10 84 be 46 10 90 3e 34 51 8e be 95 19 5d be
       -0.25794175 0.28137416 -0.27796328 -0.2159179
000240 11 67 68 be be 87 e6 bd 33 68 5c bc 72 fb 84 be
       -0.22695567 -0.112563595 -0.013452577 -0.25973088
000250 79 e6 ba 3e 6d 1c 46 be f6 81 c5 3d 41 8e f6 3e
       0.36503962 -0.19346781 0.09643929 0.48155406
000260 4b 78 20 3e 5a 86 3e 3e 3d 8e 6e 3d db dc af be
       0.15670888 0.18605939 0.058241118 -0.34348187
000270 c7 a1 89 3c e5 dd 78 be 76 04 a3 3c 3a 4e 63 3b
       0.016800774 -0.24303396 0.019899588 0.0034684078
000280 2e f1 58 bd 6f 28 2a be 70 54 3a be 36 fb d9 bd
       -0.052964382 -0.16616987 -0.18196273 -0.10643618
000290 d4 cd 17 3e 78 19 91 3e c7 d8 4b 3e 27 aa 8e 3c
       0.14824611 0.28339744 0.19906913 0.01741512
0002a0 4c cf 82 3d 46 12 bd bd b7 a8 15 3e bb 6e 78 be
       0.06387195 -0.09232001 0.14615141 -0.2426099
0002b0 16 ce 94 bd 0e aa 35 3e 23 de a4 3e e6 28 8a 3e
       -0.0726587 0.17740652 0.32200727 0.26984328
0002c0 40 89 21 bd 71 86 24 3e 2b e9 c0 bc 4f bc b2 3d
       -0.039437532 0.1606691 -0.023548683 0.08727323
0002d0 06 0f da bd 2a 70 ed 3d da 80 5a be 7c d3 8c 3e
       -0.10647397 0.11593659 -0.21338215 0.275051
0002e0 54 05 c8 bd d5 71 09 3e 61 16 5c bd e2 5c 26 be
       -0.09766641 0.1342233 -0.05373228 -0.1624637
0002f0 54 e6 68 3c 42 57 49 3e 8d 25 99 3e 68 00 71 3e
       0.014215071 0.19662192 0.2991146 0.23535311
000300 d3 03 48 be a6 b8 60 be d0 8a fa bd a8 8c 1f be
       -0.19532709 -0.21945438 -0.12233508 -0.15581
000310 b2 bb 59 3d 9d 6f eb 3c d3 96 9c 3e 9d 00 2f be
       0.053157516 0.028739745 0.3058382 -0.17090078
000320 d9 4c 96 bc 34 e3 8d bd 48 ef 8c 3c 3d ab ca 3e
       -0.01834719 -0.06928101 0.017203942 0.3958377
000330 d8 c1 94 bd c6 e7 ce 3d 6d ba 1b 3e 19 9f 70 be
       -0.07263535 0.10102801 0.15207835 -0.23498191
000340 ed 74 99 3d 36 12 42 3e 59 5a f7 bd 42 45 cf 3d
       0.07493005 0.1895226 -0.12077779 0.10120632
000350 0d 50 16 3e 76 13 8b be 15 d0 a3 3c 0a 79 a4 3e
       0.14678974 -0.27163285 0.019996682 0.32123595
000360 90 73 af bc cd 87 1e 3e cb 3e 70 bd 9e 61 42 be
       -0.02141741 0.15481491 -0.058653634 -0.1898255
000370 76 55 01 bd 0b 48 cb 3e ac d0 2b be 23 78 0e 3e
       -0.031575643 0.39703402 -0.16778821 0.13913016
000380 b8 97 61 3d e8 a7 b6 3e 42 04 74 be c7 26 29 be
       0.05507633 0.35674977 -0.23829749 -0.16518699
000390 e9 34 b4 bd 09 f1 bf bd 4d 26 ca 3d d9 e6 ef bd
       -0.08799154 -0.09372146 0.098705865 -0.117139526
0003a0 d3 dd a2 3e 83 f7 68 be a3 c6 c1 3c 3a ec a9 be
       0.31809863 -0.22750668 0.023654288 -0.3318804
0003b0 bb 1d 45 3e 08 07 40 3c 1d c5 6c be 6d aa 23 3d
       0.19249623 0.011720426 -0.23122068 0.039957453
0003c0 eb 3a 09 be 0b cc 06 3e e3 d0 e2 bd 76 31 83 3e
       -0.13401382 0.13163774 -0.11074998 0.25623673
0003d0 2d 77 0b 3e 39 7e a3 3c cc c3 95 3d 28 29 19 3d
       0.1361968 0.019957649 0.07312736 0.037392765
0003e0 0b 6f 3d be 30 d8 0c be 8d 8c 18 3e cf 36 d6 bd
       -0.18499391 -0.13754344 0.14897366 -0.10459673
0003f0 92 55 08 3e 33 2b cb bd 56 76 03 be 7c 5f 0d 3d
       0.13313892 -0.09920349 -0.1283811 0.03451489

l2.weight f4 [300, 400]
000000 bf 51 29 bd 24 51 fe 3c e0 ff 32 bd c0 21 4a 3c
       -0.041337725 0.03104455 -0.043701053 0.012337148
000010 01 45 da 3b 41 54 4c bd b3 a3 64 ba 10 05 35 3c
       0.006661058 -0.04988504 -0.0008721903 0.01104857
000020 50 0f c5 3c f0 24 44 3c c0 3c 78 bc ab a8 62 bd
       0.024055153 0.011971697 -0.015151203 -0.055336636
000030 85 dd 16 3d 28 dd fa bb 99 b8 44 bd e2 5a 5a 3d
       0.03683235 -0.0076557584 -0.04802761 0.05330933
000040 19 d8 45 bd fd e5 89 bc 39 f1 52 3c 71 c3 4d bb
       -0.04830179 -0.0168333 0.012874895 -0.003139701
000050 22 9f 80 3c 70 7b bf bb 52 34 5c bd 25 8a 01 bd
       0.01570088 -0.0058435723 -0.053760834 -0.031625886
000060 75 1b 82 bd cf 4d 2c bd 2b 2a 75 3c 48 eb 34 bd
       -0.06352893 -0.04206639 0.014963667 -0.044169694
000070 11 ec 40 3d 59 d2 47 bd c8 32 c0 3b e0 57 34 bb
       0.04710013 -0.048784588 0.0058654286 -0.0027518198
000080 ed cf 82 3c fd 1b 1a 3d 16 30 16 bd 8f 2e 2c bd
       0.015968287 0.037624348 -0.036666952 -0.04203659
000090 13 49 fd 3b d5 ea 93 3c 46 09 17 bd 47 a9 e7 bc
       0.0077296584 0.018056313 -0.03687408 -0.02827896
0000a0 ff cf ae bc 66 2f 26 3c eb 97 ea bb 9f c9 21 3d
       -0.021339415 0.010143137 -0.0071592233 0.03949892
0000b0 ae 67 23 3d 5a b7 58 bd f9 ce 46 bd 28 ba 43 bc
       0.0398938 -0.052909233 -0.04853723 -0.011946239
0000c0 6a 7a 58 bc 8a 7b e9 3c a1 99 5b 3c 81 33 df 3c
       -0.01321278 0.02850129 0.013403327 0.027246239
0000d0 d8 df 32 bd 75 53 81 bd 82 f8 53 bd d1 7f 39 3d
       -0.043670505 -0.06314746 -0.051750667 0.04528791
0000e0 35 b6 95 3c 31 0e 4d bd 62 aa ec 3c 86 79 16 bd
       0.01827536 -0.050062362 0.028889839 -0.036736988
0000f0 58 70 36 bc 81 62 d3 3c 60 82 30 bc 1a 85 57 bd
       -0.011135183 0.025803806 -0.010773271 -0.05261717
000100 35 86 84 bb b6 c4 1d bc 54 6c f4 3c ae 8e 90 bc
       -0.004044319 -0.009629419 0.029836811 -0.01764616
000110 ed dd 08 bd ec d7 89 3c b5 80 87 3d 74 01 7e bc
       -0.03341477 0.016826592 0.06616346 -0.015503276
000120 d9 04 4a bc 9e 35 10 bd 85 cb 80 bc 86 94 1e bd
       -0.012330257 -0.035207383 -0.015722046 -0.03871586
000130 21 c1 4a bd 1f d2 aa bc e9 57 4b bd b5 0f 9e 3c
       -0.04950059 -0.020852147 -0.049644385 0.0192946
000140 b7 03 20 bc 50 a8 5c 3b 43 f2 ec bc c3 a6 6a bd
       -0.009766511 0.0033669658 -0.028924113 -0.057287943
000150 16 9d a1 3c 89 9a 4f bd 90 c1 39 bd 03 a7 44 bd
       0.019728225 -0.050684486 -0.04535061 -0.048010837
000160 b1 c7 c5 bc 6f 7c 2b bc 2d 37 90 3c 09 db d7 3b
       -0.024143072 -0.010466679 0.017604435 0.0065873903
000170 d0 02 c5 3a f4 7a 09 3d 05 40 91 3c b0 be b5 3b
       0.0015030745 0.033564523 0.017730722 0.0055464134
000180 ef c0 2a bd 72 a5 d2 bb b8 f0 37 bd bd a7 8a bb
       -0.041687902 -0.006428414 -0.0449073 -0.0042314217
000190 11 bd 59 3c f3 bb 61 bc 47 7a b2 3c b4 54 06 3d
       0.013289706 -0.013777721 0.021786822 0.032795623
0001a0 3d da 8c bd 7b 5f e3 bc 9f bf 2b bd 27 ad 29 bd
       -0.06877563 -0.02775549 -0.04193079 -0.041424897
0001b0 c5 9d 11 3a 19 80 c3 bc 61 64 4e bd 27 4e 24 bd
       0.00055548205 -0.023864793 -0.050388698 -0.040113594
0001c0 68 67 47 3c d8 20 3d bd 33 ca 68 bd 90 ee b8 3b
       0.01217065 -0.0461739 -0.056833457 0.0056436732
0001d0 9f f1 2b bd df b7 3e 3c 65 0d 82 bd 0f da 37 3b
       -0.041978475 0.011640518 -0.06350211 0.0028053557
0001e0 01 f1 4e bc c6 86 19 bd 05 e5 82 bd 71 30 d9 3c
       -0.012630702 -0.037482046 -0.06391338 0.026512356
0001f0 57 41 29 bd d2 b6 d9 bb 9d 18 19 3d 55 90 87 bd
       -0.04132208 -0.0066441083 0.03737699 -0.06619326
000200 e7 a6 29 bd 24 bb 7d bd 98 82 34 bd fd f7 06 bc
       -0.041418936 -0.06194605 -0.044069856 -0.008237836
000210 75 09 85 3d 57 29 2d bc ee 77 19 bd d1 2b d3 3c
       0.064959444 -0.010568938 -0.03746789 0.02577773
000220 37 68 22 bd 55 e0 1b 3c c0 b8 b5 bc 59 02 d9 3c
       -0.03965017 0.009513934 -0.022182822 0.026490377
000230 8e 6b 26 3c 87 48 b3 3c cd e0 07 bd d4 3d 02 3c
       0.010157479 0.02188517 -0.03317337 0.007949311
000240 cc a9 0c 3a c9 97 dd 3c 8d 9f 15 3c 60 e8 38 bd
       0.0005365878 0.027049916 0.009132278 -0.045143485
000250 e3 9d ec bc 12 41 5d bc a1 cd ca bc 8c a3 73 bd
       -0.02888388 -0.0135042835 -0.024756255 -0.059482142
000260 40 b3 06 bc d7 38 20 bd 81 34 4a bd dd 5c 17 3c
       -0.0082214475 -0.039116707 -0.049366478 0.009238449
000270 81 38 da 3b e3 8f ff 3c 69 a8 c8 bc 3f 2a 21 bd
       0.006659568 0.03119654 -0.024494367 -0.03934693
000280 9f 6c 24 bd 5c ec 94 bc 9c 27 71 bd 55 40 8c bd
       -0.04014265 -0.018179111 -0.058875665 -0.06848208
000290 7c d4 f5 bb e4 9a 79 bd a4 1d 78 bd 4a d1 4b bd
       -0.0075021368 -0.06093873 -0.060575143 -0.04976014
0002a0 69 bb 49 bd a3 7d 68 bd 4f 3e 80 bd a5 c9 9e 3c
       -0.049250994 -0.05676044 -0.062618844 0.019383261
0002b0 66 2f cb 3c ef 6a b0 3c b0 91 35 bd 40 f8 b9 bb
       0.024802875 0.021535365 -0.04432839 -0.0056753457
0002c0 d1 84 c0 bc af c5 24 bd 6f 43 28 bd 3f 39 2b 3d
       -0.023500832 -0.04022759 -0.041079935 0.04180264
0002d0 6c 0b 77 bd 05 f2 04 bc d6 16 96 bc 3b 0e 7c 3c
       -0.060313627 -0.008114343 -0.018321436 0.015384252
0002e0 c9 f5 45 bd f5 88 0f bd cf 6a 23 bd 08 11 4f 3c
       -0.048330102 -0.03504272 -0.039896782 0.012638338
0002f0 24 04 f6 ba 04 1d 82 bc 8f 6c 2a bd eb 8b ec 3c
       -0.0018769545 -0.015882976 -0.041607436 0.028875312
000300 56 81 2f 3c 87 72 ac bb 3a 80 e9 39 8f fc 2b bc
       0.010711988 -0.005262676 0.0004453676 -0.010497226
000310 ab 73 ef bb 3e 6e 1e bd 1a 15 d9 bb a9 2b 49 bd
       -0.00730749 -0.038679354 -0.00662483 -0.049113903
000320 64 36 f7 bb 6f 55 a5 bc ad 40 04 bc 16 99 91 bc
       -0.0075443257 -0.02018234 -0.0080720605 -0.017773192
000330 e6 ca 23 3c ef 5a a2 bc 7c df 88 3c 89 e8 db 3c
       0.009997105 -0.019818751 0.016708128 0.02684428
000340 1d 8f 18 3d 52 00 54 3d 0d d4 05 3d 4c 71 72 bd
       0.03724586 0.051758118 0.03267293 -0.05919008
000350 80 ea 34 bd b7 60 36 3c 17 f8 a4 bc b7 07 b0 3b
       -0.04416895 0.011131457 -0.02013783 0.0053720134
000360 0d e2 ec bc 49 42 4c bd 58 ee 3a bd a2 ce e7 3c
       -0.028916383 -0.049867902 -0.04563746 0.028296772
000370 6e 4a 12 bd b8 bb 44 3c d1 d3 d0 3c 7b 9d fa 3b
       -0.035715513 0.012007646 0.025491627 0.0076481677
000380 77 35 38 3c 4e 54 94 3b e0 2d 3c bc 7e 01 14 bd
       0.011243216 0.0045266515 -0.011485547 -0.036134236
000390 7d 42 05 bd b5 85 02 bd 1f 0a aa ba c2 3d ef 3c
       -0.03253411 -0.031865794 -0.0012972987 0.029204253
0003a0 9e 67 29 3d 70 28 be bc 43 46 f8 3c c1 b7 4a 3d
       0.041358583 -0.023212641 0.03030694 0.049491648
0003b0 57 52 bb 3c 3b 11 6f bc 71 07 cb bc 9d 46 89 bc
       0.022866411 -0.01459151 -0.024783822 -0.016757304
0003c0 45 cd 87 bc d7 13 bb 3c ed 7a 8c bd b1 4b c9 3b
       -0.016577372 0.022836609 -0.06859384 0.0061430563
0003d0 c2 19 5c bc 3d 59 15 3d e7 97 38 3a 97 47 29 bc
       -0.0134338755 0.036462057 0.0007041678 -0.01033201
0003e0 7d 9c 27 bd 24 99 72 bd e9 0f d7 3c b4 06 fa bc
       -0.040920723 -0.059228078 0.026252704 -0.030520774
0003f0 e2 d5 52 bd 7b 79 67 bd 7b 58 60 bd ef fe 28 bd
       -0.051473506 -0.056512337 -0.05477188 -0.04125875

l2.bias f4 [300]
000000 cb 17 6a bd a0 0e 3c bd 07 21 32 3d e7 1e 2f bc
       -0.057151597 -0.045912385 0.04348853 -0.01068852
000010 9e 0d 9f bd 7e 96 90 bd 44 b1 fb bc 5f b8 c3 bd
       -0.07766269 -0.07059954 -0.030724175 -0.0955665
000020 c3 1b e4 bc a8 80 bf bc 6b 89 62 bd d7 55 b0 3c
       -0.02784527 -0.023376778 -0.055306833 0.021525307
000030 f1 d5 ac bc cd 1f 36 3e e7 a3 87 bd 16 68 95 bc
       -0.021098109 0.17785569 -0.06623059 -0.018238109
000040 51 46 40 bd 26 18 2d 3d eb 89 64 bd 40 41 36 3d
       -0.04694206 0.042259358 -0.05579559 0.04449582
000050 c8 05 3b bd 7e 10 0f bd c4 d1 50 3d 86 c4 16 bd
       -0.04565981 -0.034927838 0.050981298 -0.036808513
000060 ba 6f d9 bc 3a 6f 57 bd b3 1b ea bb d9 08 41 bd
       -0.026542533 -0.05259631 -0.0071444153 -0.04712758
000070 fa 3e ad 3e a1 0a c5 3c 65 79 5e 3d b0 58 9d 3d
       0.3383711 0.02405292 0.05431499 0.076829314
000080 48 b2 31 bd 76 4e 29 bd ab 70 63 bd d2 a2 ff 3c
       -0.043382913 -0.04133459 -0.05552737 0.031205568
000090 5b 93 14 3e 25 49 b0 3d d0 0b b7 bc 45 e6 aa 3d
       0.14509337 0.08607701 -0.0223445 0.08344702
0000a0 df 0b b1 3a b0 e3 38 bd e6 85 a2 3c 5d dc a8 3d
       0.0013507566 -0.045139015 0.019839238 0.08245156
0000b0 a1 73 40 bd 94 96 97 3d c2 67 be 3d 2a 1b d2 bc
       -0.046985272 0.074017674 0.09297134 -0.025647718
0000c0 38 b1 b3 bc ca 77 da bc 2b a8 e0 bc e4 b9 4d 3d
       -0.02193509 -0.026668448 -0.027423939 0.050226107
0000d0 b1 3e e1 bd 75 7c 0f bd 52 ef da bc a9 7f d4 3c
       -0.109982856 -0.0350308 -0.026725445 0.02593978
0000e0 13 dd 59 3d 80 b8 b4 bc 4a 73 30 bc c8 8e 39 bd
       0.05318935 -0.022060633 -0.010769675 -0.045302182
0000f0 5d 64 7d 3e 84 d5 f6 bc 0c 1d 7f bd 70 c3 ad 3e
       0.24745317 -0.030131109 -0.06228356 0.3393817
000100 a2 a3 d1 bb 99 cb 45 bc 87 43 ec 3c 8c d7 48 3d
       -0.0063976804 -0.012072467 0.028840793 0.049033687
000110 42 26 5c bd 54 02 0e 3c 94 f3 84 3c ae 67 a3 3c
       -0.053747423 0.008667547 0.016229428 0.0199469
000120 2d 49 0d bd bb a2 92 bd d9 be 44 bd a1 8f 4c bd
       -0.034493614 -0.071599446 -0.04803357 -0.049941663
000130 4c bb 07 3d f8 a3 49 3c dd 9f 9d bd 6d 78 82 bd
       0.033137605 0.01230716 -0.07696507 -0.06370626
000140 c6 04 1e bc 2c 1f fb bc 62 49 a9 bd 09 40 43 bd
       -0.009644693 -0.030654512 -0.0826595 -0.04766849
000150 e1 bf 45 bd 6c 0b f7 bc 8b 4a 6d bd b0 65 34 bc
       -0.048278693 -0.030156814 -0.057932418 -0.011010572
000160 d0 2e b6 bc 03 b9 93 3d ae d5 99 bd d3 e0 81 bd
       -0.022239119 0.072130226 -0.07511459 -0.0634171
000170 12 5b 61 3b 51 92 44 bd da 45 54 bd e5 ec 15 3c
       0.0034386558 -0.0479911 -0.05182443 0.009150718
000180 3d 1b 9f bd c6 05 bc 3d 8f ca 1c 3e 24 be 70 bd
       -0.07768867 0.09180789 0.15311645 -0.058775082
000190 ac f1 8c 3c 46 c7 19 bc 85 70 8b bc ae 28 36 3d
       0.017205082 -0.009385889 -0.017021427 0.04447239
0001a0 d5 74 38 bd e4 3b 74 bd d1 a6 e3 3d b6 0d 0e 3e
       -0.045033295 -0.05962743 0.11115802 0.13872418
0001b0 4a 6f a9 3d d4 f5 74 bd 15 15 99 3e eb d5 a7 3e
       0.0827318 -0.059804752 0.29898897 0.32780394
0001c0 13 d3 e6 bc 4d c3 8e bd d2 cf d9 bc 1e 2e 24 3b
       -0.02817682 -0.069708444 -0.026588354 0.0025051902
0001d0 37 06 c9 3d 30 ce c7 bd 1d 28 8c bd 1f 80 43 3e
       0.098156385 -0.09756124 -0.068435885 0.19091843
0001e0 a0 a1 30 bd 93 d9 84 3d 6a c5 58 bc 78 d2 bb bb
       -0.043122888 0.064868115 -0.013230661 -0.005731877
0001f0 23 3f 68 bd cf c7 3c 3d 52 e5 0b 3d 07 79 ad bd
       -0.056700837 0.04608899 0.034154244 -0.0847035
000200 b2 60 2b 3e 41 13 5b 3c 59 de 45 bd 4e 0d a4 3c
       0.16736105 0.01337129 -0.04830775 0.020025875
000210 ad 8a 91 bd ed 14 9d 3c e3 04 a5 bd af f4 53 bd
       -0.071065284 0.019175017 -0.08057573 -0.05174702
000220 6d 05 9b 3e a5 45 02 bd ad ac 8b bc f8 dc cc 3b
       0.30277577 -0.0318047 -0.017050112 0.0062519275
000230 bf 99 4c bd 4a b4 52 bd d0 4f b4 bc 89 2f 4c bc
       -0.04995131 -0.05144147 -0.022010714 -0.012462505
000240 4e 07 25 3d 90 93 b0 bd 57 ef 28 3d ab a9 7f 3c
       0.04029017 -0.08621895 0.041243877 0.015604417
000250 0e 40 4b bb d5 aa 0d bd 35 c1 8f bc 42 b8 9a 3e
       -0.0031013521 -0.034586746 -0.017548183 0.30218703
000260 8a 82 53 bd 2e cf 18 bc 57 52 bb 3c 2e e3 a5 3d
       -0.051638164 -0.009326739 0.022866411 0.08099972
000270 9e df 15 bd 26 69 93 bc ce 14 69 3e fd b2 05 bd
       -0.03659021 -0.017994475 0.22761843 -0.0326414
000280 5f 29 aa bd f8 6b b9 bc 43 86 e5 b9 f7 db 2f bd
       -0.08308672 -0.022634491 -0.00043778316 -0.042934384
000290 7c 95 73 bd 4e 73 93 bd 21 4e 48 3e a3 1a 6c bd
       -0.05946873 -0.07199727 0.19561054 -0.05764259
0002a0 e2 c1 6f 3a e5 32 1b 3c 65 a8 16 3d d6 5f f7 bd
       0.0009146017 0.009472583 0.036781687 -0.12078826
0002b0 03 27 27 3d 81 7e 46 bd ac 8b 93 3d 97 a2 b7 3c
       0.04080869 -0.048460487 0.07204375 0.022416396
0002c0 fd 28 83 bd 5a df 91 3c 07 46 31 3e 1c 0e af 3d
       -0.06404302 0.017806698 0.1731187 0.08547613
0002d0 2d 36 0c bd 01 0e 4d bd a8 7b 40 3e 78 93 39 bc
       -0.034231354 -0.050062183 0.18797171 -0.011326663
0002e0 d7 e8 24 bd b4 1b 1f 3e 1b c0 fb 3b 8f 07 a6 bc
       -0.040261116 0.15537912 0.007682813 -0.020267276
0002f0 95 63 c5 bd 95 db 08 bd 9a a1 13 3e 00 f7 34 bd
       -0.096381344 -0.033412535 0.14417115 -0.04418087
000300 45 da de 3d 47 14 2a bd 4e 95 97 3d 45 7d 0c bc
       0.10881475 -0.041523244 0.074015245 -0.008574788
000310 7a 53 82 3d 1f c3 20 bc 6b 8c ee bc c1 4c 15 3d
       0.06363578 -0.0098121455 -0.02911969 0.03645015
000320 4c c0 9f bd f8 42 3c bd dc 39 08 3d c1 10 cb bd
       -0.078003496 -0.045962304 0.033258304 -0.09915305
000330 c5 9c 8d bd 95 c2 08 bc 8c 8e 9a 3d af 12 ad bd
       -0.06914667 -0.008347173 0.0754672 -0.08450829
000340 26 77 99 bc 46 68 07 bd dc 24 7f 3d 94 48 6e bd
       -0.018733572 -0.033058427 0.06229101 -0.058174685
000350 0c f9 84 3c 9d 3c 51 3d 95 b6 8a bd 23 44 82 3c
       0.016232036 0.051083196 -0.06773106 0.01590163
000360 56 ac 13 bc d9 2b 04 be c8 62 7f 3d 55 a2 84 bb
       -0.009013256 -0.12907352 0.062350065 -0.004047672
000370 fe 26 14 bd f6 cb 94 3e 9e a8 08 3d b6 25 12 bd
       -0.03617 0.2906186 0.03336393 -0.035680495
000380 15 e9 98 bc e4 a5 d2 3c d0 17 b5 bb 25 91 04 bd
       -0.01866583 0.025713868 -0.0055265203 -0.032364983
000390 85 5d 20 3e d2 3b 07 be af 70 ae bd c7 44 a0 3e
       0.15660675 -0.13206413 -0.085175864 0.31302473
0003a0 bf 37 a5 bd a5 26 14 3b e0 19 51 3d 78 b9 3b bd
       -0.08067273 0.0022606042 0.051050067 -0.045831174
0003b0 18 d9 f2 3c f7 b5 d6 3d 99 94 4a bc 4e 8c a5 3e
       0.029644534 0.10483926 -0.01236453 0.32333606
0003c0 23 4c 6a bd de 03 11 bd 08 34 ca 3e 16 22 10 bd
       -0.057201516 -0.03540408 0.39492822 -0.035188757
0003d0 0a 5e b5 bd bf 5e ab bd 99 3f b1 3d dd 26 07 bd
       -0.08855827 -0.08367681 0.086547084 -0.032996047
0003e0 05 ce 8a bc 1e 12 a4 3e e4 0e c4 3d 16 0d 80 3c
       -0.01694394 0.32045072 0.09573153 0.01563124
0003f0 9f fb 6f 3c 0a e1 d6 bb c9 17 88 3d 4a f1 cb bd
       0.0146473935 -0.0065575885 0.06645162 -0.099581316

l3.weight f4 [1, 300]
000000 fc ca 81 bc 80 ce 41 bd 08 a4 70 be 05 2a 04 3d
       -0.01584386 -0.047316074 -0.23500073 0.032266635
000010 30 fa 47 3d bd e3 80 3d 2f fd 3a 3d a5 61 6d 3e
       0.04882258 0.06293438 0.04565161 0.2318178
000020 28 76 c7 3b 92 67 e1 bc 41 1f c0 bc c5 fb 12 bb
       0.0060870834 -0.027515206 -0.023452403 -0.0022427898
000030 bd 47 87 3e e0 9a a8 be 9c 9d 81 3e 9c 8b 8a 3b
       0.2642192 -0.3293066 0.2531556 0.0042280685
000040 14 87 fb 3b d7 70 38 3d 32 51 f8 bb 11 40 54 be
       0.0076760147 0.045029487 -0.0075780386 -0.20727564
000050 80 9d c5 bc a4 40 82 3c f1 ca 66 be ff 56 3e bd
       -0.024122953 0.015899964 -0.22538354 -0.046469685
000060 fc 60 02 bd 0a e8 59 bb 95 df 18 3d 1b 93 f6 3c
       -0.031830773 -0.0033249878 0.0373226 0.030099442
000070 41 70 d1 be bc ac 85 bc 9a 7c 73 be 46 e5 4e be
       -0.40905955 -0.016317718 -0.23778 -0.20204648
000080 4f ff b6 bb 04 3d 96 3c a9 1d dc 3c 4b e7 76 be
       -0.0055846344 0.018339641 0.026869612 -0.24111669
000090 17 42 6d be 4d 56 85 be fc 9b 8d b9 b8 f5 5f be
       -0.23169743 -0.26042405 -0.00027009833 -0.21871078
0000a0 8f b6 3f 3d 2e 57 ac bc e4 e3 0a 3d 20 f8 42 be
       0.04680496 -0.021037664 0.03390874 -0.19039965
0000b0 3c 22 01 3d 04 27 ac be 4b bc 71 be 6f ac bc bc
       0.03152679 -0.33623517 -0.23606984 -0.023031441
0000c0 39 a3 5f bc 19 b3 c7 3c 72 e6 5c 3d ac c5 87 be
       -0.013649755 0.024377393 0.053930707 -0.26518
0000d0 66 17 b4 3e 55 50 1a bd 55 fb 8a 3c 8e 54 ae 3c
       0.35174102 -0.037674267 0.016965548 0.021280553
0000e0 5f fc 7d bd ab c1 7b bc f0 8e 6b 3e dd bb 1c 3c
       -0.062008258 -0.015365998 0.23003745 0.0095662745
0000f0 08 07 ab be df 45 38 bd e5 f1 10 3c cb 5d b5 be
       -0.33403802 -0.04498851 0.008846735 -0.3542312
000100 d2 3d d0 3c f0 c2 4b 3d bb cd 0e be 37 f5 90 be
       0.025420103 0.049746454 -0.13945667 -0.28312084
000110 d6 6d 93 bb 9c 58 06 3d b9 e5 d6 3c a2 f2 e1 3c
       -0.0044991774 0.03279935 0.026232587 0.027581517
000120 00 e8 43 3c 76 1e 03 3e 4d 1d 19 bd 76 5d 29 bd
       0.011957169 0.12804589 -0.03738146 -0.041348897
000130 c5 f0 18 3d 66 e1 19 3c ec 53 1f 3d 33 3a e7 bc
       0.03733899 0.009392118 0.038898394 -0.028225994
000140 ca 76 6f 3d 9a bf 60 bc 10 13 62 3b d0 b9 4c 3d
       0.058462895 -0.013717556 0.0034496225 0.049981892
000150 57 df b0 bb 9c bd 8a 3c a0 23 c5 3d 35 98 81 bb
       -0.005397718 0.016936116 0.096259356 -0.003954912
000160 44 7b f6 3e f3 77 4f be 3c d4 f4 bc 72 0d b4 3e
       0.4814092 -0.20260601 -0.029886357 0.35166508
000170 6d 01 1a 3d 05 bb 09 ba 65 b3 90 3d 67 de bf 3c
       0.037599016 -0.00052540033 0.07065467 0.02342148
000180 39 d1 01 3f 00 18 5b be 72 df be be 3c d7 00 bd
       0.50709873 -0.21395874 -0.3727985 -0.031455263
000190 74 56 74 3d 16 19 43 bd 05 f3 88 3d a1 1a 44 be
       0.05965276 -0.047631346 0.06686977 -0.19150783
0001a0 b0 c7 85 3e a3 bf f6 3c 65 c1 96 be 5a 89 c5 be
       0.26128912 0.030120676 -0.29444423 -0.38581353
0001b0 31 9f 86 be 0c 45 70 bc 56 ec d9 be 9b a3 c1 be
       -0.26293328 -0.0146649 -0.42563123 -0.37820134
0001c0 ee 70 2f bd a6 8d a8 bc 2e ac a2 3c 51 31 50 bd
       -0.042832308 -0.020575356 0.019857492 -0.05082828
0001d0 4f f3 c5 be d8 69 46 3e c7 8b ad bc 29 21 b8 be
       -0.38662192 0.19376314 -0.021184815 -0.359628
0001e0 ed 2d 04 3d 83 72 5e be d6 16 95 bc 4d e6 9d 3b
       0.03227036 -0.2172337 -0.018199366 0.0048187138
0001f0 cb 0d 74 bc 61 cd 89 be 31 70 7c be 56 dd 28 3c
       -0.014895867 -0.26914504 -0.24652173 0.010306677
000200 f3 92 99 be 6e fb 1a 3d 07 21 2b bb 77 4c b0 bc
       -0.29994926 0.03783744 -0.0026112215 -0.021520836
000210 52 6e b4 3e 52 c4 5d 3a a9 3a ac 3e 80 d6 29 3c
       0.35240418 0.0008459735 0.33638504 0.010366082
000220 c7 0a b3 be 28 ed c8 bc f6 61 22 3d 37 8c 35 bd
       -0.3496916 -0.024527147 0.039644204 -0.044323172
000230 14 7e ca 3c 44 f3 70 3b 7d ef 96 3d ac ee 00 3d
       0.024718322 0.0036766091 0.073698975 0.031477615
000240 cd 54 16 3d e6 a7 14 bc 71 88 82 be 66 8e ab 3c
       0.036701966 -0.009073233 -0.25494722 0.020941924
000250 3b b0 8c be d6 7a 95 bc e0 62 48 3d 82 05 df be
       -0.27478203 -0.01824705 0.04892242 -0.4355889
000260 a9 02 d4 bc 87 da a3 3b 0b 65 f3 bc 84 84 42 be
       -0.025880175 0.0050004157 -0.029711267 -0.18995863
000270 f8 33 4b bd 09 bb d4 3b 07 ee 8f be 4f 97 bf 3c
       -0.049610108 0.006492023 -0.28111288 0.02338758
000280 2b a1 76 3d 50 47 5b bb 2b aa e8 bc b9 bd cc 3c
       0.060212296 -0.0033459254 -0.028401455 0.02499281
000290 5f 31 31 3d 90 45 3d bc 71 79 a4 be b0 8a 4b 3b
       0.043259975 -0.0115522295 -0.32123902 0.0031058006
0002a0 6f 50 26 3f cc 33 0f 3d af 21 b7 ba 88 60 12 3f
       0.6496648 0.034961507 -0.001397183 0.57178545
0002b0 d3 64 55 be b5 49 8c bc 9c 08 6f be 46 9c 24 3d
       -0.20839243 -0.01712499 -0.23343128 0.040188096
0002c0 4a cf da bc 99 49 fb 3d 86 df a8 be 2c a9 55 be
       -0.026710171 0.12269897 -0.32983035 -0.20865315
0002d0 88 52 42 3d 46 d8 36 3c 3d aa b8 be cf 44 a1 bc
       0.04744199 0.011159962 -0.36067382 -0.01968613
0002e0 bc e9 ff bc 41 68 ae be 47 67 31 3d 62 ac db bc
       -0.031239383 -0.34063914 0.043311384 -0.026815597
0002f0 a0 aa b1 3e 08 ea 48 bd 89 b8 9c be 6a 89 e2 bc
       0.3470049 -0.049051315 -0.3060954 -0.027653415
000300 ef 56 73 be ff e3 33 3d a7 c0 14 bf 09 70 54 bc
       -0.23763631 0.043918606 -0.58106464 -0.012966164
000310 9a 39 94 bd 6e 95 92 3d 45 81 1c bd ac b4 83 be
       -0.07237549 0.07157408 -0.03820922 -0.2572378
000320 db 73 5b 3d e5 a6 90 3d e4 19 02 3d 7c c3 a1 3e
       0.053577285 0.070630826 0.031762972 0.31594455
000330 18 86 42 3d 6f a6 a4 bb dc 76 5a be 82 d9 6d 3c
       0.047491163 -0.0050247232 -0.21334404 0.01451719
000340 58 1d c8 bb 19 48 4c be a3 39 5d be 02 86 22 3f
       -0.0061070137 -0.19949378 -0.21604018 0.6348573
000350 d3 47 78 3d 9e cd 73 be 89 6c c6 3c e2 e8 91 3d
       0.060615372 -0.23808905 0.024221675 0.07124497
000360 11 47 dc 3c 0f 1f bc 3e 3a 2c 89 be 6c f5 82 bc
       0.026889356 0.36742446 -0.26791555 -0.015986167
000370 49 20 da bc 1b df db be 7a b4 7d be 2f 49 3f 3c
       -0.026626723 -0.42943653 -0.24775878 0.011675163
000380 0b f5 cd bd ff a0 51 be c6 68 9e 3b f3 8c ed 3a
       -0.10056504 -0.20471571 0.0048342673 0.0018123671
000390 ca 78 af be 6c d1 6c 3e 3a 1f dc bc ea 6c d6 be
       -0.34271842 0.23126763 -0.026870359 -0.4187997
0003a0 4d 55 98 3a ea e0 32 3e 5c ec 7e be 26 3e af 3d
       0.0011622101 0.1746861 -0.24894851 0.08556776
0003b0 61 15 86 be 44 10 42 be dd f7 92 3d c4 a2 eb be
       -0.26188186 -0.18951517 0.071761824 -0.46022618
0003c0 a8 43 45 3c c8 1a 44 3c 1a 4b 40 bf 7d c9 94 3c
       0.012040056 0.011969276 -0.75114596 0.018162483
0003d0 18 ca 7f 3e d3 33 f3 3c 1a 4e 75 be ad 9d 81 3b
       0.24979436 0.029687798 -0.23955575 0.003955564
0003e0 96 14 25 3d 3e b5 e1 be 10 cf 74 be f7 14 b3 3c
       0.040302835 -0.4408359 -0.23907113 0.021860583
0003f0 e1 46 57 be 73 7b f2 3c 19 55 4c be 68 e8 a5 3e
       -0.21023132 0.02959988 -0.19954337 0.32403874
