TD3-conf1/preTrained/TD3_BipedalWalker-v3_0_crtic_2_ep100.pth (torch_old, 529772 bytes, 5 tensors)

l1.weight f4 [400, 28]
-0.20415725 -0.03133552 -0.18179841 0.04939509 -0.17041072 -0.0322777 0.20422228 0.058609996
-0.19837628 0.2899338 0.17168333 0.26023814 0.16393586 -0.085806355 -0.06263641 -0.2540591
-0.305061 -0.27797824 -0.07227415 -0.008009501 -0.2760366 -0.09102401 -0.30295527 -0.2509001
0.3834399 -0.052569255 0.17891307 -0.012404603 0.23841679 -0.052261062 -0.06758357 0.18980242
0.19059068 0.3195239 0.04156229 0.12107267 -0.2889473 0.26657268 -0.0895162 -0.026254093
-0.036654036 0.063864484 0.283136 0.20860809 0.059609015 0.06570567 0.10270941 0.2858037
0.16931643 0.098936915 0.010092641 0.26633808 0.2821107 0.07388154 -0.1948311 0.06164518
-0.06988323 0.18430252 -0.052994963 -0.1411716 -0.1345663 -0.40853757 0.09037716 0.27091312
0.3181962 -0.08345149 -0.3561047 0.05670756 0.033866115 0.01609691 -0.27621916 -0.4156911
-0.14124988 -0.104595184 -0.111823246 -0.06634791 -0.18225941 -0.20773077 -0.08205793 -0.28645048
-0.11012147 0.056921802 0.2712695 0.31713545 -0.028519705 0.2305343 0.6301368 -0.22099987
0.059859633 -0.13469149 0.22153094 0.18662171 -0.28332824 0.21254879 0.051649716 -0.10730314
0.32731572 -0.12638876 -0.17888278 -0.17959648 -0.073225446 -0.33181348 -0.16133687 -0.12048138
-0.425733 -0.4095805 -0.30152896 -0.14463396 0.34473583 0.18481767 0.19124979 -0.0477739
-0.14629768 0.059618127 0.76366985 -0.14737457 -0.06902441 -0.26235187 0.24779652 0.28397754
-0.28045353 -0.13362655 0.28344148 -0.07799995 0.19064303 -0.19524331 -0.40796444 -0.22463691
-0.43850857 -0.16806784 -0.12538277 -0.36148387 -0.10784176 -0.16754717 -0.4198257 -0.27856535
0.049106903 0.2677283 0.17782874 -0.17154476 -0.21995361 -0.1726957 -0.1657931 -0.43502232
-0.111077316 -0.07091658 0.008499612 -0.09840299 -0.03937928 0.108861506 0.5861081 0.0039403746
0.55458224 -0.1802835 -0.11058939 -0.06328163 -0.25914577 -0.14028835 -0.2927272 -0.12969044
-0.11252792 -0.16543554 -0.16410455 0.095273875 -0.19708687 -0.034707285 0.35938933 0.13965333
-0.042571828 -0.21439593 -0.28977484 -0.046705857 0.311138 -0.2710705 0.0034196074 -0.07338045
-0.22616385 0.31406552 0.51381564 -0.055844214 -0.095885016 -0.10889282 -0.29064178 0.017579315
0.012589992 -0.3267128 -0.1972425 -0.31180358 -0.052670397 -0.11881193 -0.2635842 -0.059840668
-0.19601692 -0.0072086677 0.2238944 0.13728335 0.075158775 0.034550816 0.01389698 -0.1452929
-0.046235796 -0.117210604 0.14757931 0.11021669 0.07697713 0.15368532 0.05274544 0.11359871
0.05140712 0.090978384 -0.28877866 -0.05625353 -0.112907864 -0.1473745 -0.070800826 -0.34740648
-0.00036519903 -0.17841291 -0.13740945 -0.31690848 0.08382536 -0.011054062 0.12560838 -0.036526002
-0.15311001 0.06606099 -0.10621321 -0.0975357 -0.07774157 -0.15593109 0.13141604 0.22702713
-0.105279736 0.019139882 0.16252221 0.14409707 0.04173091 0.14356047 -0.25753394 -0.18624969
-0.1905204 -0.37941992 -0.15375435 -0.3109726 -0.091272004 -0.32961425 -0.19340698 -0.07764678
-0.053975046 -0.028396033 0.21152925 0.11516811 -0.23509319 -0.04371757 0.009596602 -0.1989149
00000000: 990e 51be ad59 00bd 5d29 3abe 8252 4a3d
00000010: 2680 2ebe 9f35 04bd a51f 513e 0911 703d
00000020: 2723 4bbe 3472 943e c1cd 2f3e ef3d 853e
00000030: cdde 273e 3ebb afbd 8547 80bd 0914 82be
00000040: f530 9cbe 2a53 8ebe 7804 94bd 483a 03bc
00000050: ab54 8dbe cc6a babd f41c 9bbe fa75 80be
00000060: 3c52 c43e dc52 57bd fd34 373e ad3c 4bbc
00000070: 8823 743e b20f 56bd 4169 8abd 915b 423e
00000080: 342a 433e a398 a33e 383d 2a3d f3f4 f73d
00000090: e7f0 93be 377c 883e 4554 b7bd d312 d7bc
000000a0: 8b22 16bd 62cb 823d 34f7 903e 5c9d 553e
000000b0: 9528 743d b290 863d 5059 d23d dd54 923e
000000c0: 4961 2d3e 709f ca3d 9b5b 253c 775d 883e
000000d0: d070 903e 344f 973d ce81 47be a87f 7c3d
000000e0: f01e 8fbd cdb9 3c3e 3f11 59bd 4a8f 10be
000000f0: c0cb 09be d62b d1be a917 b93d 20b5 8a3e
00000100: 9dea a23e 9de8 aabd 5b53 b6be 3046 683d
00000110: 32b7 0a3d abdd 833c 996c 8dbe 77d5 d4be
00000120: cfa3 10be 0036 d6bd 9603 e5bd 6ae1 87bd
00000130: 36a2 3abe 60b7 54be fd0d a8bd a3a9 92be
00000140: 5e87 e1bd d626 693d d6e3 8a3e 945f a23e
00000150: 28a2 e9bc 2f11 6c3e a550 213f ca4d 62be
00000160: 602f 753d 91ec 09be 02d9 623e c319 3f3e
00000170: 6610 91be 64a6 593e a78e 533d c0c1 dbbd
00000180: ed95 a73e 0e6c 01be 0c2d 37be 24e8 37be
00000190: 39f7 95bd 75e3 a9be 7e35 25be f1be f6bd
000001a0: adf9 d9be 89b4 d1be 0162 9abe ed1a 14be
000001b0: 3781 b03e d840 3d3e fcd6 433e 91ae 43bd
000001c0: 0fcf 15be 2332 743d de7f 433f 5ce9 16be
000001d0: ab5c 8dbd fc52 86be 5fbe 7d3e 8165 913e
000001e0: 9b97 8fbe 66d5 08be 3e1f 913e 70be 9fbd
000001f0: ed37 433e dded 47be b7e0 d0be 3807 66be
00000200: 3284 e0be fa19 2cbe 5764 00be 6a14 b9be
00000210: 24dc dcbd 7c91 2bbe 65f3 d6be 1ea0 8ebe
00000220: 5224 493d af13 893e bd18 363e 6ea9 2fbe
00000230: 853b 61be 24d7 30be abc5 29be 3fbb debe
00000240: 817c e3bd b63c 91bd f541 0b3c 8287 c9bd
00000250: 2b4c 21bd c8f2 de3d 2e0b 163f 421e 813b
00000260: 1af9 0d3f 3d9c 38be b17c e2bd cd99 81bd
00000270: c1ae 84be c0a7 0fbe 57e0 95be 92cd 04be
00000280: 0a75 e6bd ef67 29be 060b 28be f31e c33d
00000290: 24d1 49be 3a29 0ebd e101 b83e 4801 0f3e
000002a0: cc5f 2ebd 9b8a 5bbe 5e5d 94be a44e 3fbd
000002b0: 7b4d 9f3e c1c9 8abe 7e1b 603b 7d48 96bd
000002c0: 7f97 67be 32cd a03e 6c89 033f e7bc 64bd
000002d0: 5d5f c4bd 3303 dfbd 00cf 94be 7f02 903c
000002e0: 4146 4e3c e646 a7be f0f9 49be b8a4 9fbe
000002f0: eabc 57bd ab53 f3bd 82f4 86be 7d1b 75bd
00000300: a9b8 48be b036 ecbb 9344 653e 0294 0c3e
00000310: d8ec 993d 2885 0d3d 29b0 633c a9c7 14be
00000320: bf61 3dbd 1d0c f0bd 081f 173e 4ab9 e13d
00000330: 2fa6 9d3d af5f 1d3e 9a0b 583d 71a6 e83d
00000340: 4690 523d e052 ba3d ccda 93be 1a6a 66bd
00000350: 3d3c e7bd 57e9 16be 0600 91bd 43df b1be
00000360: 2f78 bfb9 e0b1 36be 10b5 0cbe d441 a2be
00000370: a1ac ab3d 191c 35bc 7c9f 003e 4a9c 15bd
00000380: dfc8 1cbe fc4a 873d 5086 d9bd ccc0 c7bd
00000390: f936 9fbd 66ac 1fbe ed91 063e cd79 683e
000003a0: e79c d7bd 3ecb 9c3c 396c 263e 2f8e 133e
000003b0: 08ee 2a3d 8401 133e 7ddb 83be 3db8 3ebe
000003c0: c817 43be 5443 c2be c871 1dbe cd37 9fbe
000003d0: d1ec babd 33c3 a8be 7b0c 46be 4605 9fbd
000003e0: f014 5dbd cc9e e8bc 209b 583e 42dd eb3d
000003f0: 45bc 70be 3211 33bd 113b 1d3c 59b0 4bbe

l1.bias f4 [400]
0.021728778 -0.105999686 0.14389539 -0.058924455 0.04072032 0.24424316 -0.19522928 0.032079183
-0.13217126 0.25143835 0.31532812 -0.24455924 -0.13999104 0.081566766 -0.011220189 0.19170289
0.1548099 -0.030443583 -0.0967593 0.028528288 0.16335513 -0.16354975 0.15755333 0.0030250484
0.26526 -0.11297797 0.09500975 -0.017835556 -0.16124915 0.10493354 -0.14437708 0.049172267
-0.08894927 -0.16675477 -0.016831195 -0.19385628 -0.15491657 -0.2163277 0.12249664 0.19798389
0.19185987 0.3290641 -0.038842607 -0.19728307 0.1248271 0.18339816 -0.058688864 -0.004628506
0.025974331 0.115403175 0.08828939 0.22322972 -0.010786798 -0.11053937 0.082583 -0.04487154
0.0074267895 0.15933752 0.18032084 0.2600936 0.26024273 0.11077067 -0.14180942 -0.11913757
-0.06904244 0.11012916 -0.07830321 0.09853307 -0.04302304 -0.03573418 -0.091593675 0.092718646
0.2479785 -0.13488968 0.033469293 -0.04992165 0.11505822 0.1343735 0.12303193 -0.24427426
-0.010041332 0.4533089 -0.12858632 -0.16194884 0.084392495 0.18484236 0.067251384 -0.07380319
0.1462398 0.18241796 -0.18141286 -0.10556274 -0.010326838 0.42754123 -0.026172297 0.0023316047
-0.047859393 0.23158522 -0.23560287 0.31505856 -0.1721183 -0.03523637 0.3341095 0.11681515
-0.05217392 -0.21509884 0.065176494 0.23233123 0.07806711 -0.212683 0.4358514 -0.2584445
0.07729797 0.084429406 -0.112908974 0.2812047 0.21174526 -0.13465592 0.21159834 0.0534263
-0.031679656 0.043223526 0.03830854 0.16233073 0.23768358 0.08174422 0.36655164 -0.14626056
-0.09936209 -0.090558216 -0.0842694 -0.14598203 -0.1947438 0.13768716 0.005792773 -0.22976783
-0.25564095 -0.081481434 -0.21611808 0.06604539 -0.00408636 -0.10538173 -0.062147364 -0.14343736
0.07548219 -0.089546435 0.021203136 0.3357962 0.36335212 0.1659812 0.1564949 -0.031752914
-0.32923403 -0.11457572 -0.098548636 -0.17745386 -0.0052864235 -0.014641778 -0.0015998544 -0.004801994
0.10215876 0.19819124 -0.17411853 -0.015268581 -0.060817968 -0.07129862 0.07080516 -0.15524846
-0.048701614 0.15246186 -0.049295247 -0.0223914 -0.084327936 -0.095672905 0.19882137 0.21900886
0.06001773 -0.054758806 -0.3444674 -0.20039447 0.043948993 0.2674399 -0.16981515 -0.10352932
-0.24369004 -0.045981277 0.052250948 -0.17047288 -0.051368386 -0.07954553 -0.14693329 -0.11955002
0.026588695 0.036865935 -0.09714133 0.3033538 0.053398762 0.2749218 -0.11221428 -0.06170659
-0.09369549 -0.18385762 -0.02005681 0.1884199 -0.21126623 0.052877508 0.016573727 0.22334214
-0.03757707 0.13693167 -0.0255369 -0.07169373 -0.058290638 -0.189547 0.17346965 -0.0447426
-0.24716586 -0.20429699 0.060398936 0.1138366 0.253128 0.24730965 -0.121956386 -0.03064248
0.06264334 -0.22273475 0.09948685 0.022950707 0.3173123 0.38997453 -0.09737583 -0.019074714
-0.025785591 -0.16412234 0.25001955 0.018878283 0.27998656 0.39343023 0.0049630115 0.22826077
0.29584688 0.0130438665 -0.1201429 0.09948521 -0.12291025 0.31597632 -0.033927713 -0.20808071
0.40271896 0.13815609 0.31087327 0.014948075 0.38576728 -0.054979157 -0.14340651 -0.19242398
00000000: 8d00 b23c 5d16 d9bd 5059 133e c55a 71bd
00000010: 5aca 263d e11a 7a3e 2fea 47be 7665 033d
00000020: e757 07be 87bc 803e b072 a13e bd6d 7abe
00000030: d059 0fbe 7a0c a73d e2d4 37bc c34d 443e
00000040: 7d86 1e3e d264 f9bc bd29 c6bd 28b4 e93c
00000050: 9146 273e 9679 27be a955 213e e43f 463b
00000060: 29d0 873e fe60 e7bd 7994 c23d df1b 92bc
00000070: 7f1e 25be 65e7 d63d 96d7 13be dc68 493d
00000080: 092b b6bd c3c1 2abe 93e1 89bc 4382 46be
00000090: 73a2 1ebe 0285 5dbe 85df fa3d 4abc 4a3e
000000a0: ea76 443e 177b a83e 6d19 1fbd 9304 4abe
000000b0: 5aa5 ff3d bacc 3b3e bc63 70bd b9aa 97bb
000000c0: 1fc8 d43c 8058 ec3d 11d1 b43d 5596 643e
000000d0: 1cbb 30bc 7762 e2bd 4721 a93d 38cb 37bd
000000e0: 6d5c f33b 6029 233e 07a6 383e fd2a 853e
000000f0: 893e 853e bcdb e23d 7d36 11be 66fe f3bd
00000100: 1f66 8dbd 668b e13d 6f5d a0bd b5cb c93d
00000110: ed38 30bd 015e 12bd 7795 bbbd 46e3 bd3d
00000120: 13ee 7d3e 8520 0abe 1917 093d a57a 4cbd
00000130: a5a3 eb3d 3599 093e 2af8 fb3d 0823 7abe
00000140: 6684 24bc 1b18 e83e 22ac 03be ebd5 25be
00000150: f9d5 ac3d 5147 3d3e 18bb 893d 2026 97bd
00000160: e3bf 153e c6cb 3a3e 4bc4 39be 4731 d8bd
00000170: e631 29bc afe6 da3e 4967 d6bc d6cd 183b
00000180: 3608 44bd ad24 6d3e e141 71be 5b4f a13e
00000190: c83f 30be 0354 10bd 6610 ab3e c83c ef3d
000001a0: 52b4 55bd df42 5cbe 417b 853d 3de8 6d3e
000001b0: a6e1 9f3d 93c9 59be ea27 df3e d652 84be
000001c0: 664e 9e3d 53e9 ac3d d23c e7bd 10fa 8f3e
000001d0: c0d3 583e 3ee3 09be 3cad 583e 89d5 5a3d
000001e0: 87c2 01bd 270b 313d 6ae9 1c3d 073a 263e
000001f0: 5363 733e 8369 a73d a8ac bb3e 54c5 15be
00000200: 5a7e cbbd 9676 b9bd 6f95 acbd 507c 15be
00000210: eb6a 47be ddfd 0c3e 4dd1 bd3b 4248 6bbe
00000220: 5fe3 82be bddf a6bd 0f4e 5dbe ce42 873d
00000230: dfe6 85bb 60d2 d7bd 3c8e 7ebd 3ee1 12be
00000240: 6896 9a3d 1f64 b7bd 33b2 ad3c 7bed ab3e
00000250: 4a09 ba3e faf6 293e 3340 203e 580f 02bd
00000260: 5d91 a8be ada6 eabd ded3 c9bd 77b6 35be
00000270: bc39 adbb 11e4 6fbc 35b2 d1ba 0c5a 9dbb
00000280: 9d38 d13d a5f2 4a3e 214c 32be 1229 7abc
00000290: 431c 79bd 0305 92bd 4c02 913d 74f9 1ebe
000002a0: 587b 47bd f61e 1c3e d0e9 49bd 2b6e b7bc
000002b0: 20b4 acbd 28f0 c3bd d497 4b3e dc43 603e
000002c0: 27d5 753d c54a 60bd 085e b0be 3534 4dbe
000002d0: dc03 343d e2ed 883e 06e4 2dbe 2e07 d4bd
000002e0: e289 79be dd56 3cbd 1705 563d 7190 2ebe
000002f0: a867 52bd c4e8 a2bd ae75 16be a4d6 f4bd
00000300: 89d0 d93c bc00 173d 09f2 c6bd 3051 9b3e
00000310: a9b8 5a3d 8dc2 8c3e 9ad0 e5bd 0dc0 7cbd
00000320: 6ce3 bfbd 2c45 3cbe 2e4e a4bc 25f1 403e
00000330: 2d56 58be 1696 583d a0c5 873c cdb3 643e
00000340: 6aea 19bd d137 0c3e c332 d1bc 2ad4 92bd
00000350: 2ac2 6ebd 9c18 42be 07a2 313e 0444 37bd
00000360: 0c19 7dbe 3b33 51be e064 773d 2a23 e93d
00000370: fe99 813e be3e 7d3e 45c4 f9bd f005 fbbc
00000380: 274b 803d 9414 64be c3bf cb3d 1f03 bc3c
00000390: c276 a23e beaa c73e fb6c c7bd 9342 9cbc
000003a0: 4e3c d3bc b00f 28be 9002 803e a1a6 9a3c
000003b0: 665a 8f3e b06f c93e c2a0 a23b 31bd 693e
000003c0: 3e79 973e f1b5 553c 7b0d f6bd e7be cb3d
000003d0: 5fb8 fbbd a6c7 a13e c9f7 0abd 1c13 55be
000003e0: 2e31 ce3e ca78 0d3e c82a 9f3e c5e8 743c
000003f0: 4a83 c53e d331 61bd 28d9 12be cb0a 45be

l2.weight f4 [300, 400]
-0.033957906 -0.0066706818 -0.018453155 -0.003033407 -0.0077479496 0.0072089587 -0.033291973 -0.023430662
-0.053735975 -0.008413359 0.023546705 0.03195625 -0.030750532 -0.036632054 0.048146438 0.027120516
0.020469632 -0.009736102 0.018074807 0.005588526 0.0068538794 -0.008322351 -0.02697445 0.0331732
0.013872503 -0.028694607 -0.044938367 0.012177326 0.044174667 0.020259531 0.0021179875 0.007224371
0.039892346 0.02799626 0.0132578965 0.03899196 0.039884765 -0.015889097 -0.017565116 0.007116928
-0.041113906 -0.011726249 0.02188165 0.019367885 0.046396088 -0.03200133 0.025450418 -0.010603707
-0.022734124 -0.024929889 0.034937322 -0.011088739 -0.037957847 -0.03719862 0.016643375 0.005355321
0.016557997 -0.042557698 0.035091054 -0.056833692 -0.02412294 0.024683762 -0.0069380105 -0.033675127
-0.027520372 -0.043913435 0.0023914916 0.03670237 -0.023963798 -0.03929166 -5.7517173e-05 -0.03225229
0.008358003 -0.020127663 -0.028145205 0.011895724 0.039043944 0.02850578 0.042613443 -0.045867283
0.0045664143 -0.021972526 -0.0013944209 0.027174309 -0.03918437 -0.03247086 -0.021307876 -0.023596225
-0.008241979 0.029810606 0.031017648 -0.008185692 -0.0458755 -0.012267935 0.02201948 0.03317399
0.039325815 -0.026111955 -0.014494389 -0.027540108 0.0074086157 -0.011468171 -0.0070637073 -0.048698332
0.017302867 -0.011417635 -0.0057077487 -0.016331937 -0.0019386606 -0.035793416 -0.046236154 0.0446896
0.0030894105 -0.04165237 0.027112823 0.03985273 -0.042363226 -0.04418506 -0.047075547 0.034061924
-0.039028645 0.03753949 -0.009536155 -0.057754748 -0.0073344894 -0.02511093 0.036357503 -0.027380783
0.0497321 -0.047249008 0.0025608013 0.03657006 0.00690829 -0.02753487 -0.05674581 0.009949125
-0.012096645 -0.016947899 -0.0018261394 0.0048521427 -0.032586392 -0.015604242 0.020676065 -0.021328896
-0.025899779 -0.014659427 -0.019946462 -0.006632455 -0.017862597 -0.021907266 -0.02590941 0.03674749
-0.046323914 0.03002065 -0.0047976 0.028922569 0.04577212 0.019539576 0.007875599 -0.04512834
-0.029129667 0.0154775875 0.028590033 0.030093912 -0.025993902 -0.040272094 -0.01802046 -0.0106943175
-0.02350548 -0.02838985 -0.043383766 0.04577666 0.016637139 0.013124827 0.0030367651 0.04749954
-0.044244584 0.0038202147 0.036198113 -0.021104151 0.040986147 -0.008590464 0.01810373 -0.035013612
0.048644204 -0.023448898 -0.038797446 -0.008508604 0.016998712 0.04046673 -0.028612334 0.011255365
-0.010589328 0.027615864 -0.0017219301 0.02204041 0.023019867 -0.056427184 -0.032955654 0.029538747
-0.050310057 0.011896312 0.011237474 0.03450919 -0.046006814 -0.04565698 0.015998278 0.013613831
0.0017280319 0.019443816 -0.019824577 -0.01603232 -0.030843006 -0.023059402 -0.019217009 -0.029921524
-0.050276138 -0.039902944 -0.051501017 0.010491192 -0.003456939 0.008872151 -0.04481345 -0.045522135
-0.008396118 -0.02929308 -0.04425699 0.034020163 -0.026938912 -0.0020785553 -0.021508921 -0.03937368
-0.026827842 -0.042554945 -0.03213218 -0.0037799403 -0.023410765 0.036878873 -0.011265494 0.00017875725
-0.0154418135 0.007817976 -0.031435847 0.0026803399 0.024716575 -0.018785229 -0.053977348 0.018750843
0.00750988 -0.04453941 -0.051928222 0.0011165366 -0.05147896 -0.038747836 0.011975873 -0.035983253
00000000: 7217 0bbd bc95 dabb 122b 97bc 20cc 46bb
00000010: 83e2 fdbb 2139 ec3b 2a5d 08bd a9f1 bfbc
00000020: 411a 5cbd 2fd8 09bc 05e5 c03c 8fe4 023d
00000030: 8ae8 fbbc 7e0b 16bd 3335 453d d82b de3c
00000040: eeaf a73c 2c84 1fbc 9e11 943c f41f b73b
00000050: 8296 e03b 785a 08bc 86f9 dcbc 9fe0 073d
00000060: 7f49 633c f410 ebbc 4b11 38bd 6883 473c
00000070: 7ff0 343d 51f7 a53c efcd 0a3b 6bba ec3b
00000080: 2866 233d 6a58 e53c a637 593c 09b6 1f3d
00000090: 355e 233d da29 82bc b8e4 8fbc 1f35 e93b
000000a0: 0e67 28bd 741f 40bc 2541 b33c 66a9 9e3c
000000b0: d309 3e3d d413 03bd 657d d03c 2cbb 2dbc
000000c0: ea3c babc c439 ccbc 701a 0f3d 8bad 35bc
000000d0: b079 1bbd 955d 18bd b057 883c b07b af3b
000000e0: a3a4 873c fb50 2ebd a3bb 0f3d 72ca 68bd
000000f0: 799d c5bc 9a35 ca3c 4058 e3bb eeee 09bd
00000100: 6772 e1bc 93de 33bd 92ba 1c3b 3955 163d
00000110: ba4f c4bc 4bf0 20bd 983e 71b8 fa1a 04bd
00000120: 01f0 083c c5e2 a4bc c690 e6bc 48e6 423c
00000130: 8bec 1f3d f484 e93c 6f8b 2e3d 55df 3bbd
00000140: dca1 953b baff b3bc 00c5 b6ba a89c de3c
00000150: ca7f 20bd 2a00 05bd db8d aebc df4c c1bc
00000160: 5e09 07bc 5f35 f43c b918 fe3c 481d 06bc
00000170: f3e7 3bbd 73ff 48bc 3262 b43c 73e1 073d
00000180: 1b14 213d bde8 d5bc e079 6dbc cb9b e1bc
00000190: f9c3 f23b ffe4 3bbc ac76 e7bb e777 47bd
000001a0: bebe 8d3c 0811 3bbc 1108 bbbb 8eca 85bc
000001b0: a81a feba 1e9c 12bd 1f62 3dbd 710c 373d
000001c0: b577 4a3b ad9b 2abd b61b de3c 9e3c 233d
000001d0: 1085 2dbd 65fb 34bd 4ad2 40bd 8484 0b3d
000001e0: 80dc 1fbd 02c3 193d 883d 1cbc 3e90 6cbd
000001f0: 2856 f0bb 70b5 cdbc 9beb 143d aa4d e0bc
00000200: e3b3 4b3d 2d88 41bd 1ed3 273b 7dca 153d
00000210: f05e e23b cf90 e1bc 4b6e 68bd a801 233c
00000220: 0231 46bc 52d6 8abc 125b efba b9fe 9e3b
00000230: 4f79 05bd efa8 7fbc da60 a93c f0b9 aebc
00000240: c62b d4bc 182e 70bc c366 a3bc 1155 d9bb
00000250: 9554 92bc de76 b3bc f93f d4bc 8984 163d
00000260: 25be 3dbd deed f53c 3035 9dbb 06ef ec3c
00000270: 8c7b 3b3d 7611 a03c a808 013c 7fd8 38bd
00000280: 57a1 eebc b595 7d3c a535 ea3c 8287 f63c
00000290: 2af1 d4bc 5af4 24bd a59f 93bc 3837 2fbc
000002a0: 908e c0bc d591 e8bc 2db3 31bd 4f80 3b3d
000002b0: 9c4a 883c 8409 573c 7704 473b e18e 423d
000002c0: cf39 35bd 915c 7a3b 7944 143d 9de2 acbc
000002d0: 17e1 273d 04bf 0cbc 464e 943c 6f6a 0fbd
000002e0: 253f 473d e717 c0bc 12ea 1ebd ac67 0bbc
000002f0: e240 8b3c 71c0 253d 6a64 eabc 6c68 383c
00000300: dc7e 2dbc aa3a e23c 63b2 e1ba 178e b43c
00000310: 2994 bc3c 3120 67bd 82fc 06bd 3efb f13c
00000320: eb11 4ebd c0e8 423c 621d 383c 8259 0d3d
00000330: a471 3cbd d002 3bbd d20e 833c 8c0c 5f3c
00000340: 217f e23a a348 9f3c 2767 a2bc 3656 83bc
00000350: 79aa fcbc 12e7 bcbc fd6c 9dbc fc1d f5bc
00000360: 5aee 4dbd 4571 23bd bbf2 52bd 40e3 2b3c
00000370: d08d 62bb 805c 113c 4f8e 37bd 6b75 3abd
00000380: df8f 09bc 0bf8 efbc d146 35bd ba58 0b3d
00000390: feae dcbc 5f38 08bb 7a33 b0bc 4c46 21bd
000003a0: 10c6 dbbc 184e 2ebd 089d 03bd e0b8 77bb
000003b0: efc7 bfbc 4d0e 173d e892 38bc c970 3b39
000003c0: a9ff 7cbc f816 003c e0c2 00bd a4a8 2f3b
000003d0: 6a7a ca3c 7be3 99bc 5a17 5dbd 5e9b 993c
000003e0: 7015 f63b f56e 36bd b0b2 54bd c058 923a
000003f0: 9adb 52bd 0db6 1ebd 7436 443c 2d63 13bd

l2.bias f4 [300]
-0.039074413 -0.03777569 0.025333248 0.07782352 -0.051937036 -0.056527197 -0.11768119 0.10772143
-0.0025378612 0.014749464 -0.093885176 0.10151096 -0.094959505 -0.05864182 0.099768005 -0.06251853
0.017198801 -0.03531156 -0.060303103 0.014883778 0.14574274 0.16229069 0.10795525 -0.0056219916
-0.019651676 0.38597998 0.14434092 -0.07935773 -0.010708548 -0.10255537 0.010261497 0.07302485
0.08117799 0.07202834 -0.062787764 -0.10613093 0.019050172 -0.093911365 -0.031124746 -0.042086005
-0.10689669 0.06323136 0.15633738 0.1272538 0.39130166 0.35239562 0.03806251 -0.080620974
-0.03974017 -0.02915088 0.012320741 -0.030828461 -0.05270846 0.02121089 -0.06574211 0.0772599
0.0763558 0.11590737 -0.046728097 0.106291965 -0.012561118 0.06405255 0.16296524 -0.040339578
0.03999379 -0.06501129 -0.064854465 0.0014187816 0.1209951 -0.071857214 -0.004635928 -0.07148622
0.12577711 0.2980948 -0.0054507474 0.07454582 0.43863422 0.05521246 0.42378125 -0.09173654
-0.041384775 -0.061378267 0.07297069 0.0823022 -0.024369886 -0.070520565 -0.003255811 -0.024109239
-0.01729884 0.028132915 0.007007071 -0.0740084 0.060797624 -0.05098169 0.092991866 -0.10367745
-0.078204356 0.043720525 0.059900798 -0.0561852 -0.0022890025 -0.038912453 0.036683507 -0.014952673
0.08670514 0.04866861 0.12599984 -0.08405225 -0.01995595 0.07359993 -0.055731166 0.07879866
-0.060808476 -0.00082167995 0.11924287 -0.058931034 -0.033977248 -0.04367274 -0.055371866 0.030727386
-0.044674113 -0.06457878 -0.051809672 -0.09668379 -0.0366441 -0.07666835 -0.033379454 -0.08175131
-0.01988375 -0.10826428 0.03008535 -0.056554947 0.113895476 0.11148181 -0.12708491 -0.10286192
-0.007893429 -0.019271605 -0.118098445 -0.107211344 0.024353417 -0.057635106 -0.01927865 0.04900523
0.087639414 0.12686737 -0.12754175 0.104831636 -0.0102200825 0.0266295 -0.027761536 -0.05447031
0.1498949 -0.09094166 0.030682312 0.06534979 -0.049537268 -0.084313355 -0.0010884119 0.11693181
0.33649343 -0.04124993 0.05469995 -0.041037567 0.016424533 -0.060837787 -0.11230638 0.031927176
-0.08250555 0.12859024 -0.05284979 0.008973667 0.020480335 -0.011229437 0.10038503 -0.029961439
-0.03954519 0.40045762 -0.03842024 -0.052854504 -0.089805864 0.0011822669 0.10802527 0.08296536
-0.07660045 0.11826009 -0.0069378046 -0.045579743 0.0016722155 0.0026819853 -0.034042068 0.03500256
-0.0045137336 0.3603841 -0.12359141 0.15061621 -0.059280973 0.27550656 -0.070022136 -0.051382106
-0.029208865 0.07084893 0.1597749 0.29238266 0.27778265 -0.067953974 -0.07730062 -0.025374034
0.006752258 -0.014876196 -0.048841804 -0.06629251 0.008917679 -0.016807413 -0.04293809 0.18720877
-0.012813598 -0.07763507 -0.0053058234 -0.050310172 0.07964651 -0.03520816 0.027988594 0.3735334
-0.034451604 -0.045611985 -0.05746218 0.0704094 -0.058595207 0.014257093 0.072899096 -0.051758356
-0.013310127 0.07897125 0.23275577 -0.08784426 -0.044608053 -0.0010781909 -0.05908721 -0.03512984
0.10483758 -0.035921242 -0.05987301 -0.05419169 -0.09799518 -0.09588816 -0.12306323 0.3498951
-0.01903658 -0.021438193 0.119048536 0.10516311 -0.06256491 -0.059460577 0.09193909 0.03152037
00000000: 7e0c 20bd afba 1abd ac87 cf3c f061 9f3d
00000010: eebb 54bd 1089 67bd d602 f1bd 0e9d dc3d
00000020: 3f52 26bb bca7 713c df46 c0bd fae4 cf3d
00000030: 217a c2bd 6832 70bd 2b53 cc3d b709 80bd
00000040: 80e4 8c3c dba2 10bd 6300 77bd 17db 733c
00000050: 963d 153e 882f 263e a417 dd3d af38 b8bb
00000060: 8dfc a0bc 2b9f c53e 1bce 133e 4e86 a2bd
00000070: e872 2fbc 8d08 d2bd d71f 283c 0d8e 953d
00000080: a540 a63d 9883 933d df96 80bd 2c5b d9bd
00000090: 1b0f 9c3c 9a54 c0bd 53f9 febc 6062 2cbd
000000a0: a7ec dabd 717f 813d e816 203e d24e 023e
000000b0: b158 c83e 336d b43e 6fe7 1b3d 9c1c a5bd
000000c0: 97c6 22bd d4cd eebc efdc 493c f88b fcbc
000000d0: d3e4 57bd 76c2 ad3c cda3 86bd 703a 9e3d
000000e0: 6e60 9c3d d860 ed3d f665 3fbd 9aaf d93d
000000f0: 26cd 4dbc fc2d 833d 5ce0 263e 1d3b 25bd
00000100: 87d0 233d a424 85bd 6bd2 84bd 69f6 b93a
00000110: 47cc f73d e029 93bd fce8 97bb 5e67 92bd
00000120: b7cb 003e e29f 983e 2f9c b2bb 7bab 983d
00000130: aa94 e03e 7626 623d dbf9 d83e 5ee0 bbbd
00000140: 1583 29bd c767 7bbd a871 953d 0e8e a83d
00000150: 5ba3 c7bc 166d 90bd 725f 55bb bd80 c5bc
00000160: 4cb6 8dbc 0077 e63c 929b e53b b791 97bd
00000170: ee06 793d 2dd2 50bd 8572 be3d d854 d4bd
00000180: 9b29 a0bd 4b14 333d 8a5a 753d 7422 66bd
00000190: 1703 16bb aa62 1fbd 7241 163d 0efc 74bc
000001a0: 7792 b13d bd58 473d 1a06 013e 9623 acbd
000001b0: a97a a3bc 8fbb 963d 5d46 64bd 3161 a13d
000001c0: 4f12 79bd 0266 57ba 9b35 f43d ab61 71bd
000001d0: ba2b 0bbd 30e2 32bd 9ccd 62bd 00b8 fb3c
000001e0: 34fc 36bd e141 84bd 6136 54bd 2702 c6bd
000001f0: 2018 16bd 4c04 9dbd e5b8 08bd 3b6d a7bd
00000200: 3fe3 a2bc aab9 ddbd 8d75 f63c 29a6 67bd
00000210: 0842 e93d 9350 e43d 8c22 02be 45a9 d2bd
00000220: 7153 01bc 7cdf 9dbc 99dd f1bd 9f91 dbbd
00000230: d180 c73c ca12 6cbd 42ee 9dbc b5b9 483d
00000240: 4b7c b33d 85e9 013e 4e9a 02be f8b1 d63d
00000250: 2272 27bc 1c26 da3c 296c e3bc 431c 5fbd
00000260: 0c7e 193e 9f3f babd 7959 fb3c 1cd6 853d
00000270: 97e7 4abd 7bac acbd 0ba9 8eba f279 ef3d
00000280: de48 ac3e b0f5 28bd 0e0d 603d 0217 28bd
00000290: be8c 863c 0b31 79bd e300 e6bd 12c6 023d
000002a0: abf8 a8bd 29ad 033e 0579 58bd 4a06 133c
000002b0: 60c6 a73c acfb 37bc ab96 cd3d b171 f5bc
000002c0: 23fa 21bd c808 cd3e 8b5e 1dbd f77d 58bd
000002d0: 23ec b7bd 4bf6 9a3a 5a3c dd3d bee9 a93d
000002e0: b2e0 9cbd 5932 f23d 8656 e3bb d3b1 3abd
000002f0: 3e2e db3a 3fc4 2f3b b26f 0bbd d85e 0f3d
00000300: f1e7 93bb 4484 b83e 7e1d fdbd 233b 1a3e
00000310: 9bd0 72bd 320f 8d3e c467 8fbd 0b76 52bd
00000320: 6e47 efbc 3e19 913d 089c 233e 2eb3 953e
00000330: 8739 8e3e 742b 8bbd ca4f 9ebd 35dd cfbc
00000340: 0c42 dd3b 4abb 73bc 580e 48bd 5ec4 87bd
00000350: 751b 123c b3af 89bc dadf 2fbd a8b3 3f3e
00000360: 20f0 51bc 23ff 9ebd 79dc adbb 0a12 4ebd
00000370: b61d a33d 6e36 10bd 5648 e53c c53f bf3e
00000380: 201d 0dbd a2d3 3abd 765d 6bbd ce32 903d
00000390: 8701 70bd 9596 693c 1f4c 953d 9200 54bd
000003a0: b812 5abc aebb a13d 8757 6e3e b1e7 b3bd
000003b0: efb6 36bd 1552 8dba 6e05 72bd 4fe4 0fbd
000003c0: 16b5 d63d 2722 13bd 673d 75bd 1bf8 5dbd
000003d0: b2b1 c8bd 0361 c4bd 9308 fcbd 7325 b33e
000003e0: 9af2 9bbc 269f afbc b8cf f33d c25f d73d
000003f0: 0822 80bd ef8c 73bd 904a bc3d 811b 013d

l3.weight f4 [1, 300]
-0.02454683 0.18509062 0.035742387 -0.23185772 0.005650308 0.014239244 0.23354933 -0.20973232
-0.0061872993 -0.03305658 0.17129347 -0.23011795 0.2232315 0.20362893 -0.2507278 -0.027083043
0.051347885 0.18295799 0.21546295 -0.0033718995 -0.24799223 -0.25929958 -0.19341785 -0.03479877
-0.031143526 -0.5068001 -0.25632453 0.2336228 0.03425975 0.19091846 0.03673382 -0.23721671
-0.26327935 -0.22927456 0.0010823478 0.21468715 -0.0024912425 0.23774694 0.19468983 0.041793253
0.22099796 -0.16405681 -0.23093678 -0.21719989 -0.37544605 -0.4209496 -0.39000043 0.015400784
0.21699466 -0.010386471 0.004814051 0.44263497 0.059399936 -0.003258884 0.2173077 -0.24789612
-0.25387898 -0.26105723 0.03672989 -0.24676804 -0.039931826 -0.22178616 -0.11957611 0.22990704
-0.17169286 0.21303935 0.24924257 -0.021438848 -0.240433 0.17616127 0.033124223 0.036537495
-0.23223539 -0.44241023 -0.0036778117 -0.24264295 -0.38913867 -0.21457465 -0.38313204 0.44843093
0.020245787 0.2373871 -0.25987664 -0.25465524 -0.02895878 0.023752753 0.023746224 -0.0066137216
-0.04098526 -0.024612043 0.03758105 -0.02454052 0.12025034 0.21040161 -0.15011165 0.23940587
0.022196736 -0.20278269 -0.22868824 0.04849207 0.007009061 0.008138419 0.014219922 0.0029085546
-0.24364482 -0.1812997 -0.18439524 0.2092019 -0.039761633 -0.2508003 -0.0028391131 -0.19179237
0.22278634 -0.024304627 -0.23690581 0.035533622 0.09853617 0.22429216 0.5900127 -0.18042973
0.12713969 0.022486513 0.0042032357 0.21246718 -0.016821265 0.21673074 0.020619895 0.19081679
-0.008286703 0.17137682 0.03009597 -0.016428266 -0.25657508 -0.24749285 0.18250374 0.1523295
0.039480276 -0.0517695 0.2119551 0.18511447 0.04692883 0.032529745 0.02387414 -0.26230502
-0.27884582 -0.2508327 0.19289544 -0.20589277 0.019698096 0.005011475 0.019764196 0.009102745
-0.29950723 0.2053482 0.008944905 -0.21224152 0.06403986 0.037615925 -0.45036975 -0.2421451
-0.38313094 0.02573111 -0.22715928 0.20470175 0.018207766 -0.006941264 0.18473153 -0.060924523
0.19086392 -0.2217012 0.17978275 -0.0155953895 0.03221464 -0.016614508 -0.22210635 0.03789512
0.045811966 -0.5096811 0.24089865 0.027112942 0.24410489 0.0101273395 -0.23211174 -0.17315017
-0.026099615 -0.31156254 0.018965205 0.02056571 -0.009689975 0.0013011907 0.027545242 -0.20885096
-0.0024936933 -0.40421924 0.18950915 -0.26591986 0.00449003 -0.22266576 0.2110761 0.17537591
-0.027340382 -0.2532808 -0.2768335 -0.28730732 -0.2556774 0.20037787 0.25616223 0.0019438488
-0.012462167 0.00022103933 0.04420496 0.18218017 -0.03397628 0.013765199 0.036715683 -0.2862015
0.006750383 0.26293072 -0.036535095 0.18679065 -0.242504 0.1771798 0.029704576 -0.5431983
0.025420446 -0.0059057563 0.20841113 -0.21614508 -0.010083818 0.042381894 -0.2605673 3.5888665e-05
-0.01583286 -0.23911601 -0.20919907 0.22161567 0.05183 -0.00040280927 0.002232427 0.002030996
-0.250794 -0.0009853323 0.0017334054 0.20698796 0.0057995073 0.20319541 0.21653707 -0.5590507
0.056796316 0.36581603 -0.21206616 -0.25642303 -0.027319765 0.18101645 -0.25856477 0.04324847
00000000: 6f16 c9bc 6588 3d3e 9c66 123d 1c6c 6dbe
00000010: 3826 b93b b84b 693c 8e27 6f3e 12c4 56be
00000020: d4be cabb 5666 07bd 8e67 2f3e 0aa4 6bbe
00000030: cc96 643e 1a84 503e 655f 80be 42dd ddbc
00000040: 2952 523d 5759 3b3e 52a2 5c3e 16fb 5cbb
00000050: adf1 7dbe eac2 84be 540f 46be 2889 0ebd
00000060: b520 ffbc a7bd 01bf f83c 83be d13a 6f3e
00000070: f453 0c3d 2180 433e 3476 163d f0e8 72be
00000080: 8dcc 86be f3c6 6abe 91dd 8d3a f3d6 5b3e
00000090: 1d44 23bb ef73 733e c55c 473e 672f 2b3d
000000a0: 4a4d 623e 82fe 27be b17a 6cbe a669 5ebe
000000b0: 773a c0be b586 d7be 23ae c7be 9253 7c3c
000000c0: d933 5e3e 042c 2abc 30bf 9d3b 0da1 e23e
000000d0: 594d 733d 0093 55bb e985 5e3e 7bd8 7dbe
000000e0: 6dfc 81be 4ba9 85be 1572 163d c3b0 7cbe
000000f0: 8e8f 23bd e91b 63be 52e4 f4bd c06c 6b3e
00000100: 41d0 2fbe fd26 5a3e 7239 7f3e 86a0 afbc
00000110: 1134 76be 9f63 343e 44ad 073d 57a8 153d
00000120: 1dcf 6dbe 9883 e2be 7107 71bb 6577 78be
00000130: 2f3d c7be 75b9 5bbe e229 c4be bd98 e53e
00000140: 7eda a53c 9b15 733e 8d0e 85be 2c62 82be
00000150: f73a edbc 2295 c23c 7187 c23c ebb7 d8bb
00000160: 29e0 27bd 329f c9bc 96ee 193d 3309 c9bc
00000170: cf45 f63d 8573 573e deb6 19be d026 753e
00000180: eed5 b53c 44a6 4fbe 402d 6abe 9f9f 463d
00000190: 44ac e53b 0157 053c adfa 683c 739d 3e3b
000001a0: 077e 79be a1a6 39be 1bd2 3cbe 0639 563e
000001b0: 18dd 22bd e668 80be 6a10 3abb 3865 44be
000001c0: 1a22 643e 7f1a c7bc 7097 72be b48b 113d
000001d0: 55cd c93d d8ac 653e 130b 173f 92c2 38be
000001e0: e830 023e a335 b83c 4cbb 893b ff90 593e
000001f0: c0cc 89bc aaee 5d3e 0eeb a83c 7a65 433e
00000200: f4c4 07bc 687d 2f3e d38b f63c 9294 86bc
00000210: cf5d 83be c46e 7dbe 43e2 3a3e 44fc 1b3e
00000220: 12b6 213d 410c 54bd c20a 593e a68e 3d3e
00000230: 7238 403d e93d 053d b393 c33c d84c 86be
00000240: e1c4 8ebe 256d 80be 6286 453e 8ed5 52be
00000250: e75d a13c 4d37 a43b 86e8 a13c ae23 153c
00000260: 0359 99be cc46 523e a78d 123c d755 59be
00000270: 5527 833d 2813 1a3d dd96 e6be e3f4 77be
00000280: bd29 c4be 0cca d23c 719c 68be 569d 513e
00000290: 7428 953c 8b73 e3bb 432a 3d3e fe8b 79bd
000002a0: d571 433e a405 63be f818 383e ce83 7fbc
000002b0: 80f3 033d 261b 88bc d96f 63be ea37 1b3d
000002c0: 54a5 3b3d 767a 02bf 23ae 763e f61b de3c
000002d0: a2f6 793e 24ed 253c b3ae 6dbe 474e 31be
000002e0: dcce d5bc 2085 9fbe eb5c 9b3c 6b79 a83c
000002f0: b3c2 1ebc b78c aa3a 8fa6 e13c 07dd 55be
00000300: 3b6d 23bb d3f5 cebe b00e 423e a626 88be
00000310: 1a21 933b 7e02 64be 5524 583e be95 333e
00000320: f0f8 dfbc 05ae 81be 1fbd 8dbe f219 93be
00000330: 26e8 82be db2f 4d3e b227 833e bec8 fe3a
00000340: 1e2e 4cbc cbc6 6739 4310 353d 708d 3a3e
00000350: b62a 0bbd 6e87 613c 2f63 163d 0189 92be
00000360: 5132 dd3b db9e 863e d3a5 15bd 0c46 3f3e
00000370: f852 78be 9f6e 353e 0357 f33c 0b0f 0bbf
00000380: 8a3e d03c 1385 c1bb ba69 553e 2355 5dbe
00000390: 9936 25bc a398 2d3d 1469 85be 2987 1638
000003a0: eab3 81bc d4da 74be 4838 56be 38ef 623e
000003b0: b24b 543d 2530 d3b9 e94d 123b 751a 053b
000003c0: 1268 80be 4426 81ba 6f33 e33a a7f4 533e
000003d0: cb09 be3b 7512 503e e5bb 5d3e f21d 0fbf
000003e0: 41a3 683d 3d4c bb3e df27 59be e149 83be
000003f0: b3cd dfbc 605c 393e 9a62 84be 4f25 313d
