TD3-conf1/preTrained/TD3_BipedalWalker-v3_0_actor_ep500.pth (torch_old, 526982 bytes, 6 tensors)

l1.weight f4 [400, 24]
000000 3d c1 cb 3e 46 21 11 3d b0 5b 89 3f 79 6e 6b be
       0.39795867 0.035432123 1.0731106 -0.2299136
000010 fa 6b 25 3f 7a fb 1c be 79 eb 27 bf 52 fd 0d bd
       0.64617884 -0.15330306 -0.6559368 -0.034665413
000020 c8 df 07 c0 06 26 57 bf 24 75 8a 3c d6 34 af be
       -2.1230335 -0.84042394 0.01690156 -0.34219998
000030 5e cf 26 3e d7 26 41 3e 57 53 ee be 83 e3 2a be
       0.16290042 0.18862472 -0.46547958 -0.16688351
000040 24 58 ce be cc 30 ee be 29 6b e8 be 07 a5 c4 be
       -0.4030162 -0.46521604 -0.45394257 -0.38407156
000050 f6 d7 d4 be 4e f1 62 be 4e 8e 18 be ba 8a cc bc
       -0.41571015 -0.22162363 -0.14898035 -0.024968494
000060 b3 59 c4 3e ef 16 87 3f d1 40 06 c0 b1 97 55 3f
       0.38349685 1.0553874 -2.097706 0.8343459
000070 be ce cf 3e 07 e1 be be 6e 5a a4 be b7 b5 b8 be
       0.4058742 -0.37281057 -0.32100242 -0.36076137
000080 63 5c 1d be 3f 2a 32 bf b4 43 c7 be a6 3a 25 bf
       -0.15367274 -0.6959571 -0.3891884 -0.64542615
000090 18 5e 4d be f6 31 65 3e c1 af 71 be 87 24 a8 be
       -0.20055425 0.2238234 -0.23602201 -0.32840368
0000a0 d5 e1 71 be b9 97 f2 be a0 90 ac be 53 a0 ac be
       -0.23621304 -0.4738138 -0.3370409 -0.33716068
0000b0 6a e2 c4 be 9b c0 f9 be 42 6a a3 bd da 5d 71 be
       -0.3845399 -0.4877976 -0.079792514 -0.23570958
0000c0 c3 09 e5 3e 62 43 87 3f f6 14 d5 bf d2 69 99 3e
       0.4473401 1.0567439 -1.6647022 0.29963547
0000d0 34 2d 86 3f 85 a4 0c 3e 48 72 9d be 9a 6d ae be
       1.0482545 0.13734634 -0.30751252 -0.34067994
0000e0 7a 35 0d 3f a9 86 48 bd 47 17 32 be bc cf 69 3f
       0.55159724 -0.048956547 -0.17391692 0.913326
0000f0 87 d7 9a bd 56 95 77 3e 9a 11 fb be af 0d 71 be
       -0.0756064 0.24178061 -0.49036866 -0.23540376
000100 d6 06 07 bf 7c 01 0f bf 4d 97 68 be c9 3e 0b bf
       -0.52744806 -0.5586164 -0.22713967 -0.5439268
000110 dc 85 8b be 00 2e ed be 64 6b 0b bf 4e 33 00 bd
       -0.27250564 -0.46324158 -0.5446074 -0.031298928
000120 cb b4 12 3f fe ed b4 3f a3 21 ce be 2a 32 e4 3c
       0.5730712 1.413513 -0.40260038 0.027855951
000130 60 4e b0 3e 01 97 59 be 14 0f ba 3e 76 de 4f 3e
       0.34434795 -0.2124901 0.3633963 0.20299706
000140 6e 8b 7e bf 09 9e 7d be 46 27 d4 be 11 34 bb be
       -0.994315 -0.24767317 -0.41436213 -0.3656316
000150 65 b0 97 be 40 a1 9a be 1d 75 f9 be 52 47 c7 be
       -0.29626766 -0.3020115 -0.48722163 -0.389216
000160 a7 95 1a bf d2 18 17 bf e9 68 05 bf 26 7e 0a bf
       -0.603846 -0.5902225 -0.52113205 -0.5409874
000170 ec 40 f6 be 2a 2c 12 bf e4 eb b6 be 1a 41 17 bf
       -0.48096406 -0.5709864 -0.35726845 -0.5908371
000180 5e 86 7b 3f 1b 43 ef bf fe 48 c5 3f 64 9b b4 bf
       0.98251903 -1.8692354 1.54129 -1.4109921
000190 8f 4b de 3e e8 ab 60 3e ac d7 07 be 14 9e 87 3e
       0.43417022 0.21940577 -0.13265866 0.26487792
0001a0 ca de ef be 17 8c 1f 3f f8 72 88 bd 91 e4 69 be
       -0.46849662 0.62323135 -0.066625535 -0.22841097
0001b0 c1 d5 e5 3d b2 73 34 3e 37 41 bc be 79 7a b6 be
       0.11222411 0.1762226 -0.36768505 -0.35640314
0001c0 20 63 ae be dc 97 ad be 61 01 42 bd 87 29 5d be
       -0.3406 -0.33904922 -0.047364596 -0.21597873
0001d0 a3 1c 84 3b b0 13 78 be 19 b0 ae 3d 4a bd 06 be
       0.004031734 -0.2422626 0.08529682 -0.13158146
0001e0 08 77 05 3f 7b 0e c5 3f bc fa e8 bf 91 c8 c1 3f
       0.5213475 1.5395044 -1.8201518 1.5139333
0001f0 98 84 49 bf 35 51 57 be 29 a5 a0 3d b7 d4 ec bd
       -0.78717947 -0.21027072 0.07844002 -0.1156401
000200 17 b1 65 bf 58 10 9c 3c 7b a2 a8 be 2a 07 43 3f
       -0.8972334 0.019050762 -0.32936463 0.76182806
000210 da 3c 3b 3f 7c 34 ad be 8b 8b 65 3e 13 af 79 3e
       0.7313973 -0.33829105 0.22416513 0.24383192
000220 28 98 42 3e 4c b0 10 3e 4f 93 88 3e 7e a7 72 bd
       0.19003356 0.14129752 0.26674888 -0.059241764
000230 c4 23 9a bd 92 35 1e 3e 39 d3 a9 bc 79 61 db be
       -0.07526353 0.15450123 -0.020730602 -0.42847803
000240 40 6d 60 bf 0e db 48 3f 25 3d a5 bd c9 4d cc 3d
       -0.876667 0.7845925 -0.08068303 0.09975774
000250 18 f2 02 bf b8 ad cc be de b7 ad 3e f9 f8 d7 3e
       -0.51150656 -0.39976287 0.33929342 0.4218214
000260 37 06 24 bf 6b e2 36 3f e2 39 35 be e6 85 d8 3e
       -0.64071983 0.71439236 -0.17697862 0.42289656
000270 45 37 79 3e e8 51 fd 3e 7d 74 d7 be 6d a7 c9 be
       0.2433749 0.49476552 -0.4208106 -0.39385548
000280 f0 ea b6 be 28 c5 97 be be 46 bf be f6 cf fc be
       -0.35726118 -0.29642606 -0.3735866 -0.49377412
000290 97 7b ce be 8a 1d 12 bf 7e 38 16 bf 8a 1d 2d be
       -0.40328667 -0.57076323 -0.5867995 -0.169058
0002a0 4b 59 8b 3f b2 ac 43 40 0e 32 82 bf 5f 2f 72 3e
       1.0886625 3.0574155 -1.0171525 0.23650883
0002b0 83 5b 24 bf 5d 90 c9 be 6e a5 31 3f 14 8b f0 3e
       -0.64202136 -0.39367953 0.6939305 0.46981108
0002c0 03 0e a8 3e f3 9f 6b 3f ad 09 1f 3e c1 5d 13 bf
       0.3282319 0.9204094 0.15531035 -0.5756493
0002d0 04 b8 0e 3d b2 19 0a 3f 1a b2 d8 be 72 17 f9 be
       0.03484346 0.5394546 -0.4232338 -0.486507
0002e0 43 c2 84 be 0a 18 12 be 43 30 d9 be 76 44 ce be
       -0.2592946 -0.14266983 -0.42419633 -0.40286607
0002f0 d7 44 81 be 90 25 c9 be 93 c2 a5 be 68 7d 0f bf
       -0.25247833 -0.3928647 -0.3237501 -0.5605073
000300 c0 e6 f7 be a7 2f 00 3f b7 29 33 bf f1 5b d5 bf
       -0.48418236 0.5007271 -0.69985527 -1.6668683
000310 2e 98 6a be 4e 53 50 3d 81 31 41 3f 82 81 c9 be
       -0.22909614 0.050860696 0.7546616 -0.3935662
000320 4c 3f 96 bf 79 cc cb be 0b e3 61 3e ab 46 09 bf
       -1.1738067 -0.39804438 0.22059266 -0.53623456
000330 d8 80 a5 3e 9a 86 00 bf ec 80 8d 3e 45 a9 71 3e
       0.32324862 -0.50205386 0.27637422 0.23599727
000340 84 a5 8f 3c f1 54 93 bc 23 aa 0e 3e bb c0 30 3e
       0.017534979 -0.01798484 0.1393209 0.17261021
000350 ba 6d 51 bd 86 00 11 3e 4a d3 03 3e 58 1d 9a be
       -0.051130034 0.14160356 0.12873569 -0.30100513
000360 1c 54 0e 3f 0e 60 2d c0 61 ba 01 40 da d7 61 bf
       0.5559709 -2.7089877 2.0270007 -0.8821999
000370 70 e0 51 3f 3a 47 e3 3c 42 48 08 bf 42 2b c1 be
       0.8198309 0.027743924 -0.53235257 -0.37728316
000380 97 ac f9 3d dd 72 5c 3e 0f 70 c3 3e 10 79 82 3f
       0.12191122 0.21528192 0.3817143 1.0193195
000390 b0 06 25 3e 31 91 b2 be 92 4e 02 bd 08 eb 94 bb
       0.16115832 -0.34876397 -0.03181321 -0.0045446195
0003a0 38 f8 b3 3d 59 4a 20 3e e8 f2 ee bd 84 5c 02 be
       0.08787578 0.15653361 -0.116674244 -0.12730604
0003b0 df 77 38 bd ec d1 a8 bc f2 4c 25 3e c0 0f 9e 3d
       -0.045036193 -0.020607911 0.16142634 0.07717848
0003c0 d9 74 5e be c0 ed c8 bf b0 23 48 3f 74 e0 33 3f
       -0.21724261 -1.5697556 0.78179455 0.70264363
0003d0 1c cd fa be 4e 46 eb bc cb 42 13 3f 5d e3 1e 3f
       -0.4898461 -0.028720047 0.57523793 0.6206568
0003e0 f4 90 01 bd d6 de 50 3f e1 6a 30 bf b0 87 2c 3e
       -0.03163238 0.8159002 -0.68913084 0.16848636
0003f0 09 1b 5f bd 44 18 57 3e b5 67 09 bf 8d 30 e8 be
       -0.054469142 0.2100535 -0.5367387 -0.4534954

l1.bias f4 [400]
000000 db 24 14 be 4d 6e cd be 8b 0e c3 bd 5c 3f 30 bf
       -0.14467184 -0.40123215 -0.09524258 -0.6884668
000010 26 23 42 3c c2 6d 1e bf 24 74 de bd 14 1e 55 be
       0.0118492 -0.6188623 -0.10861996 -0.20812255
000020 d8 fc 4a be c3 1b af 3b 37 4c 51 bd 16 6d bd bd
       -0.19823015 0.0053438856 -0.051098075 -0.09249322
000030 cd df 96 bd d1 0c b8 be cf 92 7f be f2 49 b6 bd
       -0.07366905 -0.35947278 -0.24958347 -0.08900823
000040 b6 9c be bd 7f 40 74 be 04 30 54 be 7d 1a 82 3d
       -0.09307234 -0.23852728 -0.20721442 0.063527085
000050 da bf dd bd 1c bd 5a 3e 09 3c 85 be 43 0f a4 be
       -0.108276084 0.21361202 -0.26022366 -0.32042894
000060 30 b1 91 be 52 7f ab be f9 43 1f be 35 90 a4 bd
       -0.28455496 -0.33495575 -0.15553273 -0.08035318
000070 f2 1c cc 3e d7 37 d7 3d a0 ef 4a be f7 57 d7 be
       0.39865834 0.105086975 -0.19817972 -0.420593
000080 fe 52 9b 3e 6c 79 46 be 57 0c 85 bc 74 fe 54 be
       0.30336756 -0.19382256 -0.016241236 -0.20800191
000090 0a ff 97 be fe ac fd 3c 57 76 01 3d de 5b a8 be
       -0.29686767 0.030966278 0.031607 -0.3288259
0000a0 ad 06 c4 be 9a 13 a6 be f4 1a b6 3e b9 04 74 be
       -0.38286343 -0.3243683 0.3556744 -0.23829927
0000b0 9f 69 15 3e 93 ee 01 bd d0 de 5e 3e e9 29 3a be
       0.14591072 -0.031721663 0.21764684 -0.1818005
0000c0 25 7d 98 be 98 42 dd 3c e8 ce 34 be 72 7e fe be
       -0.29782978 0.027009293 -0.17657053 -0.49705845
0000d0 42 67 f0 3d b9 b6 10 bf c0 b6 35 bd 14 95 28 be
       0.11738445 -0.5652881 -0.044363737 -0.16463119
0000e0 bb 8d a3 bc 39 5c 35 bf 7d 40 07 3d e2 02 d3 be
       -0.019965043 -0.70843846 0.033020485 -0.41213137
0000f0 23 df a5 be 29 ca b3 be f6 bf 63 3e ee d1 74 be
       -0.32396802 -0.35115173 0.22241196 -0.23908207
000100 f0 82 a8 3d 4d 9a 7f bd 0e f2 dc 3d f4 49 6e be
       0.08228099 -0.062403012 0.10788356 -0.23270398
000110 8b 85 99 be 86 d9 27 be aa a2 9c bd 92 77 79 bd
       -0.29984698 -0.16391572 -0.07648213 -0.060905047
000120 96 88 b5 bd 92 b2 c5 be b2 96 ff be 1f 25 20 3f
       -0.08863942 -0.386128 -0.4991966 0.6255664
000130 64 74 2f bc f3 fb 6e be 5c db c5 be ba e8 b2 be
       -0.010708902 -0.23338298 -0.3864392 -0.3494318
000140 60 fa fd 3d 91 84 af be 44 1e bf bd 4a 60 45 be
       0.12401271 -0.34280828 -0.093319446 -0.19275013
000150 80 a1 ae be ee 5e 19 bf 6e 6a 34 be 32 81 62 bd
       -0.3410759 -0.59910476 -0.17618725 -0.05529899
000160 23 6f d2 3d 6b a2 ef bd f6 37 93 be 77 06 e8 be
       0.10275104 -0.11700901 -0.28753632 -0.45317432
000170 4c 5a 2c bc 1c 5f cb be 6f a7 bd 3e 3c d2 a7 bd
       -0.010519575 -0.39721 0.37041804 -0.08194396
000180 9d 29 fb be a4 39 c0 be 57 85 96 be e9 fd 20 be
       -0.49055186 -0.37543976 -0.29398605 -0.15721859
000190 40 b7 3f be fe 93 9d be ff 35 91 bd 63 53 3c be
       -0.18722248 -0.30776972 -0.07090377 -0.18391185
0001a0 cf 03 45 be b7 66 e3 be d2 e6 04 3e bf a1 d4 be
       -0.19239734 -0.44414303 0.12978676 -0.41529652
0001b0 0a a0 2e be 2d 92 9d be fd 02 a2 bc 0a 4a 46 bd
       -0.17053238 -0.30775586 -0.019776816 -0.048410453
0001c0 9b 87 5c 3c 45 5b 7d be 14 e6 75 bd c6 53 1e be
       0.013460065 -0.24741848 -0.060033873 -0.15461645
0001d0 1d 60 13 be 4f f6 55 be c6 e4 81 be 69 d8 a5 be
       -0.14392133 -0.2089474 -0.25369853 -0.3239167
0001e0 14 b9 71 3d 1a 22 6d be 42 1f dc 3d df 98 0f bf
       0.059014395 -0.2315754 0.107481495 -0.5609264
0001f0 67 8c cd 3e 15 b1 69 3e c8 8a 92 be 8d 32 4b be
       0.4014618 0.22821458 -0.28621507 -0.19843502
000200 cb 7b 4b bd dc 15 90 be 61 69 5b be d8 2f 25 be
       -0.049678605 -0.28141677 -0.21426918 -0.16131532
000210 eb 71 d1 be 3a 36 06 3e 59 61 3d 3e de d9 88 be
       -0.40907225 0.13106623 0.18494166 -0.2672872
000220 3a 71 39 3e ca 3c 5d 3d bc 1d a7 3d 1b d2 a0 be
       0.18109599 0.05401305 0.08159968 -0.31410298
000230 7d 26 35 bd 6f 66 84 3e 56 9a 45 be 00 92 4c be
       -0.04422616 0.258594 -0.19297156 -0.1997757
000240 f1 73 26 3d 59 5a 9e 3e 04 29 77 bd 65 51 07 be
       0.040637914 0.30928305 -0.06034185 -0.13214643
000250 eb ae a8 be b7 f3 d7 be ee ff 6d 3e ed 88 d2 be
       -0.32945952 -0.42178127 0.2324216 -0.4112009
000260 16 0b d4 3d 75 a5 f4 bc da 85 13 be 36 6d 98 3e
       0.10353677 -0.029864052 -0.14406529 0.2977082
000270 5c af a3 3d e3 b4 ba be 6a 21 61 be df c1 d2 3c
       0.079924315 -0.3646613 -0.21985403 0.02572721
000280 98 df 10 be ad 1d 10 bf 78 92 a0 be eb 16 46 3d
       -0.14147794 -0.5629528 -0.31361747 0.0483617
000290 56 64 2d bd db 7a f0 be f0 29 00 bf b7 6d b0 3e
       -0.042332016 -0.4696873 -0.5006399 0.34458706
0002a0 3a 98 ae 3e f8 2f eb 3d 93 1b 98 be 00 92 59 be
       0.34100515 0.11483759 -0.29708537 -0.21247101
0002b0 3e cb 92 be 2b 44 ca be a1 1b 2a be cd eb 08 bf
       -0.28670686 -0.39505133 -0.16612102 -0.53484803
0002c0 e3 db cc bd da a0 d6 3e 49 22 8d be e4 d0 0b be
       -0.100028776 0.41919595 -0.2756522 -0.13653904
0002d0 fc 81 33 be 91 5a 84 be eb b3 fe bd 9c 88 34 3e
       -0.17530054 -0.25850347 -0.124366604 0.17630237
0002e0 6e 1f d1 3e 29 49 16 bf 48 6e f1 be 14 5b 9f be
       0.4084429 -0.58705384 -0.4715445 -0.31124175
0002f0 dd e1 5a be df e2 05 bf 1b 56 f2 3d 73 e5 df be
       -0.21375223 -0.522993 0.118328296 -0.43729743
000300 81 62 20 be a8 29 b5 bd 5d 79 a4 bd 83 a7 e9 be
       -0.15662576 -0.08845836 -0.08030961 -0.45635614
000310 3d 23 a7 be da 78 35 be b0 64 e0 be 38 3a 8c be
       -0.32644072 -0.17721882 -0.43826818 -0.27388167
000320 c8 c4 96 be 04 18 b0 3d 49 82 9f 3d c2 42 2a be
       -0.29447007 0.085983306 0.07788522 -0.16627029
000330 ea 24 f1 bd 1e 98 bb bd 10 c9 89 be 89 18 1b 3e
       -0.11774619 -0.091598734 -0.2691121 0.15146078
000340 06 02 65 be a3 f0 11 3e 6d 93 12 be 61 36 40 be
       -0.22364053 0.14251952 -0.14314051 -0.18770744
000350 b1 c9 5e 3d 89 80 ee be c3 ec 28 3d 15 46 71 be
       0.054391567 -0.4658244 0.04124142 -0.2356189
000360 50 12 3a bf fd ff d8 be d6 75 56 be 78 90 a7 be
       -0.7268419 -0.42382804 -0.20943388 -0.32727408
000370 6d 49 8b 3d 84 8f 4b be f0 40 3e be 05 1c 07 be
       0.06801114 -0.19878966 -0.18579459 -0.13194282
000380 81 1a b1 3e ae 70 3d be 88 4c ba bd d7 ee e6 bc
       0.34590533 -0.18500015 -0.090966284 -0.02819006
000390 e9 0f 31 be c8 97 53 be a8 ff e5 bd 49 b5 b8 bb
       -0.17291225 -0.20663369 -0.11230403 -0.0056368452
0003a0 cd e3 2f 3e 0c 27 2c 3e 6d 24 28 bf 7f 83 3a 3d
       0.17176743 0.1681177 -0.6568058 0.04553556
0003b0 8b ec 08 be e6 89 93 be 10 b1 e1 be 83 5f 19 3d
       -0.13371484 -0.28816146 -0.440804 0.037444603
0003c0 03 7e 09 3c 66 47 fa 3d 88 73 51 3e d9 61 7d 3d
       0.00839186 0.122206494 0.20454228 0.061860893
0003d0 e5 07 85 3e a5 ff b3 3d 7a b1 e6 bd 9c 26 11 be
       0.25982586 0.08788995 -0.1126432 -0.14174885
0003e0 28 65 29 be 8c 95 ec be c9 df cb be 68 61 f9 be
       -0.16542494 -0.46207845 -0.39819172 -0.48707128
0003f0 d1 b5 90 bd d2 28 33 3f d9 3d d8 be 6a 92 ec be
       -0.07065929 0.6998416 -0.42234686 -0.46205455

l2.weight f4 [300, 400]
000000 ce c4 be bc 6f b4 db bd 66 e9 93 3e 0b f9 c3 3a
       -0.023287203 -0.10727774 0.28889006 0.001495154
000010 8c e8 83 be 56 b0 99 3e cb d0 30 3c a4 c1 03 bf
       -0.25763357 0.30017346 0.010791968 -0.5146735
000020 8e f3 96 3e 97 86 3a be 10 2d 82 3e 30 64 de 3d
       0.29482692 -0.18215404 0.25425005 0.10858953
000030 4b 94 62 bd ae c6 26 bf 69 30 00 bd f7 a8 e8 3d
       -0.055317204 -0.6514691 -0.031296168 0.113603525
000040 bf 32 82 bc 7e 66 da bc 1e bc a5 be ae 06 a6 3d
       -0.015893338 -0.0266602 -0.32370085 0.08106743
000050 8a f8 3a 3e b8 4c 03 3c 14 5b 62 3c 8a 9c e6 3d
       0.18258873 0.008013897 0.01381566 0.11260326
000060 96 01 44 3e db 43 96 3e c3 92 e5 bd 29 6d a8 3d
       0.1914123 0.29348645 -0.11209633 0.08223946
000070 5f be c6 3d b2 e5 30 3b 06 37 2f 3e fb 64 27 3e
       0.09704279 0.0026992378 0.17110834 0.16347115
000080 8e 5f 2b 3e df f8 9e be 07 71 2e 3d 82 3f 2a 3e
       0.1673567 -0.3104925 0.04258826 0.16625789
000090 b3 46 97 3e 54 dc 79 bc f8 d2 c3 3e 2c f0 06 3c
       0.29546127 -0.015250284 0.38246894 0.008235972
0000a0 e9 f3 22 be f6 67 83 be 0f 7d 49 bc 9b ce 11 bd
       -0.15913357 -0.25665253 -0.012297883 -0.035597425
0000b0 cf 63 55 bd 57 91 04 be 1a bc 9f be e5 89 57 be
       -0.052097138 -0.12946068 -0.31198198 -0.21048696
0000c0 8d a5 c7 bc d8 57 26 be 00 53 87 3e da 34 87 3c
       -0.024370933 -0.16244447 0.2643051 0.016504694
0000d0 eb 7b 41 be e8 e1 5c 3e 4f 0d f1 3c 18 fc 43 bc
       -0.18894927 0.21570551 0.029425291 -0.011961959
0000e0 04 33 84 be b0 aa ab bb 14 4f 93 3b 76 75 cb 3d
       -0.25820172 -0.0052388534 0.004495511 0.09934513
0000f0 55 80 4e be e1 06 13 3e 1b 05 8e bc 78 18 f7 bd
       -0.20166142 0.14358093 -0.017336419 -0.12065214
000100 25 16 9e 3e 8a a5 4d be 58 42 33 be 4b 5b 5e 3e
       0.3087627 -0.2008268 -0.17505777 0.21714513
000110 b8 e7 94 be 1e c9 af 3d b5 30 9a bd 37 b0 5e be
       -0.29083037 0.08583282 -0.075288214 -0.21746908
000120 7b 25 80 3d 6b 28 b7 3d 4b 26 5a 3e 1f 76 ec 3d
       0.06257149 0.08943256 0.2130367 0.11545967
000130 15 8c c4 3e 94 6c 8d be 70 59 e6 3c 52 95 00 be
       0.38388124 -0.276219 0.028118819 -0.12556961
000140 34 d6 9a 3d 83 fa 6f be 16 7d 9e bc 73 2d 36 bd
       0.07560387 -0.23435406 -0.019346755 -0.044476938
000150 87 90 64 be 0b 0d 0f 3d 58 37 d7 3c bb 13 35 be
       -0.22320758 0.034924548 0.026271507 -0.17683308
000160 58 2c 4e bd b8 a2 f5 bd 12 79 8e 3c 45 2c 62 be
       -0.05033526 -0.11993927 0.017391715 -0.220872
000170 ba 37 b0 be cb a7 16 be 45 7d 11 3e 7b 8e c2 bd
       -0.34417516 -0.14712445 0.14207943 -0.09499832
000180 8c 4f 1d bb c2 8a c0 bd 69 4b 2f be b6 fa 6d be
       -0.0024003712 -0.09401466 -0.1711861 -0.2324017
000190 93 3d 20 3e 45 21 17 3e d9 78 17 3e bc 1b a1 3c
       0.15648489 0.14758785 0.14792193 0.019666545
0001a0 c4 10 36 3d 2d 00 11 3f 8b 75 c0 be 35 5b 77 3e
       0.044449583 0.56640893 -0.37589678 0.24155886
0001b0 0d d7 92 3e 50 a8 b6 3b 15 ca c2 be aa 50 6e 3c
       0.28679696 0.0055742636 -0.380448 0.014545599
0001c0 c5 4a 61 be 53 81 0b 3e 2a 2a ac be a6 9d 1a 3d
       -0.22001179 0.13623552 -0.3362592 0.037748
0001d0 e8 01 11 bc 73 79 c0 be 59 13 a2 bd f3 1c 13 bf
       -0.008850552 -0.37592658 -0.079138465 -0.5746605
0001e0 1b fc 93 be db 9d 21 be e1 ce 03 3c 9a 86 1a bd
       -0.2890328 -0.15782873 0.008044929 -0.037726022
0001f0 7b de 49 be 04 1a 3d 3c a6 f9 e9 be 24 d4 a3 3e
       -0.19713776 0.011541847 -0.4569828 0.31997788
000200 14 27 0a 3d a5 7c 33 3c 85 d7 44 3e 32 f2 aa 3c
       0.033728674 0.010955011 0.19222839 0.02086744
000210 49 ba ec be e6 38 66 bd a5 dd ad be 86 ea 20 be
       -0.46235874 -0.056206606 -0.33958164 -0.15714464
000220 15 4d 0f 3d ba ae 14 bf 76 0c ef bc 08 74 85 be
       0.03498562 -0.5807911 -0.029180747 -0.26065087
000230 52 c3 06 3e 17 dd 1b 3d 40 79 1a be 83 20 0d 3e
       0.13160446 0.038052645 -0.15085316 0.13781933
000240 a7 fd e2 3e 46 ce b9 3e e4 1c 8b 3d 23 c3 2f be
       0.44334146 0.36290187 0.0679262 -0.17164283
000250 c3 2a 85 be 48 d9 04 be 35 36 92 bc 66 8d 2c be
       -0.26009187 -0.12973511 -0.017848114 -0.16850814
000260 fc 17 bd bc 64 bd 7d bd 37 cb 87 be e1 83 01 3e
       -0.023082726 -0.061948195 -0.26522228 0.12647964
000270 b0 00 ca 3e a9 a2 cb bc cf 90 db bc 25 44 24 3d
       0.3945365 -0.024857836 -0.026802449 0.04010405
000280 51 e0 84 3e f7 bd 27 3b e1 a6 8b bd ee 60 7d 3d
       0.2595239 0.0025595406 -0.06818939 0.061860017
000290 0a 9e 15 3f c7 5f 5b bd 96 5e 78 bd 35 ea 85 3e
       0.58444273 -0.053558137 -0.06063708 0.26155248
0002a0 a5 5e 81 be ae 17 08 3e 63 93 52 bd 18 10 1b bf
       -0.2526752 0.13290283 -0.05141009 -0.6057143
0002b0 30 ac 3f 3e df 96 27 bd 19 b4 04 bf f7 7d 90 bc
       0.18718028 -0.040915366 -0.5183731 -0.01763819
0002c0 0e a2 56 3d de 39 c2 be 47 62 ea bb e0 36 17 be
       0.05240064 -0.37934774 -0.007152829 -0.14767027
0002d0 ad 01 b1 3d b2 99 4b 3d d6 66 17 3d 95 8c e7 3d
       0.08642898 0.049707122 0.036963306 0.11306111
0002e0 89 c5 d7 3d f5 7c c1 3d 31 af 65 bc 57 da 65 bb
       0.10535724 0.09447662 -0.01401882 -0.0035072768
0002f0 82 ea 98 3c 68 37 39 3d a7 a7 18 3f a1 44 f3 bd
       0.01866651 0.045218855 0.5963082 -0.11878324
000300 26 41 a4 3e 93 2e c1 be 62 a7 07 bc 1f 3e 29 be
       0.32080954 -0.37730846 -0.008279653 -0.16527604
000310 ac 92 39 be e6 c1 35 be f0 21 17 be b0 28 d1 bd
       -0.18122357 -0.17749748 -0.1475904 -0.10212839
000320 1b 6f a8 3e 45 51 6d 3d 68 12 fe bd 76 b3 e5 3c
       0.32897267 0.057938833 -0.124058545 0.028039675
000330 26 8a 83 be a9 a0 2d 3c 3a cf 1e 3f 49 be ce 3e
       -0.25691336 0.010597386 0.6203495 0.4037955
000340 8b 69 96 be a6 a0 92 be 06 f9 2f bf 3b cb a3 3e
       -0.29377398 -0.2863819 -0.68739355 0.3199099
000350 40 1f 25 3c b0 ba 92 3e 88 a9 3e be 98 7b 1b 3e
       0.010078251 0.28658056 -0.18619359 0.15183866
000360 d1 f5 cf be 22 dd e0 3e 73 98 65 bd d4 42 af bd
       -0.4061723 0.4391871 -0.05605359 -0.08557668
000370 ae 45 a0 3e f4 df 75 bc 9d df fe bc 13 a2 4c 3e
       0.3130316 -0.015007008 -0.031112486 0.19983701
000380 4c b7 a1 bd c6 2f f9 bd db 6e 62 be a0 b5 8e 3e
       -0.07896289 -0.12167315 -0.221126 0.27872944
000390 78 bf e8 3d 93 20 26 3d f7 f5 42 3e ff d9 d4 bd
       0.11364645 0.04055841 0.1903914 -0.10393142
0003a0 e3 b3 60 3e 6a dd 2a be 49 5f 58 be cc 68 0f bf
       0.21943621 -0.16686025 -0.21130098 -0.5601928
0003b0 01 1c b8 3e 53 03 04 bd 12 9c 8c 3e 9f 13 33 be
       0.35958865 -0.032229733 0.27462822 -0.17487954
0003c0 c7 d5 8b 3e 6d 5e 80 3d b6 2f 16 3f 0b a3 66 3d
       0.27311537 0.0626801 0.5866655 0.056307834
0003d0 31 d5 27 bd f1 a2 8d be c2 5a 3f 3c ad 71 9e bc
       -0.0409748 -0.27663377 0.011679353 -0.019341314
0003e0 3b de 4d be f9 00 44 3e e2 c4 65 3e 9c 23 b4 3b
       -0.20104305 0.19140996 0.22438386 0.005497409
0003f0 46 2d f5 3c 42 8c 92 3c 8a f0 3a bd ee 46 41 bc
       0.029928815 0.017889146 -0.045639552 -0.011796696

l2.bias f4 [300]
000000 06 59 4a be cb 42 fc 3e 81 84 5f bf 91 d7 d9 bd
       -0.19760522 0.4926971 -0.8731156 -0.10636819
000010 3d cc 43 3e 19 2a 2e bd 8a 4c 92 bd 20 8a ee bd
       0.1912088 -0.042520616 -0.07143505 -0.11647439
000020 94 1f 2f bd c4 0f 90 bd ea 47 df bd 4f 6a 8d be
       -0.042754725 -0.07034257 -0.109023884 -0.2762017
000030 e0 5d ee be 9a 50 b6 be 37 1b 89 bd a7 1b bb bd
       -0.46555996 -0.3560837 -0.06694644 -0.09136134
000040 00 76 0d bd 58 33 4d 3e 27 7a e3 be 06 26 b3 bd
       -0.03453636 0.20039117 -0.44429132 -0.08747487
000050 ed f6 2d 3c de d4 a0 be 95 99 2b bf 88 8f 38 bf
       0.010617954 -0.31412405 -0.6703122 -0.7209401
000060 5e 94 a3 be f7 eb 84 bc af 16 a8 3e e9 0e 32 3e
       -0.31949133 -0.016225798 0.32829806 0.173885
000070 5c 5c a9 bc 62 b3 31 be 29 9e d0 bd 5f 10 f9 bc
       -0.020673923 -0.17353585 -0.10186417 -0.030403314
000080 21 a3 b3 bd e0 a2 ce be 91 8a 8a bd 69 af 10 be
       -0.08771349 -0.4035864 -0.06764711 -0.14129414
000090 50 b2 78 bd 34 94 86 be 02 d9 4c be 32 f0 c6 be
       -0.060716927 -0.26284945 -0.20004657 -0.3885513
0000a0 eb 56 25 3d 11 30 51 3e 61 11 b2 3d a1 ab f1 bc
       0.040366095 0.20428492 0.08694721 -0.029500784
0000b0 a6 70 37 3e 5d 02 40 be 22 ac bc bd ea 8c 8f bd
       0.17914066 -0.18750902 -0.09212519 -0.07009299
0000c0 3e 3f 24 be f2 b0 9a bd 1e d7 85 be 95 68 9c 3c
       -0.1603975 -0.07553281 -0.26140684 0.019092837
0000d0 e0 f0 64 bd 25 a9 93 bd 3f 27 99 3e 0e 46 7a 3e
       -0.05589378 -0.07209996 0.29912755 0.24440786
0000e0 ce b5 a9 bd 03 de 51 bd 1b 3e 18 bd 8d dc cd bd
       -0.082866296 -0.051237117 -0.037168603 -0.10051832
0000f0 fc 65 13 3f d8 97 df bb 6e 30 c2 bb 59 3a 34 be
       0.5757749 -0.006823521 -0.0059261834 -0.17600383
000100 4d c5 40 bd f1 96 c4 be e4 41 e1 bd 38 9a 1a bf
       -0.04706316 -0.3839641 -0.10998896 -0.6039157
000110 33 f5 21 be 71 eb c0 bd 01 3e d1 bd 78 ce dc 3e
       -0.15816192 -0.09419907 -0.102169044 0.43126273
000120 32 46 0e bf 7b 7a c9 bc 18 e2 6d be a6 f2 5a be
       -0.5557586 -0.024594536 -0.23230779 -0.21381626
000130 0f db 0d bd 39 92 da be 87 fb c4 bd 64 ef bd bd
       -0.03463274 -0.42689684 -0.096182875 -0.09274176
000140 8d 73 8b bd 4d 97 8e 3e 9e a6 14 bf c5 11 2e bd
       -0.06809149 0.27849808 -0.5806674 -0.042497415
000150 37 dc 29 3c 61 f0 7e bd 00 98 f6 be 88 78 9e bd
       0.010367445 -0.062240962 -0.48162842 -0.07737833
000160 fb 1b a0 bd 13 e0 35 bd ed d0 82 bd c2 22 dd 3e
       -0.07817837 -0.044403147 -0.06387506 0.4319058
000170 80 25 57 3e c1 c5 86 bd 7d f9 bb bd 3a db 34 be
       0.21010399 -0.06580687 -0.091784455 -0.17661753
000180 c0 87 0e 3e 0f e9 b8 bd af 3e 49 bf 9c 00 9e bd
       0.13918972 -0.090288274 -0.7861127 -0.0771496
000190 b1 e6 9e bc cd 74 f9 be 29 42 3a bd eb 9d 01 bf
       -0.019397112 -0.48721924 -0.04547325 -0.5063159
0001a0 c1 06 07 bd b2 50 01 be bd 2c 4d bd 0a 31 47 bd
       -0.032965425 -0.12628439 -0.050091494 -0.04863075
0001b0 7f 75 0a be bd 2d 9a bd ef fa 3e bf 86 0f a2 3e
       -0.13521384 -0.07528255 -0.74601644 0.31652468
0001c0 68 5d 96 bd 1f 48 10 bd b0 20 82 be 2e 1f e9 be
       -0.073420346 -0.03522503 -0.25415564 -0.455316
0001d0 b7 ac b4 3e 68 e4 dd be 20 65 6d bd 91 e9 d6 bd
       0.3528802 -0.43338323 -0.05795777 -0.10493768
0001e0 d2 c1 9a bf ad 38 20 bf 96 4b 0d be 98 15 66 bd
       -1.2090399 -0.6258648 -0.13798365 -0.056172937
0001f0 77 55 dc be 20 a1 11 bd b1 12 df bd be e1 b8 3e
       -0.43033955 -0.03555405 -0.10892237 0.36109728
000200 5b 59 69 be 93 10 dc 3e 13 f9 e7 bd 0b 78 bf bd
       -0.22787993 0.42981395 -0.11326804 -0.09349068
000210 22 55 1f bd c7 b0 95 bd f5 64 89 be 2c da 91 bd
       -0.03889955 -0.07309108 -0.26834837 -0.07121691
000220 84 2b 60 bd a9 fe a1 bd 0f be 9a 3a fc c8 9d bd
       -0.054729 -0.07909901 0.001180591 -0.0770435
000230 8b 72 85 bd 7c 3a 82 3e 8a 90 41 3a 44 d2 05 bf
       -0.06515988 0.25435245 0.0007383904 -0.52273965
000240 fc ea b1 bc 93 b5 60 bf fb f9 32 3f fa 9f a5 be
       -0.021718495 -0.8777706 0.6991269 -0.32348615
000250 bd a2 5f bd aa 54 aa bd be 1e 50 bd 25 f9 57 3e
       -0.05459856 -0.0831693 -0.050810568 0.21091135
000260 9e ba cb bd 45 60 b5 bd 3b 05 df be 88 74 a2 bd
       -0.09947704 -0.088562526 -0.43558678 -0.07932383
000270 10 81 cc bd e9 58 67 3a 10 ae 08 3e be b5 da 3d
       -0.09985554 0.00088251993 0.1334765 0.10679196
000280 62 23 13 3d cb a4 05 3e 09 f0 a3 bd 39 d8 ca bd
       0.035922416 0.13051145 -0.080047674 -0.099045224
000290 38 bb cb bd fc c2 86 be 52 64 91 be 55 c7 ce bc
       -0.099478185 -0.26320636 -0.2839685 -0.025241533
0002a0 bf 57 58 3d 39 1b 46 bd 36 5a 57 bd 78 da 45 3e
       0.052818056 -0.048365805 -0.052576266 0.1932162
0002b0 cf aa 97 be 5d fa bd bc 6c 26 90 3e a4 08 08 bd
       -0.29622504 -0.023190672 0.28154314 -0.033211365
0002c0 a1 ef a9 bd a1 59 39 be 45 bc 8b bd e7 a3 a5 bd
       -0.08297659 -0.18100597 -0.06823019 -0.080879025
0002d0 7f 57 d9 bd ed cd ca bd c0 24 fa bd ef c1 0f bf
       -0.10612392 -0.099025585 -0.12214041 -0.56155294
0002e0 fd 97 c9 3d 99 f4 90 bd 24 be 17 bf b5 02 6d be
       0.098434426 -0.07077903 -0.59274507 -0.23145564
0002f0 81 17 a2 bd 0f c8 63 bd ab a1 29 bd 1e e8 8a bd
       -0.07914639 -0.055610713 -0.041413944 -0.06782554
000300 68 99 f3 bd a8 cb 8a bd e1 35 11 be 99 6c 56 3d
       -0.11894494 -0.067771256 -0.1418071 0.05234966
000310 7d be 93 bd ca 9f 57 bd fc 28 fc be 74 5a b3 bd
       -0.07214067 -0.05264262 -0.4925002 -0.08757487
000320 ed bb 93 3e 5f 91 ff bc 72 f8 53 bd a3 4f 25 be
       0.28854313 -0.031197248 -0.051750608 -0.1614366
000330 2b dd 25 bd 50 bb 8e be 96 ad 05 bf b5 2e 8d bd
       -0.040494125 -0.27877283 -0.52217996 -0.06893674
000340 cd 07 a7 bd 27 40 68 be 6e eb 89 bd 23 0c 9c be
       -0.08155785 -0.22680722 -0.06734358 -0.3047801
000350 c8 4c a2 3c 8b ff 0b bd c4 04 4e bc 70 e7 b6 be
       0.019812003 -0.03417925 -0.012574378 -0.35723448
000360 48 8c 52 be 9c b0 84 bd a5 78 23 bf f0 71 1b bd
       -0.20561326 -0.06478998 -0.63855964 -0.037950456
000370 e0 d8 28 be ed 4f 02 bd fe 4d b4 bd 39 97 d2 bd
       -0.16488981 -0.031814504 -0.08803938 -0.1028275
000380 95 ab 92 bd c2 b7 87 bd ba 3c 7d be 8e 7c cc bd
       -0.07161633 -0.06626846 -0.24730197 -0.099846944
000390 12 c3 a0 3d 3f ed 2b 3f 1a 5f d4 bd ad 33 c7 bd
       0.07849707 0.67158884 -0.10369702 -0.09726653
0003a0 65 78 47 be 44 54 83 bd 3c cd ae bc c6 d5 e1 3d
       -0.1947952 -0.06412557 -0.021338098 0.11027102
0003b0 f6 70 2a 3e c4 c0 c8 bc ed 10 1e 3e 9e e6 eb bc
       0.16644654 -0.02450598 0.15436144 -0.02879649
0003c0 22 6f ab be f9 32 0e bd ab cd 69 be 8e e7 d2 bd
       -0.33483225 -0.03471658 -0.22832362 -0.10298072
0003d0 ce 65 9f bd d0 a8 b4 bd ec 08 a7 be 16 ec 09 be
       -0.077830896 -0.08821261 -0.32623994 -0.13468966
0003e0 72 51 12 be 89 c2 02 bd 0a 9e 32 bb 28 e7 6f be
       -0.14288881 -0.031923804 -0.0027254843 -0.23428023
0003f0 9a 31 b8 be 83 6a 0e be 59 65 5a 3e 91 1e dc bd
       -0.35975343 -0.13907818 0.21327724 -0.107480176

l3.weight f4 [4, 300]
000000 16 e6 9a 3e 95 97 31 bd 8b 8a ed 3e de bd 03 bd
       0.30253667 -0.04335745 0.46394762 -0.032163493
000010 38 da 4f 3d 2d de 02 3c a7 49 0b 3d 0c 4a 87 be
       0.05074522 0.007987541 0.034005787 -0.2642368
000020 32 34 66 bd 6b f3 ba 3c 6c 40 c6 bb 09 1d 41 3f
       -0.05620212 0.022821149 -0.00605016 0.7543493
000030 dd 22 81 be 8c a2 7b bf ea 57 1c 3e 37 e0 67 3c
       -0.2522191 -0.982949 0.15267912 0.014152578
000040 12 f0 34 3d fe 67 1d bf a1 42 b1 bf 11 74 1e 3b
       0.04417426 -0.61486804 -1.3848459 0.0024178068
000050 bd d6 d5 3f 8e f1 46 bf 26 2d af 3e 1d 2c 2c bf
       1.6706158 -0.77712333 0.34214133 -0.6725481
000060 05 a0 2d bf 03 1d ea bc c9 8b a4 3d bc 70 49 be
       -0.67822295 -0.028578287 0.080344744 -0.19671911
000070 7e 26 c5 3c 62 c6 06 3d b9 5d 99 bc 2a 1c a0 3c
       0.024066206 0.032904036 -0.018721448 0.01954468
000080 67 1c 6c bd ee 8f 9c 3e 15 37 75 3f 1b bb d4 3b
       -0.057644274 0.3057856 0.95787174 0.0064920313
000090 23 55 e4 3c 21 4d 71 bf c6 12 1f 3c a8 39 dc be
       0.027872628 -0.94258314 0.009709066 -0.43012738
0000a0 e3 44 48 3d cd 11 95 3d 56 c6 9d be 4b f4 0e 3c
       0.04889382 0.07278786 -0.3081538 0.008725236
0000b0 d6 9a 0e 3d 1e 59 3e bb de 6a 62 3e de 32 d4 bc
       0.03481563 -0.0029044817 0.22111079 -0.025903162
0000c0 d2 be 5e bf 37 80 90 3c 65 e2 26 bb 30 19 e8 3d
       -0.8700992 0.017639263 -0.0025464531 0.11332929
0000d0 5e 1a c7 3c db 12 4e bc e0 4a 73 3d c2 61 93 3e
       0.024304565 -0.012577738 0.05939758 0.2878552
0000e0 2a e9 e4 3c ab ee 10 bd 11 0d 9a bc 5c 69 22 3d
       0.027943213 -0.03538386 -0.018805059 0.03965126
0000f0 d6 b5 fa 3d 66 db 09 be 44 db 1c bb f7 9a a0 3b
       0.12241714 -0.134626 -0.0023934403 0.0049012857
000100 e5 3d 97 3a 9c b9 0a 3f 76 94 ca bc 3f 60 90 bc
       0.0011538832 0.5418947 -0.024728995 -0.017624019
000110 4b 1a e4 be 63 e9 2a ba 02 b0 cb 3c c7 27 2d 3e
       -0.4455131 -0.00065197627 0.0248642 0.16909705
000120 f4 64 a3 be 74 7b 24 3b 48 5f 30 bf fb f3 28 bf
       -0.3191296 0.0025097998 -0.6889539 -0.65997285
000130 03 63 3d 39 78 05 8b 3e 49 37 f1 3b 8e 4d 86 bb
       0.0001806133 0.2715261 0.007361327 -0.0040986007
000140 01 fe 0e bc 0e 5a 68 3e b6 c2 da 3e 10 05 90 bc
       -0.008727551 0.22690603 0.42726678 -0.017580539
000150 3d 74 33 be 98 d6 88 bc 61 b3 a3 bf 4a 8c 25 ba
       -0.1752481 -0.016703889 -1.2789117 -0.0006315155
000160 7d c1 07 bc 75 38 8e 3c a5 4a 84 3c 3d 35 a1 be
       -0.008285877 0.017360905 0.016148875 -0.3148593
000170 bb 78 41 3f f4 d9 4d 3d 08 02 25 3d 00 f6 d2 bb
       0.75574845 0.050256684 0.04028514 -0.006438017
000180 15 74 df bf 28 7f 93 3d 37 e2 ba 3d 8f 0c a6 bb
       -1.74573 0.072019875 0.09125178 -0.005067415
000190 4a 5e ef 3c c5 e8 bb bd f5 f4 b6 bc c6 f3 35 be
       0.029219765 -0.09175257 -0.022333601 -0.17768773
0001a0 24 76 5a 3d 4d c5 14 bd 41 c4 cd 3c ff 84 81 3c
       0.053335324 -0.036320973 0.025117995 0.015810488
0001b0 0c b8 58 be 46 12 c3 b9 7b 1a 48 3f 8f 8c 9b 3e
       -0.21163958 -0.00037206913 0.78165406 0.30380675
0001c0 ca 6c eb 3b 74 5a 33 3c 75 16 18 3d 44 db 90 bf
       0.0071845995 0.010946859 0.03713079 -1.1316915
0001d0 3d dd a4 3e 19 73 e9 be 8a 0d fd 3b d8 c6 2e 3f
       0.3220004 -0.45595625 0.0077225612 0.6827216
0001e0 49 44 86 3e 02 05 a4 be 3b c4 86 3e 8e cf be 3d
       0.26223972 -0.3203507 0.26321587 0.09316932
0001f0 84 dd 0f bf 4e 70 0e 3c 85 8d 9b bb 62 2d 59 bd
       -0.5619738 0.008693768 -0.004747095 -0.053021796
000200 d0 59 d9 be 1e 90 ce 3c 0a 1f 09 bc 73 3f db 3b
       -0.42451334 0.025215205 -0.008369217 0.0066909133
000210 67 86 0b bd 8a da a0 3d d1 2e 64 3e 6c dd d4 3c
       -0.034063723 0.07854183 0.22283484 0.025984488
000220 bb fb 25 bd 56 44 84 bc 9d e4 78 3d 67 10 01 3d
       -0.040523272 -0.016145866 0.060764898 0.031509783
000230 f6 5f 6c bc 8e b7 81 3d de f9 e2 39 64 06 e5 3e
       -0.014427176 0.063338384 0.00043292245 0.44731438
000240 75 0f 43 3b 71 69 2e be 7f cd 1c bf bf 54 3e 3e
       0.0029763852 -0.1703241 -0.6125106 0.18587016
000250 5c 12 c2 bb 8b 9a 3c 3d df 57 47 3e 3f 8c 14 3d
       -0.0059225988 0.04604582 0.19467114 0.03626656
000260 49 4d d3 bc 36 6a e6 bc f5 61 5c 3e 0b 36 80 bb
       -0.025793688 -0.028126817 0.21521743 -0.0039126924
000270 83 7e 3e bd 60 71 4d 3e c9 72 63 bf 40 ad d1 be
       -0.04650737 0.2006278 -0.88847023 -0.40952492
000280 a5 46 96 bd 24 e9 62 bc a4 54 ba bc d8 78 4d 3d
       -0.07337693 -0.01384953 -0.022745438 0.050164074
000290 ce 34 8e 3c 83 af de be 21 ad f8 3c 4d 5c cb 3d
       0.017359164 -0.4349328 0.030355992 0.09929714
0002a0 a8 74 52 3f 8f d4 b1 bd fc fd 6b bd 2c f2 bd bd
       0.82209253 -0.086831205 -0.057615265 -0.09274706
0002b0 e6 94 28 bf 58 20 16 bb b9 95 be bd 45 fc 74 bc
       -0.658522 -0.0022907462 -0.09305901 -0.014952724
0002c0 73 e9 21 3c fd 63 6c be 3d dc 88 bd 24 c6 da bb
       0.009882319 -0.23085018 -0.06682632 -0.0066764522
0002d0 f5 f5 e5 bb 1d 5c f9 be da 36 aa 3c 2c 19 fa 3d
       -0.0070178458 -0.4870309 0.020778108 0.122118324
0002e0 d6 09 33 3e 99 84 27 bc 38 53 87 be 54 f5 64 bf
       0.17484221 -0.010224485 -0.26430678 -0.8943684
0002f0 4c 7e b4 bc 33 53 94 bd 70 cb 72 3b c5 0e 61 bc
       -0.02203288 -0.072424315 0.0037047528 -0.0137364315
000300 ab 6f cd bc 74 84 10 3d 6d 90 1a bd 7f 95 42 3e
       -0.025077661 0.035282567 -0.03773539 0.1900234
000310 f0 64 b4 3c 96 cd 41 3d 1c 88 b2 3d 9a af 8f 3d
       0.022020787 0.047315203 0.08717367 0.07015915
000320 58 9c 26 3f 03 07 9e bb a1 51 84 39 3b a6 21 bf
       0.6508231 -0.004822613 0.0002523782 -0.6314427
000330 42 1c 06 bc 25 f4 3c 3f 22 04 5c bf 59 5a 68 3d
       -0.008185448 0.73810035 -0.85943806 0.056726787
000340 30 a7 53 3c 81 9e 11 bf b3 cb 24 bd 98 a5 8b be
       0.012918279 -0.5688248 -0.040233325 -0.27274776
000350 5e 05 d5 bd 22 a7 b9 3d c0 db a5 bd 57 03 ce bc
       -0.10401414 0.09065081 -0.080985546 -0.025148077
000360 a5 26 52 bd e1 25 80 3c 78 c5 d2 be 8a 4c a6 bc
       -0.051306386 0.015643062 -0.41166282 -0.020300169
000370 7b 38 ce be 38 6b 1b be 8d eb db 3c 21 3c 4c bb
       -0.40277466 -0.1517762 0.026845718 -0.003116377
000380 26 4b da 3c 12 e2 53 3d 67 51 7a bb 07 a0 86 3d
       0.026647162 0.05172927 -0.0038195492 0.065734915
000390 b7 13 9c bd cf 43 d8 bd b9 f1 04 3d df 99 3f 3c
       -0.07620948 -0.105598085 0.032457087 0.011694401
0003a0 9f dc 34 3f 3f 0b b2 ba 2e 02 cf 3b 86 07 fd 3e
       0.7064914 -0.0013583674 0.0063173985 0.49419802
0003b0 7f b3 17 3e 71 86 15 3d 00 88 eb be 38 6b 66 3d
       0.14814566 0.036505166 -0.46002197 0.056254596
0003c0 b8 44 77 bc 82 7b c1 bc 81 10 91 3e 2d e3 25 3e
       -0.015092067 -0.023618463 0.28332904 0.16199942
0003d0 10 80 46 bd 50 73 81 bd 08 83 e3 3e 94 d5 8d bb
       -0.048461974 -0.06320822 0.44435906 -0.004328439
0003e0 a3 17 79 bf 26 fe 38 3c e8 b6 d2 bb d6 25 04 3e
       -0.9730169 0.011291062 -0.0064304955 0.12905058
0003f0 57 88 ef be 38 d4 88 bb 36 74 e1 3e 33 ac 65 bc
       -0.46783707 -0.004175689 0.44033974 -0.014018106

l3.bias f4 [4]
000000 03 ba ba be b6 80 39 be 06 dd 53 3e 4a c4 e5 3e
       -0.3647004 -0.18115506 0.20689783 0.4487632
