TD3-conf1/preTrained/TD3_BipedalWalker-v3_0_critic_2_target_ep300.pth (torch_old, 529770 bytes, 5 tensors)

l1.weight f4 [400, 28]
-0.25599897 -0.02993244 -0.10226349 0.03295215 -0.17865403 0.063034944 0.27405894 0.012495299
-0.19747946 0.21489061 0.02186788 0.34672257 0.04147755 -0.21240057 -0.13422732 -0.32566935
-0.376698 -0.3496191 -0.14391558 -0.0796015 -0.34758854 -0.16253395 -0.37148735 -0.31264967
0.15166143 -0.026537009 0.11131631 0.08644433 -0.28842646 -1.7092482 -0.8385638 1.6813289
1.0019373 0.120948195 -0.01661997 -0.20238268 -0.21223676 0.38201624 -0.003652443 -0.21536595
-0.062084712 -0.15939434 0.17271172 0.099113576 -0.04683815 -0.03790575 0.0021832862 0.19502638
0.08713467 0.029430622 -0.19688274 0.12076441 0.15652736 -0.15107961 0.085962966 -0.053353988
0.28843582 0.1460632 -1.2528263 -2.1683877 -0.3998676 0.45384642 -0.37892133 0.05204467
0.038720712 0.23873912 -0.7250312 0.16473244 0.24573737 -0.06146164 -0.43392378 -0.5689757
-0.292402 -0.25026268 -0.2498848 -0.20721458 -0.33779648 -0.40261936 -0.17335333 -0.15320091
0.20368898 0.112456396 0.027040796 0.28366423 0.02904779 0.23940079 0.65003103 -0.18432604
0.1789348 -0.26045167 0.3156218 0.14189346 -0.3468547 0.28201666 -0.06034194 0.017438658
0.15815662 -0.15815364 -0.3883157 -0.38900116 -0.28267235 -0.5413359 -0.37099457 -0.3302965
-0.635261 -0.61789215 -0.5093878 -0.31568143 0.3156516 0.17776953 0.2853724 -0.2272772
-0.112611905 0.19192864 0.67382514 -0.16860232 -0.10399605 -0.4181359 0.22395721 0.039469115
-0.28288093 -0.06213082 0.14616413 -1.8235203e-05 0.14400646 -0.14526112 -0.7200427 -0.53671056
-0.7505842 -0.4801427 -0.43745977 -0.67356294 -0.41991812 -0.47962415 -0.7317729 -0.5857414
0.45591336 0.23099354 0.136535 -0.07393143 -0.10963665 0.6869684 0.018451862 -1.232888
-0.38939947 -0.09834763 -0.29810837 -0.046982203 -0.41488656 0.5096641 0.9089566 -0.57472354
0.4016711 -0.33568266 -0.16193476 -0.11019182 -0.30357638 -0.18532352 -0.3430355 -0.19165184
-0.18805677 -0.24295478 -0.1943483 -0.1422341 0.21526647 -0.0685288 0.29688564 0.21677782
0.20300902 -0.9612819 -1.2628374 -0.19051893 0.80706924 -0.6003799 0.28412205 -0.24617882
-0.8553572 -0.38097465 0.668298 -0.43075714 0.26219186 -0.5866452 -0.41812605 -0.10982215
-0.114688955 -0.4538133 -0.32403794 -0.43827885 -0.17915802 -0.24561125 -0.3220165 -0.22622952
-0.026319582 0.29246873 0.3621483 -0.08113206 0.054503653 0.06794414 0.0033619613 -0.07808886
0.0037781699 -0.06876221 0.10278011 0.077540495 0.06433657 0.10544593 -0.041582104 0.06150497
0.122674674 0.08007817 -0.32986137 -0.09733672 -0.15399024 -0.18845667 -0.111884736 -0.38844684
-0.041673746 -0.21967761 -0.17886627 -0.361732 0.08498214 -0.085445575 0.12619954 -0.046551645
-0.17750858 0.15236737 -0.041656464 -0.09374658 -0.06047787 -0.10264219 0.2320193 0.15125334
-0.10072745 -0.08194027 0.029533006 0.2210699 -0.013465807 0.01725358 -0.327037 -0.2557539
-0.26003549 -0.44892645 -0.2232352 -0.3804475 -0.16067176 -0.39884213 -0.26244247 -0.1444523
-0.098937556 -0.028891074 0.084352866 0.08614065 -0.44683328 -2.7175071 1.5663427 -1.8331746
00000000: 4c12 83be e034 f5bc 856f d1bd d5f8 063d
00000010: 15f1 36be 7718 813d 7451 8c3e 15b9 4c3c
00000020: 0e38 4abe 490c 5c3e 4524 b33c 9f85 b13e
00000030: 5de4 293d 897f 59be e372 09be 22be a6be
00000040: 8fde c0be 4601 b3be 9b5e 13be 1c06 a3bd
00000050: 20f7 b1be 4d6f 26be 9733 bebe 9e13 a0be
00000060: 224d 1b3e 2464 d9bc cef9 e33d ba09 b13d
00000070: a2ac 93be a5c8 dabf 1eac 56bf c935 d73f
00000080: 7b3f 803f b0b3 f73d 9a26 88bc 683d 4fbe
00000090: 9854 59be a297 c33e d35d 6fbb e488 5cbe
000000a0: 8a4c 7ebd 4538 23be 57db 303e 0ffc ca3d
000000b0: 5cd9 3fbd 0f43 1bbd 7715 0f3b ffb4 473e
000000c0: a973 b23d 7d18 f13c a19b 49be 5553 f73d
000000d0: b548 203e 9db4 1abe 5a0d b03d b689 5abd
000000e0: dcad 933e 9791 153e 9d5c a0bf ddc6 0ac0
000000f0: 72bb ccbe 8f5e e83e fa01 c2be cb2c 553d
00000100: 9c99 1e3d 0778 743e a59b 39bf 9faf 283e
00000110: 94a2 7b3e 33bf 7bbd 422b debe 64a8 11bf
00000120: b7b5 95be 6e22 80be cde1 7fbe 0f30 54be
00000130: a9f3 acbe 2024 cebe 8983 31be b3e0 1cbe
00000140: d893 503e 8a4f e63d a984 dd3c 703c 913e
00000150: a2f5 ed3c 7b25 753e 6f68 263f f7bf 3cbe
00000160: af3a 373e ec59 85be 2e99 a13e 854c 113e
00000170: f096 b1be 7d64 903e 1c29 77bd 84db 8e3c
00000180: cff3 213e 07f3 21be 51d1 c6be 292b c7be
00000190: 6eba 90be fd94 0abf 00f3 bdbe 9f1c a9be
000001a0: 77a0 22bf 2e2e 1ebf 3d67 02bf ffa0 a1be
000001b0: 169d a13e 3709 363e 551c 923e 5bbb 68be
000001c0: 12a1 e6bd f188 443e ce7f 2c3f 16a6 2cbe
000001d0: e2fb d4bd e915 d6be 0a55 653e 5eaa 213d
000001e0: c5d5 90be e37c 7ebd 0dac 153e cdf7 98b7
000001f0: 6e76 133e 55bf 14be b854 38bf dd65 09bf
00000200: 4926 40bf 44d5 f5be bafa dfbe 9f6e 2cbf
00000210: 82ff d6be 4c91 f5be 7855 3bbf 26f3 15bf
00000220: 7a6d e93e 9289 6c3e d5cf 0b3e 5d69 97bd
00000230: 2e89 e0bd 29dd 2f3f 5c28 973c 46cf 9dbf
00000240: 5e5f c7be 7b6a c9bd a9a1 98be 6970 40bd
00000250: 036c d4be 5979 023f 61b1 683f 1521 13bf
00000260: d6a7 cd3e 99de abbe 3ad2 25be 40ac e1bd
00000270: 5d6e 9bbe 73c5 3dbe 59a2 afbe 6140 44be
00000280: f491 40be 23c9 78be 3e03 47be d1a5 11be
00000290: d06e 5c3e d458 8cbd 6501 983e 01fb 5d3e
000002a0: 99e1 4f3e 9216 76bf a8a4 a1bf 6517 43be
000002b0: 179c 4e3f 7fb2 19bf 7278 913e 4d16 7cbe
000002c0: b1f8 5abf 1c0f c3be 9415 2b3f 338c dcbe
000002d0: 033e 863e 612e 16bf 9e14 d6be 6fea e0bd
000002e0: 0be2 eabd 385a e8be 4de8 a5be 1666 e0be
000002f0: 3375 37be 8481 7bbe 59df a4be b6a8 67be
00000300: 2a9c d7bc 76be 953e 816b b93e 9128 a6bd
00000310: 393f 5f3d 4c26 8b3d 5a54 5c3b 0ded 9fbd
00000320: 2c9b 773b 34d3 8cbd 617e d23d 8dcd 9e3d
00000330: e4c2 833d 09f4 d73d ff51 2abd a3ec 7b3d
00000340: dc3c fb3d 0600 a43d 97e3 a8be 7958 c7bd
00000350: 9eaf 1dbe c9fa 40be d323 e5bd 81e2 c6be
00000360: 17b2 2abd 2bf3 60be b828 37be f034 b9be
00000370: 1e0b ae3d 17fe aebd 743a 013e f0ac 3ebd
00000380: cfc4 35be 3106 1c3e f89f 2abd 35fe bfbd
00000390: a5b7 77bd 1236 d2bd 7896 6d3e 28e2 1a3e
000003a0: 314a cebd 4dd0 a7bd 34ef f13c 2660 623e
000003b0: b09f 5cbc 6157 8d3c 6571 a7be 2df2 82be
000003c0: 5f23 85be b0d9 e5be c597 64be 04ca c2be
000003d0: 2387 24be 0935 ccbe dc5e 86be 4eeb 13be
000003e0: c69f cabd f9ac ecbc 32c1 ac3d 826a b03d
000003f0: 55c7 e4be a3eb 2dc0 eb7d c83f 77a5 eabf

l1.bias f4 [400]
-0.036036223 -0.18430793 0.43299893 -0.2066063 -0.076302215 0.094119504 -0.40596247 -0.012594567
-0.18418929 -0.1387751 0.24102478 -0.33161375 -0.028251873 -0.09038275 -0.16504037 -0.054338783
0.06213516 -0.14181301 -0.1740263 -0.03971946 0.22269194 -0.59203273 0.10310136 -0.4352454
0.42097753 -0.02574724 -0.14706743 -0.30093297 -0.26896325 -0.15070234 -0.38085788 -0.33112302
0.15654542 -0.30839643 -0.475408 -0.33858523 -0.27577358 -0.21632782 0.1330884 0.14712562
-0.1029088 0.5073699 -0.31609726 -0.54711974 -0.24163945 -0.14099678 -0.1382844 -0.13688476
-0.028040178 0.1010991 -0.35273513 0.2884699 -0.28650248 -0.3407634 -0.07357385 -0.19456317
-0.03174286 0.12803006 0.40491283 0.30125013 0.22670324 -0.07978402 -0.21200052 -0.21034206
-0.028439412 -0.30159852 -0.11021825 0.29029953 -0.07360006 -0.3530602 -0.29436675 0.32819083
0.71061856 -0.4271462 -0.14375007 -0.45125124 0.21228282 0.49365452 0.12088483 -0.27601448
-0.38307372 0.522563 -0.34941244 -0.3935694 -0.5093985 0.15177885 -0.35721397 -0.12540403
0.062438414 0.23287295 -0.45833638 -0.36201024 -0.010326794 0.4402974 -0.13173981 -0.033662874
-0.28816527 -0.100944184 -0.28015122 0.37084216 -0.21623543 -0.07387706 0.28311905 -0.27429825
0.02189877 -0.3020677 -0.15808934 -0.21839918 -0.11910742 -0.49976492 0.7047498 -0.3217611
0.21755289 -0.05505466 -0.25107312 0.24113533 0.3694025 -0.34477615 0.054343257 -0.11560233
-0.056000482 -0.19332394 0.00471394 -0.23383532 0.21468271 -0.056773107 0.8287301 -0.35083246
-0.14432535 -0.21888317 -0.156812 -0.18552244 -0.18883972 0.025501728 0.054423142 -0.2297657
-0.4776657 -0.07387366 -0.4710278 -0.33396056 0.07233301 -0.3034247 0.01618322 -0.10497826
0.33566383 -0.120101236 -0.2585794 0.40341148 0.73515767 0.07631619 0.16624224 -0.32249826
-0.41505417 -0.1824632 -0.12848242 -0.20921698 -0.0767378 -0.22269396 -0.087721035 -0.07529663
0.12695138 0.3511533 -0.32939905 -0.30829495 -0.558781 -0.16484804 0.2809003 -0.16818756
-0.34221143 -0.09440748 -0.073865876 0.114367165 -0.5403034 -0.13322099 0.012115876 -0.035281654
0.08211692 -0.33684972 -0.34446454 -0.60439575 -0.30296174 0.118105635 -0.19061436 -0.1891418
-0.47029933 -0.31770405 -0.16148077 -0.30686653 -0.24761745 -0.12492177 -0.5459271 -0.18702856
-0.24744326 -0.37171134 -0.27583843 0.3867656 0.33253953 0.41624808 -0.30660123 -0.654113
-0.4417452 -0.6310496 0.31576127 -0.09205728 -0.55279124 -0.12856415 -0.092721686 -0.032692272
-0.57817906 0.06975227 -0.29858497 -0.101488955 -0.21255578 -0.4805111 -0.36437452 -0.058013808
-0.520024 -0.38499564 0.030019412 0.28248405 -0.25472146 -0.26600805 -0.12159215 -0.24515134
-0.25468314 -0.35931876 0.07916771 -0.044351142 -0.0067246053 0.52113795 -0.19139427 -0.65065646
-0.19347946 -0.27077544 0.3795334 -0.118387066 0.08774974 0.39767054 0.06294985 0.6596635
0.76883996 -0.20457676 -0.1860027 0.06029127 -0.3273394 0.26273286 -0.20948383 -0.5513051
0.5118649 -0.08586341 0.19698906 -0.019755699 0.70748127 -0.08141481 -0.16241835 -0.3934658
00000000: b89a 13bd 38bb 3cbe 09b2 dd3e 9a90 53be
00000010: 5644 9cbd bac1 c03d 50da cfbe 7159 4ebc
00000020: 1e9c 3cbe 0f1b 0ebe 33cf 763e 47c9 a9be
00000030: 7970 e7bc 971a b9bd 5800 29be 5892 5ebd
00000040: 7081 7e3d 6e37 11be f333 32be dfb0 22bd
00000050: 5b09 643e 758f 17bf ce26 d33d 7cd8 debe
00000060: 5e8a d73e e0eb d2bc d898 16be e313 9abe
00000070: 8db5 89be b751 1abe ceff c2be f588 a9be
00000080: 714d 203e 23e6 9dbe ad68 f3be 0b5b adbe
00000090: 3232 8dbe 0a85 5dbe 5348 083e 19a8 163e
000000a0: d9c1 d2bd fee2 013f 80d7 a1be 0a10 0cbf
000000b0: 5570 77be 7661 10be 6d9a 0dbe 852b 0cbe
000000c0: 84b4 e5bc 0c0d cf3d b399 b4be 54b2 933e
000000d0: 74b0 92be 8a78 aebe e3ad 96bd 913b 47be
000000e0: cd04 02bd 501a 033e bc50 cf3e 753d 9a3e
000000f0: e524 683e ce65 a3bd aa16 59be e963 57be
00000100: c5f9 e8bc 1f6b 9abe 1bba e1bd 24a2 943e
00000110: a1bb 96bd 4ec4 b4be 3db7 96be a108 a83e
00000120: 19eb 353f e8b2 dabe 3833 13be 670a e7be
00000130: ab60 593e 49c0 fc3e 7792 f73d c551 8dbe
00000140: 3d22 c4be b0c6 053f 30e6 b2be ee81 c9be
00000150: f167 02bf ea6b 1b3e c0e4 b6be ea69 00be
00000160: 6cbf 7f3d 3f76 6e3e 11ab eabe 6859 b9be
00000170: b731 29bc a96e e13e cde6 06be 15e2 09bd
00000180: 668a 93be d3bb cebd fb6f 8fbe 06df bd3e
00000190: d26c 5dbe db4c 97bd fbf4 903e d270 8cbe
000001a0: 0d65 b33c 9ea8 9abe 2ce2 21be 09a4 5fbe
000001b0: 97ee f3bd 30e1 ffbe 7c6a 343f dfbd a4be
000001c0: 2fc6 5e3e ff80 61bd a88c 80be 2eec 763e
000001d0: 5322 bd3e 8086 b0be 0997 5e3d eac0 ecbd
000001e0: c360 65bd b6f6 45be 6577 9a3b 8772 6fbe
000001f0: c9d5 5b3e eb8a 68bd a827 543f 50a0 b3be
00000200: 06ca 13be e922 60be 5393 20be 98f9 3dbe
00000210: 335f 41be 00e9 d03c cdea 5e3d b347 6bbe
00000220: 9990 f4be 134b 97bd 8e2a f1be e1fc aabe
00000230: 5423 943d 7b5a 9bbe ac92 843c d8fe d6bd
00000240: 21dc ab3e a3f7 f5bd 8564 84be f38b ce3e
00000250: 4b33 3c3f aa4b 9c3d 683b 2a3e 7e1e a5be
00000260: fb81 d4be a2d7 3abe e590 03be fa3c 56be
00000270: b528 9dbd e309 64be 16a7 b3bd 1f35 9abd
00000280: 8bff 013e 5eca b33e fea6 a8be d6d8 9dbe
00000290: 460c 0fbf edcd 28be 2ad2 8f3e 5c39 2cbe
000002a0: 5636 afbe b558 c1bd fe46 97bd 5539 ea3d
000002b0: 5351 0abf 156b 08be ab81 463c 7f83 10bd
000002c0: ea2c a83d 9177 acbe a85d b0be aeb9 1abf
000002d0: cd1d 9bbe 5ee1 f13d 6930 43be 63ae 41be
000002e0: 13cb f0be 1baa a2be 375b 25be 9c1d 9dbe
000002f0: 6e8f 7dbe fcd6 ffbd e1c1 0bbf 6a84 3fbe
00000300: c461 7dbe f350 bebe b23a 8dbe 2406 c63e
00000310: 9f42 aa3e 781e d53e d6fa 9cbe f373 27bf
00000320: 6d2c e2be 778c 21bf 76ab a13e 8788 bcbd
00000330: ba83 0dbf 52a6 03be dee4 bdbd 55e8 05bd
00000340: 8b03 14bf 47da 8e3d 21e0 98be 71d9 cfbd
00000350: 39a8 59be 8d05 f6be 4c8f babe e39f 6dbd
00000360: 4b20 05bf 261e c5be 45eb f53c c0a1 903e
00000370: da6a 82be 3532 88be 4e05 f9bd f408 7bbe
00000380: d465 82be a1f8 b7be ae22 a23d 8ba9 35bd
00000390: 145a dcbb 4c69 053f dcfc 43be 6c91 26bf
000003a0: 7b1f 46be 14a3 8abe 3452 c23e eb74 f2bd
000003b0: 23b6 b33d 799b cb3e daeb 803d b5df 283f
000003c0: b2d2 443f 927c 51be 7e77 3ebe fbf3 763d
000003d0: 0899 a7be ec84 863e ee82 56be 5522 0dbf
000003e0: 9409 033f 28d9 afbd 80b7 493e b4d6 a1bc
000003f0: 7e1d 353f cfbc a6bd ff50 26be 5974 c9be

l2.weight f4 [300, 400]
-0.033957917 -0.006670651 -0.018453058 -0.003033407 -0.007747913 0.0072090486 -0.033291973 -0.023430422
-0.053735502 -0.008413297 0.023547024 0.031956688 -0.030750532 -0.036632054 0.048146438 0.027120696
0.02046993 -0.009736102 0.018074939 0.005588546 0.0068539353 -0.008322351 -0.026974294 0.033173367
0.013872528 -0.028694265 -0.044938367 0.012177334 0.044174667 0.020259824 0.0021179924 0.0072244154
0.039893053 0.02799626 0.013258041 0.03899196 0.039884117 -0.015889097 -0.017564947 0.007116941
-0.041114204 -0.011726249 0.021881817 0.019367885 0.046396088 -0.03200065 0.025450649 -0.010603583
-0.022734124 -0.024929853 0.034937665 -0.011088617 -0.037957393 -0.03719818 0.01664368 0.005355321
0.016558371 -0.042557698 0.035091147 -0.056833457 -0.024122955 0.024683982 -0.0069380105 -0.033675127
-0.027520051 -0.043913435 0.002391522 0.03670237 -0.023963798 -0.03929166 -5.7516867e-05 -0.032251734
0.008358162 -0.020127578 -0.028145155 0.011895888 0.03904443 0.028506134 0.042614006 -0.045867283
0.004566511 -0.021972343 -0.0013944209 0.02717434 -0.039183762 -0.03247078 -0.02130775 -0.0235962
-0.008241934 0.029810732 0.031017726 -0.008185692 -0.0458755 -0.012267859 0.02201948 0.03317399
0.039325815 -0.026111955 -0.014494389 -0.027539795 0.0074086315 -0.011468038 -0.0070636696 -0.048698332
0.017302867 -0.011417635 -0.0057076626 -0.016331876 -0.0019386546 -0.035793416 -0.046236154 0.0446896
0.003089456 -0.04165214 0.027112823 0.03985282 -0.042363226 -0.04418506 -0.047075547 0.03406222
-0.039028645 0.037540156 -0.009536155 -0.05775435 -0.0073344894 -0.02511093 0.03635775 -0.027380783
0.0497321 -0.047249023 0.0025608367 0.036570095 0.00690829 -0.02753458 -0.05674554 0.009949125
-0.012096495 -0.016947666 -0.0018261274 0.0048521482 -0.032586265 -0.0156042315 0.020676311 -0.021328896
-0.025899548 -0.014659427 -0.019946462 -0.0066323737 -0.0178626 -0.02190715 -0.025909234 0.03674749
-0.046323914 0.03002065 -0.0047976 0.028922569 0.04577231 0.019539725 0.007875599 -0.04512834
-0.029129667 0.015477757 0.028590325 0.030093912 -0.025993902 -0.040271547 -0.01802018 -0.010694294
-0.02350548 -0.028389534 -0.043383766 0.04577678 0.016637348 0.013124827 0.0030367896 0.04749954
-0.0442442 0.0038202188 0.036198113 -0.021103976 0.0409868 -0.008590435 0.01810373 -0.03501292
0.048644204 -0.023448898 -0.038797073 -0.008508604 0.016998703 0.040466752 -0.028612334 0.011255365
-0.010589241 0.027616162 -0.0017219124 0.022040514 0.023019893 -0.056426656 -0.032955654 0.029538747
-0.05030972 0.011896312 0.011237628 0.034509256 -0.046006262 -0.04565683 0.015998278 0.013613831
0.0017280357 0.019443983 -0.019824577 -0.01603232 -0.030843012 -0.023059383 -0.019216742 -0.029921375
-0.05027545 -0.039902944 -0.051500328 0.010491192 -0.003456939 0.008872253 -0.044813424 -0.045521975
-0.0083959745 -0.029292917 -0.044256866 0.0340205 -0.026938904 -0.002078551 -0.021508921 -0.039373007
-0.026827518 -0.042554405 -0.03213178 -0.0037799403 -0.023410678 0.03687929 -0.011265494 0.00017876025
-0.015441809 0.007817976 -0.031435847 0.002680372 0.024716575 -0.018784981 -0.0539769 0.018750843
0.00750988 -0.044539243 -0.05192799 0.0011165366 -0.05147872 -0.038747836 0.011975873 -0.035983253
00000000: 7517 0bbd 7a95 dabb de2a 97bc 20cc 46bb
00000010: 34e2 fdbb e239 ec3b 2a5d 08bd 28f1 bfbc
00000020: c219 5cbd edd7 09bc b0e5 c03c 04e5 023d
00000030: 8ae8 fbbc 7e0b 16bd 3335 453d 392c de3c
00000040: 8eb0 a73c 2c84 1fbc e511 943c 1f20 b73b
00000050: fa96 e03b 785a 08bc 32f9 dcbc cce0 073d
00000060: 9a49 633c 3c10 ebbc 4b11 38bd 7183 473c
00000070: 7ff0 343d eef7 a53c 04ce 0a3b caba ec3b
00000080: e666 233d 6a58 e53c 4138 593c 09b6 1f3d
00000090: 875d 233d da29 82bc 5de4 8fbc 3a35 e93b
000000a0: 5e67 28bd 741f 40bc 7f41 b33c 66a9 9e3c
000000b0: d309 3e3d 1d13 03bd e17d d03c a7ba 2dbc
000000c0: ea3c babc b139 ccbc cc1a 0f3d 08ad 35bc
000000d0: 3679 1bbd 1e5d 18bd 5458 883c b07b af3b
000000e0: 6ca5 873c fb50 2ebd bcbb 0f3d 33ca 68bd
000000f0: 819d c5bc 1036 ca3c 4058 e3bb eeee 09bd
00000100: bb71 e1bc 93de 33bd 15bb 1c3b 3955 163d
00000110: ba4f c4bc 4bf0 20bd 443e 71b8 651a 04bd
00000120: acf0 083c 97e2 a4bc ab90 e6bc f8e6 423c
00000130: 0ded 1f3d b285 e93c 068c 2e3d 55df 3bbd
00000140: aca2 953b 58ff b3bc 00c5 b6ba b99c de3c
00000150: 277f 20bd 1500 05bd 978d aebc d14c c1bc
00000160: 2d09 07bc a335 f43c e318 fe3c 481d 06bc
00000170: f3e7 3bbd 21ff 48bc 3262 b43c 73e1 073d
00000180: 1b14 213d bde8 d5bc e079 6dbc 239b e1bc
00000190: 1bc4 f23b 70e4 3bbc 5b76 e7bb e777 47bd
000001a0: bebe 8d3c 0811 3bbc 5807 bbbb 6dca 85bc
000001b0: 741a feba 1e9c 12bd 1f62 3dbd 710c 373d
000001c0: 7878 4a3b 6f9b 2abd b61b de3c b63c 233d
000001d0: 1085 2dbd 65fb 34bd 4ad2 40bd d484 0b3d
000001e0: 80dc 1fbd b5c3 193d 883d 1cbc d38f 6cbd
000001f0: 2856 f0bb 70b5 cdbc ddeb 143d aa4d e0bc
00000200: e3b3 4b3d 3188 41bd b6d3 273b 86ca 153d
00000210: f05e e23b 3390 e1bc 036e 68bd a801 233c
00000220: 6130 46bc d5d5 8abc ab5a efba c5fe 9e3b
00000230: 2d79 05bd e4a8 7fbc 5e61 a93c f0b9 aebc
00000240: 4a2b d4bc 182e 70bc c366 a3bc 6254 d9bb
00000250: 9654 92bc a076 b3bc 9a3f d4bc 8984 163d
00000260: 25be 3dbd deed f53c 3035 9dbb 06ef ec3c
00000270: bf7b 3b3d c611 a03c a808 013c 7fd8 38bd
00000280: 57a1 eebc 6b96 7d3c 4236 ea3c 8287 f63c
00000290: 2af1 d4bc c7f3 24bd 0e9f 93bc 1f37 2fbc
000002a0: 908e c0bc 2b91 e8bc 2db3 31bd 6f80 3b3d
000002b0: 0c4b 883c 8409 573c e004 473b e18e 423d
000002c0: 6839 35bd a35c 7a3b 7944 143d 3fe2 acbc
000002d0: c6e1 273d e5be 0cbc 464e 943c b569 0fbd
000002e0: 253f 473d e717 c0bc aee9 1ebd ac67 0bbc
000002f0: dd40 8b3c 77c0 253d 6a64 eabc 6c68 383c
00000300: 7f7e 2dbc 4a3b e23c cbb1 e1ba 4f8e b43c
00000310: 3794 bc3c a31f 67bd 82fc 06bd 3efb f13c
00000320: 9111 4ebd c0e8 423c 071e 383c 9459 0d3d
00000330: 1071 3cbd a802 3bbd d20e 833c 8c0c 5f3c
00000340: 427f e23a fd48 9f3c 2767 a2bc 3656 83bc
00000350: 7caa fcbc 08e7 bcbc 6e6c 9dbc ac1d f5bc
00000360: a1ed 4dbd 4571 23bd 02f2 52bd 40e3 2b3c
00000370: d08d 62bb ed5c 113c 488e 37bd 4075 3abd
00000380: 458f 09bc b3f7 efbc b046 35bd 1459 0b3d
00000390: faae dcbc 4d38 08bb 7a33 b0bc 9745 21bd
000003a0: 62c5 dbbc 874d 2ebd 9d9c 03bd e0b8 77bb
000003b0: c0c7 bfbc bd0e 173d e892 38bc 9771 3b39
000003c0: a4ff 7cbc f816 003c e0c2 00bd 2ea9 2f3b
000003d0: 6a7a ca3c f6e2 99bc e216 5dbd 5e9b 993c
000003e0: 7015 f63b c86e 36bd 72b2 54bd c058 923a
000003f0: 5adb 52bd 0db6 1ebd 7436 443c 2d63 13bd

l2.bias f4 [300]
-0.03907424 0.019503837 0.0253333 -0.012855462 -0.051936932 -0.05652724 -0.07528401 0.06812444
-0.034267116 0.014749649 -0.054686196 0.03674205 -0.06796531 -0.018182397 0.057671517 -0.08438312
-0.014556306 0.09816568 -0.009956612 -0.016853789 0.13694924 0.09306852 0.030526113 -0.039228465
-0.036975406 0.5838987 0.13932449 -0.026294801 -0.01070845 -0.038711037 0.010261601 0.058550812
0.053227615 0.02405478 -0.06278723 -0.06340099 0.01905022 -0.03154947 0.024503388 -0.073846504
-0.0020929875 0.041746013 0.068848155 0.09259664 0.57367486 0.5386641 0.025710674 -0.08062058
0.019582901 -0.060902223 -0.00993806 -0.654677 -0.08446657 -0.03439452 0.0052063367 0.1141399
0.059307795 0.05749879 -0.04672748 0.024018463 -0.012561039 -0.04520849 0.066749066 0.038147174
0.0013387667 -0.029275473 -0.013877428 -0.0013262472 0.063408226 0.0034855942 -0.01993796 -0.10316159
0.082691856 0.7796629 -0.03697168 0.013122999 0.6223429 -0.018719397 0.6073581 -0.40579507
-0.041384663 0.010137122 0.29380277 0.045536127 -0.035906993 -0.070520565 -0.034927983 -0.04300219
-0.017298589 -0.0035734184 -0.011854538 -0.07400744 0.20403253 0.015975043 0.015477943 0.032207824
-0.09115273 0.006628741 0.02566001 -0.056184515 -0.0022889837 -0.038911812 0.004924978 -0.04700688
0.37755132 -0.014749861 0.0685884 -0.0030361202 -0.051717885 0.03225322 -0.05573077 0.059026163
0.046042334 -0.0008216776 0.012316899 -0.07677905 -0.67369956 0.021016711 -1.1649812 -0.08146407
0.06183873 -0.10579611 -0.051809527 -0.03268282 -0.06839714 -0.0053041168 -0.8484991 0.03698301
-0.019883571 -0.03255378 -0.0016641958 -0.13492866 0.062264152 0.15633568 -0.026720015 -0.036800273
-0.007893433 -0.0509922 -0.07066741 -0.00033967153 -0.022927135 -0.05763514 -0.019278582 -0.018396001
0.045141246 0.10626847 -0.06622653 0.06214564 -0.010220065 -0.026011307 -0.0595112 -0.05447013
0.15021364 -0.06682782 -0.0008979181 0.02393421 -0.049537096 -0.08431309 -0.008102744 0.06590417
0.51873904 -0.041249808 0.0034393177 0.008765104 -0.01533303 -0.092648804 -0.047597624 0.01058328
-0.023136599 0.113510445 0.048271067 -0.022778869 -0.0027686618 -0.011229433 0.048129678 -0.061723277
-0.039545115 1.0599319 0.030588815 -0.0846126 -0.0024783325 -0.012152561 0.04535292 -0.020868193
-0.07660024 0.06446919 -0.03113731 -0.045579344 0.0016722261 0.0026820018 -0.034041364 -0.004696804
-0.033972073 0.5449367 -0.088647254 0.120356046 -0.09103203 1.0495299 0.034523368 0.0006843612
-0.029208725 0.034141943 0.114538625 0.45062676 0.5319808 -0.004374847 -0.0012964675 -0.025373908
0.0067523276 -0.0148761235 -0.07634692 0.0013874877 -0.022819847 -0.048555855 -0.07466309 0.029669171
-0.042637106 -0.023686223 -0.037065558 -0.012357027 0.0699196 0.020506212 -0.003769462 1.0863676
-0.034451146 -0.07729761 0.005691393 -0.021732667 -0.09033018 -0.0146246655 0.010608239 -0.07957601
-0.01331001 0.0402328 0.55701214 0.04140383 -0.06373904 -0.04019406 -0.08731419 -0.03512915
0.05485905 -0.03592115 -0.083422 0.0005594858 -0.09799386 -0.049301177 -0.019490434 1.0100162
-0.019036438 -0.64613056 0.042676885 0.046454262 -0.062564455 -0.021554245 0.08661589 0.00293318
00000000: 4f0c 20bd 83c6 9f3c c887 cf3c b79f 52bc
00000010: d2bb 54bd 1b89 67bd 812e 9abd d484 8b3d
00000020: ad5b 0cbd 83a8 713c a2fe 5fbd d57e 163d
00000030: 6531 8bbd 40f3 94bc f838 6c3d 0fd1 acbd
00000040: 937d 6ebc 170b c93d 0f21 23bc f510 8abc
00000050: 6c3c 0c3e b59a be3d e611 fa3c 07ae 20bd
00000060: 8673 17bd 637a 153f 14ab 0e3e 3268 d7bc
00000070: 7f72 2fbc 778f 1ebd 4620 283c fad2 6f3d
00000080: 3305 5a3d 880e c53c 9796 80bd 61d8 81bd
00000090: 350f 9c3c 043a 01bd 54bb c83c d63c 97bd
000000a0: 812a 09bb defd 2a3d 4300 8d3d 4fa3 bd3d
000000b0: 5bdc 123f e4e5 093f 319f d23c 671c a5bd
000000c0: 526c a03c 9c74 79bd 3fd3 22bc e998 27bf
000000d0: cffc acbd 45e1 0cbd eb99 aa3b 2ec2 e93d
000000e0: bbec 723d da83 6b3d 5065 3fbd 5ec2 c43c
000000f0: d1cc 4dbc 8a2c 39bd bcb3 883d 3640 1c3d
00000100: 8e79 af3a 1ed3 efbc 275e 63bc 79d5 adba
00000110: 2cdc 813d 916e 643b ef54 a3bc 6246 d3bd
00000120: 595a a93d fd97 473f 9e6f 17bd d901 573c
00000130: dd51 1f3f 6c59 99bc d27b 1b3f 5fc4 cfbe
00000140: f782 29bd 2c16 263c 516d 963e 1784 3a3d
00000150: 3613 13bd 166d 90bd a510 0fbd 1023 30bd
00000160: c5b5 8dbc 0330 6abb 8939 42bc 3691 97bd
00000170: e7ed 503e 18de 823c 3397 7d3c 5aec 033d
00000180: 48ae babd e935 d93b f134 d23c bc21 66bd
00000190: c602 16bb fe61 1fbd b661 a13b 498a 40bd
000001a0: 684e c13e 67a9 71bc 1378 8c3d a5f9 46bb
000001b0: 22d6 53bd f41b 043d f345 64bd 6bc5 713d
000001c0: e396 3c3d da65 57ba d2cc 493c 563e 9dbd
000001d0: 9377 2cbf 3d2b ac3c 1b1e 95bf a2d6 a6bd
000001e0: 9c4a 7d3d a2ab d8bd 3a36 54bd 6cde 05bd
000001f0: cd13 8cbd 28ce adbb 3d37 59bf 7f7b 173d
00000200: dfe2 a2bc 1d57 05bd 2521 daba bd2a 0abe
00000210: b208 7f3d 7616 203e efe3 dabc e2bb 16bd
00000220: 7553 01bc 32dd 50bd 13ba 90bd f115 b2b9
00000230: b0d1 bbbc d312 6cbd 1eee 9dbc 36b3 96bc
00000240: 07e6 383d 49a3 d93d c6a1 87bd 6d8c 7e3d
00000250: 0f72 27bc aa15 d5bc 04c2 73bd 121c 5fbd
00000260: 9bd1 193e 06dd 88bd 4362 6bba ad11 c43c
00000270: 69e7 4abd 57ac acbd 5fc1 04bc c4f8 863d
00000280: 15cc 043f 8ff5 28bd 2d66 613b 839b 0f3c
00000290: 6437 7bbc a8be bdbd baf5 42bd 7e65 2d3c
000002a0: f788 bdbc 2a78 e83d e2b7 453d c09a babc
000002b0: 7072 35bb a8fb 37bc a023 453d 8cd1 7cbd
000002c0: 0ffa 21bd d9ab 873f 6595 fa3c 5f49 adbd
000002d0: 856b 22bb 891b 47bc fcc3 393d c6f3 aabc
000002e0: 96e0 9cbd 6c08 843d ac13 ffbc 68b1 3abd
000002f0: 992e db3a 86c4 2f3b f56e 0bbd a6e7 99bb
00000300: 4d26 0bbd f980 0b3f b18c b5bd 3b7d f63d
00000310: 006f babd ff56 863f 6068 0d3d b466 333a
00000320: 2347 efbc 6cd8 0b3d 3a93 ea3d 8db8 e63e
00000330: e52f 083f e05a 8fbb 3bee a9ba f1dc cfbc
00000340: a142 dd3b fcba 73bc c65b 9cbd 5ddc b53a
00000350: b0f0 babc 81e2 46bd f6e8 98bd c30c f33c
00000360: 3fa4 2ebd 9c09 c2bc 0ed2 17bd 2175 4abc
00000370: 0232 8f3d a5fc a73c 1409 77bb 180e 8b3f
00000380: a51c 0dbd 364e 9ebd dd7e ba3b b508 b2bc
00000390: 08ff b8bd 4b9c 6fbc 2ece 2d3c bff8 a2bd
000003a0: 3a12 5abc 26cb 243d 5998 0e3f 1097 293d
000003b0: 9d89 82bd 87a2 24bd c8d1 b2bd 95e3 0fbd
000003c0: e2b3 603d 0e22 13bd 27d9 aabd 75aa 123a
000003d0: 01b1 c8bd 08f0 49bd 67aa 9fbc 3648 813f
000003e0: 4ef2 9bbc d068 25bf f5cd 2e3d d346 3e3d
000003f0: cb21 80bd 8792 b0bc ac63 b13d 983a 403b

l3.weight f4 [1, 300]
-0.024546891 0.10949392 0.035743076 -0.1448692 0.005650293 0.014239283 0.10987776 -0.15840098
0.025536332 -0.03305714 0.065939695 -0.1584405 0.083870724 0.13013463 -0.16201323 0.008403239
0.019674953 0.23832282 0.07067073 0.028344085 -0.39499736 -0.20599554 -0.45892888 0.0020602506
-0.0087092705 -0.49847376 -0.55638003 0.20336555 0.034259666 0.14380403 0.036734004 -0.021542815
-0.17024511 -0.11799719 0.0010823259 0.111051485 -0.002491267 0.18430036 0.16383296 0.010043858
0.18261775 -0.15910433 -0.1605014 -0.19889045 -0.31365937 -0.33759844 -0.3572676 0.01540083
0.20294473 0.021368472 -0.009839154 1.0511893 0.02767912 0.030907832 0.18885097 -1.128653
-0.22828749 -0.07998429 0.03673028 -0.18016577 -0.03993254 -0.14847924 -0.06363621 0.21581125
-0.14905198 0.1295197 0.15564682 -1.4466926 -0.18237697 0.1397664 -0.00038500622 0.004832218
-0.14873981 -1.1724726 0.028030416 -0.1778798 -0.32488102 -0.12563013 -0.32666564 1.8526942
0.02024604 0.15969706 -0.4738737 -0.18820632 0.000396153 0.023752661 -0.007472707 -0.025831375
-0.04098531 0.0068475096 0.012451328 -0.024540188 0.121239245 0.1528587 -0.1102456 0.40658915
0.012993173 -0.13930064 -0.20090508 0.04849252 0.007009001 0.008138371 -0.01753887 -0.034054775
-0.5936893 -0.10457113 -0.1294031 0.18103077 -0.0080064945 -0.4413758 -0.0028390698 -0.112479284
0.2386639 -0.024304748 -0.1457777 0.019727852 1.1352597 0.21059716 1.0081769 -0.80616045
0.19086158 -0.010596132 0.0042032027 0.20289588 0.014713142 0.19305699 0.80826855 0.16247481
-0.008286823 0.16480075 -0.0015871522 0.029227352 -0.18526158 -0.36940905 0.13543805 0.1381894
0.039481036 -0.020886417 0.08674692 0.13557655 0.026316036 0.032530382 0.023874106 -0.11879301
-0.24643712 -0.3020915 0.037508335 -0.12082643 0.019698422 0.015042458 -0.01142855 0.009102848
-0.31509903 0.07708953 -0.021311102 -0.097887695 0.064040035 0.037616152 -0.6993022 -0.20946433
-0.31045198 0.025731163 -0.15243152 0.18637392 -0.013556065 0.0031336474 0.114952505 -0.012223899
0.10948789 -0.41800478 0.213529 0.016135553 0.0041344706 -0.016614623 -0.18449293 0.0061405413
0.045812543 -1.1919489 0.24605961 -0.0046420423 0.15138948 -0.004222574 -0.20044096 -0.11644462
-0.026099596 -0.25756085 0.0059646145 0.020566043 -0.00969014 0.0013012101 0.027545381 -0.15611513
-0.02974815 -0.3254445 0.07413074 -0.22834113 -0.027264122 -0.715889 0.14779541 0.07667368
-0.027340118 -0.1874821 -0.37603712 -0.15370218 -1.1127074 0.11455506 0.16953713 0.0019438699
-0.012462318 0.00022103945 0.03602769 0.11675744 -0.0027962287 -0.017930027 0.0052013947 -0.16057655
-0.032892484 0.15524165 -0.0048567117 0.09685482 -0.3591976 0.05779912 -0.002021787 -1.2809936
0.025420474 0.025763948 0.119485095 -0.09999283 0.021642655 0.015530097 -0.1964705 -0.015330423
-0.015832687 -0.20411779 -0.57251686 0.219743 0.026687818 -0.009264713 -0.04043248 0.0020309605
-0.21279325 -0.0009853287 -0.024902659 0.17154106 0.0057995836 0.14517699 0.15804586 -1.1956834
0.056796946 0.98486614 -0.13955072 -0.19984095 -0.027319629 0.13271187 -0.13822608 0.018381158
00000000: 9016 c9bc 593e e03d 5567 123d 9758 14be
00000010: 1826 b93b e24b 693c 9707 e13d de33 22be
00000020: 9231 d13c ec66 07bd 640b 873d 3a3e 22be
00000030: 6ac4 ab3d 0342 053e cce6 25be bdad 093c
00000040: 5e2d a13c e60a 743e d1bb 903d db31 e83c
00000050: 183d cabe 7ff0 52be baf8 eabe 4505 073b
00000060: 54b1 0ebc f437 ffbe ec6e 0ebf 0f3f 503e
00000070: dd53 0c3d 5d41 133e 6576 163d 8f7a b0bc
00000080: bc54 2ebe 83a8 f1bd d5dc 8d3a f66e e33d
00000090: 8644 23bb 3cb9 3c3e d4c3 273e fe8e 243c
000000a0: 2600 3b3e 3fec 22be 7b5a 24be f0a9 4bbe
000000b0: f697 a0be b4d9 acbe c7eb b6be c353 7c3c
000000c0: bed0 4f3e ef0c af3c 6734 21bc 5f8d 863f
000000d0: 52bf e23c 6c32 fd3c 2662 413e b477 90bf
000000e0: 32c4 69be cece a3bd 7d72 163d 607d 38be
000000f0: 4e90 23bd f10a 18be b453 82bd a0fd 5c3e
00000100: 15a1 18be d0a0 043e e161 1f3e 392d b9bf
00000110: 07c1 3abe ec1e 0f3e a9da c9b9 9557 9e3b
00000120: 404f 18be 9513 96bf 0ba0 e53c 1f26 36be
00000130: ce56 a6be 2fa5 00be b840 a7be 1525 ed3f
00000140: 06db a53c a087 233e 939f f2be 28b9 40be
00000150: c1b2 cf39 f194 c23c 9cdd f4bb 529c d3bc
00000160: 36e0 27bd 1361 e03b a800 4c3c 8108 c9bc
00000170: 484c f83d fe86 1c3e 72c8 e1bd 742c d03e
00000180: 51e1 543c d4a4 0ebe 10ba 4dbe 18a0 463d
00000190: c3ab e53b cd56 053c adad 8fbc 057d 0bbd
000001a0: 06fc 17bf 6329 d6bd 3f82 04be 2160 393e
000001b0: ac2d 03bc 02fc e1be b00f 3abb 8a5b e6bd
000001c0: 4f64 743e c01a c7bc c046 15be 4e9c a13c
000001d0: 3150 913f c8a6 573e f10b 813f 8860 4ebf
000001e0: 3871 433e 669b 2dbc 05bb 893b f0c3 4f3e
000001f0: 640f 713c bbb0 453e b0ea 4e3f cc5f 263e
00000200: 74c5 07bc 87c1 283e fe07 d0ba 336e ef3c
00000210: 36b5 3dbe 2f23 bdbe 46b0 0a3e 8681 0d3e
00000220: deb6 213d fe19 abbc 5fa8 b13d 94d4 0a3e
00000230: ba94 d73c 943e 053d a193 c33c c049 f3bd
00000240: 035a 7cbe bdab 9abe 57a2 193d d973 f7bd
00000250: 965e a13c a474 763c d03e 3bbc 1d24 153c
00000260: a954 a1be 1ee1 9d3d 9f94 aebc 5879 c8bd
00000270: 6c27 833d 6513 1a3d 7805 33bf d17d 56be
00000280: 90f3 9ebe 29ca d23c 0217 1cbe ced8 3e3e
00000290: 421a 5ebc e15d 4d3b 386c eb3d c046 48bc
000002a0: 303b e03d b904 d6be 59a7 5a3e b52e 843c
000002b0: 747a 873b 641b 88bc b7eb 3cbe 9836 c93b
000002c0: efa5 3b3d c891 98bf 0df7 7b3e 461c 98bb
000002d0: d805 1b3e 855d 8abb 6540 4dbe 847a eebd
000002e0: d2ce d5bc 04df 83be d072 c33b 1e7a a83c
000002f0: 65c3 1ebc 5e8d aa3a daa6 e13c a5dc 1fbe
00000300: 64b2 f3bc a9a0 a6be dbd1 973d 42d2 69be
00000310: 0259 dfbc 8044 37bf ae57 173e 1707 9d3d
00000320: 62f8 dfbc 4ffb 3fbe f087 c0be 1b64 1dbe
00000330: 326d 8ebf d89b ea3d 249b 2d3e 73c9 fe3a
00000340: c02e 4cbc d3c6 6739 c591 133d 861e ef3d
00000350: ef40 37bb fee1 92bc 7670 aa3b 2e6e 24be
00000360: 45ba 06bd abf7 1e3e 0d25 9fbb d25b c63d
00000370: bfe8 b7be c5be 6c3d f57f 04bb 99f7 a3bf
00000380: 993e d03c ea0e d33c 9ab4 f43d 0ac9 ccbd
00000390: f04b b13c f371 7e3c 902f 49be 742c 7bbc
000003a0: 8db3 81bc 4104 51be 7790 12bf 4f04 613e
000003b0: 69a0 da3c 06cb 17bc 879c 25bd dd19 053b
000003c0: 79e6 59be 2526 81ba a900 ccbc 76a8 2f3e
000003d0: 6f0a be3b 47a9 143e c6d6 213e 270c 99bf
000003e0: eaa3 683d 3020 7c3f 62e6 0ebe 1ba3 4cbe
000003f0: 6acd dfbc 9fe5 073e 238b 0dbe 1594 963c
