TD3-conf1/preTrained/TD3_BipedalWalker-v3_0_actor_target_ep200.pth (torch_old, 526986 bytes, 6 tensors)

l1.weight f4 [400, 24]
00000000: 984a 28be 404b 06bf 3d23 023f f278 aebe
00000010: 112b b43e 8398 c23d b64e 63be 7736 e9be
00000020: 0d16 9fbe 06d1 1a3e 7778 9b3d 184c 9c3d
00000030: ee34 23bf e1f4 a63d 4848 30be 5429 003e
00000040: b342 e6bd bee7 33be 2466 29be 3d68 c6bd
00000050: c68b 05be 5761 723d 120a 9e3d 2dd1 8a3d
00000060: 820b cebd db35 293d da43 25bf 27f0 e0bd
00000070: 1299 b43e 9db2 a9be 2a9d 71be 243e 22bc
00000080: 1afb a3be bcc0 b33d a6e8 403e 2b41 81be
00000090: a69f 2bbd e54a f1be 56c3 9e3d 89ec 81bc
000000a0: b787 9b3d e7b0 25be 287b d2bc 5827 d3bc
000000b0: 58ee 92bd 943c 31be 39d4 553e 23e8 2b3d
000000c0: c0d1 933e 6a30 193e cf12 35bf 08c0 453e
000000d0: 8524 023f 3b5b b63e b7ed aa39 5043 cd3c
000000e0: f1bf db3d f69d 723e d70d ab3e 7c28 b0bd
000000f0: 8173 b8be 2f4b aebe d77a 0dbe 1a3e f03d
00000100: 142a 33be ff81 54be b95f f73d f4ad 4cbe
00000110: 58d6 873d 517b 04be b303 33be 9f68 353e
00000120: 82b3 1b3e 26bd f63e 3e2e a0bd 3e56 19bf
00000130: 117e 673d e889 60be ac69 ae3e 326b c53d
00000140: 184a b2be 34c3 5fbe e0f8 f5be 6046 c5be
00000150: 87df dbbd e7fe 94bc 561a f4bb 83fb b73d
00000160: acee 00be 3b01 eabd a252 43bd 3f57 8fbd
00000170: 7593 42bc 2bc0 cebd a724 4f3e 5044 4dbd
00000180: 68d8 673e 147e d4be 4ad2 713e 2c7f 173d
00000190: 9c43 f83d 692b a9bb 087b 66bd b4b8 823e
000001a0: aa1e b7be 7719 c33e 8f4c 023e 9156 94be
000001b0: aa51 133f 9440 063e ca3c 89be 2f45 81be
000001c0: d045 73be c8aa 74be 00d6 543d 1d80 f3bd
000001d0: 7fd2 d43d 08c9 07be 5bd0 c93d f49b 9fbd
000001e0: 470c 523e 51be d13e b224 cdbe 2f47 ec3e
000001f0: ac8f 31be d685 3b3e 7881 5a3e 4d0c 84be
00000200: 628c 55bd 5597 e63e a752 233d 15b6 023e
00000210: bd0a ecbc dc80 853e 8fe7 793d 5d49 a53d
00000220: d039 d63c 845c acbc ee77 d83d f05a 65be
00000230: 4bae 79be 438d 83bc ea86 14bd 46f5 18bd
00000240: 0558 68be 4af7 ab3d 5be2 de3e b0f5 70be
00000250: 593e aabe 4c7d 65be 3b62 833d 9d21 a93d
00000260: 69c9 993e 62ca 4b3e 245c bd3e a300 6b3e
00000270: 103e e03e a191 a83e c814 d7bd 00b7 9fbd
00000280: 4baa 1fbd 5ef6 de3c f71b 32bd 513d 20be
00000290: d679 72bd 401e 5cbe 57b8 8fbe ef99 f13c
000002a0: 9d8a ca3e 39be c73e 304a 92bf 2a46 27be
000002b0: eb5f fdbd 8510 87bc e3d8 063f d98f babd
000002c0: 3e09 8bbe f804 b43e 05f2 683e e0bb 09bd
000002d0: d234 9abd 9a1e 763d 2381 8cbd 1110 1ebe
000002e0: a544 5a3d 8f77 1b3e 382b 16be cb3d 16be
000002f0: b136 adbc dc6f 2abe 3cc5 29bd 8066 60be
00000300: 44b2 743e 2d5f 993e f678 01bf 798f 18bf
00000310: a3f8 143e 707e 01bf 3d94 ac3e 687a 4ebe
00000320: 060f a8be e746 bd3b ae83 b53e 6543 3d3d
00000330: 3804 ac3e a0c1 2a3d dcea 893e b2db 703e
00000340: 4161 bd3c 400a a7bb 3080 233e 8b88 4f3e
00000350: 296b 56bc e36e 3f3e f72b 163e 6016 05be
00000360: f65f 333e 625c 8ebe 72fc 9d3e c54f 663e
00000370: 590a 863e 6987 673d e74a bc3d a10d fe3b
00000380: 163a a9bd 5ee5 3c3e c904 c63e 4cae 05bd
00000390: 88ef de3e 01a7 5c3e 70f8 e8bd 49de b3bd
000003a0: 0027 103b a25b 8c3d 8ed2 53be f465 5fbe
000003b0: e580 0ebe c814 eebd fc70 143e 38a0 ef3b
000003c0: 4c03 24bd 89ed d1be f781 e13e 90ab 53bd
000003d0: bd5d 6dbc 8f37 00be 6336 e6ba f6a4 c5bd
000003e0: efd0 a5be 31b1 9d3e 8b06 bfbe e2eb 1fbd
000003f0: 33aa b83d 2d33 7fbd 2dc1 39be b5ad e0bd
-0.16434705 -0.5245857 0.5083502 -0.3407665 0.35189107 0.095017456 -0.22197995 -0.45549366
-0.3107151 0.15118799 0.07591336 0.07631701 -0.6375264 0.08152176 -0.17215073 0.12515765
-0.112431906 -0.17568871 -0.1654287 -0.096878506 -0.130416 0.05917486 0.077167645 0.06778178
-0.10060789 0.041311126 -0.6455666 -0.109833054 0.35273033 -0.33144084 -0.2359511 -0.009902511
-0.32027513 0.087769955 0.18838748 -0.25245032 -0.0419003 -0.47127452 0.07752101 -0.015859859
0.07594245 -0.16180764 -0.025693491 -0.025775596 -0.07174367 -0.17308265 0.20881738 0.04196943
0.28870964 0.14959875 -0.70731825 0.19311535 0.50836974 0.35616478 0.00032602038 0.025056511
0.10729969 0.2369307 0.33408996 -0.08601472 -0.36025622 -0.34041736 -0.13816391 0.11730595
-0.1749652 -0.20752715 0.120788045 -0.19988233 0.0663268 -0.12937666 -0.1748188 0.17715691
0.15205196 0.48191184 -0.0782132 -0.5989722 0.05651671 -0.21927607 0.34064996 0.096395865
-0.34822154 -0.21851808 -0.4804144 -0.38530254 -0.10735994 -0.018187953 -0.0074494286 0.08983519
-0.12591046 -0.11426016 -0.047686227 -0.06999063 -0.011875977 -0.10095247 0.20228826 -0.050113976
0.22641146 -0.4150244 0.23615375 0.036986515 0.121222705 -0.0051626456 -0.056269675 0.25531542
-0.35765582 0.38105366 0.12724517 -0.28972295 0.57546484 0.13110572 -0.2680419 -0.25248095
-0.237571 -0.23893273 0.0519619 -0.1188967 0.103917114 -0.13260281 0.09854194 -0.077934176
0.20512496 0.40965512 -0.4006706 0.4614806 -0.17339963 0.18312773 0.21338451 -0.25790635
-0.052135833 0.45037332 0.039873745 0.12764771 -0.028813714 0.26074874 0.061011847 0.080706336
0.026150614 -0.021040209 0.1056975 -0.22397971 -0.24382894 -0.01605857 -0.036261477 -0.037343286
-0.22689827 0.08396776 0.4353207 -0.23531222 -0.33250692 -0.22411078 0.0641522 0.08258364
0.30036476 0.19901422 0.3698436 0.22949462 0.4379735 0.32923606 -0.105020106 -0.07798576
-0.038980763 0.027217086 -0.0434837 -0.1564839 -0.059198223 -0.21495914 -0.28070328 0.029492347
0.3955888 0.39012316 -1.142889 -0.16335359 -0.123718105 -0.01648737 0.5267469 -0.09109468
-0.2715549 0.3516004 0.22748573 -0.033626437 -0.07529606 0.060087778 -0.068605684 -0.15435816
0.05328812 0.15182327 -0.14664924 -0.1467201 -0.021144243 -0.16644233 -0.041447863 -0.219141
0.23896128 0.29955426 -0.50575197 -0.5959392 0.14547972 -0.50583553 0.33706847 -0.20163882
-0.32823962 0.0057762745 0.35452026 0.04620685 0.3359697 0.04168856 0.26936996 0.23521307
0.023117663 -0.0050976574 0.15966868 0.20266931 -0.013087072 0.18694644 0.14665209 -0.12996817
0.17517075 -0.27804857 0.30856663 0.22491367 0.2617977 0.05652562 0.09193974 0.0077530895
-0.08263032 0.18446872 0.38675526 -0.032636926 0.43542123 0.21548082 -0.11375511 -0.08782632
0.0021995902 0.06853415 -0.20685789 -0.21816236 -0.13916357 -0.116250575 0.14496225 0.0073128007
-0.040042207 -0.41001537 0.44044468 -0.051677287 -0.014487681 -0.12521194 -0.0017563816 -0.096506044
-0.32385966 0.3079925 -0.3730968 -0.039043315 0.09016838 -0.062304664 -0.18140097 -0.10970632

l1.bias f4 [400]
00000000: 1d37 b6bd a7a4 01be 8040 b23d 9b53 1fbe
00000010: ede7 813d 2297 55be 364f 3bbd b3a4 023e
00000020: 614f a4bc f8dc 80bd 4542 e03d f5f9 17be
00000030: e7fc f1bc 4259 2dbe 3c92 7fbe cec1 cfbc
00000040: e8b6 823d 9091 36be 8c9a f9bd 95ea 1cbb
00000050: 443b 693d af37 c83d b2ce 6cbe 3d1e 5dbe
00000060: 5a48 44bd bb72 0bbe 0471 62ba b702 ae3c
00000070: f834 9f3e 85a5 ac3d d383 87bd 3b0d 41be
00000080: fb22 5b3e c822 98be cd0b 85bc 4c5b cebd
00000090: f633 70bd 13ad fd3c 83cc 0cbe cd7f 51bd
000000a0: 744b 12be 8654 00be 5362 4c3e 6c04 74be
000000b0: c2d3 053e c3af e0bd 4b0f 453d 086b 093e
000000c0: 0953 44be 1c08 78bd 45df 63bd a308 37be
000000d0: 4aaa 983d 46a2 98be 7ab3 55bc af94 28be
000000e0: 8886 15bd 3649 6ebe a440 073d 19ca c4bd
000000f0: d8ec 293c 29b8 46be f9f6 cb3d 80f2 97bd
00000100: 932e 72ba b9a7 6c3d 632a d8bd 1b57 03bd
00000110: 7499 e9bd 5879 233e d005 d73d 6942 223c
00000120: 0ece 97bd 525b 9abe 09ff 86be b1ff 103e
00000130: 0a67 28be 8faf 1ebe c730 e1bd 2302 06be
00000140: bdac 8e3d fb5d 9fbd 00a5 03be a7f0 24be
00000150: 93b4 3abe e060 48be 2894 64bc 72da 30be
00000160: aeea fb3d a4d3 963d ee37 93be 9781 34be
00000170: 9a24 e23c e964 f2bd 5c1a 4f3e e1e8 ecbb
00000180: 0f17 90bd 5e4d a0bd 51a9 21bd 86b7 1bbe
00000190: 520e cebd d75b 9ebd 0b79 593d e615 c4bd
000001a0: c27e dbbc 136c 60be 2e14 243e 1dbf 93be
000001b0: 54ca 6b3c c551 8dbe 5a5e 6f3d 3d89 8dbc
000001c0: 35dc 213e 3b9c 92bd 5c4e d93d ae53 1ebe
000001d0: 58a3 babc f58a e3bd 5397 79be 5b79 8ebe
000001e0: 7435 2e3e 293a f5bd 98e4 d23d 3723 afbe
000001f0: afe2 233e 06d2 af3d 6525 d3bd c2d1 bbbd
00000200: b027 313e 337f 24bd cf8b 58bc 272f 25be
00000210: c2b7 08be f044 833d 869a ad3d c5fd 81be
00000220: e377 563d 4d73 bf3d b60d 523d c71d cfbd
00000230: 0b7f 4fbe 1d48 a23d 022a 52be e183 25be
00000240: f41e 433d 020d 303e cc8d 563e 23e7 65be
00000250: 209f 76be 398f 3fbe 9574 3e3e 3ac7 dbbd
00000260: 131e 8a3d 7dcb 673c db13 3dbd ec73 103e
00000270: 3b4f 293e 7465 2fbe 7629 5cbe 59c2 d23c
00000280: d870 bf3c ef5e 61be 2308 84be 2189 223e
00000290: 82de 0fbe 6aa0 87be 94a5 34be c171 1a3e
000002a0: 2280 1a3e 3a96 e13d c9d3 0dbe f1b7 ac3d
000002b0: 1101 6a3d b15f 8dbe fbc5 ce3d ddf7 04be
000002c0: c620 163c 98b4 193e 1d22 8dbe b90e e23d
000002d0: 8c99 f13d 5ca5 11be 3df3 82bb 9fc2 6b3e
000002e0: 9512 f93d e5ab 70be 15a2 41be 35fb 49be
000002f0: 42e1 5abe 6163 9cbd f9d9 40be 011f 09be
00000300: 3c4d 0e3d 5a74 223e 1f79 a4bd d58c c0bd
00000310: 66ca 81be 5ccf 99bc 7817 93be e1e3 debd
00000320: 7ee6 d1bd c05e 0d3e 5c58 4c3e 5f42 2abe
00000330: 96cc c0bd 1c06 a83c 31c5 b33c 14c1 be3d
00000340: 5cd5 92bb 3c2a 313e dcfc 003e 3469 2fbd
00000350: ae68 083e eb6c 64bb 9dff 523e af38 afbe
00000360: 578d 84be b848 8ebe 3a75 56be 91f9 3dbd
00000370: db11 453e a9a1 46be 5840 3ebe d932 9d3c
00000380: 8f9a 273e daf4 f0bc fa0b 3cbe 7577 17bd
00000390: 9ce0 4bbd c8e1 4f3d 47a6 29bd c9d6 333e
000003a0: e97f 923c 0344 9f3d 77fa 72be 5b80 fe3d
000003b0: efec 1ebe 63ee 1abb 01f3 19be d591 833d
000003c0: dfd1 5dbd b8e0 f33c f2f5 f8bc d8db 1b3e
000003d0: fe78 cf3d 1b31 8f3d 3b4c bfbb 3be0 da3d
000003e0: 7886 78bd 84ec 79be 1fe0 d4bd ca5f dabd
000003f0: 2d35 763e 0f9a 9f3e e1fe c7be 213b f3bb
-0.08897231 -0.12660466 0.08703709 -0.15559237 0.063430645 -0.20858434 -0.04572984 0.1275814
-0.020057382 -0.062921464 0.1095014 -0.14841445 -0.029539539 -0.1692858 -0.24958128 -0.025360968
0.06382543 -0.17828965 -0.121876806 -0.0023943533 0.056941286 0.09776246 -0.23125723 -0.21593566
-0.047920562 -0.13617985 -0.00086380565 0.021241529 0.310951 0.08430008 -0.0661694 -0.18852703
0.21400063 -0.29714036 -0.016240979 -0.10076007 -0.058643304 0.030966317 -0.1374989 -0.05114727
-0.14286596 -0.12532243 0.19959383 -0.23829812 0.1306906 -0.10971024 0.048110288 0.13419735
-0.191723 -0.06055461 -0.05563285 -0.17874388 0.07454355 -0.29811305 -0.013043279 -0.16462968
-0.036505252 -0.23270115 0.03302063 -0.096088596 0.010371409 -0.19406189 0.09959216 -0.074193
-0.00092385075 0.05777714 -0.105549596 -0.032065492 -0.11406222 0.15964258 0.104991555 0.009903529
-0.07412349 -0.30147797 -0.2636645 0.14160039 -0.16445556 -0.15496658 -0.10995632 -0.13086753
0.06966541 -0.07781597 -0.12855911 -0.16107427 -0.18232946 -0.19568205 -0.013951339 -0.1727083
0.12300621 0.07364586 -0.28753608 -0.1762756 0.027605344 -0.11835653 0.20224899 -0.0072299098
-0.07035648 -0.078272566 -0.039468113 -0.15206727 -0.10061325 -0.07732361 0.05309395 -0.09574489
-0.026793841 -0.21916227 0.16023323 -0.28856745 0.0143915005 -0.27601448 0.05843959 -0.017277354
0.15806659 -0.07158705 0.10610649 -0.15461609 -0.022782966 -0.11110488 -0.24374132 -0.27826962
0.17012578 -0.11973984 0.10297507 -0.34206554 0.16004442 0.08584981 -0.10309867 -0.091708675
0.17300296 -0.04016037 -0.013216927 -0.16131268 -0.13351348 0.06409633 0.08476739 -0.25388923
0.052360427 0.09348164 0.051282607 -0.101131015 -0.20263307 0.07923911 -0.20523837 -0.16163589
0.04763694 0.17192462 0.20952529 -0.22451453 -0.24084139 -0.18706979 0.1859916 -0.10731359
0.067440175 0.0141476365 -0.046161514 0.1410672 0.1653413 -0.17128545 -0.21500191 0.025727438
0.023369238 -0.2200887 -0.25787458 0.15872623 -0.14049724 -0.26489574 -0.17641288 0.15082456
0.15087941 0.110149816 -0.13850321 0.084335215 0.057129923 -0.2761207 0.100963555 -0.12985177
0.009163087 0.15010297 -0.2756509 0.110379644 0.11796865 -0.14223236 -0.0039962814 0.23023461
0.12161747 -0.23503073 -0.18909486 -0.19724734 -0.21374992 -0.076361425 -0.1883315 -0.13390733
0.034741625 0.15864697 -0.080309145 -0.094018616 -0.2534973 -0.018775634 -0.28728843 -0.10883308
-0.10249041 0.13805676 0.19955581 -0.16626881 -0.09414022 0.020510726 0.021944614 0.093141705
-0.004481001 0.17301267 0.12596458 -0.04282494 0.13321182 -0.003485496 0.20605321 -0.34222934
-0.25889084 -0.27789855 -0.20943156 -0.046380583 0.19245093 -0.19397606 -0.18579233 0.019189285
0.16367553 -0.02941363 -0.18363944 -0.036979157 -0.04977475 0.05075243 -0.04141834 0.17562403
0.017883258 0.07776644 -0.23728357 0.124268256 -0.1552007 -0.0023640625 -0.15034105 0.064243
-0.054155227 0.02977024 -0.030390713 0.15220582 0.10130499 0.06991788 -0.005837945 0.106873
-0.060675114 -0.2440663 -0.1039431 -0.106628016 0.24043722 0.31172225 -0.39061645 -0.00742282

l2.weight f4 [300, 400]
00000000: 4773 2fbc 96e5 17bd fb72 e6bc a54e 0dbd
00000010: d2aa 5bbc 5b1a 6ebd ae25 95bc 5846 3dbd
00000020: acaa 033d 399f 4fbd 4df8 01bd 880b 39bd
00000030: a710 28bd e29f dbba 3f30 00bd fdf6 02bc
00000040: d56c 12bd 894d 47bd a652 1dbc 2187 c3bc
00000050: 9155 cbbc c533 123d 525b 623c 2a6b e63c
00000060: b5d5 963c 9f8c 27bd 1c40 083d 6dfb 81b8
00000070: c65d e73c 4908 c5bc c3c4 7e3a 449f febb
00000080: 437b ebbc 9a97 d6bc 7671 2e3d 9c91 70bc
00000090: 5c5b 78bd 54dc 79bc 47d4 bc3c a828 34bd
000000a0: 0a8c e03c 6cf9 19bc 7a4e d1bc 9bce 11bd
000000b0: e049 0fbc 2846 36bd 0970 d43c 5819 b8bc
000000c0: 09a5 c7bc eba1 e0bb e2d5 eb3c ec34 873c
000000d0: d6d2 97bd 89b9 4ebd d30d f13c 18fc 43bc
000000e0: 0c5e 093d b0aa abbb 5d4f 933b dcfe fcba
000000f0: 318f 44bd 66e1 99bd efdc 363c 6899 d73a
00000100: e76a 333c 9c72 8a3c 54e1 863c 03de 7f3c
00000110: a019 36bd 693e c9bc 2b06 7b3c 0e18 9dbd
00000120: 7671 2e3c 2747 21bd 4003 173a efac 25bd
00000130: f2a0 d9bb ec6a 7ebc e831 30bd b6ce 93bd
00000140: 155e 1f3c 9854 c43c 29fe da3b 732d 36bd
00000150: e292 d9bb 6910 d93b 4960 2f3d 2465 033d
00000160: 316a 46bd c87f 643b 1579 8e3c 2265 ea3c
00000170: 818b c8b9 70be b9bb 2262 e13c 63c0 e0bc
00000180: 864f 1dbb 9889 37bc d1b3 cdbc f01a 35bd
00000190: f7da 2bbb c3c7 f13c 9bc7 67bd 9084 3fbd
000001a0: 59f2 4abd f233 673b d096 3dbc cfd6 2abd
000001b0: f564 953b 50a8 b63b 02dc 5ebd 0a51 6e3c
000001c0: 486b c13b 68e2 7dbc c4fb f9bc 759e 1a3d
000001d0: e801 11bc fa0a ef3c 30ce 1dbb 3d7c 0bbd
000001e0: 8812 3cbd 9fda b33c 5d1f 82bc 3e86 1abd
000001f0: d59f 133c 2d9e 03bd 41d7 cbbc 7df1 9e3c
00000200: 98ee 3bbd 40ca 30bd 864f 9dbc 32f2 aa3c
00000210: 6dbf 0bbd dd09 103d 14cc 5dbc 60fc 48bd
00000220: b3dc e7bc d82c 59bc 3240 583a d72e eabc
00000230: 6044 f1ba 8b1b e0bc 5a49 9fbc e21b 58bc
00000240: 12e2 d7bc 50e5 b2bc abb1 edbc 8804 cf3c
00000250: 21c5 41bd 1845 b8bc 114a cfbc 26c8 98bd
00000260: cfd6 2abd 25e2 83bc f26d ee3a 0f77 a2bc
00000270: a97a 393d d960 dc3c 4290 dbbc c644 243d
00000280: 7d4b 22bd 60d4 45bc a83f a0bb d4e1 883b
00000290: 352d 973a fc26 fbbc 1f46 00bd 2f23 a4ba
000002a0: c1fb 47bc 517a 48bd 8959 de3a 0647 2d3c
000002b0: 2006 d3bc 8044 82bb 0901 41bc 7e7d 90bc
000002c0: 1424 ffbb dd5e 1f3b 0362 eabb f59e 83bd
000002d0: 05b3 1b3c 3dde 83bb 0965 41bd b971 c8bc
000002e0: 00b6 6f3a 83e8 3ebd e3ae 65bc 5caa 083d
000002f0: 86ea 983c a1c9 d33c 9eed bd3c 1a5c 623c
00000300: 14e6 803c 54c5 fabc fda6 07bc 9d1a 08bc
00000310: a7d2 a9bc e690 1cbd 1d1f 01bc 0f97 25bd
00000320: e85a bebc d6ed 9fbd 94eb fdbc 76b3 e53c
00000330: dc7a 79bd 18c0 c93c f99b 42bc 602c 4f3c
00000340: a6f6 233d 581a bcbc 02a3 dbbc f15d 47bd
00000350: a656 2d3d f51f 943b 1e68 92bd ba2c 803c
00000360: 036e 68bc 9f61 2abd 3b98 65bd 99de 46bd
00000370: 60e1 35bd f4df 75bc 9ddf febc e2b6 53bc
00000380: 5520 09bd 256c 9f3c e826 4f3c ea5f 52bd
00000390: 85d9 1f3c 9cbe 8e3c 380c abbb a24c aa3c
000003a0: ebd0 ed3c d045 e1bb 3af9 59bd 553e 1d3d
000003b0: addc 3a3d 6fad 27bc 5a05 e53c f475 0e3d
000003c0: 3bb7 7d3c e09d babd 41df 523c 1dbc 84bd
000003d0: 1528 8fbd a67b 2b3c 2553 06bd 79db c6bc
000003e0: a052 39bd 820e cc3c b4f8 f3bc 0f24 b43b
000003f0: d237 51bd aefc 86bd 8af0 3abd 4028 32bd
-0.010708637 -0.037084185 -0.028130999 -0.03449883 -0.013407426 -0.058130603 -0.018206444 -0.046209663
0.032145187 -0.050688956 -0.03173094 -0.045177013 -0.041031506 -0.0016756023 -0.03129601 -0.007993457
-0.03574832 -0.048657928 -0.009602224 -0.023868145 -0.024821075 0.035693903 0.013815718 0.028127272
0.01841245 -0.04090559 0.033264264 -6.198031e-05 0.028242957 -0.024051802 0.0009718651 -0.007770451
-0.0287453 -0.026195336 0.042588674 -0.0146831535 -0.060634002 -0.015250284 0.02305044 -0.043984085
0.027410526 -0.009397846 -0.025550116 -0.035597425 -0.0087456405 -0.0445005 0.025932329 -0.022473022
-0.024370687 -0.0068552396 0.02878851 0.016504727 -0.07413261 -0.05046991 0.029425537 -0.011961959
0.033536956 -0.0052388534 0.004495545 -0.0019302028 -0.04798812 -0.075136945 0.011161073 0.0016448917
0.0109507805 0.016900353 0.016464867 0.015616897 -0.04445803 -0.024565892 0.015321295 -0.07670604
0.010647168 -0.039374497 0.0005760677 -0.040448125 -0.0066415006 -0.015528422 -0.043016344 -0.07217161
0.009727021 0.023966119 0.0066831303 -0.044476938 -0.0066398242 0.0066242707 0.042816434 0.032078877
-0.048441116 0.0034866203 0.01739172 0.028612677 -0.0003825091 -0.005668454 0.027512614 -0.027435487
-0.0024003698 -0.0112022385 -0.025110157 -0.044215143 -0.0026223043 0.0295142 -0.056586843 -0.04675728
-0.049547527 0.0035278765 -0.011571601 -0.041708764 0.004559154 0.0055742636 -0.054409035 0.014545688
0.0059026815 -0.015495874 -0.030515559 0.037748773 -0.008850552 0.029180039 -0.0024079196 -0.03405403
-0.04591611 0.021954833 -0.015884096 -0.03772568 0.009010275 -0.03213327 -0.024882914 0.01940226
-0.045881838 -0.04316163 -0.019202959 0.02086744 -0.034118105 0.035165656 -0.013537426 -0.04906881
-0.02830348 -0.0132553205 0.0008249312 -0.028586788 -0.0018407218 -0.027356884 -0.019444156 -0.0131902415
-0.026352916 -0.02183786 -0.029015383 0.025270715 -0.047307137 -0.022493884 -0.025303872 -0.0746005
-0.041708764 -0.016099045 0.0018190725 -0.019832162 0.045282993 0.02690165 -0.026802186 0.04010465
-0.039622772 -0.01207456 -0.004890401 0.0041773114 0.0011533858 -0.030658238 -0.031316873 -0.0012522693
-0.012206019 -0.048944775 0.0016963939 0.010576015 -0.025759757 -0.003975451 -0.011780032 -0.017637964
-0.0077862833 0.0024318018 -0.007152797 -0.06426803 0.009503131 -0.0040242956 -0.047215495 -0.02446829
0.00091442466 -0.04660846 -0.014018747 0.033365592 0.018666517 0.02585298 0.023184594 0.013815904
0.01573471 -0.030611672 -0.008279559 -0.008307126 -0.02073033 -0.038224123 -0.007880953 -0.040427264
-0.023236707 -0.078090355 -0.030996121 0.028039675 -0.060908183 0.02462773 -0.011878007 0.012644857
0.040030144 -0.02296178 -0.026811127 -0.048673574 0.042318963 0.004520411 -0.07148765 0.015646327
-0.014186385 -0.041597005 -0.05605338 -0.04855213 -0.044404387 -0.015007008 -0.031112486 -0.012922021
-0.0334781 0.019460747 0.012643553 -0.051361002 0.009756451 0.017424874 -0.0052199624 0.020788494
0.029030284 -0.0068747774 -0.053216197 0.038389523 0.04562061 -0.010234221 0.027956653 0.034780458
0.01548558 -0.091121435 0.012870611 -0.06481192 -0.06990067 0.010466492 -0.032794137 -0.024274575
-0.045244813 0.024909262 -0.029781677 0.0054974626 -0.051078625 -0.065911636 -0.045639552 -0.043495417

l2.bias f4 [300]
00000000: ed0f 89bd 80be 903d 2a2f 17be 9ee6 98bd
00000010: 9b28 753b 9729 2ebd fe4b 92bd 9124 303b
00000020: 7378 66bc 560f 90bd a772 a0bd 5f3a a4bc
00000030: c348 05be 4e9e 90bc 847d 89bd a55f 86bd
00000040: 8004 39bb 6bc9 3bbe 721f 413c 6025 b3bd
00000050: cbbf adbc 0c55 9ebd c6e9 e2bd 2563 9e3d
00000060: bd63 8dbd d379 f83c b2b7 e7bd f10f 2b3e
00000070: 1fec 2ebb 047e 76bd c626 90bd c519 0ebc
00000080: 436d 65bd 2979 33bd 8dc4 75bd 67a7 abbd
00000090: 1358 eebc 95f4 88bc 5cce a1bd 30f6 0fbc
000000a0: 00ed 3eba 3b10 2abe 5f99 c9bd 2a15 ad3d
000000b0: b7e0 a9bb 068b 723c 3ec0 033d 8636 1dbd
000000c0: 0dc9 073d 30a5 38bd 8ad0 20bc 76e7 ea3b
000000d0: 71e7 c7bc cc79 fbbc 8b66 da3d 5d8a 85bd
000000e0: bfb5 a9bd 177e a2bc 4b4f e7bc 7428 6bbd
000000f0: be36 03bd a5b9 953c 2930 c2bb 56de 13be
00000100: 93a6 e3bc c7ce a6bd 9fcf a0bd 8604 cfbc
00000110: d7e7 393c 88d3 39bd a6a0 90bd cab7 aebd
00000120: e580 10bd 92d1 e03b 0c16 b2bd 9b33 3ebe
00000130: 68b2 3ebb eb7a 41bb 01fb c4bd dcec bdbd
00000140: de0b 18bd ab13 abbc e66d 013e 92fb d9bc
00000150: 9a5e 723d 4c22 fbbc d224 cebd 82ad 53bd
00000160: ef1b a0bd d0df 35bd b5d0 82bd e8d0 b03d
00000170: 466d 3dbe 5f97 20bd be05 5bbd bff5 2fbd
00000180: 8a9b 97bd 6821 39bd 0564 d3bd 1600 9ebd
00000190: b62f 213c 0814 03bd b351 61bc 6872 40bd
000001a0: 4706 a4ba 4c74 7ebd feb0 96bc 7db6 933c
000001b0: 94f5 f3bc 2e2d 9abd 2409 f1bd 8555 03bd
000001c0: 665d 96bd 9647 10bd 08f9 39be b13a e93d
000001d0: a906 4bbd 7184 44bd 1b65 6dbd 4282 e5bd
000001e0: 098f bebd 27c3 94bd e3d2 fa3c e85d 223e
000001f0: 47e0 65bb e6a0 11bd eebd 9ebd b40b 86bd
00000200: b7d8 b33d 7530 11be 2ff8 a6bd 0cf7 7cbd
00000210: bb5b edbb efa0 27bd 56c7 efbd d7c8 21bd
00000220: 582d bdbc 51ef 41bd c2e0 833d 9ec8 9dbd
00000230: 85ae 09bd 7f79 323c c890 413a 13f7 113d
00000240: fde1 923c cca5 febc 6bb1 cf3d ebbe 883d
00000250: 7e34 18bd fa9f 52bd 410b 9a3d be39 14bd
00000260: 65f0 8abd 1ab6 53bd d636 2ebd 615b 43bd
00000270: c079 b3bd 1f8f 793c dbe4 acbd 6ffc b53d
00000280: ace4 0a38 053c bcbd 9fef a3bd 45f3 89bd
00000290: 21bb cbbd def7 6d3d 59bf 8fbd 1a39 d3bb
000002a0: 77dd a23c df8c 28bd c8a8 e03d 3987 fa3d
000002b0: 07c2 9fbd 08fa bdbc 7060 873d d4fe ffba
000002c0: db13 edbc 9550 94bc 4dbc 8bbd b99d 49bd
000002d0: 2e9d 98bd caf4 bfbd b3cb 44be 4218 b1bd
000002e0: a262 00bd 0f83 20bd 75ab 82bd 8664 01be
000002f0: 036c 60bd 63c7 63bd 6fa1 29bd 8797 2abd
00000300: 6499 f3bd adcb 8abd 8731 a2bd be25 e13c
00000310: 275b 26bd 9f3c acbc b0ab 91bd 065b 99bd
00000320: 3953 f53c ddb8 103a e4c1 7fbc 5051 3abd
00000330: 730f 6bbc b152 4cbd 352f 37bc 9d2e 8dbd
00000340: 3fee 2abd 8142 913d 9609 12bd 1249 c5bd
00000350: 3267 ff3d 5279 5dbd 3a5b 6b3b c1da c63d
00000360: 2eff 10be 2d9f 07bd 6be0 fd3c 6671 1bbd
00000370: 6c87 f3bc 4bb5 943b 784d b4bd 39bd 53bd
00000380: bce6 f3bc 65b7 87bd d48c b13d 197c ccbd
00000390: 453b 813d 23e1 92bd da5e d4bd de2a 97bd
000003a0: d6e3 10bd f553 83bd 3ea3 2a3c 8550 353e
000003b0: 9d87 093e a1c0 c8bc 8053 a63d 32e6 ebbc
000003c0: 85e5 84bd be15 9abc 8e75 15be 6682 94bd
000003d0: a8c4 3cbd 18a8 b4bd 4518 66be 0af9 d2bd
000003e0: b1fb 4dbd ddc1 02bd 709d 32bb 8ebb 38bc
000003f0: 7446 7fbd 9285 dcbd 2351 65bd 1e4b 9bbd
-0.06692491 0.07067585 -0.14764085 -0.07465862 0.0037408236 -0.042520132 -0.071434006 0.0026877264
-0.014066803 -0.07034175 -0.07834368 -0.020047365 -0.13016038 -0.01765361 -0.06713393 -0.065612115
-0.0028231442 -0.18338554 0.011787282 -0.08747363 -0.021209618 -0.07731065 -0.11079745 0.07733754
-0.06903789 0.030331528 -0.11314334 0.167053 -0.0026691032 -0.06017877 -0.070386454 -0.008673136
-0.056012403 -0.04381672 -0.0600019 -0.08381539 -0.029094731 -0.016718188 -0.07900688 -0.008786723
-0.00072832406 -0.16607754 -0.09843706 0.08451302 -0.005184259 0.014803654 0.03216576 -0.038382076
0.03315072 -0.04507941 -0.009815345 0.0071687056 -0.024402352 -0.030697726 0.1066409 -0.06520531
-0.082866184 -0.019835515 -0.028236052 -0.057411626 -0.032034628 0.018276999 -0.0059261513 -0.14440283
-0.02778939 -0.081449084 -0.078521006 -0.025270712 0.011346779 -0.045367748 -0.07061891 -0.08531149
-0.035279173 0.00686092 -0.08695611 -0.18574373 -0.0029098038 -0.0029522728 -0.09618188 -0.09273693
-0.037120692 -0.020883402 0.12639579 -0.026609216 0.05917225 -0.030656002 -0.10065617 -0.05167914
-0.07817828 -0.044402897 -0.06387464 0.08633596 -0.18498716 -0.03920686 -0.053472273 -0.04295897
-0.074027136 -0.045197874 -0.103218116 -0.0771486 0.009838035 -0.032001525 -0.013752389 -0.046984106
-0.0012514078 -0.062122628 -0.018394943 0.018031353 -0.029780187 -0.075281486 -0.117693216 -0.03206398
-0.07342033 -0.03522452 -0.18161404 0.113881476 -0.0495669 -0.04797787 -0.05795775 -0.11206485
-0.093046255 -0.07263785 0.030618137 0.15856135 -0.0035076307 -0.035553835 -0.0775107 -0.06545201
0.087815695 -0.14178641 -0.08152806 -0.06175904 -0.007243601 -0.040924963 -0.11707942 -0.039498176
-0.02309291 -0.04734737 0.064393535 -0.0770428 -0.0336137 0.010893225 0.000738394 0.03563602
0.017930025 -0.031084917 0.10141262 0.0667704 -0.037159435 -0.051422097 0.07521678 -0.03618788
-0.06784133 -0.051687337 -0.042532764 -0.047694568 -0.08763456 0.015231877 -0.08442088 0.088860385
3.311473e-05 -0.09191135 -0.080046885 -0.06735853 -0.099478014 0.058097713 -0.070189185 -0.006446016
0.019880993 -0.04114997 0.109696925 0.12232823 -0.0780068 -0.023190513 0.06610191 -0.0019530901
-0.028940132 -0.01810483 -0.06823025 -0.04922268 -0.07451855 -0.09372862 -0.1921833 -0.08647205
-0.031344064 -0.039187487 -0.06380359 -0.12636003 -0.054790508 -0.055610072 -0.04141372 -0.041648414
-0.11894491 -0.06777129 -0.07919603 0.027483817 -0.040614273 -0.021025 -0.07112825 -0.074880645
0.02994691 0.0005520711 -0.015610192 -0.045487702 -0.014346945 -0.04988355 -0.011180689 -0.068936564
-0.041731115 0.07092763 -0.035653673 -0.09633078 0.12470855 -0.05407078 0.003591253 0.09709693
-0.14159843 -0.033110786 0.0309908 -0.037949942 -0.02972766 0.0045382134 -0.088038385 -0.05169413
-0.029773109 -0.066267766 0.08669439 -0.09984607 0.06310133 -0.07171848 -0.10369654 -0.07381223
-0.03537353 -0.06412498 0.0104148965 0.17706497 0.13430639 -0.024505915 0.08121395 -0.02879629
-0.0648909 -0.018809196 -0.14595625 -0.07251434 -0.046085984 -0.08821124 -0.22470196 -0.10301407
-0.05028886 -0.031923164 -0.0027254485 -0.011275185 -0.06232305 -0.10767664 -0.05598558 -0.07582687

l3.weight f4 [4, 300]
00000000: 75f8 8bbd 7728 503b dff5 33bd 0e74 2fbc
00000010: 3a31 d93c c4de 023c 7549 0b3d 159e e8bd
00000020: d6a6 163b 08f3 ba3c 81f0 cc3c 4c7d 843e
00000030: e3df 273e 1489 83bb 2e5a 98bb c3c9 603c
00000040: 6084 383d c63b cdbd 5952 1abe b673 1e3b
00000050: 3270 223e 9ccc 5abe 69e0 ad3d 4e32 8bbe
00000060: 41d6 47bb 81c4 4b3b df64 b1bd 1b51 b7be
00000070: 059b 063d 17ef bd3c 288a 4c3c fb45 e1bc
00000080: aa97 e9bc 3051 193e c326 be3e 255c 11bd
00000090: cd9f 163a ba33 e33c 4b8f 363d be50 8f3b
000000a0: d1f7 4a3c c886 783d e312 813e 76a5 bd3d
000000b0: 69a5 d5bc b3a8 abbe af4e 49bd c09f cebc
000000c0: 7c87 403d b001 cd3c 88d6 c1bc 9e87 363d
000000d0: 919e c33c 4a38 efbb ef79 8e3a c7a3 a93c
000000e0: 73e8 e43c 7194 c0bb dee5 ae3b 4cb0 0d3d
000000f0: e2e1 87bd cb18 3e3e 1edb 1cbb c2f9 d8bc
00000100: 77be b63c aed1 22bd d2be 60bd c496 90bd
00000110: 30ca 4f3c 49fb 42bc c933 ddbb 97f7 7c3c
00000120: f708 0fbf e16a cfbc 923a cf3c 7282 703e
00000130: 9b69 ff3c 3d17 673e 3c37 f13b e54c 86bb
00000140: 9e85 24bd 0a3f 9cbc 7a56 b73e f54b 153c
00000150: 9df8 f2be e3be 733c 2550 b7be 2871 4c3c
00000160: 8cc1 07bc 3d38 8e3c 0d4a 843c 5f88 26be
00000170: 2faa ce3d 3308 673c ed7e e1bb 994e 45bc
00000180: 863a 19be 0c31 84bc d594 86be 060d a6bb
00000190: ee62 10bb dc82 2f3e 1557 1cb9 c459 753d
000001a0: 7827 b23c c68b 94bd a228 d9bb d553 8fbc
000001b0: ee7c 14bc b812 c3b9 2d67 883d 0e1a a53c
000001c0: 6b6c eb3b 465b 333c d11f 553d 1a73 19be
000001d0: 4d6c 903c a830 d73d b30d fd3b e82d 5e3f
000001e0: 09b0 473e 7f2d 43bf 7972 da3e f3c0 d93d
000001f0: bc0f 463e b56f 0e3c 4eac 963c 8c86 013d
00000200: e337 493e 4d7d 693d 8f58 be3c cabb d73b
00000210: 47cd 20bb d886 c5bb 565b e43e 2a87 d93c
00000220: 1f54 26bc 8276 583c 38b9 f73c 0c11 013d
00000230: afcf 33bd 31e3 cf3b ebf9 e239 ca64 29bd
00000240: 5e23 abbb 37ed 13bd 5188 eebb 426c 913e
00000250: f605 103d 4edd 6f3c d841 123e b8e5 bd3c
00000260: ab59 6bbd 77fc b43c d831 833e 7e01 ad3c
00000270: 4489 0abc 7a3a d13b 8f9b d5be cdbf ffbe
00000280: 15ce 04bd d530 2a3d 7054 babc 2dbd 9b3c
00000290: 1c35 8e3c fbc8 03be 864d 2b3e e9fe dd3d
000002a0: 6a9d 843d ac17 8fbd dee6 923d 8f52 08be
000002b0: 1178 7abf 7520 16bb bab4 76be e037 32bd
000002c0: 8fe0 b83a f38b 433e 5cdc 88bd 745a 04bc
000002d0: cd89 893c de20 63bc 8df2 24bd 215e 053e
000002e0: e8d2 ff3e 3611 a43c 447d 46bf 9bbe 5fbe
000002f0: 6013 b6bc be52 94bd ebcb 723b cda9 8c3a
00000300: d86f cdbc be83 103d f93f 49bd 9179 18be
00000310: 9de6 183d ccac 7f3d 90fa fb3d 5dd0 0a3d
00000320: 5e71 013f 37e6 bf3c 38ab cdbc 6cd5 7fbb
00000330: 3866 b33c 215c c6bb 30fc ba3c b359 683d
00000340: 47ff 393d d058 31bd 95f9 83bc b633 553e
00000350: 6c51 e7bc 27fe a83c 529c ec3c d66e 723c
00000360: 3e3d a2bc 8858 413d b20e 09bf 4f4c a6bc
00000370: 34c1 8fbb 5a7b e2bd a9eb db3c 3668 113d
00000380: 515d d13c dae1 533d 1936 2b3a b59f 863d
00000390: 408b 9dbe 6fbd 5b3e 3df1 043d b5e9 1b3c
000003a0: e3c0 fbba 900a b2ba 2045 cebc e297 903e
000003b0: edb5 65bc c685 153d a4e5 67be 2b6b 663d
000003c0: 0db9 173d 5dec 163c c6da 99be c9b7 473c
000003d0: e604 92bc b572 81bd ebde ef3d 21f1 db3c
000003e0: cc3d 05bd 78fd 383c 69b7 d2bb 0bb5 c7ba
000003f0: bf58 2c3c bc95 0dbd 0dac 153b 424c 5eba
-0.06834499 0.00317624 -0.043935653 -0.010708822 0.02651273 0.007987682 0.0340056 -0.11358277
0.0022987626 0.022820964 0.025017025 0.25876844 0.16394 -0.0040141437 -0.004649422 0.013719979
0.045048118 -0.100211665 -0.15070476 0.0024177856 0.15863112 -0.21367115 0.084900685 -0.27186817
-0.0030492696 0.0031092467 -0.08661818 -0.35804066 0.032862682 0.023185296 0.012484111 -0.02749919
-0.028514702 0.14972377 0.37138948 -0.035488266 0.0005745858 0.027734626 0.04457025 0.004373639
0.012388186 0.060675412 0.25209722 0.09260075 -0.02607985 -0.33527145 -0.049147304 -0.02522266
0.047004208 0.025025219 -0.023661867 0.04456293 0.023879321 -0.0073004114 0.0010870079 0.020707978
0.027942872 -0.0058770706 0.005337461 0.034591958 -0.066348806 0.18564145 -0.0023934315 -0.026486281
0.022307618 -0.039750747 -0.05486948 -0.07060006 0.012682483 -0.011900731 -0.006750558 0.015439889
-0.55873054 -0.025319519 0.025296483 0.23487261 0.031178286 0.22567458 0.007361321 -0.004098522
-0.04016649 -0.019073028 0.35808164 0.009112348 -0.47455302 0.014877054 -0.35803333 0.01247815
-0.008285891 0.0173608 0.016148591 -0.16262959 0.10091054 0.014101076 -0.006881586 -0.012042665
-0.14963731 -0.016136669 -0.26285425 -0.0050674705 -0.0022031623 0.17139763 -0.0001490976 0.05990006
0.021747336 -0.07253222 -0.0066271583 -0.017496029 -0.009062989 -0.00037207245 0.06660304 0.020154025
0.0071845553 0.010947054 0.052032296 -0.14985314 0.017629767 0.10507327 0.0077225803 0.867888
0.19500746 -0.76241297 0.4266546 0.10632505 0.1934194 0.008693625 0.018392708 0.031622455
0.19650225 0.05700426 0.023235587 0.0065836655 -0.0024536417 -0.0060280375 0.44600934 0.026553709
-0.010151892 0.013211848 0.030239686 0.031510398 -0.043899234 0.006344222 0.00043292282 -0.041355886
-0.005222722 -0.036114898 -0.007279434 0.28402907 0.035161935 0.0146401655 0.1428293 0.023180827
-0.05745856 0.02209304 0.25623965 0.021118876 -0.008455578 0.006385145 -0.41720244 -0.4995102
-0.032423098 0.041550476 -0.022745341 0.019011104 0.017359309 -0.12869637 0.16728792 0.10839636
0.06475337 -0.06986937 0.07172941 -0.13312744 -0.97839457 -0.002290753 -0.24092379 -0.043510318
0.001410501 0.19096355 -0.06682655 -0.008078206 0.016789341 -0.013862817 -0.040270377 0.13024189
0.49965596 0.020027738 -0.7753489 -0.21850054 -0.022226036 -0.07242344 0.0037047814 0.0010731757
-0.025077745 0.03528189 -0.049133275 -0.14890124 0.037329305 0.06242065 0.123036504 0.033890117
0.5056361 0.023425205 -0.025106058 -0.0039037121 0.021899328 -0.006053463 0.02282533 0.05672617
0.045409467 -0.04329759 -0.01611022 0.20820507 -0.028237067 0.020629002 0.028883133 0.014796933
-0.019804593 0.04720357 -0.5353805 -0.020300059 -0.0043870453 -0.11058684 0.02684577 0.035499774
0.025557192 0.05172906 0.00065311935 0.065734304 -0.30770302 0.21458982 0.032456625 0.009516169
-0.0019207265 -0.001358347 -0.025179446 0.28240877 -0.014020425 0.03650453 -0.22646195 0.056254547
0.037041713 0.009211627 -0.30049723 0.012189814 -0.017824601 -0.06320707 0.1171244 0.026848378
-0.032529637 0.0112909 -0.0064305556 -0.001523645 0.010519206 -0.034566626 0.0022838146 -0.0008479991

l3.bias f4 [4]
00000000: 91c8 2bbd d2f3 92bc a337 b5bc 72da 13be
-0.041939322 -0.017938528 -0.022121256 -0.14438799
