TD3/preTrained/TD3_BipedalWalker-v3_0_crtic_2_ep300.pth (torch_old, 529772 bytes, 5 tensors)

l1.weight f4 [400, 28]
00000000: 71a2 80be 4b47 c8bc 8c0c dabd 8e56 183d
00000010: 28f3 32be c7f6 6f3d cd81 8a3e 9c50 783b
00000020: 7c37 4abe 93f6 573e 0e0e c93c b7fd ae3e
00000030: 7964 333d 748d 59be 8af6 0cbe ef7f a8be
00000040: 5ea0 c2be 19c3 b4be 4ae2 16be 8b0d aabd
00000050: eeb8 b3be 14f3 29be 5ff8 bfbe d71a a2be
00000060: fda8 1f3e 30ca cabc 00d4 e33d bc62 a93d
00000070: e246 90be 26ae dabf 1a91 59bf e14d d83f
00000080: 6783 7f3f 4cca fc3d 24a7 7bbc 023b 4cbe
00000090: 2c3f 59be e48f c63e 9d4b 6c3c 7839 5dbe
000000a0: b357 84bd 1315 27be 3627 2f3e 0f95 c73d
000000b0: c0a3 46bd 4908 22bd 2ad5 093a 9a02 463e
000000c0: 0e07 af3d 4815 e33c 7389 4cbe 09e9 f23d
000000d0: 249c 193e d4aa 1dbe 9b23 b53d f796 58bd
000000e0: bf1d 983e 9717 193e cd9b a0bf 7711 0bc0
000000f0: 4383 d5be 7fb7 e13e e38a bdbe 9372 813d
00000100: bcff 1a3d b5ef 703e 230d 3cbf 2e2e 203e
00000110: 1983 813e 5e77 84bd cb77 debe 11cd 11bf
00000120: 61fc 95be 1167 80be 9331 80be d8a3 54be
00000130: 4426 adbe c852 cebe ddf2 31be f887 1cbe
00000140: 4d21 453e ca71 df3d 963b b33c 9cdb 8d3e
00000150: 0af5 ed3c 2425 753e a968 263f 47bf 3cbe
00000160: 473a 373e dd59 85be 0099 a13e 2e4c 113e
00000170: 9497 b1be d963 903e 8529 77bd 17db 8e3c
00000180: 8bf4 213e 44f3 21be a7d1 c6be b62b c7be
00000190: 88ba 90be 8095 0abf 61f3 bdbe 251d a9be
000001a0: b0a0 22bf cf2e 1ebf 5a67 02bf 31a1 a1be
000001b0: aa9c a13e 7308 363e 1e1c 923e c3bb 68be
000001c0: f6a0 e6bd 0a89 443e 777f 2c3f 9ea5 2cbe
000001d0: 21fc d4bd ca15 d6be 5454 653e cca9 213d
000001e0: 2ad5 90be c67c 7ebd 60ab 153e 31f7 98b7
000001f0: bc76 133e aabe 14be ea54 38bf 2f66 09bf
00000200: ad26 40bf e0d5 f5be 06fb dfbe a36e 2cbf
00000210: 0600 d7be af91 f5be 8055 3bbf d3f3 15bf
00000220: 106d e93e ea88 6c3e 3ad0 0b3e e868 97bd
00000230: f9ff debd 339e 2f3f 9b8b dd3c 442f 9ebf
00000240: 6964 c1be 3853 ccbd 5018 96be d4b8 5dbd
00000250: a036 dcbe 0ea1 033f 9ae9 683f de3a 13bf
00000260: 68ae d03e cfa5 adbe 344e 24be c89e debd
00000270: 94a9 9abe 343b 3cbe 4edd aebe 2ab3 42be
00000280: 830d 3fbe 664a 77be 13a7 45be 9e09 12be
00000290: e81f 5c3e b8fc 94bd f3a8 913e 44fe 593e
000002a0: 9589 573e 396c 74bf 4073 a1bf aaab 39be
000002b0: 1214 4d3f 5530 1bbf c08e 8d3e d07b 68be
000002c0: 07f8 5abf 2791 bebe 1a9e 2c3f ebd8 d9be
000002d0: 5c64 853e e02e 17bf 4530 d8be 9558 e9bd
000002e0: 6a4f f3bd 4775 eabe 1903 a8be 8780 e2be
000002f0: 08a9 3bbe 12af 7fbe b4ec a6be 5a5a 6dbe
00000300: 3951 d8bc 1774 903e cf85 be3e de18 98bd
00000310: 213f 5f3d 3126 8b3d 1555 5c3b 46ec 9fbd
00000320: 839b 773b 77d2 8cbd ba7d d23d 06cd 9e3d
00000330: 3bc2 833d 39f3 d73d fd51 2abd 3cec 7b3d
00000340: 733d fb3d 8bff a33d ade3 a8be bb58 c7bd
00000350: efaf 1dbe 1bfb 40be f423 e5bd 9ae2 c6be
00000360: 43b2 2abd 67f3 60be 2d29 37be f434 b9be
00000370: e10a ae3d 8efe aebd 243a 013e a6ad 3ebd
00000380: 4a78 32be 879a 203e 7159 32bd d1b9 babd
00000390: b0fa 6cbd b939 d5bd 1084 6b3e 2045 143e
000003a0: a13d cebd b406 afbd b735 fa3c 4522 5f3e
000003b0: 51f3 4ebc a87e 8b3c dca7 a8be 9728 84be
000003c0: df59 86be 0710 e7be c104 67be 6400 c4be
000003d0: 3bf4 26be 746b cdbe 1795 87be 238f 16be
000003e0: a589 c4bd e2fd ddbc 98cc aa3d 6f45 aa3d
000003f0: 129e e2be accf 2dc0 3b44 c83f 7b3d ebbf
-0.25123933 -0.024448058 -0.106469244 0.03719192 -0.17475569 0.058584955 0.27052155 0.0037889844
-0.19747728 0.21090154 0.024542835 0.34177944 0.04379699 -0.21245366 -0.13765922 -0.32910106
-0.38012975 -0.35305098 -0.1473476 -0.08303364 -0.35102028 -0.16596633 -0.3749418 -0.31661102
0.15591808 -0.024754614 0.1112442 0.08270785 -0.2817908 -1.7084396 -0.8498703 1.6898767
0.9980988 0.123432726 -0.015359674 -0.19944385 -0.21215504 0.38781655 0.0144223245 -0.21603954
-0.0646204 -0.16316633 0.17104802 0.097452275 -0.048496008 -0.039558683 0.0005257899 0.1933693
0.085462674 0.027720109 -0.19974308 0.11860854 0.15000969 -0.15397197 0.08844682 -0.052878346
0.29710194 0.14950405 -1.2547547 -2.172941 -0.41701707 0.4408531 -0.37020025 0.063206814
0.037841544 0.23528941 -0.73457545 0.15642616 0.25295332 -0.0646808 -0.4345077 -0.5695353
-0.29294112 -0.25078633 -0.25037822 -0.20765626 -0.33818257 -0.40297532 -0.17377801 -0.15286243
0.19250984 0.109103754 0.021878999 0.2770661 0.029047508 0.2393995 0.6500345 -0.18432342
0.17893325 -0.26045123 0.31562042 0.14189216 -0.34685957 0.28201178 -0.06034233 0.017438455
0.15815942 -0.15815455 -0.38831827 -0.38900536 -0.28267312 -0.5413437 -0.37099746 -0.33030048
-0.6352644 -0.61790174 -0.5093895 -0.31568292 0.31564838 0.1777666 0.28537077 -0.22727875
-0.112611696 0.19192901 0.67381996 -0.16860053 -0.10399652 -0.418135 0.2239545 0.03946857
-0.2828763 -0.062130712 0.14616156 -1.823492e-05 0.14400762 -0.14525858 -0.7200457 -0.53671545
-0.75059015 -0.48014736 -0.43746203 -0.6735632 -0.41992205 -0.4796271 -0.7317734 -0.5857517
0.4559102 0.23099104 0.13653651 -0.07393056 -0.10888667 0.6860077 0.027044108 -1.2358174
-0.3777192 -0.0997681 -0.29315424 -0.054131344 -0.43010426 0.51417625 0.9098145 -0.575117
0.4075806 -0.33915564 -0.16045457 -0.10870129 -0.30207503 -0.18381959 -0.34153217 -0.19013658
-0.18657498 -0.24149475 -0.19302015 -0.14261481 0.21496546 -0.07274765 0.2844921 0.21288401
0.21048577 -0.95477635 -1.2613297 -0.18131891 0.8010875 -0.60620624 0.27647972 -0.2270348
-0.8553471 -0.37220117 0.67428744 -0.42548308 0.2605313 -0.590559 -0.42224327 -0.11393849
-0.118803814 -0.457926 -0.32814863 -0.44238684 -0.18326199 -0.24969128 -0.32602465 -0.23178998
-0.026405917 0.2821357 0.37211463 -0.07426618 0.054503564 0.06794394 0.0033620049 -0.078087375
0.0037781901 -0.068760805 0.10277887 0.07753949 0.06433531 0.10544438 -0.041582096 0.061504588
0.1226758 0.08007725 -0.32986203 -0.09733721 -0.15399145 -0.18845789 -0.11188498 -0.38844758
-0.04167391 -0.2196785 -0.17886801 -0.36173213 0.08498169 -0.08544646 0.12619835 -0.046552323
-0.17428699 0.15683948 -0.04354233 -0.09117473 -0.05785626 -0.104114 0.22999597 0.14479494
-0.100703485 -0.085462004 0.030543191 0.21790417 -0.012631253 0.017028168 -0.32940567 -0.25812218
-0.2624044 -0.45129415 -0.22560407 -0.38281548 -0.16304104 -0.40121043 -0.26480934 -0.1470304
-0.09596566 -0.0270986 0.083398044 0.08314025 -0.44261223 -2.7158003 1.5645822 -1.8378137

l1.bias f4 [400]
00000000: d862 25bd 342d 3fbe baf9 dd3e be90 53be
00000010: d444 9cbd b4a0 c03d ddf9 d2be 6f59 4ebc
00000020: a9b6 3fbe 415a 0ebe 9c95 803e d1c9 a9be
00000030: 1c5b e7bc 55a4 c1bd 048b 22be 6f19 81bd
00000040: 7293 643d 8137 11be dd2f 3bbe 66b1 22bd
00000050: 74f8 683e 96bc 18bf f021 de3d 4587 dfbe
00000060: e0a7 d73e d753 cbbc e4a8 13be 5af8 9bbe
00000070: fab5 89be 6d2d 19be 3481 c2be e04d a6be
00000080: cbf9 1d3e 146c 9ebe fe78 f4be 579e adbe
00000090: 74f7 8ebe 0285 5dbe 324b 043e 6e72 2c3e
000000a0: a625 b0bd 5b3b 043f b553 9fbe 21f7 0bbf
000000b0: 5615 6fbe fb7a 13be f09a 0dbe b0a2 febd
000000c0: 1f9b d6bc b856 d13d e37f b7be af03 923e
000000d0: 2611 96be 645a abbe 1bbf 91bd ef3b 47be
000000e0: 2805 02bd f8c1 073e 8bc6 d23e 30c4 9b3e
000000f0: f261 6b3e 59a2 9ebd bd16 59be 8035 56be
00000100: 9277 c0bc 68b9 98be 9a53 eabd d055 933e
00000110: 822e 99bd ab70 b2be a3d6 95be 02e9 a23e
00000120: f255 363f 3e95 d9be 07c9 1abe 2914 e1be
00000130: 3250 5b3e 16d0 fe3e c0d2 013e 5152 8dbe
00000140: 99fc c1be 133d 063f d91b b9be 6102 cabe
00000150: d086 04bf c5cc 0f3e 2962 b7be 8707 09be
00000160: 4ae5 533d 524a 683e a028 edbe 4522 b7be
00000170: e631 29bc 789b e03e 0de7 06be 10e2 09bd
00000180: e1f2 93be 0642 bdbd 7302 90be 36bb c13e
00000190: 186d 5dbe 5d56 82bd 9c57 923e 748c 8cbe
000001a0: 4281 b63c eda8 9abe 93b4 1fbe b749 65be
000001b0: 00f3 f3bd a2bf 01bf 04ad 343f 1bbe a4be
000001c0: 7173 603e 4917 34bd f4e5 84be 2c32 733e
000001d0: 8a22 bc3e ccb7 afbe 08d3 593d 2b6d e6bd
000001e0: 5561 65bd d930 48be 1e77 9a3b 372f 67be
000001f0: 02a0 603e 598b 68bd 1c87 553f 6ece b4be
00000200: 38ca 13be 155d 61be 7cd5 27be ae12 3fbe
00000210: ebfb 40be 6624 103d 7d7d 553d 4248 6bbe
00000220: 45bf f4be c884 96bd 7518 eebe a178 a9be
00000230: 8b9f 913d e674 9dbe 8d09 673c f4b9 e5bd
00000240: 6b78 ac3e 8575 fabd 19c2 82be 040e cf3e
00000250: 15a2 3c3f dda5 a83d 2f1b 2e3e 0f7d a3be
00000260: 8024 d5be a7e9 3abe 3991 03be ae3d 56be
00000270: 3334 9cbd 8d72 65be 4dcd bfbd 5e68 b4bd
00000280: d616 073e 10d6 b23e 2bcb adbe 9313 9dbe
00000290: 7547 0ebf c768 25be 51f6 8c3e 81e3 2abe
000002a0: 54f2 aebe 2ee7 c5bd 5847 97bd 1824 f43d
000002b0: c83e 0abf 796b 08be 99f9 1f3c 7953 2cbd
000002c0: cc05 9e3d 61e2 aebe 085e b0be fbe1 1cbf
000002d0: bf81 9bbe 4907 f43d 5d30 43be 7c05 45be
000002e0: 7d1e efbe 3207 a1be 9709 26be 5f1e 9dbe
000002f0: 0215 82be a0d7 ffbd b565 0ebf bdce 3fbe
00000300: 1fb3 7abe c60b c1be 3414 8fbe 6b55 c43e
00000310: 3b54 ab3e a458 dc3e 3cdb 9abe 694e 28bf
00000320: d68a e3be 08b6 20bf 7130 a53e c68c bcbd
00000330: a433 0ebf ccd7 05be 76af bdbd 35f9 0abd
00000340: f480 13bf 2b87 9c3d 12ab 9abe 7d7f d2bd
00000350: f99b 59be 5c4c f7be 73fb b9be cbf5 68bd
00000360: a08e 03bf b5ee c4be a195 043d ee55 923e
00000370: 3769 85be 568f 84be 8461 fcbd 1575 7ebe
00000380: 6227 81be dedb b6be a122 a23d 9e37 3abd
00000390: 52f1 32bc 2efb 053f fe37 45be 6393 26bf
000003a0: 8837 39be 593d 8bbe c6a7 c03e 5cb4 f4bd
000003b0: 56c5 bc3d 340a c83e 7de6 623d da5d 2a3f
000003c0: d061 453f d17c 51be d85d 43be 70f3 763d
000003d0: 1b8a a5be 1427 883e 4e1a 57be 53da 0cbf
000003e0: 881b 043f ac2d adbd d1b6 493e ddf6 a0bc
000003f0: e773 353f d8bc a6bd 7251 26be ac28 cebe
-0.040377468 -0.18669587 0.4335459 -0.20660684 -0.076303154 0.09405652 -0.41206256 -0.012594565
-0.18722023 -0.13901617 0.25114143 -0.33161786 -0.028241687 -0.09455172 -0.15873343 -0.06303679
0.055804677 -0.1418133 -0.18279977 -0.03971996 0.22751027 -0.5966276 0.10846317 -0.4365789
0.42120266 -0.024820251 -0.14419895 -0.30462915 -0.2689665 -0.14958735 -0.379892 -0.3248129
0.1542732 -0.30941832 -0.4774856 -0.33909866 -0.27923167 -0.2163277 0.1291931 0.16840526
-0.08600931 0.5165307 -0.3111855 -0.54673964 -0.23347983 -0.14402382 -0.13828635 -0.12433374
-0.026197014 0.102216184 -0.35839757 0.28518435 -0.29309958 -0.334674 -0.071165286 -0.19456457
-0.0317432 0.13257587 0.411671 0.30423117 0.22986582 -0.07745809 -0.2120008 -0.20918846
-0.023494516 -0.29828954 -0.11441727 0.28776407 -0.07479574 -0.34851584 -0.29265317 0.31818396
0.7122489 -0.42496675 -0.15115748 -0.43960693 0.21417311 0.49768132 0.12678051 -0.27601865
-0.3788803 0.5243694 -0.3615406 -0.3945494 -0.5176821 0.14042957 -0.35817078 -0.13381778
0.05173234 0.22684601 -0.46320057 -0.35768333 -0.010326838 0.43868613 -0.13174076 -0.033662856
-0.2889624 -0.092411086 -0.2812687 0.37838143 -0.21623647 -0.06364129 0.28582466 -0.27450907
0.022278432 -0.30207005 -0.15596227 -0.22391401 -0.11911583 -0.50683033 0.705765 -0.3217629
0.21919037 -0.04396752 -0.2595669 0.23749608 0.367451 -0.34319913 0.05317977 -0.11251291
-0.056001026 -0.19549884 0.004713907 -0.22576605 0.21936038 -0.056773517 0.83409286 -0.35313743
-0.14432609 -0.22008164 -0.16390032 -0.1865947 -0.18846099 0.035190962 0.052121628 -0.22976783
-0.47802177 -0.07349545 -0.46503034 -0.33099845 0.071105085 -0.3075325 0.014101398 -0.11217108
0.33685622 -0.12229446 -0.2553871 0.4044038 0.7368482 0.08234761 0.17002557 -0.3193135
-0.4162941 -0.18253194 -0.12848367 -0.20921966 -0.07627144 -0.22406979 -0.0936533 -0.08808969
0.13192305 0.34928942 -0.33944067 -0.30678996 -0.55577785 -0.1615325 0.27531675 -0.16688348
-0.34169257 -0.09663235 -0.073866546 0.11920947 -0.54002047 -0.13322248 0.009764099 -0.042071793
0.077159494 -0.34157088 -0.3444674 -0.6128232 -0.30372426 0.11915452 -0.19061418 -0.19240373
-0.46702948 -0.31450802 -0.16214596 -0.30687234 -0.25406653 -0.12492299 -0.5562394 -0.18731208
-0.24482392 -0.37704295 -0.279451 0.3834642 0.334627 0.43036377 -0.30245388 -0.65744644
-0.4444186 -0.6277776 0.3226352 -0.09206538 -0.5554755 -0.13070601 -0.09261982 -0.03392907
-0.5761864 0.07642969 -0.3020864 -0.10278223 -0.21250905 -0.48300445 -0.36324653 -0.05687503
-0.51389503 -0.3846337 0.03236926 0.28581184 -0.26056835 -0.25890607 -0.12323287 -0.24849351
-0.2522536 -0.3571462 0.07916761 -0.045463197 -0.010921793 0.52336395 -0.1925964 -0.65068644
-0.1808759 -0.27195242 0.37628 -0.11948463 0.09217326 0.39070284 0.055395592 0.66549456
0.77102375 -0.2045777 -0.19078767 0.060290754 -0.3233193 0.26592314 -0.21006128 -0.55020636
0.5160451 -0.08455977 0.19698645 -0.019648964 0.7087998 -0.08141488 -0.16242006 -0.40265405

l2.weight f4 [300, 400]
00000000: 7217 0bbd bc95 dabb 122b 97bc 20cc 46bb
00000010: 83e2 fdbb 2139 ec3b 2a5d 08bd a9f1 bfbc
00000020: 411a 5cbd 2fd8 09bc 05e5 c03c 8fe4 023d
00000030: 8ae8 fbbc 7e0b 16bd 3335 453d d82b de3c
00000040: eeaf a73c 2c84 1fbc 9e11 943c f41f b73b
00000050: 8296 e03b 785a 08bc 86f9 dcbc 9fe0 073d
00000060: 7f49 633c f410 ebbc 4b11 38bd 6883 473c
00000070: 7ff0 343d 51f7 a53c efcd 0a3b 6bba ec3b
00000080: 2866 233d 6a58 e53c a637 593c 09b6 1f3d
00000090: 355e 233d da29 82bc b8e4 8fbc 1f35 e93b
000000a0: 0e67 28bd 741f 40bc 2541 b33c 66a9 9e3c
000000b0: d309 3e3d d413 03bd 657d d03c 2cbb 2dbc
000000c0: ea3c babc c439 ccbc 701a 0f3d 8bad 35bc
000000d0: b079 1bbd 955d 18bd b057 883c b07b af3b
000000e0: a3a4 873c fb50 2ebd a3bb 0f3d 72ca 68bd
000000f0: 799d c5bc 9a35 ca3c 4058 e3bb eeee 09bd
00000100: 6772 e1bc 93de 33bd 92ba 1c3b 3955 163d
00000110: ba4f c4bc 4bf0 20bd 983e 71b8 fa1a 04bd
00000120: 01f0 083c c5e2 a4bc c690 e6bc 48e6 423c
00000130: 8bec 1f3d f484 e93c 6f8b 2e3d 55df 3bbd
00000140: dca1 953b baff b3bc 00c5 b6ba a89c de3c
00000150: ca7f 20bd 2a00 05bd db8d aebc df4c c1bc
00000160: 5e09 07bc 5f35 f43c b918 fe3c 481d 06bc
00000170: f3e7 3bbd 73ff 48bc 3262 b43c 73e1 073d
00000180: 1b14 213d bde8 d5bc e079 6dbc cb9b e1bc
00000190: f9c3 f23b ffe4 3bbc ac76 e7bb e777 47bd
000001a0: bebe 8d3c 0811 3bbc 1108 bbbb 8eca 85bc
000001b0: a81a feba 1e9c 12bd 1f62 3dbd 710c 373d
000001c0: b577 4a3b ad9b 2abd b61b de3c 9e3c 233d
000001d0: 1085 2dbd 65fb 34bd 4ad2 40bd 8484 0b3d
000001e0: 80dc 1fbd 02c3 193d 883d 1cbc 3e90 6cbd
000001f0: 2856 f0bb 70b5 cdbc 9beb 143d aa4d e0bc
00000200: e3b3 4b3d 2d88 41bd 1ed3 273b 7dca 153d
00000210: f05e e23b cf90 e1bc 4b6e 68bd a801 233c
00000220: 0231 46bc 52d6 8abc 125b efba b9fe 9e3b
00000230: 4f79 05bd efa8 7fbc da60 a93c f0b9 aebc
00000240: c62b d4bc 182e 70bc c366 a3bc 1155 d9bb
00000250: 9554 92bc de76 b3bc f93f d4bc 8984 163d
00000260: 25be 3dbd deed f53c 3035 9dbb 06ef ec3c
00000270: 8c7b 3b3d 7611 a03c a808 013c 7fd8 38bd
00000280: 57a1 eebc b595 7d3c a535 ea3c 8287 f63c
00000290: 2af1 d4bc 5af4 24bd a59f 93bc 3837 2fbc
000002a0: 908e c0bc d591 e8bc 2db3 31bd 4f80 3b3d
000002b0: 9c4a 883c 8409 573c 7704 473b e18e 423d
000002c0: cf39 35bd 915c 7a3b 7944 143d 9de2 acbc
000002d0: 17e1 273d 04bf 0cbc 464e 943c 6f6a 0fbd
000002e0: 253f 473d e717 c0bc 12ea 1ebd ac67 0bbc
000002f0: e240 8b3c 71c0 253d 6a64 eabc 6c68 383c
00000300: dc7e 2dbc aa3a e23c 63b2 e1ba 178e b43c
00000310: 2994 bc3c 3120 67bd 82fc 06bd 3efb f13c
00000320: eb11 4ebd c0e8 423c 621d 383c 8259 0d3d
00000330: a471 3cbd d002 3bbd d20e 833c 8c0c 5f3c
00000340: 217f e23a a348 9f3c 2767 a2bc 3656 83bc
00000350: 79aa fcbc 12e7 bcbc fd6c 9dbc fc1d f5bc
00000360: 5aee 4dbd 4571 23bd bbf2 52bd 40e3 2b3c
00000370: d08d 62bb 805c 113c 4f8e 37bd 6b75 3abd
00000380: df8f 09bc 0bf8 efbc d146 35bd ba58 0b3d
00000390: feae dcbc 5f38 08bb 7a33 b0bc 4c46 21bd
000003a0: 10c6 dbbc 184e 2ebd 089d 03bd e0b8 77bb
000003b0: efc7 bfbc 4d0e 173d e892 38bc c970 3b39
000003c0: a9ff 7cbc f816 003c e0c2 00bd a4a8 2f3b
000003d0: 6a7a ca3c 7be3 99bc 5a17 5dbd 5e9b 993c
000003e0: 7015 f63b f56e 36bd b0b2 54bd c058 923a
000003f0: 9adb 52bd 0db6 1ebd 7436 443c 2d63 13bd
-0.033957906 -0.0066706818 -0.018453155 -0.003033407 -0.0077479496 0.0072089587 -0.033291973 -0.023430662
-0.053735975 -0.008413359 0.023546705 0.03195625 -0.030750532 -0.036632054 0.048146438 0.027120516
0.020469632 -0.009736102 0.018074807 0.005588526 0.0068538794 -0.008322351 -0.02697445 0.0331732
0.013872503 -0.028694607 -0.044938367 0.012177326 0.044174667 0.020259531 0.0021179875 0.007224371
0.039892346 0.02799626 0.0132578965 0.03899196 0.039884765 -0.015889097 -0.017565116 0.007116928
-0.041113906 -0.011726249 0.02188165 0.019367885 0.046396088 -0.03200133 0.025450418 -0.010603707
-0.022734124 -0.024929889 0.034937322 -0.011088739 -0.037957847 -0.03719862 0.016643375 0.005355321
0.016557997 -0.042557698 0.035091054 -0.056833692 -0.02412294 0.024683762 -0.0069380105 -0.033675127
-0.027520372 -0.043913435 0.0023914916 0.03670237 -0.023963798 -0.03929166 -5.7517173e-05 -0.03225229
0.008358003 -0.020127663 -0.028145205 0.011895724 0.039043944 0.02850578 0.042613443 -0.045867283
0.0045664143 -0.021972526 -0.0013944209 0.027174309 -0.03918437 -0.03247086 -0.021307876 -0.023596225
-0.008241979 0.029810606 0.031017648 -0.008185692 -0.0458755 -0.012267935 0.02201948 0.03317399
0.039325815 -0.026111955 -0.014494389 -0.027540108 0.0074086157 -0.011468171 -0.0070637073 -0.048698332
0.017302867 -0.011417635 -0.0057077487 -0.016331937 -0.0019386606 -0.035793416 -0.046236154 0.0446896
0.0030894105 -0.04165237 0.027112823 0.03985273 -0.042363226 -0.04418506 -0.047075547 0.034061924
-0.039028645 0.03753949 -0.009536155 -0.057754748 -0.0073344894 -0.02511093 0.036357503 -0.027380783
0.0497321 -0.047249008 0.0025608013 0.03657006 0.00690829 -0.02753487 -0.05674581 0.009949125
-0.012096645 -0.016947899 -0.0018261394 0.0048521427 -0.032586392 -0.015604242 0.020676065 -0.021328896
-0.025899779 -0.014659427 -0.019946462 -0.006632455 -0.017862597 -0.021907266 -0.02590941 0.03674749
-0.046323914 0.03002065 -0.0047976 0.028922569 0.04577212 0.019539576 0.007875599 -0.04512834
-0.029129667 0.0154775875 0.028590033 0.030093912 -0.025993902 -0.040272094 -0.01802046 -0.0106943175
-0.02350548 -0.02838985 -0.043383766 0.04577666 0.016637139 0.013124827 0.0030367651 0.04749954
-0.044244584 0.0038202147 0.036198113 -0.021104151 0.040986147 -0.008590464 0.01810373 -0.035013612
0.048644204 -0.023448898 -0.038797446 -0.008508604 0.016998712 0.04046673 -0.028612334 0.011255365
-0.010589328 0.027615864 -0.0017219301 0.02204041 0.023019867 -0.056427184 -0.032955654 0.029538747
-0.050310057 0.011896312 0.011237474 0.03450919 -0.046006814 -0.04565698 0.015998278 0.013613831
0.0017280319 0.019443816 -0.019824577 -0.01603232 -0.030843006 -0.023059402 -0.019217009 -0.029921524
-0.050276138 -0.039902944 -0.051501017 0.010491192 -0.003456939 0.008872151 -0.04481345 -0.045522135
-0.008396118 -0.02929308 -0.04425699 0.034020163 -0.026938912 -0.0020785553 -0.021508921 -0.03937368
-0.026827842 -0.042554945 -0.03213218 -0.0037799403 -0.023410765 0.036878873 -0.011265494 0.00017875725
-0.0154418135 0.007817976 -0.031435847 0.0026803399 0.024716575 -0.018785229 -0.053977348 0.018750843
0.00750988 -0.04453941 -0.051928222 0.0011165366 -0.05147896 -0.038747836 0.011975873 -0.035983253

l2.bias f4 [300]
00000000: 7e0c 20bd c82d 923c ac87 cf3c 6fb8 62bc
00000010: eebb 54bd 1089 67bd 4bcf 9cbd 0784 8b3d
00000020: 5e5c 0cbd bca7 713c f1cd 62bd 27da 113d
00000030: 7508 8fbd 9b4b 9bbc e0ee 6b3d c8d1 acbd
00000040: b67d 6ebc 20dd c83d 75b9 25bc 5611 8abc
00000050: 593c 0c3e 8375 be3d ea0c b93c 19ae 20bd
00000060: 3774 17bd 89b5 153f 6faa 0e3e 34f3 d7bc
00000070: e872 2fbc c7fc 18bd d71f 283c 76d2 6f3d
00000080: 4fbe 593d 410e c53c df96 80bd 8414 83bd
00000090: 1b0f 9c3c c099 02bd 3a08 c83c 2b3d 97bd
000000a0: edaf bdba 44fd 2a3d dfeb 8c3d f2a2 bd3d
000000b0: 0114 133f 5f1e 0a3f 0d9f d23c 9c1c a5bd
000000c0: 606c a13c 4475 79bd a8d3 22bc e351 28bf
000000d0: 28fd acbd 6ae1 0cbd bbc4 ce3b cf20 e43d
000000e0: 02ec 723d 5e83 6b3d f665 3fbd 50bf bf3c
000000f0: 26cd 4dbc 9ca7 3dbd f4b2 883d fd89 173d
00000100: 1778 af3a 92a6 f2bc 4a95 5bbc c113 4abb
00000110: 0ddc 813d eb75 5a3b a055 a3bc 1d47 d3bd
00000120: d9f1 a73d 8fa0 493f 3470 17bd 3801 573c
00000130: c989 1f3f 2026 a3bc c1b3 1b3f 67cf ccbe
00000140: 1583 29bd 72ca 2f3c 3f79 963e b383 3a3d
00000150: 9313 13bd 166d 90bd cc10 0fbd a523 30bd
00000160: 4cb6 8dbc f62f 6abb 093a 42bc b791 97bd
00000170: ed06 523e b79c 783c dd96 7d3c 9a86 0a3d
00000180: 62ae babd cf35 d93b 9634 d23c 7422 66bd
00000190: 1703 16bb aa62 1fbd f160 a13b 408a 40bd
000001a0: e4a0 c33e 84c5 72bc 8204 8a3d 5418 37ba
000001b0: 4cd6 53bd 3a1b 043d 5d46 64bd 11c5 713d
000001c0: a923 413d 0266 57ba ae3c 393c b83e 9dbd
000001d0: 5b4f 2dbf 5daa aa3c 8b19 95bf 54cd a5bd
000001e0: 31c8 7c3d 38ac d8bd 6136 54bd d4b9 01bd
000001f0: f113 8cbd 5b84 babb 0c23 5abf 131b 1a3d
00000200: 3fe3 a2bc 580d 02bd 8729 daba 552b 0abe
00000210: a121 7a3d 6016 203e 9b23 d4bc 37a1 1bbd
00000220: 7153 01bc 42dd 50bd 2fa8 91bd 6be3 bd3a
00000230: 20d2 bbbc ca12 6cbd 42ee 9dbc 7dbd 9dbc
00000240: 38e5 383d 81a2 d93d a1f4 86bd a942 7e3d
00000250: 2272 27bc 0c16 d5bc bcc2 73bd 431c 5fbd
00000260: 41c2 193e 43b1 82bd 9a62 6bba d332 bd3c
00000270: 97e7 4abd 7bac acbd f989 d8bb 0df8 863d
00000280: cd03 053f b0f5 28bd c303 5f3b f04a 063c
00000290: 0338 7bbc 03bf bdbd 3959 49bd db64 2d3c
000002a0: 26e9 bebc c577 e83d bdfe 4a3d 779b babc
000002b0: 8172 35bb acfb 37bc d722 453d a6d1 7cbd
000002c0: 23fa 21bd 1c9c 873f c85f f73c 6a49 adbd
000002d0: d1df 2dbb cf1b 47bc cd7a 393d 88ec b3bc
000002e0: b2e0 9cbd 5908 843d 4c14 ffbc d3b1 3abd
000002f0: 3e2e db3a 3fc4 2f3b b26f 0bbd e8e7 99bb
00000300: 5426 0bbd fbb8 0b3f 11f2 b5bd 087d f63d
00000310: a16f babd 7b64 863f 6190 0e3d 6b0f c139
00000320: 6e47 efbc abd7 0b3d e992 ea3d aa17 e73e
00000330: a9cb 063f 16a7 8fbb 26a7 a3ba 35dd cfbc
00000340: 0c42 dd3b 4abb 73bc fd5b 9cbd fda2 4c3a
00000350: c3f0 babc 9ae2 46bd 3ce9 98bd 0f0c f33c
00000360: c5a4 2ebd 0124 d0bc 4ad2 17bd 12c1 41bc
00000370: 22bb 853d 4570 a73c 4609 77bb 0120 8b3f
00000380: 201d 0dbd e84e 9ebd d770 dc3b fa46 b7bc
00000390: 8bff b8bd c69c 6fbc 79cd 2d3c 29f9 a2bd
000003a0: b812 5abc c6ca 243d a743 0e3f d43c 2b3d
000003b0: be89 82bd c3a2 24bd 1bd2 b2bd 4fe4 0fbd
000003c0: 8fb3 603d 2722 13bd dfd9 aabd 88c5 0dba
000003d0: b2b1 c8bd 8c44 48bd 7c53 9bbc 35c8 813f
000003e0: 9af2 9bbc e27d 26bf a93d 2b3d 5260 393d
000003f0: 0822 80bd db4e b8bc 5084 ae3d 573a 403b
-0.039074413 0.017844096 0.025333248 -0.013837918 -0.051937036 -0.056527197 -0.076567255 0.068122916
-0.034267776 0.014749464 -0.055372182 0.035608437 -0.06984035 -0.01895695 0.057600856 -0.0843845
-0.014556339 0.09807801 -0.010115017 -0.01685397 0.13694896 0.09299757 0.022589166 -0.039228532
-0.036976065 0.58480126 0.13932203 -0.026361085 -0.010708548 -0.037350442 0.010261497 0.05855032
0.053160008 0.024054648 -0.062787764 -0.064003974 0.019050172 -0.03188491 0.024417985 -0.07384714
-0.0014471986 0.04174544 0.06880926 0.09259595 0.574524 0.5395259 0.025710607 -0.080620974
0.019704998 -0.06090285 -0.009938158 -0.6574995 -0.08446723 -0.03439466 0.006310073 0.1113907
0.059307106 0.05749833 -0.046728097 0.023406655 -0.012561118 -0.046302423 0.066747576 0.03699683
0.001338723 -0.029620443 -0.0134022925 -0.0030834528 0.063407995 0.0033334445 -0.01993829 -0.10316298
0.08200426 0.7876062 -0.03697224 0.013122849 0.6231962 -0.01991564 0.6082116 -0.40001985
-0.041384775 0.010729419 0.29389378 0.045535754 -0.03590734 -0.070520565 -0.034928128 -0.043002743
-0.01729884 -0.0035734153 -0.011854657 -0.0740084 0.20510454 0.0151740825 0.015477863 0.033819772
-0.09115292 0.006628729 0.02565984 -0.0561852 -0.0022890025 -0.038912453 0.0049248864 -0.047006845
0.38208687 -0.014817599 0.06739141 -0.0006984521 -0.05171804 0.032252528 -0.055731166 0.059025828
0.04715315 -0.00082167995 0.011305971 -0.07677978 -0.6769921 0.020833189 -1.164842 -0.08095804
0.061714355 -0.10579723 -0.051809672 -0.03167136 -0.06839741 -0.0056920475 -0.8520973 0.037623476
-0.01988375 -0.031751007 -0.0016644456 -0.13493092 0.061067227 0.15633535 -0.025895884 -0.037995543
-0.007893429 -0.050992258 -0.071121566 0.0014487332 -0.022927344 -0.057635106 -0.01927865 -0.019255394
0.045140475 0.10626698 -0.06589628 0.06207529 -0.0102200825 -0.02601149 -0.059511885 -0.05447031
0.15015508 -0.06381466 -0.00089792314 0.023095524 -0.049537268 -0.084313355 -0.0066082445 0.06590281
0.51958925 -0.04124993 0.0034029342 0.008196577 -0.015333178 -0.09264948 -0.049157355 0.010583128
-0.023304533 0.11350969 0.049559344 -0.02277921 -0.0027686658 -0.011229437 0.04812893 -0.061723374
-0.03954519 1.0594516 0.03019704 -0.08461268 -0.002653111 -0.012152626 0.045283128 -0.021963373
-0.07660045 0.06446905 -0.031137608 -0.045579743 0.0016722155 0.0026819853 -0.034042068 -0.004696835
-0.0339721 0.5457913 -0.08884061 0.120355666 -0.09103323 1.0499414 0.03480566 0.00036823316
-0.029208865 0.034141224 0.11453802 0.45135242 0.5265451 -0.004383932 -0.0012485727 -0.025374034
0.006752258 -0.014876196 -0.07634733 0.00078062696 -0.022819882 -0.048555948 -0.07466361 0.029668836
-0.042637605 -0.025407793 -0.03706578 -0.011825817 0.065298334 0.020439276 -0.0037694736 1.0869142
-0.034451604 -0.07729894 0.0067273187 -0.022372711 -0.09033116 -0.01462478 0.0106080705 -0.0795768
-0.013310127 0.040232442 0.5557198 0.041806057 -0.063739285 -0.040194284 -0.08731481 -0.03512984
0.05485874 -0.035921242 -0.08342337 -0.00054081576 -0.09799518 -0.048893496 -0.018960707 1.0139223
-0.01903658 -0.6503583 0.04180685 0.045257874 -0.06256491 -0.022498539 0.0852133 0.0029331648

l3.weight f4 [1, 300]
00000000: 6f16 c9bc 40ee dd3d 9c66 123d 8b70 13be
00000010: 3826 b93b b84b 693c 26f1 de3d 5233 22be
00000020: a231 d13c 5666 07bd 216e 833d e104 21be
00000030: 3e9f a83d 64f8 033e 0dd4 25be c2ad 093c
00000040: e82c a13c 78d5 743e aa5b 8e3d 3132 e83c
00000050: 473c cabe 28de 52be d49c e8be 9a05 073b
00000060: d9b0 0ebc 61e0 ffbe cb6e 0ebf 421f 4f3e
00000070: f453 0c3d aeee 123e 3476 163d 027a b0bc
00000080: 2643 2ebe b7a7 f1bd 91dd 8d3a 7da7 e03d
00000090: 1d44 23bb bca2 3b3e 46c4 263e d78e 243c
000000a0: c929 3b3e f1ec 22be d455 24be 6ea9 4bbe
000000b0: 5ffb a0be 2d5c adbe 9feb b6be 9253 7c3c
000000c0: 559a 4e3e 210d af3c 6d34 21bc edca 863f
000000d0: 82be e23c 6832 fd3c 1abc 403e c50e 90bf
000000e0: b3c3 69be 3ece a3bd 1572 163d 12a7 37be
000000f0: 8e8f 23bd 376f 17be e752 82bd 1a64 5c3e
00000100: 03a1 18be ac55 033e 5e7c 1e3e 0a88 b9bf
00000110: 51c0 3abe b2d9 0d3e 44db c9b9 1a57 9e3b
00000120: c86d 17be e79a 95bf 14a0 e53c bd25 36be
00000130: 6ebf a6be c6d7 febd 9b9e a7be ce6a ed3f
00000140: 7eda a53c 631d 233e da36 f3be 6cb8 40be
00000150: 59b3 cf39 2295 c23c 4bde f4bb 069d d3bc
00000160: 29e0 27bd b461 e03b 0900 4c3c 3309 c9bc
00000170: 7204 f93d b8e7 1b3e 03c8 e1bd 827e d03e
00000180: 82e0 543c baa4 0ebe 7db9 4dbe 9f9f 463d
00000190: 44ac e53b 0157 053c e7ad 8fbc 107d 0bbd
000001a0: 4ccd 16bf 9b05 d6bd d848 03be 5f1c 393e
000001b0: 752d 03bc dbfb e1be 6a10 3abb 425b e6bd
000001c0: d1c7 743e 7f1a c7bc 953b 14be 039c a13c
000001d0: 684d 913f eb95 563e 253e 813f 7b55 4fbf
000001e0: 585b 433e cd9a 2dbc 4cbb 893b 37d1 4f3e
000001f0: 8c0f 713c 7e36 453e 57eb 4d3f efa6 263e
00000200: f4c4 07bc 84c7 283e 1c10 d0ba 686e ef3c
00000210: b77b 3cbe 6122 bdbe 57c1 0a3e 9470 0c3e
00000220: 12b6 213d 9e19 abbc 0ef2 ae3d 8777 0a3e
00000230: e894 d73c e93d 053d b393 c33c 2cae f1bd
00000240: 8b59 7cbe 51ab 9abe 370a 163d 0e4f f7bd
00000250: e75d a13c 2d75 763c 513f 3bbc ae23 153c
00000260: 9055 a1be 0274 993d 5795 aebc 1167 c7bd
00000270: 5527 833d 2813 1a3d bb54 32bf 1b7d 56be
00000280: 806c 9fbe 0cca d23c e609 1cbe afba 3d3e
00000290: 921a 5ebc 765e 4d3b c1e7 e83d 7c46 48bc
000002a0: 472b df3d 9304 d6be 1322 5b3e 2a2f 843c
000002b0: e279 873b 261b 88bc 89eb 3cbe 3a36 c93b
000002c0: 54a5 3b3d 1f93 98bf c507 7c3e 961c 98bb
000002d0: 3a5a 1a3e fd5d 8abb a42f 4dbe 4590 ecbd
000002e0: dcce d5bc e3de 83be ff71 c33b 6b79 a83c
000002f0: b3c2 1ebc b78c aa3a 8fa6 e13c 43dc 1fbe
00000300: 07b3 f3bc 2505 a7be f138 953d 9ad1 69be
00000310: 7a59 dfbc db05 37bf 18be 173e c3b5 9b3d
00000320: f0f8 dfbc 2efb 3fbe a687 c0be 9104 1ebe
00000330: 73d8 8ebf 55c7 e93d 5561 2c3e bec8 fe3a
00000340: 1e2e 4cbc cbc6 6739 7c91 133d d7c8 ec3d
00000350: cb40 37bb 37e2 92bc 3770 aa3b df6d 24be
00000360: cdba 06bd fc9d 1d3e b824 9fbb 95b4 c33d
00000370: 662a b9be 5a13 6a3d 8380 04bb 15f2 a3bf
00000380: 8a3e d03c 930f d33c f6d4 f33d 1768 ccbd
00000390: 394c b13c 8371 7e3c dd2e 49be a82c 7bbc
000003a0: eab3 81bc 0f04 51be 9c0d 12bf 51c3 613e
000003b0: 07a0 da3c 66cb 17bc d09c 25bd 751a 053b
000003c0: 4ce6 59be 4426 81ba f400 ccbc b37b 2e3e
000003d0: cb09 be3b c660 133e 68df 203e 7b07 99bf
000003e0: 41a3 683d 459a 7c3f a316 0ebe 9869 4bbe
000003f0: b3cd dfbc 2911 073e 805e 06be 7b93 963c
-0.02454683 0.10836458 0.035742387 -0.143984 0.005650308 0.014239244 0.10885839 -0.1583989
0.025536362 -0.03305658 0.0641749 -0.15724517 0.08233498 0.12887722 -0.16194172 0.0084032435
0.019674733 0.23909557 0.06951077 0.028344246 -0.39499113 -0.20592558 -0.4543215 0.0020602704
-0.008709156 -0.49975875 -0.55637807 0.20226768 0.03425975 0.14348862 0.03673382 -0.021542553
-0.17017803 -0.11799567 0.0010823478 0.10969446 -0.0024912425 0.18323797 0.1628581 0.010043821
0.18277659 -0.15910698 -0.16048366 -0.19888851 -0.3144178 -0.33859387 -0.3572664 0.015400784
0.2017606 0.021368565 -0.009839159 1.0530678 0.027678732 0.030907825 0.18821755 -1.1254507
-0.2282856 -0.07998322 0.03672989 -0.17934826 -0.039931826 -0.14788519 -0.063634686 0.2152256
-0.14905171 0.1282565 0.1547713 -1.4494641 -0.18237425 0.13852575 -0.00038501073 0.0048321607
-0.14787972 -1.1687897 0.028030433 -0.17787834 -0.32567924 -0.12443499 -0.32738194 1.8548219
0.020245787 0.15929179 -0.47502786 -0.18820351 0.0003961574 0.023752753 -0.0074727884 -0.02583171
-0.04098526 0.0068475846 0.01245118 -0.02454052 0.12159051 0.15225112 -0.11024477 0.40721518
0.01299298 -0.13930026 -0.2009029 0.04849207 0.007009061 0.008138419 -0.017538978 -0.034054816
-0.5890701 -0.10450288 -0.12820756 0.18077229 -0.008006443 -0.44137463 -0.0028391131 -0.11247875
0.23904349 -0.024304627 -0.14475854 0.019727712 1.1351748 0.20955627 1.009709 -0.8098981
0.19077814 -0.010595989 0.0042032357 0.20294653 0.014713179 0.19259068 0.80437225 0.16274618
-0.008286703 0.16482359 -0.0015873942 0.02922745 -0.18406568 -0.36940292 0.13550316 0.1371482
0.039480276 -0.020886239 0.08542262 0.13522159 0.026316121 0.032529745 0.02387414 -0.11800799
-0.24643533 -0.3020883 0.036630835 -0.12075625 0.019698096 0.015042585 -0.01142867 0.009102745
-0.31510592 0.0749283 -0.021311445 -0.09736455 0.06403986 0.037615925 -0.6966054 -0.20946161
-0.31137466 0.02573111 -0.15238151 0.18528245 -0.01355614 0.003133682 0.113723285 -0.012223836
0.108969264 -0.41800365 0.21399717 0.01613577 0.0041344026 -0.016614508 -0.18449225 0.0061404975
0.045811966 -1.1919898 0.24612339 -0.0046420796 0.15073481 -0.00422263 -0.20037705 -0.11550955
-0.026099615 -0.25755987 0.005964517 0.02056571 -0.009689975 0.0013011907 0.027545242 -0.15611367
-0.029748453 -0.32621112 0.07286251 -0.22833863 -0.027264345 -0.7149331 0.14818609 0.07603028
-0.027340382 -0.18748161 -0.37603492 -0.1543143 -1.1159805 0.11414973 0.16834004 0.0019438488
-0.012462167 0.00022103933 0.036027417 0.11561745 -0.0027962204 -0.017930133 0.0052013653 -0.16057537
-0.03289299 0.15392298 -0.004856672 0.09555928 -0.3616516 0.05714736 -0.00202182 -1.2808253
0.025420446 0.025764262 0.119058535 -0.09980791 0.021642791 0.015529993 -0.19646783 -0.015330471
-0.01583286 -0.20411704 -0.57052016 0.22047164 0.026687635 -0.009264803 -0.04043275 0.002030996
-0.21279258 -0.0009853323 -0.024902798 0.17039375 0.0057995073 0.14392385 0.15710223 -1.1955408
0.056796316 0.98672897 -0.13875823 -0.198645 -0.027319765 0.1319014 -0.13121986 0.018380871
