TD3/preTrained/TD3_BipedalWalker-v3_0_critic_2_target_ep500.pth (torch_old, 529770 bytes, 5 tensors)

l1.weight f4 [400, 28]
00000000: b81b cebd eafb d13d 1869 32be 514d 433e
00000010: b0df 41bd 663d 13bd 3566 1a3e 21d8 dbbd
00000020: 2cf1 71be f7b7 353c 0911 cf3d 8034 4a3e
00000030: a18e c8bc b271 4bbe 5ecf 9fbe 35d0 00bf
00000040: 65c5 0dbf b5b8 06bf df0e a4be 05e5 82be
00000050: 95bb 05bf a75c acbe 356f 0cbf 1d9d 05bf
00000060: 3506 113e 6b6f f7bc 3f76 253e a632 1abe
00000070: 3fc2 30be f447 2bc0 eb6c 43c0 3119 1440
00000080: afe6 9a3f 1d3c 4a3e 010e b0be 1971 213d
00000090: 3a1e 5bbe d7ba 3d3f 814e 80be ca9e 89bd
000000a0: 2b47 45be 7aad 20bd 2fb7 393e 5bd5 e13d
000000b0: b725 04bd 71d8 9cbc 62bb d43c 2170 663e
000000c0: 9549 023e adc7 ae3d d3e9 c8be 6a6a 7dbd
000000d0: 8698 a13d 93ee 093b 5d9a 3f3d 3fef 6e3d
000000e0: c776 f93e 9848 3540 1622 39c0 0d9a 79c0
000000f0: ec48 3dbf 322f 123e 8e59 4abd 9320 25be
00000100: 0b8f 383e 1559 193f 9ff8 88bf 5a30 a4be
00000110: 92ab fb3e 7357 b0be b4d1 18bf b86b 3bbf
00000120: ee9f e7be c00b d0be 11a6 cdbe 7bde b4be
00000130: 66aa f5be f321 0cbf c517 c1be f872 82be
00000140: 21d0 8b3d 8ecb 0d3f 260b 223e 9c71 033e
00000150: 2e7e 353c dbc0 623e 7001 2b3f e125 4fbe
00000160: e7c8 4c3e bd4e 78be bacb aa3e 854c 113e
00000170: f096 b1be 8196 993e 1c29 77bd cfd9 08ba
00000180: 7688 1f3e 07f3 21be 06a2 bdbe d3fb bdbe
00000190: 098b 87be a2fd 05bf a6c3 b4be 4ced 9fbe
000001a0: bb08 1ebf cd96 19bf be9e fbbe c070 98be
000001b0: facd aa3e 76aa 483e dc4e 9b3e cf24 7bbe
000001c0: 2693 a5bd 830f 653e c65d 243f bc1e 0cbe
000001d0: f5ed 93bd 3359 e6be b0cd 443e 1368 fc3b
000001e0: c5d5 90be 914c c0bd a032 363e c52f 02bd
000001f0: dc06 043e 55bf 14be f975 40bf e687 11bf
00000200: 5148 48bf 150c 03bf 043e f0be e08f 34bf
00000210: 9343 e7be 7dea 02bf b976 43bf 2e15 1ebf
00000220: 312a d93e 3802 4c3e 2f57 2c3e 4a77 d8bd
00000230: 947e 06bd fa5a 893f 1d4e d8be 41b6 32c0
00000240: 67eb 8b3c 056d 73be 2c91 a2be 4c7b eabe
00000250: 50c5 083e 67f9 113f 76af 903f 8ad9 8dbf
00000260: e644 1b3f a58d bcbe 37a2 c9be a1ad acbe
00000270: 02d0 07bf 0d77 d1be b83d 10bf 703b d4be
00000280: 6755 d5be bab3 ffbe 30d8 e4be f509 9fbe
00000290: bfc1 913d f880 30be 481e a93e 33a4 173d
000002a0: 3487 ce3e 6835 1ebf e14e bfbf 6940 56bd
000002b0: 53c5 9d3f 105d 95bf c495 da3e 2c83 54bf
000002c0: e7d6 a1bf a068 f7bb f3be 8c3f a316 0abf
000002d0: 2a83 be3e 7df4 d6bf 0dbf fbbe 9e9e 3bbe
000002e0: 3591 40be b7f8 06bf 9b92 cbbe e70c 03bf
000002f0: e242 81be 01c1 a3be fb2d c2be b7ac f2be
00000300: c429 e4bd cc3b 113d 0896 fe3e abea a3bc
00000310: 393f 5f3d 4c26 8b3d 5a54 5c3b 0ded 9fbd
00000320: 2c9b 773b 34d3 8cbd 617e d23d 8dcd 9e3d
00000330: e4c2 833d 09f4 d73d ff51 2abd a3ec 7b3d
00000340: dc3c fb3d 0600 a43d 97e3 a8be 7958 c7bd
00000350: 9eaf 1dbe c9fa 40be d323 e5bd 81e2 c6be
00000360: 17b2 2abd 2bf3 60be b828 37be f034 b9be
00000370: 1e0b ae3d 17fe aebd 743a 013e f0ac 3ebd
00000380: 834b f4bd d943 4c3e 50bf 30be 1ea6 a9bb
00000390: ecad 773d 9361 fbbd bcda 0e3e 4e60 2b3e
000003a0: 183e cebd ce8d 19be e441 0c3e 2a52 e63d
000003b0: 1ffa 343d 5c7f 8b3c c3dc e1be 5058 bdbe
000003c0: 9084 bfbe 461a 10bf 9fa0 acbe 7c0e fdbe
000003d0: dd6c 8cbe ed1a 03bf 1159 c0be 457b 84be
000003e0: 7fec 233d ff5f b03c cf9b b83d 7b50 f23c
000003f0: 0c13 c53e 3e11 6fc0 02bd e43f 5c55 84c0
-0.10063881 0.10253127 -0.17422903 0.19072463 -0.047332466 -0.035947226 0.15078051 -0.10734583
-0.23627156 0.011091224 0.10110671 0.1974659 -0.024482073 -0.1986759 -0.31212896 -0.503177
-0.55379325 -0.5262559 -0.32042596 -0.25565353 -0.5223935 -0.33664438 -0.5485719 -0.5219286
0.14162524 -0.030204495 0.16158389 -0.15058383 -0.17261599 -2.6762667 -3.0535228 2.3140376
1.2101649 0.19749494 -0.34385684 0.0394145 -0.2139825 0.7411322 -0.25059894 -0.0671974
-0.1926543 -0.03922794 0.18136285 0.110270225 -0.03226253 -0.019146176 0.025968257 0.22503711
0.12723382 0.08534179 -0.39240894 -0.061869062 0.0789042 0.0021046742 0.04677807 0.05833363
0.48723432 2.8325558 -2.8927054 -3.9000275 -0.73939395 0.14275816 -0.049401812 -0.16125707
0.18023317 0.59901553 -1.0700873 -0.3206814 0.49154335 -0.34441718 -0.5969498 -0.7321124
-0.45239204 -0.40633965 -0.4016576 -0.3532599 -0.47981566 -0.547393 -0.37713447 -0.2547834
0.06826807 0.55388725 0.15824565 0.12836307 0.011077447 0.22143881 0.6679907 -0.20229293
0.19998513 -0.24248786 0.33358556 0.14189346 -0.3468547 0.29997638 -0.06034194 -0.0005220444
0.155794 -0.15815364 -0.37037677 -0.3710619 -0.26473263 -0.5234014 -0.35305518 -0.3123573
-0.6173207 -0.5999573 -0.49144548 -0.2977352 0.33360273 0.19596276 0.30333602 -0.2452576
-0.08084707 0.22369199 0.64205587 -0.13683599 -0.07223121 -0.4498993 0.19219089 0.0077028363
-0.28288093 -0.09389604 0.1779275 -0.031783838 0.12893242 -0.14526112 -0.7518001 -0.5684799
-0.78235346 -0.5119031 -0.46922314 -0.70532036 -0.45168743 -0.5113905 -0.7635303 -0.6175107
0.42415002 0.19922721 0.16830133 -0.105696276 -0.032835558 1.0730889 -0.42247096 -2.792374
0.017080022 -0.23772056 -0.31751382 -0.45797193 0.13356519 0.5702118 1.1303546 -1.1082013
0.60652006 -0.36826816 -0.39381573 -0.33726218 -0.5305177 -0.4091114 -0.56344175 -0.41451597
-0.4166672 -0.49941808 -0.44696188 -0.31062284 0.07117032 -0.17236698 0.33030915 0.037021827
0.40337527 -0.6180024 -1.4945947 -0.05230752 1.2325844 -1.1669025 0.42692387 -0.8301265
-1.2643708 -0.007550314 1.0995773 -0.5394079 0.37209445 -1.6793362 -0.49169198 -0.18322226
-0.18805392 -0.5272326 -0.3976029 -0.5119156 -0.2524634 -0.31983188 -0.37925705 -0.47397396
-0.11140779 0.035457417 0.4972384 -0.02000936 0.054503653 0.06794414 0.0033619613 -0.07808886
0.0037781699 -0.06876221 0.10278011 0.077540495 0.06433657 0.10544593 -0.041582104 0.06150497
0.122674674 0.08007817 -0.32986137 -0.09733672 -0.15399024 -0.18845667 -0.111884736 -0.38844684
-0.041673746 -0.21967761 -0.17886627 -0.361732 0.08498214 -0.085445575 0.12619954 -0.046551645
-0.11928465 0.19947757 -0.1726048 -0.0051772734 0.0604686 -0.1227447 0.13950628 0.16735956
-0.10070437 -0.149955 0.1369701 0.1124614 0.044183847 0.017028503 -0.4411374 -0.3698144
-0.37405825 -0.5629009 -0.33716294 -0.49425113 -0.27426806 -0.5121296 -0.37567952 -0.25875297
0.040020462 0.02153015 0.09014093 0.029579392 0.38491094 -3.7354274 1.7870181 -4.13542

l1.bias f4 [400]
00000000: 706c 36be 5b36 c1be d3b2 a73e b52b 41be
00000010: 0a53 ddbd 51b9 9cbb d924 04bf 7159 4ebc
00000020: 8d13 8bbe a3de 9abe b8a0 dd3d 47c9 a9be
00000030: ffd5 64be 1f55 72be f665 cebe 7023 a5be
00000040: 1294 643d 6e37 11be 6dfc 01bf 1239 5bbd
00000050: 4a67 603e fd62 81bf 4d97 053d 38f3 17bf
00000060: 57ed 363e c48b b43d edbd 2ebf d8d1 b4be
00000070: 8db5 89be 37f8 2abf 41ec 09bf 6a34 f7be
00000080: 01a8 f53e e66b 9ebe ff5a 15bf 2428 09bf
00000090: 04e6 a2be 0a85 5dbe a6fc 42bc 731b ad3c
000000a0: 2ed2 12bf 42c8 123f 2aa1 ddbe e777 2dbf
000000b0: 0450 06bf 58cd 33be 8fbb 21be 467e 90be
000000c0: bc57 a7bd a466 cc3d f37f 25bf e5ca c93c
000000d0: 1793 28bf c3d8 1bbf 1123 c9be a855 4cbe
000000e0: 2366 cabc 4974 a83e 45fb e23e ee88 ea3e
000000f0: 3a36 ea3d e199 d4be df12 50be 3313 61be
00000100: c171 c8be 5b53 0abf a5e7 99bd 2b0c d83e
00000110: 6a3c b8bd 0d6d 2abf 8632 b9be 1869 333f
00000120: 6a9c 8c3f 49dd 0dbf 1677 9fbe d78a 2fbf
00000130: f31f 2abe 5c57 fc3e 9e76 0dbe c551 8dbe
00000140: bdf6 42bf 0c21 573f e59d b6be b2fc 35bf
00000150: 856f 07bf 95fe 973d f3eb cebe 3b45 27bf
00000160: c1e5 533d cdbc ba3d 1b58 39bf cef2 42bf
00000170: fdf6 82bd b7e7 223f 276e 27be f31f 0fbd
00000180: e321 01bf dcd5 adbe ec26 c6be 9e4a b33d
00000190: d26c 5dbe 05e9 f0be bf90 a53e 2bf7 12bf
000001a0: f54d 84be 9ea8 9abe c365 5abc 5f6d 06bf
000001b0: 74f2 f3bd 42cb 16bf a449 a63f 2801 b5be
000001c0: 5f48 9b3d 525e 5abe 4711 14bf 62d0 be3e
000001d0: e6cc 2b3e a4f1 53bf 5f8d a4bd 898b 00be
000001e0: 195d 63bd a431 c4be 5bd5 b93c b458 4bbf
000001f0: ca29 e73d f853 b5bd c7fb b93f cc42 01bf
00000200: f772 46be 161c 5dbe 26e1 98be 8012 3fbe
00000210: cc3b 08bf 79c5 b2be 7bd7 75be b347 6bbe
00000220: 668e 32bf 3111 6bbe 3218 69bf 5001 3fbf
00000230: afcf 24be 9f0a 2cbf f008 0cbd 5845 39be
00000240: e7e6 3e3f b673 1ebe e003 debe 138d 573f
00000250: a2ee 903f 471d 353d 7cf3 dcbc a620 1dbf
00000260: a740 25bf a8e9 3abe e590 03be 54c4 76be
00000270: acbe 9ebe 8984 0cbf ef62 29be 2ebb a6be
00000280: 7677 52bd f239 343f bc8a 4abf cd56 c9be
00000290: e6ec 64bf eca2 c1be c275 323e a071 b8be
000002a0: c716 27bf b6fb a6be b255 d8bd 1c8f cdbc
000002b0: f670 13bf 156b 08be a853 aabe 58dc 89be
000002c0: 31a1 c1bd afa5 26bf da22 debe 0412 59bf
000002d0: 2a84 2bbf 147a 5c3d 6930 43be c883 bfbe
000002e0: 5d1c 36bf 4850 25bf 496a b3be 4e1e 9dbe
000002f0: 5cee 31bf fcd6 ffbd 9d51 88bf 7a77 5fbe
00000300: 0219 13bf d21a 3cbf be67 24bf a237 ca3e
00000310: 9c95 ee3e 8851 273f e345 09bf f515 79bf
00000320: e67b 3ebf 80f1 28bf e481 3e3e 688c bcbd
00000330: ec97 5dbf 8bfd ebbe 062e 4bbe 0562 a0be
00000340: 656f 67bf 9e77 1ebd 9109 eabe d157 91be
00000350: eada a7be 79d3 1cbf adca 37bf b5eb b6be
00000360: bc1e 6fbf 71a8 66bf 1505 98be e4e9 cb3e
00000370: 467f 60bf 4da3 39bf ecf6 18be 65c5 8dbe
00000380: a010 febe f29d 07bf 2029 423d c264 febe
00000390: 46cb 3b3d c1cb 623f abaa 59be 9b20 74bf
000003a0: 5e3b 18bf 0801 2cbf 3e93 ad3e 85ed 0bbe
000003b0: 9e1f 6bbe 817f a13e 4e6e cebb baff 7e3f
000003c0: 0ec6 133f 927c 51be eaf0 f5be 11f6 703d
000003d0: 4d11 2abf 2b7c e33e 76d7 9dbe b176 71bf
000003e0: f6a4 e93e 2c6f 813c 80b7 493e 53da 6abd
000003f0: 1dc4 923f 76a4 a5bd ff50 26be 3a84 41bf
-0.17814803 -0.37736782 0.3275362 -0.18864329 -0.10806854 -0.0047828336 -0.51618725 -0.012594567
-0.27163354 -0.30247983 0.1082167 -0.33161375 -0.22347258 -0.23665284 -0.40312165 -0.322536
0.055805273 -0.14181301 -0.50775796 -0.053521223 0.21914402 -1.0108334 0.032614995 -0.593555
0.17863975 0.08815721 -0.68258554 -0.35316348 -0.26896325 -0.66784996 -0.5387612 -0.48282176
0.4797974 -0.30941695 -0.58341974 -0.53576875 -0.31816113 -0.21632782 -0.011901056 0.021131253
-0.5735196 0.5733682 -0.4328702 -0.6776108 -0.52465844 -0.17558801 -0.15794204 -0.2822134
-0.08171031 0.09980515 -0.6464836 0.02463288 -0.6584944 -0.6087763 -0.39284566 -0.1995455
-0.024706906 0.3290122 0.44332328 0.45807594 0.11436124 -0.4152365 -0.20319699 -0.2197998
-0.39149287 -0.5403344 -0.07514886 0.42196783 -0.08995898 -0.6657265 -0.3617136 0.70082235
1.0985234 -0.5541578 -0.31145543 -0.6857123 -0.1661375 0.492854 -0.1381478 -0.27601448
-0.7615774 0.840348 -0.3566734 -0.7108871 -0.5290454 0.074216045 -0.4041439 -0.6534001
0.051732782 0.09118042 -0.72400063 -0.7615174 -0.063947655 0.6363482 -0.16350614 -0.03494258
-0.5044233 -0.33952224 -0.3870157 0.087544665 -0.21623543 -0.4705278 0.32336995 -0.574084
-0.25840726 -0.3020677 -0.013329926 -0.5251064 -0.11911479 -0.58903897 1.2991223 -0.35352445
0.07582163 -0.21325043 -0.57838863 0.37268358 0.16777381 -0.8279059 -0.08034777 -0.12553228
-0.055508707 -0.38319123 0.022684744 -0.79432225 0.112872675 -0.088539064 1.4529961 -0.5049255
-0.19379793 -0.21592745 -0.29859275 -0.18659401 -0.5321624 -0.34916285 -0.2400798 -0.2297657
-0.6974853 -0.22955777 -0.91052544 -0.7461138 -0.1609485 -0.67203707 -0.03418821 -0.18092859
0.7457108 -0.15473828 -0.4336233 0.8419964 1.1322825 0.044217374 -0.026971571 -0.6137794
-0.64551777 -0.18253195 -0.12848242 -0.2409833 -0.31004846 -0.5488973 -0.16541646 -0.32564682
-0.051383458 0.7040092 -0.7911794 -0.39324036 -0.8942398 -0.37819612 0.17427734 -0.3602419
-0.6526913 -0.32613915 -0.1056322 -0.025092654 -0.5759424 -0.13322099 -0.3326695 -0.2692592
-0.09454573 -0.65096563 -0.43385965 -0.84793115 -0.6699854 0.05382736 -0.19061436 -0.3740523
-0.7113703 -0.64575624 -0.35042027 -0.30687183 -0.6950433 -0.12492177 -1.0649906 -0.2182292
-0.57460034 -0.73478425 -0.642208 0.3949557 0.46598518 0.6535878 -0.53622264 -0.9729913
-0.74407804 -0.659935 0.18604237 -0.09206468 -0.8655994 -0.46091875 -0.19841775 -0.31324783
-0.9040435 -0.038688295 -0.45710424 -0.2838731 -0.32784206 -0.6126018 -0.71793634 -0.35726705
-0.9340627 -0.9010077 -0.29691377 0.39826882 -0.87694204 -0.725148 -0.14937943 -0.27689663
-0.4962206 -0.5297538 0.0474025 -0.49686247 0.045848154 0.88592154 -0.21256511 -0.9536225
-0.5946559 -0.67189074 0.339014 -0.13664825 -0.2296128 0.3154259 -0.0062997704 0.9960896
0.5772408 -0.20457676 -0.48035365 0.058828417 -0.6643265 0.4443067 -0.30828446 -0.94321734
0.45633668 0.015800081 0.19698906 -0.057337116 1.1466099 -0.08088009 -0.16241835 -0.75592387

l2.weight f4 [300, 400]
00000000: 7517 0bbd 7a95 dabb de2a 97bc 20cc 46bb
00000010: 34e2 fdbb e239 ec3b 2a5d 08bd 28f1 bfbc
00000020: c219 5cbd edd7 09bc b0e5 c03c 04e5 023d
00000030: 8ae8 fbbc 7e0b 16bd 3335 453d 392c de3c
00000040: 8eb0 a73c 2c84 1fbc e511 943c 1f20 b73b
00000050: fa96 e03b 785a 08bc 32f9 dcbc cce0 073d
00000060: 9a49 633c 3c10 ebbc 4b11 38bd 7183 473c
00000070: 7ff0 343d eef7 a53c 04ce 0a3b caba ec3b
00000080: e666 233d 6a58 e53c 4138 593c 09b6 1f3d
00000090: 875d 233d da29 82bc 5de4 8fbc 3a35 e93b
000000a0: 5e67 28bd 741f 40bc 7f41 b33c 66a9 9e3c
000000b0: d309 3e3d 1d13 03bd e17d d03c a7ba 2dbc
000000c0: ea3c babc b139 ccbc cc1a 0f3d 08ad 35bc
000000d0: 3679 1bbd 1e5d 18bd 5458 883c b07b af3b
000000e0: 6ca5 873c fb50 2ebd bcbb 0f3d 33ca 68bd
000000f0: 819d c5bc 1036 ca3c 4058 e3bb eeee 09bd
00000100: bb71 e1bc 93de 33bd 15bb 1c3b 3955 163d
00000110: ba4f c4bc 4bf0 20bd 443e 71b8 651a 04bd
00000120: acf0 083c 97e2 a4bc ab90 e6bc f8e6 423c
00000130: 0ded 1f3d b285 e93c 068c 2e3d 55df 3bbd
00000140: aca2 953b 58ff b3bc 00c5 b6ba b99c de3c
00000150: 277f 20bd 1500 05bd 978d aebc d14c c1bc
00000160: 2d09 07bc a335 f43c e318 fe3c 481d 06bc
00000170: f3e7 3bbd 21ff 48bc 3262 b43c 73e1 073d
00000180: 1b14 213d bde8 d5bc e079 6dbc 239b e1bc
00000190: 1bc4 f23b 70e4 3bbc 5b76 e7bb e777 47bd
000001a0: bebe 8d3c 0811 3bbc 5807 bbbb 6dca 85bc
000001b0: 741a feba 1e9c 12bd 1f62 3dbd 710c 373d
000001c0: 7878 4a3b 6f9b 2abd b61b de3c b63c 233d
000001d0: 1085 2dbd 65fb 34bd 4ad2 40bd d484 0b3d
000001e0: 80dc 1fbd b5c3 193d 883d 1cbc d38f 6cbd
000001f0: 2856 f0bb 70b5 cdbc ddeb 143d aa4d e0bc
00000200: e3b3 4b3d 3188 41bd b6d3 273b 86ca 153d
00000210: f05e e23b 3390 e1bc 036e 68bd a801 233c
00000220: 6130 46bc d5d5 8abc ab5a efba c5fe 9e3b
00000230: 2d79 05bd e4a8 7fbc 5e61 a93c f0b9 aebc
00000240: 4a2b d4bc 182e 70bc c366 a3bc 6254 d9bb
00000250: 9654 92bc a076 b3bc 9a3f d4bc 8984 163d
00000260: 25be 3dbd deed f53c 3035 9dbb 06ef ec3c
00000270: bf7b 3b3d c611 a03c a808 013c 7fd8 38bd
00000280: 57a1 eebc 6b96 7d3c 4236 ea3c 8287 f63c
00000290: 2af1 d4bc c7f3 24bd 0e9f 93bc 1f37 2fbc
000002a0: 908e c0bc 2b91 e8bc 2db3 31bd 6f80 3b3d
000002b0: 0c4b 883c 8409 573c e004 473b e18e 423d
000002c0: 6839 35bd a35c 7a3b 7944 143d 3fe2 acbc
000002d0: c6e1 273d e5be 0cbc 464e 943c b569 0fbd
000002e0: 253f 473d e717 c0bc aee9 1ebd ac67 0bbc
000002f0: dd40 8b3c 77c0 253d 6a64 eabc 6c68 383c
00000300: 7f7e 2dbc 4a3b e23c cbb1 e1ba 4f8e b43c
00000310: 3794 bc3c a31f 67bd 82fc 06bd 3efb f13c
00000320: 9111 4ebd c0e8 423c 071e 383c 9459 0d3d
00000330: 1071 3cbd a802 3bbd d20e 833c 8c0c 5f3c
00000340: 427f e23a fd48 9f3c 2767 a2bc 3656 83bc
00000350: 7caa fcbc 08e7 bcbc 6e6c 9dbc ac1d f5bc
00000360: a1ed 4dbd 4571 23bd 02f2 52bd 40e3 2b3c
00000370: d08d 62bb ed5c 113c 488e 37bd 4075 3abd
00000380: 458f 09bc b3f7 efbc b046 35bd 1459 0b3d
00000390: faae dcbc 4d38 08bb 7a33 b0bc 9745 21bd
000003a0: 62c5 dbbc 874d 2ebd 9d9c 03bd e0b8 77bb
000003b0: c0c7 bfbc bd0e 173d e892 38bc 9771 3b39
000003c0: a4ff 7cbc f816 003c e0c2 00bd 2ea9 2f3b
000003d0: 6a7a ca3c f6e2 99bc e216 5dbd 5e9b 993c
000003e0: 7015 f63b c86e 36bd 72b2 54bd c058 923a
000003f0: 5adb 52bd 0db6 1ebd 7436 443c 2d63 13bd
-0.033957917 -0.006670651 -0.018453058 -0.003033407 -0.007747913 0.0072090486 -0.033291973 -0.023430422
-0.053735502 -0.008413297 0.023547024 0.031956688 -0.030750532 -0.036632054 0.048146438 0.027120696
0.02046993 -0.009736102 0.018074939 0.005588546 0.0068539353 -0.008322351 -0.026974294 0.033173367
0.013872528 -0.028694265 -0.044938367 0.012177334 0.044174667 0.020259824 0.0021179924 0.0072244154
0.039893053 0.02799626 0.013258041 0.03899196 0.039884117 -0.015889097 -0.017564947 0.007116941
-0.041114204 -0.011726249 0.021881817 0.019367885 0.046396088 -0.03200065 0.025450649 -0.010603583
-0.022734124 -0.024929853 0.034937665 -0.011088617 -0.037957393 -0.03719818 0.01664368 0.005355321
0.016558371 -0.042557698 0.035091147 -0.056833457 -0.024122955 0.024683982 -0.0069380105 -0.033675127
-0.027520051 -0.043913435 0.002391522 0.03670237 -0.023963798 -0.03929166 -5.7516867e-05 -0.032251734
0.008358162 -0.020127578 -0.028145155 0.011895888 0.03904443 0.028506134 0.042614006 -0.045867283
0.004566511 -0.021972343 -0.0013944209 0.02717434 -0.039183762 -0.03247078 -0.02130775 -0.0235962
-0.008241934 0.029810732 0.031017726 -0.008185692 -0.0458755 -0.012267859 0.02201948 0.03317399
0.039325815 -0.026111955 -0.014494389 -0.027539795 0.0074086315 -0.011468038 -0.0070636696 -0.048698332
0.017302867 -0.011417635 -0.0057076626 -0.016331876 -0.0019386546 -0.035793416 -0.046236154 0.0446896
0.003089456 -0.04165214 0.027112823 0.03985282 -0.042363226 -0.04418506 -0.047075547 0.03406222
-0.039028645 0.037540156 -0.009536155 -0.05775435 -0.0073344894 -0.02511093 0.03635775 -0.027380783
0.0497321 -0.047249023 0.0025608367 0.036570095 0.00690829 -0.02753458 -0.05674554 0.009949125
-0.012096495 -0.016947666 -0.0018261274 0.0048521482 -0.032586265 -0.0156042315 0.020676311 -0.021328896
-0.025899548 -0.014659427 -0.019946462 -0.0066323737 -0.0178626 -0.02190715 -0.025909234 0.03674749
-0.046323914 0.03002065 -0.0047976 0.028922569 0.04577231 0.019539725 0.007875599 -0.04512834
-0.029129667 0.015477757 0.028590325 0.030093912 -0.025993902 -0.040271547 -0.01802018 -0.010694294
-0.02350548 -0.028389534 -0.043383766 0.04577678 0.016637348 0.013124827 0.0030367896 0.04749954
-0.0442442 0.0038202188 0.036198113 -0.021103976 0.0409868 -0.008590435 0.01810373 -0.03501292
0.048644204 -0.023448898 -0.038797073 -0.008508604 0.016998703 0.040466752 -0.028612334 0.011255365
-0.010589241 0.027616162 -0.0017219124 0.022040514 0.023019893 -0.056426656 -0.032955654 0.029538747
-0.05030972 0.011896312 0.011237628 0.034509256 -0.046006262 -0.04565683 0.015998278 0.013613831
0.0017280357 0.019443983 -0.019824577 -0.01603232 -0.030843012 -0.023059383 -0.019216742 -0.029921375
-0.05027545 -0.039902944 -0.051500328 0.010491192 -0.003456939 0.008872253 -0.044813424 -0.045521975
-0.0083959745 -0.029292917 -0.044256866 0.0340205 -0.026938904 -0.002078551 -0.021508921 -0.039373007
-0.026827518 -0.042554405 -0.03213178 -0.0037799403 -0.023410678 0.03687929 -0.011265494 0.00017876025
-0.015441809 0.007817976 -0.031435847 0.002680372 0.024716575 -0.018784981 -0.0539769 0.018750843
0.00750988 -0.044539243 -0.05192799 0.0011165366 -0.05147872 -0.038747836 0.011975873 -0.035983253

l2.bias f4 [300]
00000000: 4f0c 20bd bb1b 88bd c887 cf3c 4bb8 62bc
00000010: d2bb 54bd 1b89 67bd 3b36 52be d484 8b3d
00000020: ad5b 0cbd 83a8 713c 3ffb e13d b5da 113d
00000030: 916b 9abe cdaa 78bc aaef 6b3d 0fd1 acbd
00000040: 937d 6ebc 8eaf 283d e644 1b3c f510 8abc
00000050: 6c3c 0c3e 3f76 be3d 5a56 8d3e 07ae 20bd
00000060: 8673 17bd 273b 7a3f 14ab 0e3e 724c d03c
00000070: 7f72 2fbc fa0c 19be 4620 283c 5973 db3c
00000080: a1be 593d 880e c53c 9796 80bd 6f99 eabd
00000090: 350f 9c3c de44 bb3b 639e 073e d63c 97bd
000000a0: 4d13 da3c defd 2a3d 34ec 8c3d 4fa3 bd3d
000000b0: c8c1 673f a2f0 5e3f 319f d23c 671c a5bd
000000c0: 1d41 7e3d 9c74 79bd 3fd3 22bc 8836 c9bf
000000d0: cffc acbd 45e1 0cbd d7c9 813d 7860 3d3d
000000e0: bbec 723d da83 6b3d 5065 3fbd efbf bf3c
000000f0: d1cc 4dbc 38a7 3dbd bdd7 9b3c 3067 c83d
00000100: be78 af3a 4148 993a d878 d63c 5d59 5b3c
00000110: 2cdc 813d 121b b3bd a100 4fbd 6675 12be
00000120: 2968 5a3d 5077 933f 9e6f 17bd d901 573c
00000130: 74ca 753f 0f26 a3bc fa09 733f 633f 08bf
00000140: f782 29bd ce84 b03d 8de1 9f3e 1784 3a3d
00000150: 05f9 87bd 60f5 babd a510 0fbd 1023 30bd
00000160: 261e 93bd 0330 6abb 8939 42bc 3691 97bd
00000170: f331 b63d 9a39 913d b85a b7bc 4d2c ef3d
00000180: 48ae babd e935 d93b f134 d23c bc21 66bd
00000190: c602 16bb fe61 1fbd b661 a13b 498a 40bd
000001a0: f5f8 593f e4c4 72bc 3c05 8a3d 5f0c 073d
000001b0: 22d6 53bd f41b 043d a07c b2bd 6bc5 713d
000001c0: 2cdb be3c 95c9 8bbc bf3c 393c 9247 debd
000001d0: c99c acbf 837f c13d 5ffd fcbf 8759 76be
000001e0: 4c9b 053e a2ab d8bd 3a36 54bd e294 c5bd
000001f0: cd13 8cbd a23a 483d e079 f3bf 9dac 573d
00000200: 1f53 a2bd 9ffa c0be e228 daba bd2a 0abe
00000210: 0b22 7a3d 7616 203e 7e62 8fbe 7c00 593d
00000220: 7553 01bc 32dd 50bd 2914 cdbd cc2f 30be
00000230: b0d1 bbbc 3015 b7bd 1eee 9dbc e6bc 9dbc
00000240: 07e6 383d 49a3 d93d 12b5 823d 1343 7e3d
00000250: 0f72 27bc 38ea 36bd 04c2 73bd 121c 5fbd
00000260: 04c9 0f3e 1092 31be 4362 6bba 9733 bd3c
00000270: 4f01 a6bd d3a2 edbd e663 e03d 43da 0b3d
00000280: 7f27 563f e0d9 b0bd d903 5f3b c961 043d
00000290: 6437 7bbc a8be bdbd a4f0 43be 7e65 2d3c
000002a0: ad02 1ebd 2a78 e83d be75 683d c09a babc
000002b0: 7072 35bb a8fb 37bc a023 453d 8cd1 7cbd
000002c0: 0ffa 21bd 81c1 0140 9af1 083e 5f49 adbd
000002d0: e5e9 ef3c 5726 a1bd 3f7b 393d d0eb b3bc
000002e0: 96e0 9cbd b77a 3a3d ac13 ffbc 1e42 90bd
000002f0: 992e db3a 7bb2 eabc f56e 0bbd a6e7 99bb
00000300: 4d26 0bbd 3a64 5f3f 8d88 51be 3b7d f63d
00000310: 006f babd d828 d93f 15be bbbe 20a8 1abe
00000320: 2347 efbc 6cd8 0b3d 3a93 ea3d 71c4 513e
00000330: 4ed4 113f 4a99 6fbe 333d 903c e014 bcbd
00000340: a142 dd3b fcba 73bc 9266 ddbd 5284 673d
00000350: b0f0 babc 81e2 46bd f6e8 98bd c30c f33c
00000360: 3fa4 2ebd 2fd5 833c 0ed2 17bd ffe5 94bd
00000370: 2408 013f 800e 313d 1409 77bb 168d 0040
00000380: a51c 0dbd 364e 9ebd 0b81 d93b 6846 b7bc
00000390: 08ff b8bd 4b9c 6fbc 2ece 2d3c bff8 a2bd
000003a0: 3a12 5abc 26cb 243d 377a 513f 8385 8bbe
000003b0: 9d89 82bd 87a2 24bd c8d1 b2bd 95e3 0fbd
000003c0: e2b3 603d 7dd9 89bd 27d9 aabd b5d1 e63c
000003d0: 01b1 c8bd a81c f73c baf1 d33c f8b7 fb3f
000003e0: 4ef2 9bbc 0ad0 c5bf ee3d 2b3d af60 393d
000003f0: cb21 80bd 33d7 8cbc e1d5 523d 983a 403b
-0.03907424 -0.06645914 0.0253333 -0.013837884 -0.051936932 -0.05652724 -0.205285 0.06812444
-0.034267116 0.014749649 0.110342495 0.035608966 -0.30160192 -0.015177441 0.05760161 -0.08438312
-0.014556306 0.041183047 0.009476876 -0.016853789 0.13694924 0.092998974 0.27604944 -0.039228465
-0.036975406 0.9774651 0.13932449 0.025427077 -0.01070845 -0.14946356 0.010261601 0.0267884
0.053160314 0.02405478 -0.06278723 -0.114550464 0.01905022 0.0057149967 0.13244013 -0.073846504
0.026620531 0.041746013 0.0688099 0.09259664 0.9053006 0.87085927 0.025710674 -0.08062058
0.062073816 -0.060902223 -0.00993806 -1.5719767 -0.08446657 -0.03439452 0.06337326 0.046234578
0.059307795 0.05749879 -0.04672748 0.02340695 -0.012561039 -0.04630205 0.01902377 0.097853065
0.0013387424 0.0011694507 0.02618067 0.013388005 0.063408226 -0.087453976 -0.05053771 -0.14302596
0.05332199 1.1520786 -0.03697168 0.013122999 0.96012044 -0.019915609 0.949371 -0.5322172
-0.041384663 0.086190805 0.3122677 0.045536127 -0.066392936 -0.09128833 -0.034927983 -0.04300219
-0.07183485 -0.0035734184 -0.011854538 -0.07400744 0.08896246 0.07091065 -0.022382125 0.116783716
-0.09115273 0.006628741 0.02566001 -0.056184515 -0.0022889837 -0.038911812 0.004924978 -0.04700688
0.85145503 -0.01481745 0.0673928 0.032970782 -0.051717885 0.03225322 -0.087151766 0.059026163
0.023297869 -0.017063895 0.011305987 -0.10853495 -1.3485347 0.09448149 -1.9764823 -0.2405759
0.13047522 -0.10579611 -0.051809527 -0.09647538 -0.06839714 0.04888404 -1.9021568 0.05265485
-0.0792601 -0.3769121 -0.0016644264 -0.13492866 0.061067622 0.15633568 -0.2800483 0.052978978
-0.007893433 -0.0509922 -0.10013611 -0.17205733 -0.022927135 -0.08939588 -0.019278582 -0.019255113
0.045141246 0.10626847 0.06382193 0.062075686 -0.010220065 -0.044656962 -0.0595112 -0.05447013
0.14041525 -0.17340875 -0.0008979181 0.023095889 -0.08105718 -0.11603322 0.10956554 0.034143697
0.83654016 -0.08635306 0.0034029393 0.032319818 -0.01533303 -0.092648804 -0.19134766 0.01058328
-0.03857677 0.113510445 0.056752913 -0.022778869 -0.0027686618 -0.011229433 0.048129678 -0.061723277
-0.039545115 2.0274355 0.13373414 -0.0846126 0.029286334 -0.07868641 0.045283552 -0.02196303
-0.07660024 0.045527186 -0.03113731 -0.07043861 0.0016722261 -0.02864956 -0.034041364 -0.004696804
-0.033972073 0.8726231 -0.20462246 0.120356046 -0.09103203 1.696559 -0.3666846 -0.15103197
-0.029208725 0.034141943 0.114538625 0.20485093 0.56964576 -0.23398319 0.017607307 -0.09183669
0.0067523276 -0.0148761235 -0.10810579 0.056522675 -0.022819847 -0.048555855 -0.07466309 0.029669171
-0.042637106 0.016092865 -0.037065558 -0.07270431 0.50403047 0.04322672 -0.003769462 2.0086112
-0.034451146 -0.07729761 0.0066376976 -0.02237244 -0.09033018 -0.0146246655 0.010608239 -0.07957601
-0.01331001 0.0402328 0.8182711 -0.272503 -0.06373904 -0.04019406 -0.08731419 -0.03512915
0.05485905 -0.06730936 -0.083422 0.028176168 -0.09799386 0.030165032 0.0258721 1.9665518
-0.019036438 -1.5454113 0.041807108 0.04525822 -0.062564455 -0.017192459 0.051473502 0.00293318

l3.weight f4 [1, 300]
00000000: 9016 c9bc 61ba ba3d 5567 123d f570 13be
00000010: 1826 b93b e24b 693c bcdc b43e de33 22be
00000020: 9231 d13c ec66 07bd a23d 5f3f 8605 21be
00000030: 30bc a7be e53e 0c3d c6d4 25be bdad 093c
00000040: 5e2d a13c 66ae 473d db0d 233f db31 e83c
00000050: 183d cabe 79de 52be f741 1fbf 4505 073b
00000060: 54b1 0ebc c55d eabe ec6e 0ebf 7073 053e
00000070: dd53 0c3d 8b95 87be 6576 163d df79 273c
00000080: 5e43 2ebe 83a8 f1bd d5dc 8d3a 8050 a53e
00000090: 8644 23bb acc7 eb3d 8627 163e fe8e 243c
000000a0: f950 b03d 3fec 22be f655 24be f0a9 4bbe
000000b0: 7173 4bbe 4f14 3dbe c7eb b6be c353 7c3c
000000c0: 65ce ff3d ef0c af3c 6734 21bc c593 ab3f
000000d0: 52bf e23c 6c32 fd3c 2e04 523e f1fd 92bf
000000e0: 32c4 69be cece a3bd 7d72 163d 47a7 37be
000000f0: 4e90 23bd 9d6f 17be 8e1f 22bd ac55 623e
00000100: 15a1 18be 22b5 703d dd80 ec3d 1ba7 f4bf
00000110: 07c1 3abe fbb9 213e 3b52 003d 8928 c9bc
00000120: 4d6c 10be f7d9 cabf 0ba0 e53c 1f26 36be
00000130: 0c2d 5bbe 4bd8 febd 752c 6abe a158 bf3f
00000140: 06db a53c bcff 623e 8000 f0be 28b9 40be
00000150: 835f 00bd 84e5 843c 9cdd f4bb 529c d3bc
00000160: c72c a83c 1361 e03b a800 4c3c 8108 c9bc
00000170: 147c dfbe 981a 383e cf1c b0bd 95c6 b23e
00000180: 51e1 543c d4a4 0ebe 10ba 4dbe 18a0 463d
00000190: c3ab e53b cd56 053c adad 8fbc 057d 0bbd
000001a0: c912 c5be 4906 d6bd 0449 03be 3096 4e3d
000001b0: ac2d 03bc 02fc e1be cb49 ea3c 8a5b e6bd
000001c0: 6d1c b53d c140 493b 153c 14be c996 40bc
000001d0: 531a 993f 45a9 303e fee7 773f 221a 68bf
000001e0: 4eaf 1a3e 669b 2dbc 05bb 893b 2b43 353e
000001f0: 640f 713c 10fe 133e e64a 243f 6e39 513d
00000200: 4066 b03c 2a4f 7b3d ba0f d0ba 336e ef3c
00000210: ff7b 3cbe 2f23 bdbe 083e b33d fb18 133e
00000220: deb6 213d fe19 abbc de2a bdbe 04eb c3be
00000230: ba94 d73c 08ac 4a3a a193 c33c c3ae f1bd
00000240: 035a 7cbe bdab 9abe 3539 34bf 634f f7bd
00000250: 965e a13c b9e3 4ebb d03e 3bbc 1d24 153c
00000260: ce78 a9be aa06 343e 9f94 aebc 5067 c7bd
00000270: 6c5c 0f3d 28df c23b d2c5 d6bf fef7 35be
00000280: f9b6 26be 9be0 e7bc 850a 1cbe af9b 153e
00000290: 421a 5ebc e15d 4d3b 660f ccbe c046 48bc
000002a0: 355a ca3d b904 d6be 304f 663e b52e 843c
000002b0: 747a 873b 641b 88bc b7eb 3cbe 9836 c93b
000002c0: efa5 3b3d 1846 b2bf d042 903e 461c 98bb
000002d0: 00f4 f73d 4ea6 97bc c82f 4dbe 9a90 ecbd
000002e0: d2ce d5bc 1ba0 78be d072 c33b fd1b 01bc
000002f0: 65c3 1ebc ecd9 f8bc daa6 e13c a5dc 1fbe
00000300: 64b2 f3bc 8976 39be bf61 3dbf 42d2 69be
00000310: 0259 dfbc 3933 3abf 980b 623e a039 97be
00000320: 62f8 dfbc 4ffb 3fbe f087 c0be 9fe9 bd3b
00000330: 8022 b4bf a339 c9be 6e8e bc3d 60ef 3b3d
00000340: c02e 4cbc d3c6 6739 f404 8c3b 69fc 843e
00000350: ef40 37bb fee1 92bc 7670 aa3b 2e6e 24be
00000360: 45ba 06bd aec3 fc3d 0d25 9fbb ec38 7dbf
00000370: c85a cdbe ed9e a6bf f57f 04bb 894d babf
00000380: 993e d03c ea0e d33c 37bf 603d 9068 ccbd
00000390: f04b b13c f371 7e3c 902f 49be 742c 7bbc
000003a0: 8db3 81bc 4104 51be 2f42 dabe 859e 85bd
000003b0: 69a0 da3c 06cb 17bc 879c 25bd dd19 053b
000003c0: 79e6 59be d4fd fb3c a900 ccbc 4d00 ab3d
000003d0: 6f0a be3b 552b 323e 5ef6 043e bf40 adbf
000003e0: eaa3 683d 21c1 a53f 6c17 0ebe e069 4bbe
000003f0: 6acd dfbc 7813 8c3d c34d 7dbd 1594 963c
-0.024546891 0.0911758 0.035743076 -0.14398558 0.005650293 0.014239283 0.35324657 -0.15840098
0.025536332 -0.03305714 0.8720342 -0.15724763 -0.32760763 0.03423967 -0.16194448 0.008403239
0.019674953 0.048750304 0.63693017 0.028344085 -0.39499736 -0.20592679 -0.6221003 0.0020602506
-0.0087092705 -0.45774665 -0.55638003 0.13032317 0.034259666 -0.2648128 0.036734004 0.010221927
-0.17017886 -0.11799719 0.0010823259 0.3228798 -0.002491267 0.11512694 0.14663514 0.010043858
0.08609194 -0.15910433 -0.16048416 -0.19889045 -0.19868256 -0.18464778 -0.3572676 0.01540083
0.124905385 0.021368472 -0.009839154 1.3404471 0.02767912 0.030907832 0.20509407 -1.1483747
-0.22828749 -0.07998429 0.03673028 -0.17934905 -0.03993254 -0.14788671 -0.039580874 0.22102994
-0.14905198 0.05876649 0.11548016 -1.9113497 -0.18237697 0.15793602 0.03132842 -0.024555461
-0.14103813 -1.5847768 0.028030416 -0.1778798 -0.21403903 -0.12443598 -0.22868522 1.4948922
0.02024604 0.22167867 -0.4687538 -0.18820632 -0.031341087 0.016222723 -0.007472707 -0.025831375
0.020529164 0.0068475096 0.012451328 -0.024540188 -0.43649352 0.17978895 -0.08599245 0.3491713
0.012993173 -0.13930064 -0.20090508 0.04849252 0.007009001 0.008138371 -0.01753887 -0.034054775
-0.38490894 -0.104504175 -0.12820822 0.0504362 -0.0080064945 -0.4413758 0.02859964 -0.112479284
0.088433124 0.0030708762 -0.14476044 -0.0117547 1.1961159 0.17252071 0.96838367 -0.90664876
0.15105936 -0.010596132 0.0042032027 0.17701404 0.014713142 0.14452386 0.64176786 0.05108016
0.021533132 0.061354794 -0.0015873828 0.029227352 -0.18406676 -0.36940905 0.08752066 0.14364998
0.039481036 -0.020886417 -0.36946768 -0.3826524 0.026316036 0.0007731323 0.023874106 -0.11800911
-0.24643712 -0.3020915 -0.7039979 -0.12075689 0.019698422 -0.0031568839 -0.01142855 0.009102848
-0.3309998 0.17580667 -0.021311102 -0.09736502 0.03500025 0.0059470125 -1.677912 -0.17770383
-0.16280736 -0.028305342 -0.15238388 0.1461017 -0.013556065 0.0031336474 -0.39855498 -0.012223899
0.09880487 -0.41800478 0.22491145 0.016135553 0.0041344706 -0.016614623 -0.18449293 0.0061405413
0.045812543 -1.3927641 0.28175974 -0.0046420423 0.12107086 -0.018511917 -0.20037758 -0.11551018
-0.026099596 -0.24279825 0.0059646145 -0.007880208 -0.00969014 -0.03037735 0.027545381 -0.15611513
-0.02974815 -0.18111624 -0.73977274 -0.22834113 -0.027264122 -0.7273441 0.22074735 -0.29536152
-0.027340118 -0.1874821 -0.37603712 0.005795672 -1.4073029 -0.39301786 0.09206854 0.045882583
-0.012462318 0.00022103945 0.0042730514 0.25973824 -0.0027962287 -0.017930027 0.0052013947 -0.16057655
-0.032892484 0.123420104 -0.0048567117 -0.9891498 -0.40108323 -1.301725 -0.002021787 -1.4554912
0.025420474 0.025763948 0.054869857 -0.09980881 0.021642655 0.015530097 -0.1964705 -0.015330423
-0.015832687 -0.20411779 -0.4262862 -0.06524376 0.026687818 -0.009264713 -0.04043248 0.0020309605
-0.21279325 0.030760683 -0.024902659 0.08349667 0.0057995836 0.17399342 0.12984607 -1.3535384
0.056796946 1.2949563 -0.13876122 -0.19864607 -0.027319629 0.06839651 -0.061841737 0.018381158
