TD3/preTrained/TD3_BipedalWalker-v3_0_actor_ep200.pth (torch_old, 526982 bytes, 6 tensors)

l1.weight f4 [400, 24]
000000 93 95 38 be 0b 93 06 bf ab 1a 05 3f db c1 ac be
       -0.18025808 -0.5256812 0.5199382 -0.3374165
000010 88 d6 b2 3e 12 30 ae 3d ba 1a 66 be 52 29 ea be
       0.349293 0.085052624 -0.22471133 -0.4573465
000020 7c 07 9a be ba 54 26 3e 2c 7a 91 3d b5 d6 85 3d
       -0.30083835 0.16243258 0.071033806 0.06535093
000030 3d e0 22 bf 60 2e a7 3d 87 8f 37 be ed db f1 3d
       -0.6362341 0.08163142 -0.17925845 0.11809526
000040 22 99 f4 bd a2 04 3b be b5 7e 30 be e2 a4 d4 bd
       -0.1194327 -0.18263486 -0.17235835 -0.103830114
000050 17 a3 0c be 11 cc 55 3d e6 1d 90 3d 7e 36 82 3d
       -0.13734089 0.052196566 0.07036953 0.0635805
000060 80 a9 d0 bd e3 5c 44 3d a4 97 29 bf 31 36 dd bd
       -0.101885796 0.047940146 -0.6624701 -0.10801352
000070 70 98 bc 3e eb 07 b0 be 78 26 67 be 1c 20 66 3c
       0.3683505 -0.3438104 -0.22573268 0.014045741
000080 8c 98 a3 be d4 f7 b4 3d ef 89 3f 3e cf d0 81 be
       -0.31952322 0.08836332 0.18704961 -0.2535462
000090 ba d0 2b bd b5 1a e8 be b4 8e a6 3d 9a ee 44 bc
       -0.041947104 -0.45332876 0.08132687 -0.012019778
0000a0 ef 6e a3 3d a8 bc 21 be ba ec b2 bc 93 7c b3 bc
       0.07980143 -0.15794623 -0.021841396 -0.021909988
0000b0 30 ea 8a bd fa 31 2d be c5 e7 59 3e d8 a0 3f 3d
       -0.06782949 -0.16913596 0.2127982 0.046784252
0000c0 f6 c1 87 3e ae 82 0a 3e 1d 93 31 bf 25 47 45 3e
       0.26515168 0.13526413 -0.693651 0.1926542
0000d0 57 79 01 3f 42 08 c0 3e 34 bf 84 3b f9 b2 26 3c
       0.50575775 0.375063 0.0040511135 0.010174506
0000e0 86 31 b7 3d 02 8f 6d 3e 81 53 aa 3e 9b 20 92 bd
       0.08944993 0.23199084 0.33266833 -0.07135125
0000f0 30 4a be be 5a 91 b0 be 63 30 1a be 5e d5 d6 3d
       -0.37165976 -0.34485894 -0.1505752 0.10489915
000100 70 da 3f be 13 2f 61 be b7 1a de 3d f1 41 59 be
       -0.18735671 -0.21990614 0.10844939 -0.21216561
000110 bb 8f 5d 3d a4 01 11 be d1 02 41 be 38 1b 26 3e
       0.05409215 -0.14160782 -0.1884873 0.1622132
000120 bf 97 26 3e 3d c7 fe 3e a2 24 be bd 26 4e 1a bf
       0.16268824 0.49761382 -0.09284331 -0.60275495
000130 88 ae 64 3d 9b 89 62 be c2 27 a8 3e c9 f6 cc 3d
       0.05583051 -0.22122805 0.32842833 0.10008008
000140 46 1b b6 be cb 18 5e be e2 03 f6 be 98 9c bf be
       -0.35567683 -0.21689145 -0.48049837 -0.3742416
000150 f7 95 0a be ab 67 a8 bc c2 71 3f bc 0c 40 af 3d
       -0.1353377 -0.020557245 -0.011684837 0.08557138
000160 67 4e 05 be 21 cd f2 bd de 08 55 bd e9 38 98 bd
       -0.1301819 -0.118555315 -0.05201041 -0.0743273
000170 eb 26 85 bc a5 bd d7 bd b9 d8 4a 3e e5 e9 5c bd
       -0.01625391 -0.10534219 0.19809236 -0.053933997
000180 4d 4b 73 3e f3 4b d6 be 2f 9e 81 3e 93 cb 14 3d
       0.23759194 -0.4185482 0.25315997 0.036326956
000190 53 72 da 3d b4 6e 55 bc 64 fc 51 bd ab d9 83 3e
       0.10666337 -0.013026882 -0.05126609 0.25752005
0001a0 11 d7 bc be c3 15 c4 3e 0f 1b 05 3e 3e fc 98 be
       -0.36882833 0.38297853 0.12998603 -0.29879946
0001b0 dd 39 12 3f d3 b3 07 3e 37 a4 86 be c8 67 7d be
       0.5711954 0.13252191 -0.2629716 -0.2474662
0001c0 94 30 6e be 4e 9d 6f be 28 ed 68 3d 70 76 e9 bd
       -0.23260719 -0.2339985 0.056866795 -0.11399543
0001d0 7a c6 de 3d 4b 04 03 be 41 0c d5 3d af 76 94 bd
       0.108777 -0.12794606 0.10402728 -0.072491996
0001e0 57 00 48 3e 76 c5 df 3e 02 d7 c6 be f0 5d e8 3e
       0.1953138 0.43705338 -0.38835913 0.4538417
0001f0 14 77 3b be 8a 85 44 3e ba c6 47 3e d2 f9 91 be
       -0.18307143 0.19191566 0.19509402 -0.2851091
000200 a0 51 82 bd 78 47 e8 3e 45 f8 03 3d f8 29 d8 3d
       -0.06363225 0.45367026 0.03221919 0.1055488
000210 bb b7 e4 bc a0 32 87 3e ab 92 69 3d 50 0f 9d 3d
       -0.02791964 0.2640581 0.05702464 0.07668936
000220 3f 72 b4 3c c1 0c cf bc 9b a5 cf 3d 30 e4 69 be
       0.022027133 -0.025274636 0.101390086 -0.22840953
000230 5a 45 7e be 14 3b aa bc 5d ff 1f bd da 40 20 bd
       -0.24831143 -0.020780124 -0.039061893 -0.039124347
000240 f0 2d 4b be 9f 6e eb 3d 64 10 dd 3e cc 91 82 be
       -0.19841743 0.11495709 0.43176568 -0.2550186
000250 d8 1b ac be 34 97 6e be 16 98 5d 3d 26 31 99 3d
       -0.33614993 -0.23299867 0.05410012 0.074800774
000260 dc 74 9e 3e 44 a7 51 3e 1b 6a cb 3e ec b3 44 3e
       0.30948532 0.20473963 0.3972939 0.1920926
000270 49 a6 d8 3e 8a a5 a7 3e 80 01 d4 bd 71 ae 9c bd
       0.42314366 0.32743484 -0.103518486 -0.076504596
000280 02 bc 19 bd c7 5a ea 3c 43 81 2c bd 82 e4 1e be
       -0.037532814 0.02860774 -0.04211546 -0.15516856
000290 cb e0 6c bd 45 9f 5a be 56 e9 8e be 2d 21 f5 3c
       -0.057831567 -0.21349819 -0.27912396 0.029923046
0002a0 69 e3 cf 3e e8 88 d4 3e ce c9 97 bf 51 f9 2b be
       0.40603188 0.415107 -1.1858461 -0.16794325
0002b0 23 79 f0 bd c2 13 d4 bc 53 3c 0c 3f 2e 21 99 bd
       -0.11741855 -0.025888328 0.5477955 -0.07477032
0002c0 ae 00 85 be 39 b7 b6 3e 33 73 69 3e de a0 0f bd
       -0.2597708 0.35686663 0.22797851 -0.035065524
0002d0 5b b2 8a bd 6f 8e 12 3d ec 36 8a bd 50 ec 1c be
       -0.067723 0.035780367 -0.06748757 -0.15324521
0002e0 99 dd 5e 3d c5 a7 1c 3e 55 fa 14 be 18 28 15 be
       0.05441055 0.15298374 -0.14548619 -0.14566076
0002f0 b0 a5 a4 bc ee 78 29 be 68 ea 29 bd 15 31 65 be
       -0.020098537 -0.16550037 -0.041483313 -0.22382005
000300 1b a6 78 3e ba 90 9b 3e f8 fa 03 bf e2 8a 1c bf
       0.24282114 0.30383855 -0.5155482 -0.6114942
000310 35 9b 0e 3e 5f fd 02 bf ff 38 ab 3e d9 b6 52 be
       0.13926394 -0.51167864 0.33441922 -0.20577563
000320 2b bf ab be 28 aa 15 3c 80 8a b2 3e 8f be 26 3d
       -0.33544287 0.009134807 0.34871292 0.040709075
000330 21 c2 af 3e 7a 63 3b 3d 27 f2 8f 3e 25 ee 7c 3e
       0.34327796 0.045749165 0.28114435 0.2470022
000340 32 09 0f 3d 60 5c dc 3b c8 9d 2f 3e 32 9f 5b 3e
       0.03492088 0.006724879 0.17150033 0.21447447
000350 58 c8 aa ba 1c 92 4b 3e ff ae 20 3e 04 e1 f5 bd
       -0.0013029678 0.19879955 0.15691756 -0.12005809
000360 d7 21 3b 3e 18 e5 8d be bf be a9 3e 5e 7d 5f 3e
       0.18274628 -0.27713847 0.3315334 0.21825168
000370 02 d2 81 3e 9b b8 52 3d 10 ca af 3d 82 76 45 39
       0.25355536 0.051445585 0.08583462 0.00018831532
000380 46 31 b8 bd 91 dd 42 3e 94 34 c9 3e 71 35 15 bd
       -0.08993773 0.19029833 0.39297926 -0.03642792
000390 10 ab d9 3e 22 dd 60 3e 8f 3f e7 bd 08 33 b2 bd
       0.42513323 0.21959355 -0.1129142 -0.0870114
0003a0 c7 04 44 3b 65 ec 8d 3d 60 0d 53 be aa 9c 5e be
       0.0029910074 0.06929854 -0.20610571 -0.2173945
0003b0 6c b7 0d be 66 ca ec bd 70 fd 15 3e 61 15 19 3c
       -0.13839501 -0.11562042 0.1464746 0.009343476
0003c0 57 87 0c bd 25 45 d5 be b7 07 dc 3e 1c 40 8f bd
       -0.034308758 -0.41654316 0.42974636 -0.0699465
0003d0 5c 53 82 bc fc e1 fd bd df fa 87 3b 76 8d b8 bd
       -0.01590889 -0.12396619 0.004149779 -0.090113565
0003e0 07 c1 a4 be bf f6 9b 3e e6 f9 bc be af 67 2a bd
       -0.32178518 0.3046169 -0.36909407 -0.041602787
0003f0 de f3 bb 3d 90 c1 95 bd c8 04 42 be e7 31 f1 bd
       0.09177373 -0.0731231 -0.18947136 -0.11777096

l1.bias f4 [400]
000000 6d 38 bf bd 63 5b f9 bd c2 91 93 3d ec 38 23 be
       -0.09336934 -0.12175634 0.072055355 -0.15939683
000010 e6 48 8d 3d b2 51 57 be 38 7e 36 bd 6b 6b fb 3d
       0.0689867 -0.21027258 -0.044553965 0.12276348
000020 77 2e 2d bc c5 b3 79 bd dc fe d2 3d a7 6d 15 be
       -0.01057016 -0.060962457 0.10302517 -0.1459261
000030 52 d9 de bc 99 e3 2e be cf 92 7f be 88 e2 b6 bc
       -0.027203236 -0.17079009 -0.24958347 -0.022324815
000040 a4 43 92 3d 5a 37 32 be 1f d4 f9 bd 7a ed 3c 3c
       0.07141808 -0.17403927 -0.12198662 0.011531228
000050 41 27 5f 3d f4 80 c6 3d bc 46 84 be 0d 7c 5c be
       0.054480795 0.096925646 -0.25835216 -0.21531697
000060 d7 74 3a bd a4 5d 09 be 3b 80 28 3b 85 8a bc 3c
       -0.045521583 -0.13414627 0.0025711197 0.02301527
000070 79 37 9f 3e e4 a4 ac 3d 7a 84 8a bd 20 ea 3e be
       0.3109701 0.08429888 -0.06763549 -0.18643999
000080 0e b8 59 3e a5 7f 93 be 57 0c 85 bc 99 ca cd bd
       0.21261618 -0.28808323 -0.016241236 -0.10048408
000090 2d 94 72 bd fe ac fd 3c d6 bc 0c be 2f ec 68 bd
       -0.059223343 0.030966278 -0.1374391 -0.056865867
0000a0 b5 76 16 be 93 b3 f9 bd a9 18 4b 3e b9 04 74 be
       -0.1469372 -0.12192454 0.19833626 -0.23829927
0000b0 5d ff 09 3e 52 35 df bd 2c 72 39 3d f3 d6 09 3e
       0.1347632 -0.10898842 0.0452749 0.13460903
0000c0 9e 53 44 be 12 13 80 bd a5 6f 70 bd 5d da 2f be
       -0.19172522 -0.062536374 -0.058700223 -0.17173143
0000d0 71 b0 95 3d 4b ac 99 be 15 b4 55 bc 14 95 28 be
       0.07309044 -0.30014262 -0.013043423 -0.16463119
0000e0 2e ac 0c bd c5 70 6f be 7d 40 07 3d e8 ab b2 bd
       -0.03434389 -0.23382862 0.033020485 -0.08724195
0000f0 ae b8 1d 3c b3 c9 48 be e8 45 dc 3d 19 e8 a5 bd
       0.009626551 -0.19608192 0.10755521 -0.0810091
000100 ff 96 75 b9 8d 79 8c 3d a1 6d d7 bd 19 fc 0f bd
       -0.00023421271 0.068591215 -0.10518957 -0.03515253
000110 c4 ab f8 bd b1 a3 20 3e 50 fe d4 3d 25 ac 84 3c
       -0.12142137 0.15687443 0.10400069 0.016195366
000120 dd b8 9c bd 08 9d 99 be 35 7e 86 be bc d7 0e 3e
       -0.076524474 -0.30002618 -0.26268163 0.13949484
000130 bc 90 26 be 37 2c 25 be 86 86 dd bd ac 63 06 be
       -0.1626615 -0.16130148 -0.10816674 -0.1312396
000140 7f 3a 90 3d 17 a5 a0 bd 42 37 03 be 23 f1 24 be
       0.07042407 -0.078439884 -0.12814048 -0.16107611
000150 f7 ea 45 be 03 eb 45 be aa 65 09 bc 96 d0 18 be
       -0.19327913 -0.19327931 -0.008386055 -0.14923319
000160 15 41 03 3e 3d 39 a1 3d f6 37 93 be 72 c2 33 be
       0.12817796 0.078722455 -0.28753632 -0.17554644
000170 c6 8d e4 3c 19 9a 08 be 57 c7 53 3e ae aa 72 3c
       0.027899634 -0.13340034 0.20681511 0.014811201
000180 c0 b3 9a bd bd ee a3 bd 6a 8b 25 bd 96 23 20 be
       -0.07553816 -0.0800452 -0.04041616 -0.15638575
000190 95 60 c9 bd fe 83 bd bd 56 71 78 3d 59 f2 c6 bd
       -0.09832875 -0.09253691 0.06065496 -0.09714193
0001a0 49 7b b6 bc bb 22 60 be f0 7a 18 3e 44 75 96 be
       -0.022275584 -0.21888249 0.14890647 -0.29386342
0001b0 d3 c5 07 3c 67 52 8d be 69 c5 7e 3d 63 89 8d bc
       0.008286911 -0.2760193 0.062199984 -0.017277425
0001c0 6c 23 26 3e b8 64 96 bd 9a 25 e6 3d c6 53 1e be
       0.1622445 -0.07343429 0.11237641 -0.15461645
0001d0 a9 a3 ba bc 91 aa ec bd f9 cf 68 be 89 5e 91 be
       -0.022783117 -0.115559705 -0.22735585 -0.28392437
0001e0 3b 1e 2d 3e a4 59 f0 bd b3 e8 cc 3d 0e 03 ae be
       0.16906063 -0.117358476 0.10005321 -0.33986706
0001f0 68 55 2a 3e 61 61 a3 3d ef fd d0 bd 13 ba c4 bd
       0.16634142 0.07977558 -0.10204684 -0.09605803
000200 f4 ad 2e 3e ac f7 19 bd 3b 04 49 bc d8 2f 25 be
       0.17058545 -0.037589714 -0.012269075 -0.16131532
000210 8b 3d 0b be ac 34 89 3d d6 6c b7 3d 46 fe 81 be
       -0.13597696 0.066994995 0.08956306 -0.25389308
000220 dc 49 53 3d e8 30 bc 3d 43 7e 52 3d c2 d4 e2 bd
       0.05158411 0.091890156 0.051389944 -0.110757366
000230 25 15 47 be 83 72 a4 3d 1d 2a 52 be 33 e0 28 be
       -0.1944166 0.08029654 -0.20523877 -0.16491775
000240 8c e8 39 3d 1f 7d 2a 3e 4a 9b 51 3e 90 e7 65 be
       0.04538779 0.16649292 0.20469394 -0.22451615
000250 de ed 70 be 4b 34 44 be 46 d2 3d 3e 94 f1 dc bd
       -0.23528239 -0.19160573 0.18537244 -0.10788265
000260 55 c8 89 3d fa cf 4c 3c fb 87 2a bd 57 33 0a 3e
       0.067276634 0.012500757 -0.041633587 0.13496147
000270 4c 1c 2f 3e cf 15 25 be 6a 21 61 be df c1 d2 3c
       0.17100638 -0.161216 -0.21985403 0.02572721
000280 33 fe b6 3c 26 ac 66 be 3c 83 85 be 14 21 21 3e
       0.022338009 -0.22526607 -0.26076686 0.15735275
000290 8d c7 1e be fe 09 88 be da a9 42 be 34 89 24 3e
       -0.1550581 -0.26570123 -0.19010106 0.16067964
0002a0 01 9a 13 3e 2c 48 db 3d f1 bd 12 be ed 26 ae 3d
       0.14414217 0.10707125 -0.1433027 0.08503518
0002b0 e3 96 3c 3d c5 94 8f be dd 7f d0 3d 75 b0 e9 bd
       0.046042334 -0.2804319 0.10180638 -0.1141061
0002c0 0c 93 74 ba ef 97 1b 3e 49 22 8d be cc d5 d0 3d
       -0.0009329773 0.15194677 -0.2756522 0.101970285
0002d0 21 76 e1 3d 25 ee 10 be da 10 0b bc 64 d3 71 3e
       0.110088594 -0.14153345 -0.008487904 0.23615795
0002e0 99 94 e4 3d b1 d3 73 be b3 42 48 be db 0e 4b be
       0.11161155 -0.23811223 -0.19556694 -0.19829886
0002f0 dd e1 5a be da a6 91 bd 47 da 40 be c6 b6 06 be
       -0.21375223 -0.071119025 -0.18833266 -0.1315566
000300 d9 2e 1d 3d 57 49 1c 3e 5d 79 a4 bd 30 22 b9 bd
       0.038374756 0.15262352 -0.08030961 -0.09039724
000310 47 b7 82 be e5 6b 99 bc 1f d7 93 be ca 2d e9 bd
       -0.25530455 -0.018728206 -0.28875062 -0.11385687
000320 94 e7 d6 bd 01 9d 01 3e 6f 29 4d 3e c2 42 2a be
       -0.10493389 0.12657548 0.20035337 -0.16627029
000330 c7 b9 da bd 39 d4 a2 3c 59 03 9b 3c 5a da af 3d
       -0.106799655 0.019876586 0.018922495 0.08586569
000340 61 06 5c 39 d2 18 32 3e 80 28 01 3e f3 fa 3f bd
       0.00020983211 0.1739228 0.12613106 -0.046870183
000350 62 27 10 3e 02 b1 a5 bb 52 d3 51 3e da 38 af be
       0.14077523 -0.0050565014 0.20490769 -0.34223062
000360 e5 91 85 be e8 47 92 be d6 75 56 be 1c 9d 44 bd
       -0.2608787 -0.28570485 -0.20943388 -0.048001394
000370 30 42 3a 3e b5 a1 46 be f0 40 3e be 4e 19 3b 3d
       0.18189311 -0.19397624 -0.18579459 0.04567843
000380 95 8e 28 3e b2 21 ea bc 1a 08 39 be c2 a6 13 bd
       0.1646064 -0.02858052 -0.18069497 -0.036047705
000390 40 ce 67 bd 41 25 4b 3d 90 98 30 bd 43 57 2a 3e
       -0.05659318 0.049596075 -0.043114245 0.1663485
0003a0 84 94 c3 3c 42 e6 b9 3d f6 ff 67 be 45 08 f2 3d
       0.023874529 0.09077121 -0.22656235 0.118179835
0003b0 8c 97 21 be f6 08 4e bc 2b 7a 22 be 39 da 90 3d
       -0.15780467 -0.012575379 -0.15866916 0.07072873
0003c0 4d 10 86 bd 28 1d 07 3d 7e e6 f7 bc 89 ac 23 3e
       -0.06546078 0.03298679 -0.030261274 0.15983786
0003d0 77 72 d0 3d 8c 62 8e 3d 1b 4d ed 3b 71 53 d7 3d
       0.101780824 0.0695239 0.0072418577 0.10513962
0003e0 f5 b5 77 bd 81 13 81 be 02 fa d0 bd 9e eb de bd
       -0.060476262 -0.25210193 -0.10203935 -0.10884784
0003f0 9a f7 6e 3e 3e 08 a1 3e 1e ff c7 be a7 ac 0f bc
       0.2333664 0.314516 -0.39061826 -0.008769191

l2.weight f4 [300, 400]
000000 87 73 2f bc 0a e6 17 bd f1 72 e6 bc 2c 4f 0d bd
       -0.010708696 -0.037084617 -0.02813098 -0.034499332
000010 28 ab 5b bc 7d 1a 6e bd df 25 95 bc d2 46 3d bd
       -0.013407506 -0.05813073 -0.018206535 -0.046210118
000020 8a aa 03 3d 8f 9f 4f bd a5 f8 01 bd 8e 0b 39 bd
       0.03214506 -0.050689276 -0.031731267 -0.045177035
000030 01 11 28 bd f2 9f db ba 69 30 00 bd 5c f7 02 bc
       -0.04103184 -0.0016756041 -0.031296168 -0.007993545
000040 d5 6c 12 bd d9 4d 47 bd 06 53 1d bc c5 87 c3 bc
       -0.03574832 -0.048658226 -0.009602314 -0.02386845
000050 16 56 cb bc 5e 33 12 3d 14 5b 62 3c 6f 6a e6 3c
       -0.024821322 0.03569352 0.01381566 0.028126923
000060 ea d4 96 3c cd 8c 27 bd f5 3f 08 3d df fb 81 b8
       0.018412072 -0.040905762 0.03326412 -6.198114e-05
000070 c6 5d e7 3c f7 08 c5 bc f4 c3 7e 3a 6d 9f fe bb
       0.028242957 -0.024052126 0.00097185303 -0.00777047
000080 91 7b eb bc 09 98 d6 bc 07 71 2e 3d e6 91 70 bc
       -0.028745444 -0.026195543 0.04258826 -0.014683222
000090 ab 5b 78 bd 54 dc 79 bc cd d3 bc 3c a8 28 34 bd
       -0.060634296 -0.015250284 0.023050213 -0.043984085
0000a0 61 8b e0 3c 6c f9 19 bc ee 4e d1 bc 9b ce 11 bd
       0.027410211 -0.009397846 -0.025550332 -0.035597425
0000b0 e0 49 0f bc 73 46 36 bd c3 6f d4 3c b1 19 b8 bc
       -0.0087456405 -0.04450078 0.025932198 -0.022473188
0000c0 8d a5 c7 bc 82 a2 e0 bb 33 d5 eb 3c da 34 87 3c
       -0.024370933 -0.00685531 0.028788185 0.016504694
0000d0 f4 d2 97 bd 2a ba 4e bd 4f 0d f1 3c 18 fc 43 bc
       -0.07413283 -0.05047051 0.029425291 -0.011961959
0000e0 91 5d 09 3d b0 aa ab bb 14 4f 93 3b da fe fc ba
       0.033536498 -0.0052388534 0.004495511 -0.0019302026
0000f0 52 8f 44 bd 1d e2 99 bd af dc 36 3c 94 98 d7 3a
       -0.047988243 -0.07513831 0.0111610135 0.001644867
000100 bc 6a 33 3c cc 71 8a 3c fd e0 86 3c 38 dd 7f 3c
       0.01095074 0.016899966 0.016464705 0.0156167075
000110 10 1a 36 bd 6f 3e c9 bc a6 05 7b 3c 24 18 9d bd
       -0.04445845 -0.024565903 0.015321171 -0.0767062
000120 17 71 2e 3c 9d 47 21 bd 40 03 17 3a 5a ad 25 bd
       0.01064708 -0.039374936 0.0005760677 -0.040448524
000130 a3 a1 d9 bb 68 6b 7e bc 54 32 30 bd 16 cf 93 bd
       -0.006641583 -0.015528537 -0.043016747 -0.07217233
000140 f9 5d 1f 3c 87 54 c4 3c b9 fd da 3b 73 2d 36 bd
       0.009726995 0.023966087 0.006683078 -0.044476938
000150 4c 93 d9 bb b1 0f d9 3b 49 60 2f 3d 68 64 03 3d
       -0.0066398736 0.006624185 0.042816434 0.032078177
000160 92 6a 46 bd 49 7e 64 3b 12 79 8e 3c 72 64 ea 3c
       -0.048441477 0.003486531 0.017391715 0.02861235
000170 e8 8b c8 b9 ad be b9 bb 22 62 e1 3c c0 c0 e0 bc
       -0.0003825121 -0.0056684823 0.027512614 -0.02743566
000180 8c 4f 1d bb 44 8a 37 bc 3b b4 cd bc 22 1b 35 bd
       -0.0024003712 -0.011202399 -0.025110355 -0.04421533
000190 48 db 2b bb 7a c7 f1 3c b0 c7 67 bd ea 84 3f bd
       -0.002622323 0.029514063 -0.05658692 -0.046757616
0001a0 ab f2 4a bd a0 33 67 3b e8 96 3d bc 83 d7 2a bd
       -0.049547832 0.0035278574 -0.011571623 -0.041709434
0001b0 64 64 95 3b 50 a8 b6 3b 7b dc 5e bd aa 50 6e 3c
       0.0045590866 0.0055742636 -0.054409485 0.014545599
0001c0 f9 6a c1 3b 68 e2 7d bc da fb f9 bc a6 9d 1a 3d
       0.0059026447 -0.015495874 -0.0305156 0.037748
0001d0 e8 01 11 bc 4b 0a ef 3c 30 ce 1d bb 56 7c 0b bd
       -0.008850552 0.029179713 -0.0024079196 -0.034054123
0001e0 f8 12 3c bd 1f da b3 3c a1 1f 82 bc 9a 86 1a bd
       -0.045916528 0.021954594 -0.015884222 -0.037726022
0001f0 75 9f 13 3c c9 9e 03 bd cb d7 cb bc d3 f0 9e 3c
       0.0090101855 -0.03213385 -0.024883172 0.019401943
000200 1c ef 3b bd f4 ca 30 bd 05 50 9d bc 32 f2 aa 3c
       -0.04588233 -0.0431623 -0.019203195 0.02086744
000210 d6 bf 0b bd cf 09 10 3d 14 cc 5d bc 60 fc 48 bd
       -0.034118496 0.035165604 -0.013537426 -0.04906881
000220 f8 dc e7 bc d8 2c 59 bc 4b 3a 58 3a d7 2e ea bc
       -0.028303608 -0.0132553205 0.00082484324 -0.028586788
000230 60 44 f1 ba dc 1b e0 bc 5a 49 9f bc 36 1c 58 bc
       -0.0018407218 -0.027357034 -0.019444156 -0.01319032
000240 98 e2 d7 bc b0 e5 b2 bc b9 b1 ed bc 39 04 cf 3c
       -0.026353166 -0.02183804 -0.029015409 0.025270568
000250 d7 c5 41 bd 6c 45 b8 bc 6b 4a cf bc 22 c8 98 bd
       -0.047307815 -0.02249404 -0.02530404 -0.07460047
000260 0c d7 2a bd d2 e2 83 bc ca 6d ee 3a 37 77 a2 bc
       -0.04170899 -0.016099367 0.0018190679 -0.019832237
000270 a9 7a 39 3d bb 60 dc 3c cf 90 db bc 25 44 24 3d
       0.045282993 0.026901593 -0.026802449 0.04010405
000280 7d 4b 22 bd 60 d4 45 bc a8 3f a0 bb 26 e1 88 3b
       -0.039622772 -0.01207456 -0.004890401 0.0041772304
000290 0e 2d 97 3a 6b 27 fb bc 77 46 00 bd 29 23 a4 ba
       0.0011533813 -0.030658444 -0.0313172 -0.0012522686
0002a0 b8 fb 47 bc f9 7a 48 bd c0 58 de 3a bb 46 2d 3c
       -0.0122060105 -0.0489454 0.0016963705 0.0105759455
0002b0 20 06 d3 bc 80 44 82 bb ae 01 41 bc f7 7d 90 bc
       -0.025759757 -0.003975451 -0.011780186 -0.01763819
0002c0 10 24 ff bb 53 5e 1f 3b 47 62 ea bb 39 9f 83 bd
       -0.0077862814 0.0024317696 -0.007152829 -0.06426854
0002d0 8e b2 1b 3c 6a de 83 bb 35 65 41 bd 19 72 c8 bc
       0.00950302 -0.0040243166 -0.04721566 -0.024468469
0002e0 00 b6 6f 3a 83 e8 3e bd 31 af 65 bc 21 aa 08 3d
       0.00091442466 -0.04660846 -0.01401882 0.033365373
0002f0 82 ea 98 3c 25 c9 d3 3c 9e ed bd 3c d0 5b 62 3c
       0.01866651 0.02585275 0.023184594 0.013815835
000300 ff e5 80 3c 0c c6 fa bc 62 a7 07 bc df 1a 08 bc
       0.01573467 -0.030612014 -0.008279653 -0.008307188
000310 06 d3 a9 bc ea 90 1c bd 87 1f 01 bc 8b 97 25 bd
       -0.020730507 -0.03822414 -0.007881052 -0.040427726
000320 57 5b be bc ea ed 9f bd 45 ec fd bc 76 b3 e5 3c
       -0.023236914 -0.078090504 -0.030996451 0.028039675
000330 79 7b 79 bd e3 bf c9 3c 26 9c 42 bc dd 2b 4f 3c
       -0.06090877 0.024627632 -0.011878049 0.012644735
000340 16 f6 23 3d ae 1a bc bc a9 a3 db bc 93 5e 47 bd
       0.040029608 -0.02296194 -0.026811438 -0.048674177
000350 08 56 2d 3d e7 1f 94 3b a3 68 92 bd 27 2c 80 3c
       0.042318374 0.0045204046 -0.07148864 0.015646053
000360 97 6e 68 bc a2 61 2a bd 73 98 65 bd f6 de 46 bd
       -0.014186523 -0.041597016 -0.05605359 -0.048552476
000370 82 e1 35 bd f4 df 75 bc 9d df fe bc 63 b7 53 bc
       -0.044404514 -0.015007008 -0.031112486 -0.012922141
000380 87 20 09 bd 82 6b 9f 3c 17 26 4f 3c 12 60 52 bd
       -0.033478286 0.019460443 0.012643359 -0.05136115
000390 fe d8 1f 3c e6 bd 8e 3c 55 0d ab bb a2 4c aa 3c
       0.009756325 0.017424535 -0.005220095 0.020788494
0003a0 e2 d0 ed 3c 96 46 e1 bb e3 f9 59 bd 9c 3d 1d 3d
       0.029030267 -0.0068748696 -0.053216826 0.038388833
0003b0 ad dc 3a 3d 96 ad 27 bc 2c 05 e5 3c 82 75 0e 3d
       0.04562061 -0.010234257 0.027956568 0.034780033
0003c0 ae b6 7d 3c 16 9e ba bd 06 df 52 3c 5b bc 84 bd
       0.015485449 -0.09112184 0.012870556 -0.064812385
0003d0 80 28 8f bd 0a 7b 2b 3c 6e 53 06 bd 19 dc c6 bc
       -0.06990147 0.0104663465 -0.03279441 -0.024274873
0003e0 ea 52 39 bd 82 0e cc 3c 69 f9 f3 bc 9c 23 b4 3b
       -0.04524509 0.024909262 -0.029782014 0.005497409
0003f0 05 38 51 bd 6c fd 86 bd 8a f0 3a bd cb 28 32 bd
       -0.051078815 -0.06591305 -0.045639552 -0.043495934

l2.bias f4 [300]
000000 8a 10 89 bd 69 76 87 3d 70 4f 22 be 23 e7 98 bd
       -0.06692608 0.06614382 -0.15850616 -0.07465961
000010 1f 28 75 3b 19 2a 2e bd 8a 4c 92 bd b6 4b cb ba
       0.0037407947 -0.042520616 -0.07143505 -0.0015510235
000020 a7 78 66 bc c4 0f 90 bd 2e 73 a0 bd 54 b7 21 bc
       -0.014066852 -0.07034257 -0.07834469 -0.009870369
000030 b9 02 01 be f1 9e 90 bc e0 ef 84 bd b0 5f 86 bd
       -0.12598695 -0.017653914 -0.06491065 -0.0656122
000040 b6 04 39 bb bb a6 40 be c0 f1 83 3c 06 26 b3 bd
       -0.0028231568 -0.18813603 0.016106486 -0.08747487
000050 e2 a1 c2 bc a8 23 91 bd 06 8e f1 bd 57 11 98 3d
       -0.023758832 -0.07086879 -0.11794667 0.07425182
000060 e9 63 8d bd ac 79 f8 3c 65 74 e2 bd aa 9b 2e 3e
       -0.06903822 0.030331455 -0.11057357 0.17051569
000070 1e ec 2e bb 98 7e 76 bd fb 26 90 bd e4 19 0e bc
       -0.002669103 -0.060179323 -0.07038685 -0.008673165
000080 69 6d 65 bd 95 9f 06 bd 7e 02 7c bd 6f a7 ab bd
       -0.056012545 -0.032867033 -0.061525814 -0.08381545
000090 74 58 ee bc 00 f5 88 bc 4c 78 a1 bd d5 80 c1 bb
       -0.029094912 -0.016718388 -0.07884273 -0.0059052506
0000a0 75 ed 3e ba 3d a2 2b be c6 fd c3 bd d5 5d af 3d
       -0.00072833087 -0.16761108 -0.09569888 0.08562819
0000b0 4e e1 a9 bb fd 1a a8 3c d4 b1 09 3d d0 36 1d bd
       -0.005184329 0.020520682 0.033616856 -0.03838235
0000c0 dd cb fc 3c 49 a5 38 bd 7c 57 65 bc 4d 01 3b 3b
       0.030858928 -0.045079503 -0.013997909 0.002853471
0000d0 d2 e7 c7 bc dc 79 fb bc 72 e2 d4 3d 85 8a 85 bd
       -0.024402533 -0.030697756 0.103947535 -0.06520561
0000e0 ce b5 a9 bd 74 7e a2 bc fc 4f e7 bc 2c 29 6b bd
       -0.082866296 -0.019835688 -0.028236382 -0.05741231
0000f0 eb e6 ee bc 7d 86 bb 3c 6e 30 c2 bb bf de 13 be
       -0.029162845 0.022891277 -0.0059261834 -0.1444044
000100 bb a6 e3 bc 70 cf a6 bd 37 d0 a0 bd 99 c6 c9 bc
       -0.027789464 -0.08145034 -0.07852214 -0.024630832
000110 6f e7 39 3c d6 d3 39 bd 4f a1 90 bd f4 77 b5 bd
       0.011346682 -0.045368038 -0.07062017 -0.0886077
000120 da eb 26 bd 4e d1 e0 3b af fe bf bd ca d2 3e be
       -0.04075227 0.0068608886 -0.09374749 -0.18635097
000130 9a b2 3e bb d5 46 bb 3b 87 fb c4 bd 64 ef bd bd
       -0.0029098154 0.005715231 -0.096182875 -0.09274176
000140 46 0c 18 bd 9c 4a e2 bc 96 d6 00 3e 9c fb d9 bc
       -0.03712108 -0.027623467 0.12581858 -0.026609235
000150 09 d7 85 3d 3f 22 fb bc c0 b2 ce bd 23 ae 53 bd
       0.06535155 -0.030655978 -0.100926876 -0.05167974
000160 fb 1b a0 bd 13 e0 35 bd ed d0 82 bd 45 ac ba 3d
       -0.07817837 -0.044403147 -0.06387506 0.09114889
000170 83 2c 3c be 7b 97 20 bd a9 77 5b bd 1f f6 2f bd
       -0.18376355 -0.039206963 -0.053580914 -0.04295933
000180 4c d4 8d bd cc 21 39 bd 43 04 d8 bd 9c 00 9e bd
       -0.06925258 -0.045198247 -0.10547688 -0.0771496
000190 11 2f 21 3c db 22 04 bd 04 52 61 bc 9e 38 69 bd
       0.009837882 -0.032259803 -0.013752464 -0.05693876
0001a0 9f 06 a4 ba 49 74 7e bd b1 b1 96 bc d8 b5 93 3c
       -0.001251418 -0.062122617 -0.018395277 0.018031046
0001b0 32 f6 f3 bc bd 2d 9a bd 6c 09 f1 bd e0 55 03 bd
       -0.029780481 -0.07528255 -0.11769375 -0.03206432
0001c0 68 5d 96 bd 1f 48 10 bd 1d f9 39 be dc ca e6 3d
       -0.073420346 -0.03522503 -0.18161435 0.11269161
0001d0 1b 07 4b bd 2f 93 4f bd 20 65 6d bd f6 36 e2 bd
       -0.049567323 -0.050677475 -0.05795777 -0.11045639
0001e0 66 12 bd bd ae 1f 8f bd 62 c1 13 3d 13 ed 25 3e
       -0.09232025 -0.06988464 0.036073096 0.16203718
0001f0 c9 ba 04 bc 20 a1 11 bd 12 be 9e bd 9c e0 84 bd
       -0.008101174 -0.03555405 -0.07751097 -0.06488153
000200 84 17 a2 3d 92 0a 0d be 40 f8 a6 bd aa f7 7c bd
       0.079146415 -0.13773564 -0.08152819 -0.06175963
000210 c9 5b ed bb 58 a1 27 bd 49 fd e2 bd f1 c8 21 bd
       -0.0072436077 -0.040925354 -0.110834666 -0.039498273
000220 fe 2d bd bc a7 ef 41 bd 0c dc 83 3d fc c8 9d bd
       -0.02309322 -0.04734769 0.06438455 -0.0770435
000230 7e ae 09 bd df 78 32 3c 8a 90 41 3a a2 67 f5 3c
       -0.033613674 0.010893076 0.0007383904 0.029956643
000240 87 e1 92 3c 48 b6 0c bd 90 97 d5 3d 2d 02 96 3d
       0.017929805 -0.034353524 0.10429299 0.07324634
000250 f5 34 18 bd 80 a0 52 bd 92 11 a4 3d 31 3a 14 bd
       -0.03715988 -0.051422596 0.08011164 -0.03618831
000260 f4 f0 8a bd 77 b6 53 bd 1d 7a 1d bd 70 5b 43 bd
       -0.067842394 -0.051687684 -0.038446534 -0.047694623
000270 be 79 b3 bd af 8d 2a 3c 44 21 ab bd d4 f0 ba 3d
       -0.08763455 0.010409757 -0.08355954 0.091279656
000280 8a e4 0a 38 16 75 bc bd 09 f0 a3 bd 6d f3 89 bd
       3.3114608e-05 -0.0920202 -0.080047674 -0.06735883
000290 38 bb cb bd 6e c5 7e 3d f4 a8 a6 bd 32 39 d3 bb
       -0.099478185 0.062200002 -0.08137694 -0.006446027
0002a0 ed d0 c5 3c 6c 8d 28 bd 65 bf e8 3d 2b 30 f8 3d
       0.024147475 -0.041150495 0.113646306 0.12118562
0002b0 d8 f0 a2 bd 5d fa bd bc 13 64 83 3d 6d ff ff ba
       -0.079560935 -0.023190672 0.06415572 -0.0019531079
0002c0 ff 13 ed bc fe f8 70 bc 45 bc 8b bd 2b 9e 49 bd
       -0.028940199 -0.014707802 -0.06823019 -0.049223106
0002d0 a4 9d 98 bd 98 4e ce bd 4c 58 44 be 48 7d b9 bd
       -0.074519426 -0.10073584 -0.19174308 -0.090570986
0002e0 46 c4 0d bd c0 83 20 bd 40 9b 8e bd 7f 0f 02 be
       -0.03461101 -0.039188147 -0.06963205 -0.12701224
0002f0 56 6c 60 bd 0f c8 63 bd ab a1 29 bd d8 97 2a bd
       -0.054790817 -0.055610713 -0.041413944 -0.041648716
000300 68 99 f3 bd a8 cb 8a bd 92 31 a2 bd 59 9f bf 3c
       -0.11894494 -0.067771256 -0.07919611 0.023391413
000310 41 5b 26 bd a5 3c ac bc 9a a0 8f bd 54 5b 99 bd
       -0.04061437 -0.021025011 -0.07013054 -0.074881226
000320 de cc 35 3d 18 b8 10 3a 53 c2 7f bc e4 51 3a bd
       0.04438483 0.0005520596 -0.015610295 -0.045488253
000330 69 0f 6b bc d5 52 4c bd e5 f6 40 bc b5 2e 8d bd
       -0.014346936 -0.049883682 -0.011777614 -0.06893674
000340 c3 ee 2a bd f9 97 8b 3d 31 0a 12 bd 10 ef c7 bd
       -0.041731607 0.06816096 -0.03565425 -0.097623944
000350 85 54 fd 3d 6b 79 5d bd ca 5a 6b 3b cc 58 c8 3d
       0.123696364 -0.05407087 0.0035912269 0.09782562
000360 82 ff 10 be a2 9f 07 bd a7 dc da 3c f0 71 1b bd
       -0.14159968 -0.033111222 0.026716543 -0.037950456
000370 78 87 f3 bc 1a b4 94 3b fe 4d b4 bd f4 c3 53 bd
       -0.029727682 0.0045380713 -0.08803938 -0.051700547
000380 b7 e6 f3 bc c2 b7 87 bd 1e 9f be 3d 8e 7c cc bd
       -0.0297731 -0.06626846 0.09307693 -0.099846944
000390 b1 17 7f 3d 2d 31 8c bd 1a 5f d4 bd 06 2b 97 bd
       0.062278453 -0.06845317 -0.10369702 -0.07381253
0003a0 43 e4 10 bd 44 54 83 bd f0 a2 2a 3c b4 73 36 3e
       -0.035373937 -0.06412557 0.010414824 0.17817575
0003b0 49 16 04 3e c4 c0 c8 bc f7 bc b0 3d 9e e6 eb bc
       0.12899126 -0.02450598 0.08629792 -0.02879649
0003c0 cd e5 84 bd 3b 16 9a bc 2b 6d 11 be 9f 82 94 bd
       -0.064891435 -0.018809428 -0.142018 -0.072514765
0003d0 57 c5 3c bd d0 a8 b4 bd 50 e7 6b be 0f f9 d2 bd
       -0.046086635 -0.08821261 -0.23037457 -0.103014104
0003e0 b3 fb 4d bd 89 c2 02 bd 0a 9e 32 bb 9a b1 59 bc
       -0.050288867 -0.031923804 -0.0027254843 -0.013286972
0003f0 0d 47 7f bd d7 85 dc bd 4c 51 65 bd be 4b 9b bd
       -0.06232362 -0.107677154 -0.055985734 -0.07582806

l3.weight f4 [4, 300]
000000 0b f9 8b bd 34 dc af 3b 3c f8 33 bd ab 73 2f bc
       -0.068346106 0.0053668264 -0.043937907 -0.01070873
000010 be 31 d9 3c 2d de 02 3c a7 49 0b 3d bd 02 d3 bd
       0.026512977 0.007987541 0.034005787 -0.10303257
000020 0b a7 16 3b 6b f3 ba 3c 26 f1 cc 3c b5 af 84 3e
       0.002298775 0.022821149 0.025017332 0.25915304
000030 c3 ea 29 3e c6 88 83 bb 43 14 a0 ba db c9 60 3c
       0.1659346 -0.0040141074 -0.001221307 0.013720001
000040 82 84 38 3d f3 77 c9 bd ef 58 29 be 11 74 1e 3b
       0.045048244 -0.098373316 -0.16537832 0.0024178068
000050 84 0b 36 3e 8a 1a 5f be 43 b1 ae 3d 48 c5 8a be
       0.1777783 -0.21787468 0.08529904 -0.2710364
000060 75 d6 47 bb d0 c4 4b 3b e8 c0 9d bd 14 00 b2 be
       -0.0030492817 0.0031092651 -0.077028096 -0.34765685
000070 35 9b 06 3d c5 ee bd 3c b0 89 4c 3c 67 46 e1 bc
       0.03286286 0.023185143 0.012483999 -0.02749939
000080 46 97 e9 bc 55 ea 13 3e 64 55 c2 3e ce 5b 11 bd
       -0.028514516 0.1444486 0.37955773 -0.035487942
000090 06 9f 16 3a a1 33 e3 3c 29 ff 6d 3d b8 5c 2e 3b
       0.0005745742 0.02773458 0.058104668 0.0026605558
0000a0 6c f8 4a 3c c6 2c 69 3d 20 dd 85 3e ac 06 bd 3d
       0.01238833 0.056927465 0.26145267 0.09229788
0000b0 20 a5 d5 bc bb 8a a8 be b7 85 33 bd 55 9f ce bc
       -0.026079714 -0.32918343 -0.043828692 -0.02522246
0000c0 a9 95 36 3d 22 01 cd 3c e9 02 c1 bc c6 2f 53 3d
       0.04457632 0.025024954 -0.023560958 0.051559232
0000d0 b8 9e c3 3c c4 37 ef bb 24 b5 32 3c 1c a4 a9 3c
       0.023879394 -0.007300349 0.010907445 0.020708136
0000e0 2a e9 e4 3c 06 95 c0 bb b5 e5 ae 3b 0a b0 0d 3d
       0.027943213 -0.00587714 0.005337442 0.034591712
0000f0 d8 cc 83 bd bf 19 42 3e 44 db 1c bb 0f fa d8 bc
       -0.06435555 0.18955134 -0.0023934403 -0.026486425
000100 c5 bd b6 3c 42 d1 22 bd 44 be 60 bd 32 c2 8c bd
       0.022307286 -0.039750345 -0.05486895 -0.06872977
000110 18 ca 4f 3c 76 fb 42 bc 01 33 dd bb c8 ae ad 3c
       0.01268246 -0.011900773 -0.006750465 0.021201506
000120 81 e0 0f bf 6b 6b cf bc f0 c3 cf 3c 99 6b 75 3e
       -0.5620194 -0.025319776 0.025361985 0.23966826
000130 ec 68 ff 3c 8c 8d 72 3e 49 37 f1 3b 8e 4d 86 bb
       0.03117796 0.23686808 0.007361327 -0.0040986007
000140 83 85 24 bd b3 34 4c bc 30 e0 c0 3e dd 4b 15 3c
       -0.04016639 -0.012463736 0.3767104 0.0091123255
000150 03 cf f8 be 56 be 73 3c 1a c9 ba be 9c 70 4c 3c
       -0.48595437 0.014876923 -0.36481553 0.01247802
000160 7d c1 07 bc 75 38 8e 3c a5 4a 84 3c 96 fc 22 be
       -0.008285877 0.017360905 0.016148875 -0.15916666
000170 5a 36 e1 3d cf 08 67 3c bd 7a e1 bb 28 4f 45 bc
       0.10996695 0.014101221 -0.0068810866 -0.012042798
000180 c8 23 11 be e5 30 84 bc f7 54 85 be 8f 0c a6 bb
       -0.14173806 -0.016136596 -0.26041386 -0.005067415
000190 34 63 10 bb 92 b8 2a 3e c7 56 1c b9 9b 9d 80 3d
       -0.0022031786 0.1667197 -0.00014909646 0.06280061
0001a0 9b 27 b2 3c 10 8c 94 bd ed 28 d9 bb 40 54 8f bc
       0.021747401 -0.07253277 -0.006627193 -0.017496228
0001b0 99 7d 14 bc 46 12 c3 b9 6f 67 88 3d 9b 19 a5 3c
       -0.009063148 -0.00037206913 0.066603534 0.020153811
0001c0 ca 6c eb 3b 74 5a 33 3c 98 1f 55 3d 27 ab 17 be
       0.0071845995 0.010946859 0.052032083 -0.14811383
0001d0 fb 6b 90 3c 2e ea 01 3e 8a 0d fd 3b 68 06 61 3f
       0.017629614 0.12686989 0.0077225612 0.879004
0001e0 28 52 57 3e 65 be 3f bf 1e be da 3e c9 4d 03 3e
       0.21027434 -0.74899894 0.42723173 0.12822641
0001f0 15 01 4b 3e 4e 70 0e 3c 4a ac 96 3c 65 b6 ce 3c
       0.19824632 0.008693768 0.0183927 0.025233457
000200 0c b6 48 3e c4 1f 96 3d 77 58 be 3c cd bb d7 3b
       0.19600695 0.073302776 0.023235543 0.006583667
000210 ad cd 20 bb 08 86 c5 bb a8 2b e7 3e 90 87 d9 3c
       -0.0024536655 -0.0060279407 0.45150495 0.026553899
000220 2a 54 26 bc 1e 77 58 3c 6e a7 f7 3c 67 10 01 3d
       -0.010151902 0.0132119935 0.030231204 0.031509783
000230 77 cf 33 bd ca e3 cf 3b de f9 e2 39 70 48 17 bd
       -0.043899026 0.0063442932 0.00043292245 -0.036934316
000240 31 23 ab bb d7 85 0f bd df 30 28 bc d2 58 93 3e
       -0.005222701 -0.03503975 -0.010265558 0.28778702
000250 1f 06 10 3d 58 de 6f 3c 6e 72 0f 3e d5 e5 bd 3c
       0.035162088 0.014640413 0.14008495 0.023180882
000260 07 5a 6b bd c5 fb b4 3c 8b f4 8a 3e 21 01 ad 3c
       -0.057458904 0.02209271 0.27139696 0.021118702
000270 e2 88 0a bc 20 62 2a 3c 83 1f d9 be 66 dd 04 bf
       -0.008455487 0.010399371 -0.42406854 -0.5190033
000280 7f ce 04 bd 40 0f 3e 3d a4 54 ba bc 87 bc 9b 3c
       -0.032423493 0.046401262 -0.022745438 0.019010795
000290 ce 34 8e 3c de c5 03 be 6d 1f 5e 3e 22 fe dd 3d
       0.017359164 -0.12868449 0.21691675 0.108394876
0002a0 1c 5d 8e 3d 65 17 8f bd 9f d7 93 3d 22 3b 10 be
       0.06951353 -0.06986884 0.07218861 -0.14085057
0002b0 c9 6d 7a bf 58 20 16 bb 60 f6 77 be eb 37 32 bd
       -0.9782377 -0.0022907462 -0.24215078 -0.04351036
0002c0 44 e0 b8 3a 15 0f 4a 3e 3d dc 88 bd 04 5a 04 bc
       0.0014104922 0.19732316 -0.06682632 -0.008078102
0002d0 e3 89 89 3c f0 73 b7 bb d5 f1 09 bd af c6 04 3e
       0.016789382 -0.0055985376 -0.033677895 0.12966417
0002e0 9c 61 03 3f 2a 11 a4 3c bf 96 41 bf 07 02 61 be
       0.51320815 0.020027716 -0.75620645 -0.2197343
0002f0 cc 13 b6 bc 33 53 94 bd 70 cb 72 3b 51 aa 8c 3a
       -0.022226237 -0.072424315 0.0037047528 0.0010731911
000300 ab 6f cd bc 74 84 10 3d b1 40 49 bd 7a e8 0c be
       -0.025077661 0.035282567 -0.04913396 -0.13760558
000310 2a e6 18 3d 54 ad 7f 3d ba 56 f9 3d 5c d0 0a 3d
       0.037328877 0.062421158 0.12174745 0.033890113
000320 62 d9 04 3f 0b e6 bf 3c 7e aa cd bc 25 d6 7f bb
       0.518942 0.023425123 -0.025105711 -0.0039037552
000330 ec 66 b3 3c 49 5c c6 bb 0b 41 8c 3c 59 5a 68 3d
       0.021899663 -0.0060534817 0.017120859 0.056726787
000340 31 ff 39 3d 37 0e 2f bd be f9 83 bc 17 95 65 3e
       0.045409385 -0.042738166 -0.016110297 0.22420155
000350 48 4d cc bc 90 fe a8 3c 30 9c ec 3c a7 50 95 3c
       -0.024939194 0.020629197 0.02888307 0.018226935
000360 6e 3c a2 bc 39 58 41 3d 32 61 08 bf 8a 4c a6 bc
       -0.019804206 0.047203276 -0.5327331 -0.020300169
000370 b0 c0 8f bb 2e 7b e2 bd 8d eb db 3c 79 80 11 3d
       -0.004386984 -0.11058651 0.026845718 0.03552291
000380 8a 5c d1 3c 12 e2 53 3d c1 b6 44 bb 07 a0 86 3d
       0.025556821 0.05172927 -0.0030016156 0.065734915
000390 e1 e3 99 be 6e 17 5c 3e b9 f1 04 3d 2d e9 1b 3c
       -0.3005667 0.21493313 0.032457087 0.009516043
0003a0 34 c0 fb ba 3f 0b b2 ba f5 44 ce bc d1 c2 98 3e
       -0.0019207061 -0.0013583674 -0.025179366 0.29836133
0003b0 5f 90 9a bc 71 86 15 3d 74 3c 65 be 38 6b 66 3d
       -0.01886767 0.036505166 -0.22386342 0.056254596
0003c0 a9 b8 17 3d 33 ec 16 3c 41 a0 95 be 2a b8 47 3c
       0.03704134 0.009211588 -0.29223827 0.012189904
0003d0 03 05 92 bc 50 73 81 bd 10 77 f1 3d 8d f0 db 3c
       -0.017824655 -0.06320822 0.117902875 0.026848102
0003e0 6c 3d 05 bd 26 fe 38 3c e8 b6 d2 bb 33 18 30 3c
       -0.03252928 0.011291062 -0.0064304955 0.010747957
0003f0 04 59 2c 3c 84 95 0d bd a5 ab 15 3b 54 4c 5e ba
       0.01051927 -0.034566417 0.0022837904 -0.00084800017

l3.bias f4 [4]
000000 9e fa 10 bd 77 ed 9e bc 88 13 c0 bc db 3e 19 be
       -0.035395257 -0.019400341 -0.023446813 -0.14965384
