TD3/preTrained/TD3_BipedalWalker-v3_0_actor_ep400.pth (torch_old, 526982 bytes, 6 tensors)

l1.weight f4 [400, 24]
00000000: c271 2fbe f591 743d 34ea 753f 9f65 cabe
00000010: 0c1b 623f d12d 913d fcd4 28bf a1ba 23be
00000020: 8335 e8bf fcce 19bf aa43 663e 1c0b 00be
00000030: 10ea c0be ed20 9c3e 4e0c d9be 50aa 01be
00000040: b3f5 b9be 5b08 dabe 8794 d4be 8655 b1be
00000050: 036a c2be 040b 3fbe e6be 11be 89d3 81bd
00000060: 9bb3 853e 1805 053f 995e 98bf 445c 873e
00000070: 1b88 b73e 08c2 b7be 2f8f 9ebe ad49 f4be
00000080: 24d8 1d3e 257a 33bf 04f2 773e 9f2f 23bf
00000090: dfdd 03bf eccf 3b3e c5bb 6bbd 4ea1 19be
000000a0: 5f4c 6dbd 5984 97be c40a 24be dc2b 25be
000000b0: 085b 56be e3d4 9fbe 4461 ba3d 076e 03be
000000c0: 0e28 1b3f dd68 983f 8166 d3bf 5c5f 1d3f
000000d0: 4f5b 513f f40d 5ebd d50c b6be 9e0e 94bc
000000e0: 0540 773e e1f4 773e b832 82be 6ce1 dc3e
000000f0: e340 bebe 9e10 063e b454 d7be 667c 29be
00000100: 7421 eabe f270 fabe 440f 23be eeb3 f4be
00000110: 9340 55be 9bd0 cdbe 325a f6be a88a acbb
00000120: b4c3 403f 8951 c73f 0651 00bf 622e 03be
00000130: f9a1 cd3e 807b 9dbe bf2d 243f a726 ba3e
00000140: 1f8b 7ebf 49fe e9be 27be 92be 8e7e abbe
00000150: b8e9 82be 3bbd 83be d945 81be a48d 1dbe
00000160: 3e66 bcbe b82f b5be 4da1 91be 8cab 9bbe
00000170: e85c 79be 0d6a aabe ed95 efbd 5247 b8be
00000180: b8e4 183f 1176 a4bf b9e3 ba3f 5c0c 97bf
00000190: f2a6 b93c 4d85 e03e a488 6f3d e223 c6bc
000001a0: 92a0 edbc c2d0 613f 621e afbb 314c 88be
000001b0: 4a74 083c 42e4 97bc 0423 a0be 1d46 99be
000001c0: f704 91be 3c51 90be 4441 223c f892 27be
000001d0: 5c0b 623d 4606 3cbe b6d0 c83d d96e c0bd
000001e0: 61a3 0d3f 5afd c63f 737e b8bf 864e b23f
000001f0: 0e47 3dbf 927b 39be 665a 6b3e 715c 39be
00000200: 2431 84bf 9038 833d 56fe 60bd e453 ed3e
00000210: accc ac3e 1ff8 a4be c7c7 533e e936 673e
00000220: 178b 2f3e 33ad f93d c67b 7d3e c010 a1bd
00000230: f9dc c4bd dd56 0a3e 3fcb 4e3c 9a64 9ebe
00000240: 64c3 10bf a8ae 9f3f 01d6 03bf 8632 ae3e
00000250: 0fac 91bd fd48 32bf e75a b33c aa32 cc3e
00000260: a7d5 623e 7f38 203e c79e 82bd e641 3cbe
00000270: aaf1 643e e508 aa3c 1ca3 21bf 9f2d 1abf
00000280: 0206 10bf e589 febe 7868 11bf c26f 2ebf
00000290: 21eb 15bf 38d2 3fbf 28c1 45bf cb99 b9be
000002a0: 0269 403f dcbf 1240 b3e1 aebf aa01 83be
000002b0: e697 33bf 4191 153d fe31 023f 855b 083f
000002c0: 017a 4b3e eca8 763f 1a32 293e 1406 57bf
000002d0: 6a93 253e 749e df3e f19d d1be 70be fabe
000002e0: f42d 8ebe 7f67 34be 4428 f3be e8f6 f1be
000002f0: 80e3 b1be 5f5c ffbe a769 9bbe 6088 b8be
00000300: b401 c3be bc71 4a3f bd15 06bf ab7c 9ebf
00000310: 13cf bf3d 2b69 b3be b6ba 2f3f 6d2c 07be
00000320: 065e a1bf b047 24be 4d85 933e 1224 21be
00000330: c032 e83e af8d 92be 3835 833e 1fe9 643e
00000340: 61e4 4f3c 7cbe 72bc fc43 193e c010 433e
00000350: d5c2 cebc 2a3e 333e 55ed 023e f39a 97be
00000360: 637f cd3e 0e29 f1bf 8b73 d13f f85b 50be
00000370: e0b5 113f 7985 44be 0bc3 31bf e1a2 11bf
00000380: bf06 283e 0372 b83e c50d eb3e f4bd 763f
00000390: f939 bc3e 3316 77be 0067 c7bd d044 8ebd
000003a0: afc8 be3c 57a6 bb3d 20d9 3bbe d11c 47be
000003b0: 91c1 e8bd c83c bbbd 397b 003e 486e 1d3d
000003c0: ab37 6dbd 8b3f b8bf 1511 173f a680 443f
000003d0: 2d91 29bf c8c1 773e 1578 4c3f 2bb0 b53e
000003e0: 6479 a3bd 43c6 2e3f a909 abbe d6e5 9e3e
000003f0: bb6f 08be 045b 58be 87b4 c2be 69e7 9cbe
-0.17133239 0.059709508 0.9606049 -0.39530656 0.8832252 0.07088817 -0.6594999 -0.15989162
-1.814133 -0.6008146 0.2248675 -0.12504238 -0.37678576 0.3049387 -0.423922 -0.12662625
-0.36320266 -0.425845 -0.41519567 -0.34635562 -0.37971506 -0.18656546 -0.14232978 -0.06339175
0.2611359 0.519609 -1.1903869 0.2643758 0.35846028 -0.35890222 -0.30968615 -0.4771246
0.15414482 -0.7010825 0.24213415 -0.6374454 -0.51510423 0.18341035 -0.057552118 -0.15002939
-0.05793416 -0.2959316 -0.16019732 -0.16130012 -0.20933163 -0.31217107 0.09100583 -0.12834941
0.60607994 1.1907002 -1.6515657 0.6147363 0.8177995 -0.054212525 -0.35556665 -0.018073376
0.24145515 0.24214508 -0.2542932 0.43140733 -0.3715888 0.13092276 -0.4205681 -0.1655136
-0.45728648 -0.48914295 -0.15923792 -0.47793525 -0.20825414 -0.40198216 -0.4811569 -0.0052655526
0.7529862 1.5571758 -0.5012363 -0.12810662 0.40162638 -0.30758286 0.64132303 0.36357614
-0.9943103 -0.45701817 -0.286607 -0.3349499 -0.25568938 -0.2573031 -0.25248602 -0.15386063
-0.36796755 -0.3538797 -0.28443375 -0.30404317 -0.24351847 -0.33284035 -0.11698518 -0.35991913
0.59724 -1.2848531 1.4600745 -1.1800647 0.022662614 0.438517 0.05847992 -0.024187032
-0.02900723 0.88209164 -0.005344198 -0.2662063 0.008328507 -0.018541459 -0.31276715 -0.29936305
-0.283241 -0.28186977 0.009903256 -0.16364658 0.055186614 -0.18361768 0.098054335 -0.093961425
0.5532742 1.5546067 -1.4413589 1.3930213 -0.73936546 -0.18113545 0.22983703 -0.1810167
-1.0327497 0.06407273 -0.054930054 0.46353066 0.33749902 -0.3222055 0.20681678 0.2257954
0.17142902 0.12191238 0.24754247 -0.07864523 -0.0961246 0.13509698 0.0126217 -0.30936128
-0.5654814 1.2475176 -0.5149842 0.3402292 -0.07112896 -0.6964262 0.021893932 0.39882404
0.22151814 0.15646552 -0.063779406 -0.18384513 0.22357813 0.020756194 -0.6313951 -0.6022586
-0.5625917 -0.4971458 -0.5680003 -0.6813928 -0.58561903 -0.74930143 -0.7724786 -0.36250147
0.7516023 2.2929602 -1.3662628 -0.25587207 -0.70153654 0.036515478 0.5085753 0.5326465
0.1987076 0.96351504 0.16523018 -0.8399365 0.16169515 0.43675578 -0.40940812 -0.48973417
-0.27769434 -0.17617606 -0.47491658 -0.47258687 -0.3474388 -0.4987516 -0.30354044 -0.36041546
-0.38087237 0.79079795 -0.5237692 -1.2381796 0.09365668 -0.35041174 0.68644273 -0.13200541
-1.2606819 -0.16042972 0.28812638 -0.15736416 0.4535122 -0.2862372 0.2562654 0.22354554
0.012688727 -0.014815923 0.1496734 0.19049358 -0.025239388 0.17504182 0.12785847 -0.29610404
0.4013625 -1.8840654 1.6363386 -0.20347583 0.56918144 -0.19191541 -0.69438237 -0.5688916
0.16408823 0.36024484 0.45908943 0.96383595 0.3676298 -0.24129562 -0.097364426 -0.06946719
0.023289053 0.09162586 -0.18344545 -0.19444586 -0.11365045 -0.091424525 0.12547006 0.03843525
-0.057914417 -1.4394392 0.5901044 0.767588 -0.66237146 0.24195015 0.7987073 0.35485968
-0.07982138 0.68271273 -0.33405808 0.31034726 -0.13323872 -0.2112847 -0.38028356 -0.30645302

l1.bias f4 [400]
00000000: 87cf 49be 0c70 97be 040b a2bd 8618 edbe
00000010: e551 563d 4b43 fcbe 7aea e5be 0801 2abc
00000020: e1e4 51be fbd3 d8bc 534f af3d 5d8e 49bd
00000030: bb2e 053d 03ee 8ebe cf92 7fbe ca3b 66be
00000040: 7a9b 38bd bcb0 43be 3df9 48be 3f08 c23d
00000050: d4f4 843c 8cfe 093e 093c 85be ae7f 96be
00000060: 4586 4cbe 12da 86be e89c 99be 9a33 3dbe
00000070: d25d b53e dc7f a23d 626b ecbc b960 bfbe
00000080: b3ce a13e 15c4 38be 570c 85bc 8ff6 9bbe
00000090: fe3b cdbe feac fd3c c728 ecbc 9e31 83be
000000a0: bab5 4ebe 62d1 8ebe f400 9e3e b904 74be
000000b0: 790c c73d 1c08 cdbd c8c6 383e b4f6 c8bd
000000c0: 257d 98be cc61 3abc 5e19 f2bd 727e febe
000000d0: 337a ce3d efb3 dfbe c0b6 35bd 1495 28be
000000e0: 11ef 40be b02b e5be 7d40 073d 86a7 85be
000000f0: b1ba 34be caab 88be a26c 9c3e f1eb 4cbe
00000100: afb0 903d 8ae7 84bb 752b c13d caf2 4abe
00000110: c752 42be ef42 863c 9d43 4c3d 3f80 bcbe
00000120: 7b24 d8bd 0006 e5be 4d69 d1be 1a38 003f
00000130: dceb 893d bf6e 63be dfb2 97be 07de a6be
00000140: 4c1a 0e3d 96bf 1fbe 703d e6bd 4a60 45be
00000150: f99c 27bf bb46 0bbf baca 15be 0065 15bd
00000160: 19f6 983d d049 c0bd f637 93be 7d6e b1be
00000170: 174d 07be 8864 a3be dd21 be3e 3ffb a7bd
00000180: 9b9e edbe 06fc 83be 5884 a2be a94e babd
00000190: 67ce 01be 5750 06bf dd10 973c 0f19 a3bd
000001a0: 76f4 5ebe 5dce c4be 1276 183e 6055 b9be
000001b0: ee6e 02be 2d92 9dbe 1b1e a3bd 0a4a 46bd
000001c0: 4178 aabd c65f 1cbe d5c9 9abd c653 1ebe
000001d0: 1d60 13be 7d4c 16be c6a9 75be 0acc a7be
000001e0: 10dc 053e b3ee 75be c4fb d33c df98 0fbf
000001f0: 7f20 9d3e a353 853d 7232 63be 9d34 5bbe
00000200: e05e b33d f9d2 6fbe 0019 17be d82f 25be
00000210: e41c ffbe f465 f03d 8f91 5d3e 38cd 73be
00000220: bb3e c93d 8bd5 863d d1f6 bd3d cd64 73be
00000230: 625d ebbc d0a5 533e 7d53 1ebe 768f 52be
00000240: 9820 293e 0d68 1abc ef71 fa3d 8946 76bd
00000250: 413b a3be 14dc f9be 74ee fe3d 81b8 f2be
00000260: 66dc cb3c 9c85 09bd 6eb4 74bd e389 403e
00000270: 58d8 3c3d 4b10 a2be 6a21 61be dfc1 d23c
00000280: effb 313c a80b 0cbf ce7c cfbe d060 173a
00000290: e95a 51be 382a 10bf af51 b6be 329f c13e
000002a0: 422a 873e e74e 1e3e 9e18 8abe 8338 27be
000002b0: 4893 52be a150 aebe b57d 06bd cdeb 08bf
000002c0: e4db 03bd 8aed 9b3e 4922 8dbe e61d 0ebd
000002d0: 889b 6e3d 4f25 14be c4bd 87bd a878 4f3e
000002e0: 6f45 503e 7192 18bf 486e f1be f957 9abe
000002f0: dde1 5abe d68b e8be 4fec 62bd 0cdf a1be
00000300: b285 eb3d 5f4b e83c 5d79 a4bd 8e2e 9ebe
00000310: 7ca5 a5be 5fb9 32be 6481 0abf 11df 8dbe
00000320: f9fd 90be dc10 d83d 0e84 033e c242 2abe
00000330: abd4 ebbd 83a3 0dbe 09da a5be 67d9 bc3d
00000340: da71 ffbc 31a8 b43d 05bc a2bd 66ae a8bd
00000350: c2a5 bf3c 586b eebe 7aca 283d c440 b5be
00000360: 89d4 27bf 53f5 e3be d675 56be 92b1 8bbe
00000370: 05b0 2e3c 848f 4bbe f040 3ebe 069d 21be
00000380: 141a 9e3e f80d 43be 3170 8dbe 9821 9fbd
00000390: 02b4 07be 31d7 eabd 8aae 12be 3f7d 0bbd
000003a0: 03c4 373e 3345 1b3e 4135 1dbf 9f41 d8bc
000003b0: 1581 31be aaee 8bbe 7911 d5be d4c1 3f3e
000003c0: e993 f8bd 2d90 623d 034d a63d 113c b2bd
000003d0: 8609 db3d 40f1 c83d 8472 9ebe bc2a 9dbd
000003e0: 6428 44be 0697 15bf f7a7 afbe 6861 f9be
000003f0: ad53 463e a1d5 1a3f d93d d8be 9c8c bcbe
-0.19708072 -0.29577672 -0.07912257 -0.46307772 0.052324194 -0.4927009 -0.44905454 -0.010376222
-0.20497467 -0.026468268 0.08560052 -0.049208034 0.03251527 -0.27915964 -0.24958347 -0.22483745
-0.04507015 -0.19110388 -0.19626327 0.09474229 0.016230024 0.13476008 -0.26022366 -0.29394287
-0.19973095 -0.2633825 -0.30002522 -0.18476716 0.35423142 0.079345435 -0.028859798 -0.3737848
0.3160301 -0.1804355 -0.016241236 -0.30461547 -0.40084833 0.030966278 -0.028828038 -0.25623792
-0.2018651 -0.2789412 0.30860102 -0.23829927 0.09719176 -0.10011312 0.18044579 -0.0981268
-0.29782978 -0.011375856 -0.11821245 -0.49705845 0.100819014 -0.43691966 -0.044363737 -0.16463119
-0.18841197 -0.44759893 0.033020485 -0.26104373 -0.17649342 -0.26693565 0.3055163 -0.2001188
0.0706495 -0.004055922 0.09432117 -0.19819179 -0.1897689 0.016389338 0.04986917 -0.36816594
-0.10553833 -0.4473114 -0.4090065 0.50085604 0.0673444 -0.22210215 -0.29628655 -0.32591268
0.034693047 -0.15600428 -0.11242187 -0.19275013 -0.65473896 -0.544048 -0.14628115 -0.036473274
0.074688144 -0.093890786 -0.28753632 -0.34654608 -0.13213001 -0.31912637 0.3713521 -0.08202218
-0.4641007 -0.25778216 -0.31741595 -0.090970345 -0.12676392 -0.5246634 0.018440658 -0.07963764
-0.21772942 -0.38438693 0.1488879 -0.36197948 -0.12737629 -0.30775586 -0.079647265 -0.048410453
-0.08323718 -0.1527091 -0.07558028 -0.15461645 -0.14392133 -0.14677615 -0.23990545 -0.32772857
0.13072228 -0.24016838 0.025876887 -0.5609264 0.30688855 0.06510093 -0.22187212 -0.21406789
0.0875833 -0.23420323 -0.1475563 -0.16131532 -0.4982673 0.11738196 0.21637557 -0.23808753
0.09826418 0.06583699 0.09275592 -0.23768921 -0.028731052 0.20668721 -0.15461536 -0.20562539
0.1651634 -0.009424222 0.12228762 -0.06012586 -0.31881145 -0.4880072 0.12447825 -0.4740639
0.024885368 -0.033574685 -0.059742384 0.188026 0.04610476 -0.31653056 -0.21985403 0.02572721
0.010863288 -0.54705286 -0.40524906 0.0005774619 -0.20444836 -0.5631442 -0.35609195 0.3781677
0.26399428 0.15459786 -0.26971906 -0.16330151 -0.20563996 -0.3404589 -0.032834727 -0.53484803
-0.032192126 0.30454665 -0.2756522 -0.034696482 0.058253795 -0.14467357 -0.06627992 0.2026087
0.20338987 -0.5959845 -0.4715445 -0.30145243 -0.21375223 -0.45419186 -0.055401143 -0.31615484
0.1150011 0.028356252 -0.08030961 -0.30894893 -0.32352817 -0.17453526 -0.54103684 -0.2770925
-0.28318766 0.10550091 0.12843344 -0.16627029 -0.115151726 -0.13831906 -0.3239291 0.09221154
-0.031182218 0.088211425 -0.07946018 -0.08236389 0.02339447 -0.46566272 0.04120872 -0.35400975
-0.6555868 -0.44523105 -0.20943388 -0.27283913 0.0106620835 -0.19878966 -0.18579459 -0.15782556
0.3087927 -0.19048297 -0.27624658 -0.077700794 -0.13252261 -0.11466826 -0.14324394 -0.03405499
0.17945866 0.15163116 -0.61409384 -0.026398478 -0.17334397 -0.27330524 -0.41614893 0.18726283
-0.121375866 0.055313278 0.081201576 -0.08702863 0.10695176 0.0981164 -0.30946743 -0.076741666
-0.19156033 -0.5843357 -0.34307835 -0.48707128 0.19367857 0.6048222 -0.42234686 -0.36826026

l2.weight f4 [300, 400]
00000000: 8773 2fbc 0ae6 17bd f172 e6bc 2c4f 0dbd
00000010: 28ab 5bbc 7d1a 6ebd df25 95bc d246 3dbd
00000020: 8aaa 033d 8f9f 4fbd a5f8 01bd 8e0b 39bd
00000030: 0111 28bd f29f dbba 6930 00bd 5cf7 02bc
00000040: d56c 12bd d94d 47bd 0653 1dbc c587 c3bc
00000050: 1656 cbbc 5e33 123d 145b 623c 6f6a e63c
00000060: ead4 963c cd8c 27bd f53f 083d dffb 81b8
00000070: c65d e73c f708 c5bc f4c3 7e3a 6d9f febb
00000080: 917b ebbc 0998 d6bc 0771 2e3d e691 70bc
00000090: ab5b 78bd 54dc 79bc cdd3 bc3c a828 34bd
000000a0: 618b e03c 6cf9 19bc ee4e d1bc 9bce 11bd
000000b0: e049 0fbc 7346 36bd c36f d43c b119 b8bc
000000c0: 8da5 c7bc 82a2 e0bb 33d5 eb3c da34 873c
000000d0: f4d2 97bd 2aba 4ebd 4f0d f13c 18fc 43bc
000000e0: 915d 093d b0aa abbb 144f 933b dafe fcba
000000f0: 528f 44bd 1de2 99bd afdc 363c 9498 d73a
00000100: bc6a 333c cc71 8a3c fde0 863c 38dd 7f3c
00000110: 101a 36bd 6f3e c9bc a605 7b3c 2418 9dbd
00000120: 1771 2e3c 9d47 21bd 4003 173a 5aad 25bd
00000130: a3a1 d9bb 686b 7ebc 5432 30bd 16cf 93bd
00000140: f95d 1f3c 8754 c43c b9fd da3b 732d 36bd
00000150: 4c93 d9bb b10f d93b 4960 2f3d 6864 033d
00000160: 926a 46bd 497e 643b 1279 8e3c 7264 ea3c
00000170: e88b c8b9 adbe b9bb 2262 e13c c0c0 e0bc
00000180: 8c4f 1dbb 448a 37bc 3bb4 cdbc 221b 35bd
00000190: 48db 2bbb 7ac7 f13c b0c7 67bd ea84 3fbd
000001a0: abf2 4abd a033 673b e896 3dbc 83d7 2abd
000001b0: 6464 953b 50a8 b63b 7bdc 5ebd aa50 6e3c
000001c0: f96a c13b 68e2 7dbc dafb f9bc a69d 1a3d
000001d0: e801 11bc 4b0a ef3c 30ce 1dbb 567c 0bbd
000001e0: f812 3cbd 1fda b33c a11f 82bc 9a86 1abd
000001f0: 759f 133c c99e 03bd cbd7 cbbc d3f0 9e3c
00000200: 1cef 3bbd f4ca 30bd 0550 9dbc 32f2 aa3c
00000210: d6bf 0bbd cf09 103d 14cc 5dbc 60fc 48bd
00000220: f8dc e7bc d82c 59bc 4b3a 583a d72e eabc
00000230: 6044 f1ba dc1b e0bc 5a49 9fbc 361c 58bc
00000240: 98e2 d7bc b0e5 b2bc b9b1 edbc 3904 cf3c
00000250: d7c5 41bd 6c45 b8bc 6b4a cfbc 22c8 98bd
00000260: 0cd7 2abd d2e2 83bc ca6d ee3a 3777 a2bc
00000270: a97a 393d bb60 dc3c cf90 dbbc 2544 243d
00000280: 7d4b 22bd 60d4 45bc a83f a0bb 26e1 883b
00000290: 0e2d 973a 6b27 fbbc 7746 00bd 2923 a4ba
000002a0: b8fb 47bc f97a 48bd c058 de3a bb46 2d3c
000002b0: 2006 d3bc 8044 82bb ae01 41bc f77d 90bc
000002c0: 1024 ffbb 535e 1f3b 4762 eabb 399f 83bd
000002d0: 8eb2 1b3c 6ade 83bb 3565 41bd 1972 c8bc
000002e0: 00b6 6f3a 83e8 3ebd 31af 65bc 21aa 083d
000002f0: 82ea 983c 25c9 d33c 9eed bd3c d05b 623c
00000300: ffe5 803c 0cc6 fabc 62a7 07bc df1a 08bc
00000310: 06d3 a9bc ea90 1cbd 871f 01bc 8b97 25bd
00000320: 575b bebc eaed 9fbd 45ec fdbc 76b3 e53c
00000330: 797b 79bd e3bf c93c 269c 42bc dd2b 4f3c
00000340: 16f6 233d ae1a bcbc a9a3 dbbc 935e 47bd
00000350: 0856 2d3d e71f 943b a368 92bd 272c 803c
00000360: 976e 68bc a261 2abd 7398 65bd f6de 46bd
00000370: 82e1 35bd f4df 75bc 9ddf febc 63b7 53bc
00000380: 8720 09bd 826b 9f3c 1726 4f3c 1260 52bd
00000390: fed8 1f3c e6bd 8e3c 550d abbb a24c aa3c
000003a0: e2d0 ed3c 9646 e1bb e3f9 59bd 9c3d 1d3d
000003b0: addc 3a3d 96ad 27bc 2c05 e53c 8275 0e3d
000003c0: aeb6 7d3c 169e babd 06df 523c 5bbc 84bd
000003d0: 8028 8fbd 0a7b 2b3c 6e53 06bd 19dc c6bc
000003e0: ea52 39bd 820e cc3c 69f9 f3bc 9c23 b43b
000003f0: 0538 51bd 6cfd 86bd 8af0 3abd cb28 32bd
-0.010708696 -0.037084617 -0.02813098 -0.034499332 -0.013407506 -0.05813073 -0.018206535 -0.046210118
0.03214506 -0.050689276 -0.031731267 -0.045177035 -0.04103184 -0.0016756041 -0.031296168 -0.007993545
-0.03574832 -0.048658226 -0.009602314 -0.02386845 -0.024821322 0.03569352 0.01381566 0.028126923
0.018412072 -0.040905762 0.03326412 -6.198114e-05 0.028242957 -0.024052126 0.00097185303 -0.00777047
-0.028745444 -0.026195543 0.04258826 -0.014683222 -0.060634296 -0.015250284 0.023050213 -0.043984085
0.027410211 -0.009397846 -0.025550332 -0.035597425 -0.0087456405 -0.04450078 0.025932198 -0.022473188
-0.024370933 -0.00685531 0.028788185 0.016504694 -0.07413283 -0.05047051 0.029425291 -0.011961959
0.033536498 -0.0052388534 0.004495511 -0.0019302026 -0.047988243 -0.07513831 0.0111610135 0.001644867
0.01095074 0.016899966 0.016464705 0.0156167075 -0.04445845 -0.024565903 0.015321171 -0.0767062
0.01064708 -0.039374936 0.0005760677 -0.040448524 -0.006641583 -0.015528537 -0.043016747 -0.07217233
0.009726995 0.023966087 0.006683078 -0.044476938 -0.0066398736 0.006624185 0.042816434 0.032078177
-0.048441477 0.003486531 0.017391715 0.02861235 -0.0003825121 -0.0056684823 0.027512614 -0.02743566
-0.0024003712 -0.011202399 -0.025110355 -0.04421533 -0.002622323 0.029514063 -0.05658692 -0.046757616
-0.049547832 0.0035278574 -0.011571623 -0.041709434 0.0045590866 0.0055742636 -0.054409485 0.014545599
0.0059026447 -0.015495874 -0.0305156 0.037748 -0.008850552 0.029179713 -0.0024079196 -0.034054123
-0.045916528 0.021954594 -0.015884222 -0.037726022 0.0090101855 -0.03213385 -0.024883172 0.019401943
-0.04588233 -0.0431623 -0.019203195 0.02086744 -0.034118496 0.035165604 -0.013537426 -0.04906881
-0.028303608 -0.0132553205 0.00082484324 -0.028586788 -0.0018407218 -0.027357034 -0.019444156 -0.01319032
-0.026353166 -0.02183804 -0.029015409 0.025270568 -0.047307815 -0.02249404 -0.02530404 -0.07460047
-0.04170899 -0.016099367 0.0018190679 -0.019832237 0.045282993 0.026901593 -0.026802449 0.04010405
-0.039622772 -0.01207456 -0.004890401 0.0041772304 0.0011533813 -0.030658444 -0.0313172 -0.0012522686
-0.0122060105 -0.0489454 0.0016963705 0.0105759455 -0.025759757 -0.003975451 -0.011780186 -0.01763819
-0.0077862814 0.0024317696 -0.007152829 -0.06426854 0.00950302 -0.0040243166 -0.04721566 -0.024468469
0.00091442466 -0.04660846 -0.01401882 0.033365373 0.01866651 0.02585275 0.023184594 0.013815835
0.01573467 -0.030612014 -0.008279653 -0.008307188 -0.020730507 -0.03822414 -0.007881052 -0.040427726
-0.023236914 -0.078090504 -0.030996451 0.028039675 -0.06090877 0.024627632 -0.011878049 0.012644735
0.040029608 -0.02296194 -0.026811438 -0.048674177 0.042318374 0.0045204046 -0.07148864 0.015646053
-0.014186523 -0.041597016 -0.05605359 -0.048552476 -0.044404514 -0.015007008 -0.031112486 -0.012922141
-0.033478286 0.019460443 0.012643359 -0.05136115 0.009756325 0.017424535 -0.005220095 0.020788494
0.029030267 -0.0068748696 -0.053216826 0.038388833 0.04562061 -0.010234257 0.027956568 0.034780033
0.015485449 -0.09112184 0.012870556 -0.064812385 -0.06990147 0.0104663465 -0.03279441 -0.024274873
-0.04524509 0.024909262 -0.029782014 0.005497409 -0.051078815 -0.06591305 -0.045639552 -0.043495934

l2.bias f4 [300]
00000000: 8a10 89bd 3259 a53e 5163 57bf 91d7 d9bd
00000010: 41fa b03d 192a 2ebd 8a4c 92bd e097 7dbe
00000020: 941f 2fbd c40f 90bd ea47 dfbd 401b 30be
00000030: 5116 1bbf 4c68 2dbe a6b8 2bbe a71b bbbd
00000040: 0076 0dbd 6699 ac3d 05f5 c2be 0626 b3bd
00000050: a05e cd3d ed80 dbbe 26c1 10bf 201a cabe
00000060: f3a8 b8bd f7eb 84bc c94c 403e f7d1 353e
00000070: 5c5c a9bc dd80 e6bd 299e d0bd 5f10 f9bc
00000080: 21a3 b3bd e0a2 cebe e02d 9bbd 69af 10be
00000090: 50b2 78bd f580 1cbe 02d9 4cbe 0f35 c8be
000000a0: 75ed 3eba 9ea3 103e c198 233e e651 1f3d
000000b0: 95a2 bc3d 9631 e1bd 7987 92be ea8c 8fbd
000000c0: 8b0f e1bd f2b0 9abd 9086 11be f8ef 6e3e
000000d0: e0f0 64bd 25a9 93bd d82a 903d 36a2 c33d
000000e0: ceb5 a9bd 03de 51bd fc4f e7bc 8ddc cdbd
000000f0: e3e9 c23e c0db 66be 6e30 c2bb 593a 34be
00000100: 4dc5 40bd 6fe5 1cbe e441 e1bd 5412 01bf
00000110: 563e ccbd 71eb c0bd 013e d1bd 1742 3b3e
00000120: 3246 0ebf 7b7a c9bc 010e 1fbe 86c7 4fbe
00000130: 0fdb 0dbd 3c15 59be 87fb c4bd 64ef bdbd
00000140: 8d73 8bbd 7275 993e 3d55 10be c511 2ebd
00000150: 962b ab3c 61f0 7ebd 8d81 e0be 8878 9ebd
00000160: fb1b a0bd 13e0 35bd edd0 82bd 5be8 533e
00000170: 9f5d e03d c1c5 86bd 7df9 bbbd 3b15 b7bd
00000180: 070b 903d cc21 39bd 0232 0ebf 9c00 9ebd
00000190: 112f 213c 8637 a8be 2942 3abd a785 ebbe
000001a0: c106 07bd b250 01be bd2c 4dbd 0a31 47bd
000001b0: 7f75 0abe bd2d 9abd 9ed3 f0be 7586 753e
000001c0: 685d 96bd 1f48 10bd 09e1 63be 64fd eabe
000001d0: 36de d93d 68e4 ddbe 2065 6dbd 4386 89be
000001e0: 1a8f 5abf 55e0 cbbe fd17 4bbe aa25 743d
000001f0: b75b a0be 20a1 11bd b112 dfbd 8ad7 c93e
00000200: ac79 0ebe fb8b a83e 13f9 e7bd 0b78 bfbd
00000210: 2255 1fbd c7b0 95bd f008 85be 2cda 91bd
00000220: 842b 60bd a9fe a1bd 0fbe 9a3a fcc8 9dbd
00000230: 8b72 85bd cca5 993d 8a90 413a b20a eebe
00000240: fcea b1bc 4289 55bf ae7e ee3e 2604 44be
00000250: bda2 5fbd aa54 aabd d1c8 adbc 84ee 343e
00000260: 9eba cbbd 4560 b5bd c200 43be 8874 a2bd
00000270: 1081 ccbd 64c5 0abe 97c9 1cbe bc0f 283e
00000280: a0d7 01bd ab48 b13d 09f0 a3bd 39d8 cabd
00000290: 38bb cbbd 26ff 6cbe de7a 08be 55c7 cebc
000002a0: 355e 0dbd 7e04 04be e8aa 36be 9363 9cbc
000002b0: b6b7 dabe 5dfa bdbc e1e3 ac3b a408 08bd
000002c0: 5749 57bd e919 e8bd 45bc 8bbd e7a3 a5bd
000002d0: a49d 98bd fdaf 82bd d0f8 24be efc1 0fbf
000002e0: 0b9e ee3d 99f4 90bd ea75 07bf bedd c6be
000002f0: 566c 60bd 0fc8 63bd aba1 29bd 1ee8 8abd
00000300: 6899 f3bd a8cb 8abd e135 11be ab75 9bbd
00000310: 7dbe 93bd 2c5a 0ebd 3c7d b6be 745a b3bd
00000320: 82d0 e43d 18b8 103a 72f8 53bd a70d c03c
00000330: 690f 6bbc 940d 7fbd 655f b5be b52e 8dbd
00000340: cd07 a7bd 9928 37be 6eeb 89bd 85e0 80bd
00000350: fefe af3d 6b79 5dbd c404 4ebc d6f3 3dbe
00000360: 488c 52be 9cb0 84bd bc26 c2be f071 1bbd
00000370: a26d ecbd ed4f 02bd fe4d b4bd 3997 d2bd
00000380: 95ab 92bd c2b7 87bd fbb3 c2bd 8e7c ccbd
00000390: a084 cdbd b4e0 733e 1a5f d4bd ad33 c7bd
000003a0: cfb9 cd3b 4454 83bd 3ccd aebc 0f3f 483d
000003b0: 8fc4 963e c4c0 c8bc 4a88 8a3e 9ee6 ebbc
000003c0: cde5 84bd f932 0ebd 07b7 60be 34c3 babd
000003d0: ce65 9fbd d0a8 b4bd ae25 a8be 0ff9 d2bd
000003e0: f79f e5bc 89c2 02bd 0a9e 32bb 27d7 31be
000003f0: decd e7bd d785 dcbd 5b82 ff3d 911e dcbd
-0.06692608 0.32294613 -0.8413592 -0.10636819 0.08641482 -0.042520616 -0.07143505 -0.24764967
-0.042754725 -0.07034257 -0.109023884 -0.17197895 -0.6058093 -0.16934317 -0.16769657 -0.09136134
-0.03453636 0.08427696 -0.3807756 -0.08747487 0.10027814 -0.428718 -0.5654472 -0.39473057
-0.090165995 -0.016225798 0.18779291 0.17755876 -0.020673923 -0.112550475 -0.10186417 -0.030403314
-0.08771349 -0.4035864 -0.07577109 -0.14129414 -0.060716927 -0.15283568 -0.20004657 -0.3910298
-0.00072833087 0.14124915 0.1597624 0.038896464 0.092106976 -0.10995786 -0.28618982 -0.07009299
-0.10989293 -0.07553281 -0.14211488 0.23333728 -0.05589378 -0.07209996 0.07039422 0.09552424
-0.082866296 -0.051237117 -0.028236382 -0.10051832 0.38069066 -0.22544765 -0.0059261834 -0.17600383
-0.04706316 -0.15321897 -0.10998896 -0.5041859 -0.09972827 -0.09419907 -0.102169044 0.1828693
-0.5557586 -0.024594536 -0.15532686 -0.20290956 -0.03463274 -0.21199507 -0.096182875 -0.09274176
-0.06809149 0.29972416 -0.14095016 -0.042497415 0.020894807 -0.062240962 -0.4384884 -0.07737833
-0.07817837 -0.044403147 -0.06387506 0.20694105 0.10955357 -0.06580687 -0.091784455 -0.08939596
0.07033353 -0.045198247 -0.55545056 -0.0771496 0.009837882 -0.3285486 -0.04547325 -0.46000406
-0.032965425 -0.12628439 -0.050091494 -0.04863075 -0.13521384 -0.07528255 -0.4703645 0.23977073
-0.073420346 -0.03522503 -0.22253813 -0.45896447 0.106380865 -0.43338323 -0.05795777 -0.26860246
-0.85374606 -0.3981959 -0.1983337 0.05960623 -0.31319973 -0.03555405 -0.10892237 0.39422256
-0.13913602 0.32919297 -0.11326804 -0.09349068 -0.03889955 -0.07309108 -0.2598338 -0.07121691
-0.054729 -0.07909901 0.001180591 -0.0770435 -0.06515988 0.07502326 0.0007383904 -0.46492535
-0.021718495 -0.83412564 0.46581024 -0.19142208 -0.05459856 -0.0831693 -0.02121392 0.17669111
-0.09947704 -0.088562526 -0.19043258 -0.07932383 -0.09985554 -0.13551861 -0.15311275 0.16412252
-0.031699777 0.086564384 -0.080047674 -0.099045224 -0.099478185 -0.23144206 -0.1332812 -0.025241533
-0.03451367 -0.12892339 -0.17838633 -0.01909045 -0.42718285 -0.023190672 0.0052761887 -0.033211365
-0.052560177 -0.11333067 -0.06823019 -0.080879025 -0.074519426 -0.06381223 -0.1611054 -0.56155294
0.11651238 -0.07077903 -0.529143 -0.3884105 -0.054790817 -0.055610713 -0.041413944 -0.06782554
-0.11894494 -0.067771256 -0.1418071 -0.07590803 -0.07214067 -0.034753963 -0.3564242 -0.08757487
0.11172582 0.0005520596 -0.051750608 0.02344401 -0.014346936 -0.06226881 -0.35424343 -0.06893674
-0.08155785 -0.1788658 -0.06734358 -0.06292824 0.08593558 -0.05407087 -0.012574378 -0.18550047
-0.20561326 -0.06478998 -0.37920177 -0.037950456 -0.11544348 -0.031814504 -0.08803938 -0.1028275
-0.07161633 -0.06626846 -0.09506985 -0.099846944 -0.10035062 0.23816186 -0.10369702 -0.09726653
0.0062782536 -0.06412557 -0.021338098 0.048888262 0.29446837 -0.02450598 0.27057105 -0.02879649
-0.064891435 -0.03471658 -0.2194482 -0.09119263 -0.077830896 -0.08821261 -0.32841247 -0.103014104
-0.028030379 -0.031923804 -0.0027254843 -0.1736723 -0.11318563 -0.107677154 0.12476035 -0.107480176

l3.weight f4 [4, 300]
00000000: 0bf9 8bbd 9a80 7dbe 65c4 fd3e debd 03bd
00000010: efec 373e 2dde 023c a749 0b3d c389 43bd
00000020: 3234 66bd 6bf3 ba3c 6c40 c6bb 480e 443f
00000030: 3b42 f33d b77e 2fbf 29f1 d13e 37e0 673c
00000040: 12f0 343d be82 47bf bd63 b9bf 1174 1e3b
00000050: cb36 b73f 5be2 33bf 67f3 3d3f 4c76 7ebf
00000060: 61cc ddbe 031d eabc 9bb3 86be d7ef 24be
00000070: 7e26 c53c 936b d43e b95d 99bc 2a1c a03c
00000080: 671c 6cbd ee8f 9c3e 4f32 a23f 1bbb d43b
00000090: 2355 e43c 508a 86bf c612 1f3c 0812 9fbe
000000a0: 6cf8 4a3c 59ac 2e3e 4916 2bbe 16b8 443e
000000b0: 5558 13be 4d5f 483e 74dd 923c de32 d4bc
000000c0: d5e6 9cbe 3780 903c 8851 90be 8a3e 0d3e
000000d0: 5e1a c73c db12 4ebc 9d5f 2d3e a64e c13e
000000e0: 2ae9 e43c abee 10bd b5e5 ae3b 5c69 223d
000000f0: 0622 11bc 680b c23d 44db 1cbb f79a a03b
00000100: e53d 973a 30f8 853e 7694 cabc 4bf2 bebe
00000110: 3686 50bf 63e9 2aba 02b0 cb3c 79b2 9b3e
00000120: f464 a3be 747b 243b 40c9 ebbe 5a94 d23e
00000130: 0363 3d39 b503 853e 4937 f13b 8e4d 86bb
00000140: 01fe 0ebc aa75 443e ae84 1e3f 1005 90bc
00000150: 0cc3 07bf 98d6 88bc 684a 70bf 4a8c 25ba
00000160: 7dc1 07bc 7538 8e3c a54a 843c 2a59 723e
00000170: 4b81 8d3f f4d9 4d3d 0802 253d 6f4b 9e3c
00000180: 0b0b c2bf e530 84bc c119 673e 8f0c a6bb
00000190: 3463 10bb bad7 cdbe f5f4 b6bc 023d 3dbe
000001a0: 2476 5a3d 4dc5 14bd 41c4 cd3c ff84 813c
000001b0: 0cb8 58be 4612 c3b9 e4a5 643f b47f 903e
000001c0: ca6c eb3b 745a 333c e2db 8c3d 7a6a 6bbf
000001d0: 8ba8 f43d 1973 e9be 8a0d fd3b ca32 733f
000001e0: 44aa 463e aba3 39bc b3eb 123f 5356 a93e
000001f0: ae8c e8be 4e70 0e3c 858d 9bbb 0d6e 21be
00000200: 661b 05bf 3ffa 2bbe 0a1f 09bc 733f db3b
00000210: 6786 0bbd 8ada a03d 134e 693f 6cdd d43c
00000220: bbfb 25bd 5644 84bc 9de4 783d 6710 013d
00000230: f65f 6cbc ed95 9f3e def9 e239 e244 8c3e
00000240: 750f 433b c929 6dbe bd39 25bf 0977 903d
00000250: 5c12 c2bb 8b9a 3c3d 83a2 e33d be39 debd
00000260: 494d d3bc 366a e6bc 5dca c43e 0b36 80bb
00000270: 837e 3ebd d365 093e 657c ffbe 1a56 fbbe
00000280: d1e5 f2bc 2950 c5bc a454 babc d878 4d3d
00000290: ce34 8e3c cb9e ddbe cdfd 2f3e 4d5c cb3d
000002a0: 6558 233f bfce a6bd 9375 d8bd 2804 da3d
000002b0: c96d 97bf 5820 16bb 72ac 9d3e 45fc 74bc
000002c0: 3ce4 003d 2c2a 8bbe 3ddc 88bd 24c6 dabb
000002d0: e389 893c b1af e8be 6bd2 553e 2c19 fa3d
000002e0: 46f0 3abd 9984 27bc 1440 8ebe e83d 50bf
000002f0: cc13 b6bc 3353 94bd 70cb 723b c50e 61bc
00000300: ab6f cdbc 7484 103d 6d90 1abd e2c5 1a3f
00000310: f064 b43c 6f1c 3b3d c10a 133f 9aaf 8f3d
00000320: 7028 813f 0be6 bf3c a151 8439 34ba 7b3e
00000330: ec66 b33c 34b1 3c3f 1ff3 0bbf 595a 683d
00000340: 30a7 533c 1ea3 11bf b3cb 24bd 7aaf ed3d
00000350: 7d4f c4be 90fe a83c c0db a5bd 14d3 3cbe
00000360: a526 52bd e125 803c d6ae 8bbe 8a4c a6bc
00000370: 3c4a 1abf 386b 1bbe 8deb db3c 213c 4cbb
00000380: 264b da3c 12e2 533d 4df4 33be 07a0 863d
00000390: 8e8c afbd 631c b53c b9f1 043d df99 3f3c
000003a0: 0b75 f83e 3f0b b2ba 2e02 cf3b 67f4 1d3f
000003b0: 25a9 963e 7186 153d d56c 46be 386b 663d
000003c0: a9b8 173d 827b c1bc 55cb 143e 5267 a03d
000003d0: 1080 46bd 5073 81bd 7b69 813e 8df0 db3c
000003e0: 5be2 4fbf 26fe 383c e8b6 d2bb f638 b2bd
000003f0: c678 31be 8495 0dbd ba57 9e3e 33ac 65bc
-0.068346106 -0.24756089 0.495639 -0.032163493 0.17961477 0.007987541 0.034005787 -0.0477388
-0.05620212 0.022821149 -0.00605016 0.7658429 0.11877867 -0.68552727 0.41004303 0.014152578
0.04417426 -0.7793387 -1.4483563 0.0024178068 1.4313596 -0.70267266 0.7419953 -0.99399257
-0.4331999 -0.028578287 -0.26308903 -0.16107117 0.024066206 0.41488323 -0.018721448 0.01954468
-0.057644274 0.3057856 1.2671603 0.0064920313 0.027872628 -1.051096 0.009709066 -0.31068444
0.01238833 0.17057933 -0.1670772 0.19210848 -0.14389165 0.19567604 0.017927863 -0.025903162
-0.3064486 0.017639263 -0.28187203 0.13793388 0.024304565 -0.012577738 0.16931005 0.37755316
0.027943213 -0.03538386 0.005337442 0.03965126 -0.0088582095 0.09474832 -0.0023934403 0.0049012857
0.0011538832 0.26165915 -0.024728995 -0.3729423 -0.8145479 -0.00065197627 0.0248642 0.304096
-0.3191296 0.0025097998 -0.4605198 0.41128808 0.0001806133 0.2597939 0.007361327 -0.0040986007
-0.008727551 0.1918551 0.61921203 -0.017580539 -0.5303199 -0.016703889 -0.93863535 -0.0006315155
-0.008285877 0.017360905 0.016148875 0.23666826 1.1055082 0.050256684 0.04028514 0.019323079
-1.515962 -0.016136596 0.22568418 -0.005067415 -0.0022031786 -0.4020365 -0.022333601 -0.18480304
0.053335324 -0.036320973 0.025117995 0.015810488 -0.21163958 -0.00037206913 0.8931563 0.2822243
0.0071845995 0.010946859 0.06877877 -0.91959345 0.119462095 -0.45595625 0.0077225612 0.9499937
0.19400889 -0.011330525 0.573909 0.33073673 -0.4541983 0.008693768 -0.004747095 -0.15764637
-0.5199493 -0.1679468 -0.008369217 0.0066909133 -0.034063723 0.07854183 0.91134757 0.025984488
-0.040523272 -0.016145866 0.060764898 0.031509783 -0.014427176 0.31169072 0.00043292245 0.27396303
0.0029763852 -0.23160471 -0.64541227 0.07053954 -0.0059225988 0.04604582 0.11114981 -0.10850857
-0.025793688 -0.028126817 0.3843564 -0.0039126924 -0.04650737 0.13417749 -0.49899593 -0.49089128
-0.0296506 -0.024086075 -0.022745438 0.050164074 0.017359164 -0.43285212 0.17186661 0.09929714
0.63806754 -0.081449024 -0.105693005 0.10645324 -1.1830379 -0.0022907462 0.30795628 -0.014952724
0.03146766 -0.27180612 -0.06682632 -0.0066764522 0.016789382 -0.45446542 0.2088105 0.122118324
-0.0456393 -0.010224485 -0.27783263 -0.8134446 -0.022226237 -0.072424315 0.0037047528 -0.0137364315
-0.025077661 0.035282567 -0.03773539 0.60458195 0.022020787 0.045681413 0.57438284 0.07015915
1.0090466 0.023425123 0.0002523782 0.2458275 0.021899663 0.7370789 -0.5466785 0.056726787
0.012918279 -0.5688952 -0.040233325 0.11605735 -0.38341895 0.020629197 -0.080985546 -0.18439895
-0.051306386 0.015643062 -0.27281827 -0.020300169 -0.6026952 -0.1517762 0.026845718 -0.003116377
0.026647162 0.05172927 -0.17573662 0.065734915 -0.085717306 0.022108262 0.032457087 0.011694401
0.48526797 -0.0013583674 0.0063173985 0.61701053 0.29425922 0.036505166 -0.19377454 0.056254596
0.03704134 -0.023618463 0.1453069 0.07832207 -0.048461974 -0.06320822 0.25275788 0.026848102
-0.81204766 0.011291062 -0.0064304955 -0.08702271 -0.17331228 -0.034566417 0.30926305 -0.014018106

l3.bias f4 [4]
00000000: dda3 29be 4244 a5be 92a3 e53d 092c 6a3e
-0.16566415 -0.3227864 0.11212839 0.2286836
