TD3/preTrained/TD3_BipedalWalker-v3_0_crtic_1_ep500.pth (torch_old, 529774 bytes, 5 tensors)

l1.weight f4 [400, 28]
0	0x3e6ccb46	0.23124418
1	0x3f8e2c47	1.1107262
2	0xbf7cd3a8	-0.9876046
3	0xc04c9e61	-3.1971667
4	0x3dcf7388	0.10129458
5	0xbee52ecd	-0.4476227
6	0xbef843f6	-0.4848935
7	0xbe0014a3	-0.12507872
8	0xbfc5f5a5	-1.546559
9	0x3f92aef2	1.1459639
10	0xbeb67da4	-0.3564273
11	0xbf56cb1f	-0.8390369
12	0xbe890484	-0.26761258
13	0x3f05b09d	0.52222615
14	0xbf360c18	-0.71112204
15	0xbf398c0c	-0.7247932
16	0xbf1aa9a4	-0.604151
17	0xbf6ac616	-0.91708505
18	0xbf2efa3f	-0.68350595
19	0xbf17a2bd	-0.59232694
20	0xbf1e9ff4	-0.6196282
21	0xbf17808d	-0.5918053
22	0xbf5959fb	-0.84902924
23	0xbed633d7	-0.41836426
24	0xbe366c89	-0.1781484
25	0xbe56674e	-0.20937845
26	0xbeaafadc	-0.33394516
27	0x3e7e018f	0.24805282
28	0xbf283cc3	-0.65717715
29	0xbf3a44a1	-0.7276097
30	0xc09191a7	-4.54903
31	0x40470c9c	3.1101446
32	0xbf3a28cf	-0.7271852
33	0xbdbad8ab	-0.091233574
34	0x3d467afc	0.04845713
35	0xbc505745	-0.012716119
36	0x3d221f15	0.039580423
37	0x3e4f7362	0.20258859
38	0x3c362074	0.011116136
39	0xbf020ea3	-0.50803584
40	0xbd29c4c4	-0.041447416
41	0x3dfb9f9f	0.12286305
42	0x3e543019	0.20721473
43	0x3e28a51c	0.16469234
44	0xbd7a631d	-0.061129678
45	0x3ce1a22e	0.027543154
46	0xbcc38d42	-0.023871068
47	0x3d88d81d	0.06681845
48	0x3dbfb03b	0.09359785
49	0x3e3d0c00	0.18461609
50	0xbd95b81d	-0.073105074
51	0xbea49fd7	-0.32153198
52	0x3d0afb03	0.03393079
53	0x3ca9988e	0.020702627
54	0x3d6a7e9b	0.057249647
55	0xbbd36ca5	-0.0064521604
56	0x3fbeb1eb	1.4898046
57	0x404106df	3.0160444
58	0xc02e5ac8	-2.7242908
59	0xbfbe5328	-1.4869127
60	0xbf0f3ca5	-0.5595191
61	0x3d2810a0	0.04103148
62	0xbf118a21	-0.56851393
63	0xbe912c48	-0.28354096
64	0xbde035ef	-0.10947787
65	0xbe7de069	-0.24792637
66	0xbe92653f	-0.2859287
67	0xbe51f102	-0.20502093
68	0xbe271648	-0.16317093
69	0x3e8389a8	0.2569096
70	0xbf01d6f0	-0.50718594
71	0xbf18d15c	-0.5969446
72	0xbeb0673e	-0.34453768
73	0xbea015f3	-0.31266746
74	0xbeb80fed	-0.3594965
75	0xbf0a8f6e	-0.54125106
76	0xbf24d92c	-0.6439388
77	0xbedc7a9b	-0.4306229
78	0xbf27b378	-0.6550822
79	0xbf019273	-0.5061409
80	0xbf11100d	-0.56665117
81	0x3ddeb718	0.10874766
82	0xbd8f78c1	-0.07005454
83	0xbdf01988	-0.1172362
84	0x3d7a152b	0.061055344
85	0xbe2a915e	-0.16657016
86	0xbf407d25	-0.75190955
87	0x3edf69f9	0.43635538
88	0x3f334d91	0.7004023
89	0xbf37bd06	-0.717728
90	0xbead7b6c	-0.33883226
91	0x3f1e7ffd	0.61914045
92	0x3d81de40	0.06341219
93	0xbe380947	-0.17972289
94	0xbd29283c	-0.041298136
95	0xbd829163	-0.063753866
96	0x3f23a211	0.6391917
97	0xbe93cabb	-0.2886561
98	0xbf1161e0	-0.5678997
99	0xbef57124	-0.47937882
100	0xbef65ee7	-0.4811928
101	0xbee1a115	-0.44068208
102	0xbea4a465	-0.32156673
103	0xbe7a4027	-0.24438535
104	0xbe9653f1	-0.29360917
105	0xbe9744c9	-0.29544666
106	0xbd812cf9	-0.06307406
107	0xbe558946	-0.20853147
108	0xbe866d1b	-0.26255116
109	0x3e9d624c	0.30739057
110	0x3f21e54e	0.63240516
111	0xbf10eb10	-0.56608677
112	0x3deffe22	0.11718394
113	0x3ed681ef	0.41896006
114	0x3f191a37	0.59805626
115	0xbfd1d2c5	-1.6392447
116	0x3e4128e2	0.18863252
117	0xbc4a2b0f	-0.0123393675
118	0xbf60309d	-0.8757418
119	0xbf2278d2	-0.6346561
120	0xbfc7025a	-1.5547593
121	0xbed48210	-0.4150548
122	0x3ef09214	0.4698645
123	0xbf65c6bf	-0.8975639
124	0xbeb1e504	-0.34745038
125	0xbf0d72a6	-0.55253065
126	0xbf27c0d8	-0.6552863
127	0xbf4a59e7	-0.7904343
128	0xbf65d227	-0.8977379
129	0xbf71ce74	-0.9445565
130	0xbf5025c9	-0.81307656
131	0xbf804e34	-1.0023866
132	0xbf37b602	-0.71762097
133	0xbf71ff5a	-0.9453026
134	0xbf30a0ea	-0.68995535
135	0xbe3e89e9	-0.18607296
136	0x3e252c81	0.16130258
137	0x3e063aa0	0.13108301
138	0xbd271308	-0.040789634
139	0x3efbfed9	0.4921787
140	0x3e8669f2	0.26252705
141	0x40001c43	2.001725
142	0x3d1752de	0.036944263
143	0x3e904cd5	0.28183618
144	0x3f1a6aed	0.60319406
145	0x3f648cfe	0.89277637
146	0x3f17e2a7	0.5933022
147	0x3d9ab624	0.07554272
148	0xbf0dcf8e	-0.5539483
149	0xbece966e	-0.40349144
150	0xbf067dfe	-0.52536
151	0xbf16634a	-0.58745253
152	0x3edf9044	0.43664753
153	0x3f27936a	0.6545931
154	0xbf547c08	-0.83001757
155	0xbf1ca101	-0.6118317
156	0xbf11c452	-0.56940186
157	0xbf0d9c5e	-0.5531672
158	0xbf1678e9	-0.58778244
159	0xbf44d8f5	-0.7689355
160	0xbf43c2ac	-0.7646892
161	0xbf3a7801	-0.7283936
162	0xbf41ea3c	-0.7574804
163	0xbf2b06c6	-0.6680721
164	0x3e8b7c5c	0.27243316
165	0x3f32792f	0.6971616
166	0x3e6dacbc	0.23210424
167	0x3f780349	0.9688001
168	0x3fb30da4	1.3988538
169	0xc0244de2	-2.5672536
170	0xbfe893c8	-1.8170099
171	0x4014f1b9	2.3272536
172	0xbec9a7e1	-0.39385894
173	0x3ee5369e	0.44768232
174	0xbd85cb50	-0.065329194
175	0x3e138007	0.14404307
176	0xbf92c871	-1.146742
177	0xbea7fbcc	-0.32809293
178	0xbc29f46e	-0.010373218
179	0x3db1c81e	0.086807474
180	0x3d500246	0.050783418
181	0xbd5ed0f9	-0.05439851
182	0xbeae51b6	-0.34046715
183	0xbebe9647	-0.37224028
184	0xbee75a09	-0.4518588
185	0xbe327662	-0.17427972
186	0xbe4f1739	-0.20223702
187	0xbe4fec7e	-0.20305058
188	0xbe4f44c7	-0.2024108
189	0xbec13c92	-0.37741524
190	0xbd6e1b50	-0.058131516
191	0xbe75f7c0	-0.2402029
192	0x3d70ed30	0.05881995
193	0x3c103d4b	0.008803676
194	0xbe4f2fde	-0.20233104
195	0x3d830432	0.063972846
196	0xbe7522b1	-0.23939015
197	0xc00b412c	-2.1758528
198	0x4017df12	2.3729901
199	0xbfa6725b	-1.3003649
200	0xbdf727e0	-0.120681524
201	0x3d871530	0.06595838
202	0xbdce2eb1	-0.100674994
203	0x3d277b79	0.040889237
204	0x3dbf9466	0.09354477
205	0x3c90669e	0.017627057
206	0x3eb3fd63	0.35154256
207	0xbf7a543d	-0.9778479
208	0xbed0d8bf	-0.40790364
209	0xbd462b46	-0.048381113
210	0xbe9414cb	-0.28922114
211	0xbf140f47	-0.5783581
212	0xbee26969	-0.44221047
213	0xbead474e	-0.33843464
214	0xbf27d0f7	-0.6555323
215	0xbf129fbf	-0.57275003
216	0xbf29a77f	-0.66271204
217	0xbe99e9d4	-0.3006121
218	0x3df93a82	0.121693626
219	0x3eb3ad39	0.35093096
220	0x3e485c46	0.1956645
221	0x3de387a4	0.11109856
222	0x3c5ae286	0.013359671
223	0xbdc842ba	-0.09778352
224	0x3ebf862c	0.37407053
225	0x3fbbbb6e	1.4666574
226	0xbf2b4f2f	-0.669177
227	0xbfb22cf7	-1.3919972
228	0xbf478e5e	-0.7795161
229	0xbf04ac5b	-0.51825494
230	0xbdca7589	-0.09885699
231	0xbe292da6	-0.1652132
232	0xba8f0006	-0.0010910041
233	0xbe81557f	-0.2526054
234	0xbf2ce9a5	-0.67544013
235	0xbf375928	-0.71620417
236	0xbe9fb225	-0.311906
237	0xbd904a57	-0.07045429
238	0xbeb269b5	-0.34846273
239	0xbe4b0030	-0.1982429
240	0xbeeb2fcc	-0.45934904
241	0xbe7913ad	-0.24323912
242	0xbec293e8	-0.3800347
243	0xbf064d47	-0.52461666
244	0xbe7a9313	-0.24470167
245	0xbee306fd	-0.4434127
246	0xbe26936b	-0.16267173
247	0xbf10353d	-0.56331235
248	0x3f92d2fe	1.147064
249	0x3f0f94ec	0.5608661
250	0xbe296c95	-0.16545327
251	0xbda7ba54	-0.08189836
252	0x3e243f68	0.16039813
253	0x3e151f82	0.145628
254	0x3f70fa31	0.9413176
255	0xbe543bec	-0.20725983

l1.bias f4 [400]
0	0xbef818ec	-0.48456514
1	0xbf5604c5	-0.8360103
2	0xbeff5aa4	-0.4987384
3	0x3f05b35d	0.5222681
4	0x3ea524a5	0.3225452
5	0xbef6799e	-0.48139662
6	0xbe3fc03e	-0.18725678
7	0x3f663da2	0.89937794
8	0xbf235f60	-0.63817406
9	0xbeab1574	-0.33414805
10	0xbea37fef	-0.31933543
11	0xbb57b8c5	-0.0032916528
12	0xbe3d88df	-0.18509243
13	0xbe977bda	-0.2958668
14	0xbf662f32	-0.89915764
15	0xbf345904	-0.7044833
16	0xbd80e2a0	-0.06293225
17	0xbf098621	-0.5372029
18	0xbe06045f	-0.13087605
19	0xbe84297c	-0.258129
20	0xbe9c3496	-0.3050887
21	0xbe979b16	-0.2961051
22	0xbf035b5f	-0.51311296
23	0xbef3d91d	-0.47626582
24	0xbf446572	-0.76717293
25	0xbf85674a	-1.0422146
26	0xbf652f44	-0.89525247
27	0x3e3da69a	0.18520585
28	0xbe6954dc	-0.22786278
29	0xbec09e5b	-0.37620816
30	0xbeb60228	-0.3554852
31	0xbf177783	-0.59166735
32	0xbf0194e5	-0.5061782
33	0xbe3f7482	-0.18696788
34	0xbe199071	-0.14996506
35	0xbef06f50	-0.46959925
36	0xbf5c81ab	-0.8613536
37	0xbf156e65	-0.58371574
38	0x3ef8ae05	0.48570266
39	0x3ee13342	0.4398442
40	0x3f13f043	0.57788485
41	0x3f89aa0b	1.0755018
42	0xbf4b2413	-0.7935192
43	0xbf286450	-0.65778065
44	0xbe4c9a68	-0.19980776
45	0xbf5f0de6	-0.8713058
46	0xbebb7bea	-0.36617976
47	0xbf1f06ac	-0.62119555
48	0xbe154c02	-0.14579776
49	0xbee3b84a	-0.4447654
50	0xbe2d37c0	-0.16915798
51	0xbf72c338	-0.9482913
52	0x3f2956a2	0.66147816
53	0x3cb8c052	0.022552643
54	0xbf116c3c	-0.5680578
55	0xbe54a3ce	-0.20765612
56	0xbebb13f6	-0.36538666
57	0xbef9b737	-0.48772594
58	0xbe6703c1	-0.22560026
59	0xbf18245c	-0.5943048
60	0xbf307118	-0.6892257
61	0x3e99058b	0.2988704
62	0x3e8e6f0f	0.27819106
63	0xbec60b5a	-0.38680536
64	0xbe026110	-0.12732339
65	0xbe91d54c	-0.28483045
66	0xbf0b999f	-0.5453128
67	0xbf2c87fc	-0.67394996
68	0xbf2fe461	-0.68707854
69	0x3f30b7bf	0.69030374
70	0xbf8100a8	-1.0078325
71	0xbeba3e49	-0.36375645
72	0xbf17cb67	-0.5929474
73	0xbf122f8b	-0.57103795
74	0xbf13a0fd	-0.57667524
75	0x3ebc370d	0.3676075
76	0xbf6fbc75	-0.9364694
77	0xbed2d867	-0.41180727
78	0xbddf7c8d	-0.10912428
79	0xbefcdbf2	-0.49386555
80	0xbe963376	-0.29336137
81	0xbe70f3e9	-0.23530544
82	0xbeccc2ba	-0.39992315
83	0xbe92a664	-0.2864257
84	0x3ebc7a1d	0.36811915
85	0x3f4579ea	0.7713915
86	0xbcb0283c	-0.02150356
87	0xbe5c7506	-0.21529016
88	0xbe8ba3fa	-0.27273542
89	0xbe54a940	-0.20767689
90	0xbf65a2aa	-0.8970133
91	0xbc479b27	-0.012182987
92	0x3f18329d	0.5945223
93	0x3f597fa1	0.8496037
94	0x3f1db320	0.6160145
95	0xbdbfd040	-0.093658924
96	0xbcc0c46f	-0.023531167
97	0xbe12eaf5	-0.14347441
98	0x3f3de8b1	0.74183184
99	0x3cbc846c	0.023012362
100	0x3f9fd2ff	1.2486266
101	0xbf860058	-1.0468855
102	0xbe97d345	-0.29653373
103	0xbea4ab13	-0.3216177
104	0xbe37638a	-0.17909065
105	0x3c4a5d5c	0.01235136
106	0xbd769c69	-0.060207758
107	0x3ed7a7db	0.4212025
108	0xbf1748f1	-0.59095675
109	0xbf5eadb3	-0.86983794
110	0x3d8a5fc3	0.06756546
111	0xbf0227e1	-0.508421
112	0xbc69a681	-0.014260889
113	0x3f3afa19	0.7303787
114	0xbe4eac66	-0.20182952
115	0xbe8ca5fc	-0.27470386
116	0xbd660338	-0.056155413
117	0xbdee14ac	-0.116250366
118	0x3f01b2b1	0.50663286
119	0x3dcf07b1	0.10108889
120	0xbe74812e	-0.23877403
121	0xbe101f9f	-0.14074562
122	0xbd9d2219	-0.07672519
123	0xbe518201	-0.20459749
124	0xbf1836d3	-0.59458655
125	0x3de2e1f2	0.11078252
126	0xbe1100e5	-0.14160497
127	0xbe21cd27	-0.15800916
128	0x3f3f8bc9	0.7482267
129	0x3e523930	0.20529628
130	0xbf21e841	-0.63245016
131	0xbf192fd1	-0.5983859
132	0x3d831f03	0.064023994
133	0xbefb2f76	-0.49059647
134	0x3cf63d0f	0.030058412
135	0xbf17677f	-0.591423
136	0xbf239b99	-0.639093
137	0x3f5c2dd9	0.8600746
138	0xbefab0c8	-0.48962998
139	0xbf17ea57	-0.5934195
140	0xbf5aba84	-0.8544085
141	0x3f753ba8	0.95794153
142	0xbf443d53	-0.76656073
143	0xbf42479b	-0.7589051
144	0xbf445def	-0.7670583
145	0xbeb2e611	-0.34941152
146	0x3e4e3d91	0.20140673
147	0xbed05a82	-0.40694052
148	0x3f5ea5c2	0.86971676
149	0xbec7e00d	-0.39038125
150	0x3d448dc8	0.047986776
151	0x3f5cc3f9	0.8623653
152	0xbe8490a4	-0.25891602
153	0x3f1d0171	0.61330324
154	0xbe877ba4	-0.26461518
155	0xbf2ee687	-0.68320507
156	0xbe7a454d	-0.24440499
157	0xbf7ee50b	-0.9956824
158	0xbdaeedc0	-0.08541441
159	0xbeedaaf4	-0.4641949
160	0xbdca07da	-0.09864779
161	0xbe603509	-0.21895231
162	0xbe9dca82	-0.30818564
163	0xbf11483b	-0.5675084
164	0xbe3051a7	-0.17218648
165	0x3f9f77ba	1.2458413
166	0xbd1a3e9d	-0.03765737
167	0xbf2fd24f	-0.6868028
168	0x3e1243e2	0.14283708
169	0xbf3ae98b	-0.7301261
170	0xbe7d9a95	-0.24766
171	0xbf4d4b3f	-0.8019294
172	0xbf058931	-0.5216246
173	0xbf22e476	-0.63629854
174	0xbdcde18f	-0.100527875
175	0x3e10045f	0.14064167
176	0x3e87b74a	0.26507026
177	0xbf11d227	-0.5696129
178	0x3e5daa63	0.21647029
179	0xbef35085	-0.4752237
180	0xbf6e116c	-0.92995334
181	0x3f22b91b	0.635637
182	0xbf83a424	-1.0284467
183	0x3f89d1d0	1.0767155
184	0xbe4a65d0	-0.19765401
185	0xbd834b42	-0.06410839
186	0xbf05a4e0	-0.52204704
187	0xbe9c2045	-0.3049337
188	0xbf1a329b	-0.6023347
189	0xbe814ca9	-0.252538
190	0xbf3c9b54	-0.7367451
191	0x3db97f2a	0.09057458
192	0xbf36b05b	-0.7136285
193	0xbeb3d821	-0.3512583
194	0xbf2361f9	-0.6382137
195	0xbf72448d	-0.9463585
196	0xbf45dd13	-0.7729046
197	0x3e705eb6	0.2347363
198	0x3f4698c4	0.7757685
199	0xbefa7727	-0.4891903
200	0xbf408b0c	-0.7521217
201	0xbf189f1c	-0.5961778
202	0xbf0bd0bf	-0.54615396
203	0x3fc4f53e	1.5387342
204	0xbf419d53	-0.7563068
205	0x3e1196cf	0.14217685
206	0xbeab51b5	-0.33460775
207	0xbf14f172	-0.58180916
208	0xbf61f963	-0.8827116
209	0x3e770c10	0.24125695
210	0xbea2bac7	-0.31783125
211	0x3f7feb1e	0.99968135
212	0xbdeb7f6f	-0.114989154
213	0xbe6be281	-0.23035623
214	0xbf7c8627	-0.986422
215	0x3d44535d	0.047931064
216	0xbef751fa	-0.4830473
217	0xbecb3489	-0.3968852
218	0xbeecb045	-0.46228233
219	0xbf2412ba	-0.64091074
220	0xbebe4a2b	-0.3716596
221	0x3ee11dbf	0.43968007
222	0xbf0dbd11	-0.5536662
223	0xbe411347	-0.1885501
224	0xbf701b55	-0.93791705
225	0x3f7010be	0.93775547
226	0xbf3307d0	-0.69933796
227	0xbe49add3	-0.19695215
228	0xbe42c808	-0.19021618
229	0xbea5c595	-0.32377306
230	0xbefb0b87	-0.49032232
231	0xbf1045a2	-0.5635625
232	0xbed34aa1	-0.41267875
233	0xbe68f77d	-0.2275066
234	0xbe4a5d62	-0.19762185
235	0xbf5bc307	-0.85844463
236	0x3c5283d5	0.012848814
237	0xbea93500	-0.33048248
238	0xbeb774d4	-0.3583132
239	0xbda7285a	-0.08161993
240	0xbdc7c913	-0.09755149
241	0x3e14cb5d	0.14530702
242	0xbf247f0a	-0.64256346
243	0x3eca2949	0.39484623
244	0xbf29ea78	-0.66373396
245	0xbe9e7ffd	-0.30957022
246	0xbf837779	-1.0270835
247	0xbcf23871	-0.029567929
248	0xbfa45f49	-1.2841579
249	0xbf18cd80	-0.5968857
250	0x3d6842c5	0.0567043
251	0xbf4f46b9	-0.8096729
252	0xbdd5546b	-0.10416492
253	0xbf77ab19	-0.9674545
254	0xbf0441bc	-0.516628
255	0xbe950a5c	-0.29109466

l2.weight f4 [300, 400]
0	0xbd29524e	-0.041338257
1	0x3cfe513f	0.0310446
2	0xbd330072	-0.043701597
3	0x3c4a20f3	0.012336957
4	0x3bda4456	0.0066609783
5	0xbd4c5442	-0.049885042
6	0xba64a3d8	-0.00087219244
7	0xbca64101	-0.020294668
8	0x3cc50edf	0.024054943
9	0x3c442423	0.011971506
10	0xbc783cc0	-0.015151203
11	0xbd62a8e7	-0.05533686
12	0x3d16dd6e	0.036832266
13	0xbbfadd28	-0.0076557584
14	0xbd44b90b	-0.048028033
15	0x3d5a5b3c	0.053309664
16	0xbd45d85b	-0.048302036
17	0xbc89e646	-0.016833436
18	0xbc995f3e	-0.018722173
19	0xbb4dc410	-0.003139738
20	0x3c809f22	0.01570088
21	0xbbbf7b70	-0.0058435723
22	0xbd5c3452	-0.053760834
23	0xbd018a54	-0.03162606
24	0xbd821bc0	-0.06352949
25	0xbd2c4e79	-0.042067025
26	0xbc884137	-0.01663266
27	0xbd34ebb9	-0.044170115
28	0x3d40ec11	0.04710013
29	0xbda4eb7c	-0.080527276
30	0x3bc03290	0.0058654025
31	0xbb3457e0	-0.0027518198
32	0x3c82d028	0.015968397
33	0x3bc0b154	0.005880514
34	0xbd16306a	-0.036667265
35	0xbd2c2f4b	-0.04203729
36	0x3bfd48eb	0.0077296398
37	0xbc600461	-0.013672919
38	0xbd170944	-0.03687407
39	0xbd75845e	-0.05994069
40	0xbcaed061	-0.021339597
41	0x3c262f54	0.01014312
42	0xbbea9896	-0.007159303
43	0x3d21ca3d	0.03949951
44	0x3c057b1c	0.008147027
45	0xbd58b7d0	-0.052909672
46	0xbd46cf97	-0.048537817
47	0xbc43ba28	-0.011946239
48	0xbc587b0d	-0.013212931
49	0x3ce97ad7	0.028500957
50	0x3c5b98d8	0.01340314
51	0x3cdf332d	0.027246082
52	0xbd32e02c	-0.04367082
53	0xbd8153b2	-0.06314792
54	0xbd9c6a97	-0.07637518
55	0x3c681fe3	0.014167759
56	0x3c95b5aa	0.0182751
57	0xbd4d0ee5	-0.050063033
58	0x3ceca9d0	0.028889567
59	0xbd1679b4	-0.03673716
60	0xbc367110	-0.011135355
61	0x3cd361f1	0.025803538
62	0xbc3082b4	-0.01077335
63	0xbd578569	-0.052617464
64	0xbb8486f1	-0.0040444066
65	0xbc1dc508	-0.009629495
66	0x3cf46c52	0.029836807
67	0xbc908ec8	-0.017646208
68	0xbd08de6e	-0.03341525
69	0xbc749424	-0.014927898
70	0x3d878129	0.06616432
71	0xbd415006	-0.047195457
72	0xbc4a0536	-0.012330344
73	0xbd103604	-0.035207763
74	0xbc80cbdf	-0.015722213
75	0xbd1e9541	-0.03871656
76	0xbd4ac15c	-0.049500808
77	0xbd560db0	-0.052259147
78	0xbd4b583f	-0.049644705
79	0xbc3b6056	-0.0114365425
80	0xbc2003ef	-0.009766563
81	0x3b5ca850	0.0033669658
82	0xbcecf256	-0.028924149
83	0xbd6aa73b	-0.05728839
84	0x3ca19c7e	0.019727942
85	0xbd4f9aa5	-0.05068459
86	0xbd39c1a2	-0.04535068
87	0xbd44a703	-0.048010837
88	0xbd649a08	-0.05581096
89	0xbc2b7c9c	-0.010466721
90	0x3c903686	0.017604124
91	0x3bd7da80	0.0065873265
92	0xbcf7bc2e	-0.030241098
93	0x3d097a51	0.033563916
94	0xbc65b4c2	-0.014020147
95	0x3bb5beb0	0.0055464134
96	0xbd95f4a3	-0.073220514
97	0xbbd2a570	-0.006428413
98	0xbd37f14b	-0.04490785
99	0xbb8aa7ce	-0.0042314297
100	0x3c59bc49	0.01328952
101	0xbc61bbe7	-0.01377771
102	0x3cb2797f	0.02178645
103	0x3d065495	0.032795507
104	0xbd8cdab5	-0.068776526
105	0xbce35f77	-0.027755482
106	0xbd2bbff5	-0.04193111
107	0xbd29adad	-0.041425396
108	0x3a119d3e	0.0005554742
109	0xbcc38044	-0.023864873
110	0xbda7fb11	-0.08202184
111	0xbd244eb9	-0.04011414
112	0x3c476768	0.01217065
113	0xbd3d217d	-0.046174515
114	0xbd68cab1	-0.056833927
115	0xbcd4b0bb	-0.025963178
116	0xbd2bf1ef	-0.041978773
117	0x3c3eb730	0.011640355
118	0xbdc2dd5d	-0.09514878
119	0x3b37d9ba	0.002805336
120	0xbc4ef112	-0.012630718
121	0xbd1986e1	-0.037482146
122	0xbd82e520	-0.063913584
123	0x3cd9302b	0.026512226
124	0xbd2941ce	-0.041322522
125	0xbbd9b74d	-0.0066441656
126	0x3d1917cf	0.03737622
127	0xbd879101	-0.06619454
128	0xbd93a85e	-0.07209848
129	0xbd7dbbc3	-0.06194664
130	0xbd9b1a5f	-0.07573389
131	0xbc06f7fb	-0.008237834
132	0x3d8509e7	0.06496029
133	0xbc2d2996	-0.010568997
134	0xbd19786e	-0.037468366
135	0x3cd32b98	0.025777623
136	0xbd22682f	-0.03965014
137	0x3c1bdfd4	0.009513814
138	0xbcb5b906	-0.022182953
139	0x3cd90195	0.026490012
140	0xbcb0aa26	-0.021565508
141	0x3cb347e1	0.02188486
142	0xbd07e151	-0.033173863
143	0xbcc2c5dd	-0.02377599
144	0x3a0ca97a	0.000536583
145	0xbb5e2c01	-0.003390074
146	0x3c159ef1	0.009132133
147	0xbd38e8c2	-0.04514385
148	0xbcec9e2e	-0.02888402
149	0xbc5d419a	-0.01350441
150	0xbccace04	-0.024756439
151	0xbdba56fd	-0.09098623
152	0xbc06b340	-0.0082214475
153	0xbd2038d7	-0.039116707
154	0xbd4a3501	-0.049366955
155	0x3c175c42	0.009238305
156	0x3bda3805	0.00665951
157	0x3cff8f3b	0.031196227
158	0xbcc8a8c3	-0.024494534
159	0xbd917088	-0.07101542
160	0xbd246ca0	-0.040142655
161	0xbc94ec5c	-0.018179111
162	0xbd7127b8	-0.05887577
163	0xbd8c40e0	-0.068483114
164	0xbd20b472	-0.039234586
165	0xbd799b58	-0.060939163
166	0xbd781e30	-0.060575664
167	0xbd4bd14a	-0.04976014
168	0xbd49bb6b	-0.049251
169	0xbd687e56	-0.05676111
170	0xbd803e79	-0.06261916
171	0x3c9ec90a	0.019382972
172	0xbbe33e25	-0.0069348984
173	0x3cb06a31	0.021535011
174	0xbd359256	-0.04432901
175	0xbbb9f8fc	-0.005675433
176	0xbcc08501	-0.023500921
177	0xbd24c636	-0.04022809
178	0xbd950978	-0.07277197
179	0x3d2b39c6	0.041803144
180	0xbd770bad	-0.06031387
181	0xbd23469e	-0.039862268
182	0xbc9616d6	-0.018321436
183	0x3c7c0dc1	0.015384139
184	0xbd45f65c	-0.04833065
185	0xbd0f890c	-0.035042807
186	0xbd236b72	-0.03989739
187	0x3c4f10f7	0.012638322
188	0xbaf6042e	-0.0018769556
189	0xbd4247f9	-0.04743192
190	0xbd2a6c9d	-0.041607488
191	0x3cec8c38	0.028875455
192	0xbcabc74e	-0.02096906
193	0xbbac7311	-0.0052627404
194	0x39e9801b	0.0004453667
195	0xbc2bfcb8	-0.010497265
196	0xbbef7449	-0.0073075634
197	0xbd1e6e51	-0.038679425
198	0xbbd9153a	-0.006624845
199	0xbd492ba4	-0.049113885
200	0xbbf73666	-0.0075443266
201	0xbca55587	-0.020182384
202	0xbc0440c9	-0.008072087
203	0xbd4adab8	-0.049524993
204	0xbcb22571	-0.02174637
205	0xbca25b51	-0.019818934
206	0xbc754445	-0.01496989
207	0x3cdbe818	0.02684407
208	0x3d188ee0	0.03724563
209	0x3ca3f5c5	0.020014653
210	0x3d05d40d	0.03267293
211	0xbdba3d38	-0.09093708
212	0xbd34eac2	-0.044169195
213	0x3c366020	0.011131316
214	0xbca4f817	-0.02013783
215	0x3bb0075c	0.005371971
216	0xbcece20d	-0.028916383
217	0xbd4c42e3	-0.049868476
218	0xbd3aee96	-0.04563769
219	0xbb6073e9	-0.0034248775
220	0xbd124aca	-0.035715856
221	0x3c44bb63	0.012007567
222	0xbbcd21ce	-0.0062601333
223	0x3bfa9d0f	0.0076481174
224	0x3c3834b5	0.011243035
225	0xbcdeeacb	-0.027211567
226	0xbc3c2e76	-0.0114856865
227	0xbd1401b1	-0.036134426
228	0xbd054278	-0.032534093
229	0xbd0285ef	-0.03186601
230	0xbaaa0a75	-0.0012973087
231	0x3cef3da2	0.029204194
232	0x3d29678c	0.041358516
233	0xbcbe2870	-0.023212641
234	0x3cf845e2	0.03030676
235	0x3d4ab869	0.049492273
236	0x3cbb5221	0.02286631
237	0xbc6f113e	-0.014591513
238	0xbccb07cb	-0.02478399
239	0xbc8946b5	-0.016757349
240	0xbc87cd42	-0.016577367
241	0x3cbb1305	0.022836218
242	0xbd8c7b63	-0.06859472
243	0xbcd17f34	-0.02557335
244	0xbc5c1a72	-0.013434039
245	0x3b9d281a	0.0047960402
246	0x3a3897ac	0.0007041644
247	0xbc29482c	-0.0103321485
248	0xbd279c7d	-0.040920723
249	0xbd7299d6	-0.05922874
250	0x3cd70fa9	0.026252585
251	0xbcfa06e9	-0.030520873
252	0xbd52d5ee	-0.05147355
253	0xbd6779b1	-0.05651254
254	0xbdb033da	-0.0860364
255	0xbd28ff6f	-0.041259225

l2.bias f4 [300]
0	0xbdb60a09	-0.08888633
1	0xbd9f0fda	-0.07766695
2	0x3d31cad9	0.04340634
3	0xbd68e6dc	-0.05686079
4	0xbdd2a52c	-0.1028541
5	0xbdd1a10c	-0.102357954
6	0xbda3405e	-0.079712614
7	0xbe3acb37	-0.18241583
8	0xbce41c3b	-0.027845493
9	0xbcbf8157	-0.023377104
10	0xbd6289de	-0.05530726
11	0x3bd174b8	0.006392088
12	0x3e0ca9ef	0.137367
13	0x3d3906ac	0.04517238
14	0xbd7cdaea	-0.06173221
15	0xbd4b548d	-0.04964118
16	0xbda0f6c6	-0.07859568
17	0x3c2bfe19	0.010497593
18	0xbda5f2fe	-0.08102988
19	0x3d35eac6	0.04441335
20	0xbd9e86b3	-0.077405356
21	0xbd3fad89	-0.046796355
22	0x3d50787b	0.05089615
23	0xbd8c6f65	-0.06857184
24	0xbd6ecad6	-0.05829891
25	0xbdde4c5e	-0.1085441
26	0xbbea1c55	-0.0071444907
27	0xbd410916	-0.047127806
28	0x3f52e944	0.82387185
29	0xbcc545d1	-0.024081143
30	0x3d5e129f	0.054216977
31	0x3e8922c4	0.26784337
32	0xbd31b2d4	-0.043383434
33	0xbd8c82e9	-0.06860907
34	0xbdb2c326	-0.08728628
35	0x3cfef786	0.031123888
36	0x3e147bd5	0.14500363
37	0x3db01c34	0.08599129
38	0xbcb70c31	-0.02234468
39	0x3daab4a4	0.08335236
40	0x3ab10bbf	0.0013507529
41	0xbdaf9207	-0.085727744
42	0xbbf9da71	-0.007624917
43	0x3da8a9be	0.08235501
44	0xbd702408	-0.058628112
45	0x3d975e2c	0.07391009
46	0x3dbe3af1	0.09288586
47	0xbd6b1547	-0.05739334
48	0xbcb3b150	-0.021935135
49	0xbcda7872	-0.02666876
50	0xbd971882	-0.07377721
51	0x3d4d603d	0.050140608
52	0x3e008858	0.12552011
53	0xbd0f7cb7	-0.035031047
54	0xbcdaefe0	-0.02672571
55	0x3c302fd4	0.010753591
56	0x3d59d524	0.053181782
57	0xbdaa1bd8	-0.08306092
58	0x3dbda819	0.09260578
59	0xbd8be289	-0.068303175
60	0x3f0c1388	0.547173
61	0xbd3c02c5	-0.04590108
62	0xbdb6c305	-0.08923916
63	0x3f4c377e	0.79772174
64	0xbd4e3f11	-0.050353114
65	0xbd89c2d2	-0.06726612
66	0xbc8e3910	-0.017361194
67	0x3d487e75	0.048948724
68	0xbdc7f3ee	-0.09763323
69	0xbf6a38d5	-0.9149297
70	0xbcc4b3be	-0.024011489
71	0xba9e47f6	-0.0012075889
72	0xbd87af0d	-0.06625185
73	0xc0097e83	-2.1483467
74	0xbe010251	-0.1259854
75	0xbd9045f9	-0.07044596
76	0xbd396c58	-0.04526934
77	0x3c49a32d	0.012306971
78	0xbda243dd	-0.079231
79	0xbd8278e7	-0.063707165
80	0xbc1e04d4	-0.009644706
81	0xbd7f9d4d	-0.062405873
82	0xbda97f69	-0.08276255
83	0xbda2ae32	-0.07943381
84	0xbd45bff5	-0.048278768
85	0xbcf70b74	-0.030156828
86	0xbd6d4adc	-0.05793272
87	0xbd048609	-0.03235439
88	0xbfd8c8bd	-1.693626
89	0x3d93835a	0.07202788
90	0xbd99d62a	-0.07511552
91	0x3e02ff84	0.12792784
92	0xbf84898f	-1.035448
93	0xbd941099	-0.07229728
94	0xbdab30cb	-0.08358916
95	0x3c15ec29	0.009150543
96	0xbe9103c8	-0.28323197
97	0x3dbbd6c5	0.091718234
98	0xbbae0cb6	-0.005311574
99	0xbdb9598a	-0.09050281
100	0xbc6e82e2	-0.014557572
101	0xbc1b22b3	-0.009468722
102	0xbd47ca6a	-0.04877702
103	0x3d35bddd	0.04437052
104	0x3d1ec403	0.03876115
105	0xbd992b30	-0.074789405
106	0x3de37a25	0.111072816
107	0x3e67dd58	0.2264303
108	0x3da93a34	0.082630545
109	0xbdbb84fb	-0.091562234
110	0x3f4c18a9	0.7972513
111	0x3f4eda6c	0.80802035
112	0xbd75469e	-0.0598818
113	0xbd8ec346	-0.06970839
114	0xbd83c674	-0.06434336
115	0xbdd47c0f	-0.10375225
116	0xbced2b9c	-0.028951459
117	0xbfb99a38	-1.4500189
118	0xbd8c2864	-0.068436414
119	0x3da781ab	0.08179029
120	0xbd30a199	-0.04312286
121	0x3d84ac8d	0.06478224
122	0xbc58c593	-0.013230699
123	0xbd821f09	-0.06353576
124	0xbdd531b3	-0.1040987
125	0x3d3c6935	0.04599877
126	0x3d0b8228	0.034059674
127	0xbdad79bb	-0.08470484
128	0x3d7cb202	0.0616932
129	0xbd22a460	-0.03970754
130	0xbd45de84	-0.04830791
131	0xbc3ffc3e	-0.011717854
132	0x3da81177	0.08206456
133	0x3b5ab769	0.003337348
134	0x3e2518fc	0.16122812
135	0xbdfc7f95	-0.12329022
136	0x3f3f4b9b	0.7472474
137	0xbd821fd0	-0.06353724
138	0xbd2d9c99	-0.04238567
139	0x3bccdcbb	0.006251899
140	0xbd518e2f	-0.051160987
141	0xbd9e7718	-0.07737559
142	0xbd94cd30	-0.07265699
143	0xbca6c199	-0.020355986
144	0x3c0f9e15	0.008765717
145	0xbdb09418	-0.08621997
146	0x3d287cc8	0.041134626
147	0xbd1ca351	-0.03824169
148	0xbb5199f1	-0.0031982625
149	0xbd0dab2b	-0.034587067
150	0xbd9c3a0d	-0.0762826
151	0x3f509e07	0.8149113
152	0xbdaac9bf	-0.08339261
153	0xbd3695cc	-0.04457645
154	0xbc111aea	-0.0088565145
155	0x3da5ac8d	0.08089552
156	0xbd8ba06c	-0.068177074
157	0xbd4bbc4a	-0.049740113
158	0x3db2265c	0.08698723
159	0xbd83e55d	-0.06440232
160	0xbdeb3758	-0.11485165
161	0xbd0451c1	-0.03230453
162	0xb9e586d3	-0.00043778736
163	0xbd77adc7	-0.06046846
164	0xbe0e9778	-0.13924968
165	0xbd93736b	-0.071997486
166	0x3e7e39aa	0.24826685
167	0xbd6c1ac5	-0.057642717
168	0xbfe82309	-1.8135692
169	0xbcd06918	-0.025440738
170	0x3cb377e3	0.021907752
171	0xbf063aa8	-0.5243325
172	0x3d26cd62	0.040723212
173	0xbdd0b12e	-0.10190044
174	0x3d93546e	0.07193838
175	0xbc9f2496	-0.019426625
176	0xbd8329a0	-0.06404424
177	0xbde5e7e3	-0.112258695
178	0x3db7c072	0.08972253
179	0x3daee225	0.085392274
180	0xbd5a236b	-0.053256433
181	0xbd9d4d58	-0.07680768
182	0x3d366557	0.04453024
183	0xbd2f303b	-0.042770606
184	0xbd24e95d	-0.040261615
185	0x3ff07d8f	1.8788317
186	0xbbcbf77f	-0.006224572
187	0xbca607b2	-0.020267341
188	0x3dd5f3c6	0.10446887
189	0xbd847d24	-0.06469181
190	0x3c434153	0.01191743
191	0xbd9b86e9	-0.075940914
192	0x3ddeaba9	0.10872585
193	0xbd9950d7	-0.07486122
194	0xbcf32968	-0.02968283
195	0xbd03f4eb	-0.032215994
196	0x3d8249de	0.06361745
197	0xbd162860	-0.0366596
198	0xbcee8d0e	-0.029119994
199	0x3d14edf7	0.036359753
200	0xbde0f021	-0.10983301
201	0xbd9f3717	-0.077741794
202	0x3ac781d1	0.0015221183
203	0x3ddaf061	0.1069038
204	0xbdc98106	-0.098390624
205	0xbc08c28e	-0.008347167
206	0x3d9a619a	0.07538147
207	0xbdad12bb	-0.08450838
208	0xbd5d0e82	-0.053968914
209	0xbd84eb86	-0.06490235
210	0x3d7eb42a	0.062183537
211	0xbfdf1888	-1.7429361
212	0xbd321ff4	-0.043487504
213	0x3d50d70e	0.050986342
214	0xbd8ab752	-0.06773247
215	0x3e1794f5	0.14802916
216	0xbcf0ebce	-0.029409315
217	0xc00f5033	-2.23927
218	0x3d7ee88a	0.062233485
219	0xbd129497	-0.035786238
220	0xbd8b19ab	-0.06792005
221	0x3f498d5f	0.7873134
222	0x3d084f2d	0.033278633
223	0xbd918a47	-0.071064524
224	0xbc99b166	-0.018761348
225	0x3cd1bd70	0.025603026
226	0xbbb517e5	-0.00552653
227	0xbd826dbb	-0.06368586
228	0x3cf66ca5	0.030081103
229	0xbe5300e5	-0.2060581
230	0xbdae7127	-0.08517676
231	0x3f4f347a	0.8093945
232	0xbda537c4	-0.08067277
233	0x3c170f19	0.009219908
234	0x3d50c0e9	0.050965223
235	0xbdafcddc	-0.085841864
236	0x3cf1ef8b	0.029533168
237	0x3e556a5b	0.20841353
238	0xbd51b3ac	-0.05119674
239	0x3f586481	0.84528357
240	0xbd6a4c4b	-0.057201665
241	0xbd110410	-0.035404265
242	0x40038b71	2.0553858
243	0xbd890d1c	-0.066919535
244	0x3d5250a4	0.051346436
245	0xbe2e6ba9	-0.17033257
246	0x3db114cc	0.08646545
247	0xbd072746	-0.03299644
248	0xbd477ceb	-0.048703115
249	0x3f553ead	0.8329876
250	0x3dc3d570	0.09562194
251	0xbc8318b6	-0.016002994
252	0x3c6e4f15	0.014545222
253	0xbbd6e106	-0.0065575866
254	0x3d87e50d	0.06635485
255	0x3d9a689c	0.07539484

l3.weight f4 [1, 300]
0	0x3c7301b1	0.014831946
1	0xbc7f375c	-0.015577164
2	0xbe708752	-0.2348912
3	0x3c783455	0.015149196
4	0x3ceb0148	0.028687134
5	0x3cffbd93	0.031218326
6	0x3b81b869	0.003958751
7	0x3e1ebfb0	0.1550281
8	0x3bc775e3	0.0060870512
9	0xbce1670e	-0.02751496
10	0xbcc01fc2	-0.023452643
11	0x3ba45e7b	0.0050161458
12	0x3e4c66f5	0.1996115
13	0xbe6e4575	-0.23268683
14	0xbe364add	-0.17801996
15	0xbcdff3db	-0.027337959
16	0xbc2bf15b	-0.010494555
17	0x3c5eced8	0.01359912
18	0x3cdf18c8	0.027233496
19	0xbe542078	-0.20715511
20	0x3befa490	0.0073133186
21	0x3bd41aab	0.0064729056
22	0xbe66b07e	-0.22528264
23	0xbc71655f	-0.014733641
24	0xb8c1d81f	-9.243213e-05
25	0xbc9acc17	-0.018896146
26	0x3d18df21	0.037322167
27	0x3cf692f4	0.03009937
28	0xbe44270b	-0.19155519
29	0x3bcafa3c	0.006194381
30	0xbe7362bc	-0.23768133
31	0xbf57de87	-0.84323925
32	0xbbb6fee1	-0.005584583
33	0xbc2b5c33	-0.010458994
34	0xbba0574c	-0.004893219
35	0xbe76cab9	-0.2410077
36	0xbe6d2459	-0.23158397
37	0xbe854a31	-0.26033166
38	0xb98d9b6c	-0.00027009414
39	0xbe5fda6e	-0.21860668
40	0x3d3fb637	0.046804633
41	0xbbdd853f	-0.006760269
42	0x3bf1727c	0.007368384
43	0xbe42e1dc	-0.19031471
44	0xb9b24623	-0.00034003062
45	0xbeac171e	-0.33611387
46	0xbe71a38e	-0.23597547
47	0x3c0e7f6e	0.008697374
48	0xbc5fa308	-0.0136497095
49	0x3cc7b370	0.024377555
50	0xbc34d68b	-0.011037479
51	0xbe87b7db	-0.26507458
52	0x3e63317d	0.22186847
53	0xbd1a4fdd	-0.03767382
54	0x3c8afbc0	0.016965747
55	0xbbdbd94d	-0.006709254
56	0xbd7dc9df	-0.061960097
57	0x3cb14aaa	0.021642048
58	0x3d1d74ba	0.038441397
59	0xbcc1fcf9	-0.023680197
60	0xbf51daa8	-0.8197427
61	0xbc86f10d	-0.016472364
62	0xbca156d7	-0.019694729
63	0xbe20c18b	-0.15698831
64	0xbd0106e3	-0.03150071
65	0xbc683681	-0.014173151
66	0xbd092183	-0.033479225
67	0xbe90e82a	-0.28302127
68	0x3d3c48b6	0.04596778
69	0x3ec627a8	0.3870213
70	0x3cb0d1b8	0.021584377
71	0x3abd0aa8	0.0014422731
72	0xbca23b41	-0.019803645
73	0x3ef991ad	0.48743954
74	0xbf9d9c6e	-1.2313364
75	0xbc5bd4de	-0.013417451
76	0xbdc3ee72	-0.09566964
77	0x3c19e203	0.009392264
78	0x3d177d51	0.036984745
79	0xbce73a7e	-0.028226133
80	0x3d6f76b5	0.058462817
81	0x3c92a0be	0.017898913
82	0x3b5c3d14	0.0033605741
83	0x3c95425b	0.018220117
84	0xbbb0def5	-0.0053976723
85	0x3c8abcf6	0.016935807
86	0x3dc522e3	0.09625795
87	0x3cc444f1	0.023958655
88	0x3f7d4d1a	0.9894577
89	0xbe4f624a	-0.20252338
90	0xbcf4d4ba	-0.029886592
91	0x3e3fbb5c	0.18723816
92	0x3f426c08	0.7594609
93	0x3c8c719d	0.017144019
94	0x3d1f4984	0.03888847
95	0x3cbfdddd	0.023421222
96	0x40227b4e	2.538776
97	0xbe5afb68	-0.21384966
98	0xbeff498c	-0.498608
99	0x395dba68	0.00021145644
100	0x3ce4af40	0.027915597
101	0xbd42bda8	-0.04754415
102	0x3d177085	0.03697254
103	0xbe43fe14	-0.19139892
104	0x3fa4a370	1.2862377
105	0x3ca1cc86	0.019750845
106	0xbe96b2e5	-0.2943336
107	0xbecedf6b	-0.4040483
108	0xbe8692eb	-0.26283965
109	0x3c8c06e7	0.017093135
110	0xbe5c9ad7	-0.21543442
111	0xbe40f05b	-0.18841688
112	0xbc389c44	-0.011267725
113	0xbca88d6a	-0.020575244
114	0xbcf5c345	-0.030000338
115	0xbe79714d	-0.24359627
116	0xbd7adef1	-0.06124777
117	0x3e5c0ddc	0.21489662
118	0xbcad8c71	-0.021185132
119	0xbe282102	-0.16418841
120	0x3d042dfe	0.032270424
121	0xbe5e58e3	-0.21713595
122	0xbc951715	-0.018199483
123	0x3ab40b2e	0.0013736242
124	0x3c71052e	0.014710708
125	0xbe89beb1	-0.26903298
126	0xbe7c55b1	-0.24642064
127	0x3c28dca6	0.010306513
128	0xbe78c687	-0.24294482
129	0xbcb92bc7	-0.022603882
130	0xbb2b219a	-0.0026112557
131	0x3c27408c	0.01020826
132	0x3ea86439	0.32888964
133	0xbc1ee4a1	-0.009698064
134	0x3e85fa20	0.26167393
135	0x3c7fc7d6	0.015611609
136	0xbe0a4f10	-0.13506722
137	0x3bebf2ca	0.0072005736
138	0x3c872f3b	0.016502013
139	0xbd358c22	-0.044323094
140	0x3cd4698f	0.02592924
141	0x3d352e08	0.044233352
142	0x3cfdf5ef	0.03100106
143	0x3b138b8a	0.0022513592
144	0x3bb05972	0.0053817565
145	0xbc14a7ec	-0.009073239
146	0xbe827a3c	-0.25483882
147	0xbbd1c6ee	-0.006401888
148	0xbe8ca427	-0.27468988
149	0xbc957af0	-0.018247098
150	0xbc8e5d38	-0.017378435
151	0xbe72c0a1	-0.23706295
152	0x3bb16587	0.0054137143
153	0x3cfb548a	0.03067996
154	0x3aea0afc	0.0017856057
155	0xbe426953	-0.1898549
156	0xbc9700b3	-0.01843295
157	0xbcceee5a	-0.02526014
158	0xbe4cbd5c	-0.1999411
159	0xbc09079a	-0.008363629
160	0x3ce9376b	0.028468808
161	0xbb172304	-0.0023061642
162	0xbce8aa8a	-0.028401632
163	0xbb5e38a1	-0.0033908265
164	0xbc85351a	-0.016260672
165	0xbc3d4613	-0.0115523515
166	0xbe4c62c7	-0.19959556
167	0x3b4b8a9f	0.0031057966
168	0x3f3315f8	0.69955397
169	0xbcd42fc1	-0.025901677
170	0x3c3b23f4	0.011422146
171	0x3fc41480	1.5318756
172	0xbe554aca	-0.20829311
173	0xbcf4791b	-0.029842904
174	0xbe6eee23	-0.2333303
175	0x3d7231eb	0.059129637
176	0xbcdacf61	-0.026710214
177	0x3dcf1996	0.10112302
178	0xbeb46b25	-0.35237995
179	0xbe558fe2	-0.20855668
180	0x3cc9a7bb	0.024616113
181	0x3d4d9e5f	0.050199863
182	0xbe870673	-0.26372108
183	0xbc36c9e0	-0.011156529
184	0xbcffea0e	-0.031239536
185	0xbfe61b7e	-1.797714
186	0x3c70bf6e	0.014694078
187	0xbcdbacc6	-0.026815783
188	0x3e825439	0.25454882
189	0x3bb4b562	0.0055147866
190	0xbf49ed51	-0.7887774
191	0x3b86689f	0.0041018273
192	0xbe733bd6	-0.23753294
193	0xbc7d522a	-0.015461484
194	0xbf0494ef	-0.51789755
195	0x3b934d6d	0.004495314
196	0xbd94299d	-0.072344996
197	0x3c4b7941	0.012419046
198	0xbd1c80ec	-0.038208887
199	0xbe83a883	-0.25714502
200	0x3cb2aeb3	0.021811819
201	0x3cf69077	0.030098183
202	0x3944a2b6	0.00018752631
203	0x3e69cc0d	0.22831745
204	0xbcaa2c6b	-0.020773133
205	0xbba4a6a2	-0.005024747
206	0xbe5a5c76	-0.21324334
207	0x3c6dd903	0.014517072
208	0xbb3e592c	-0.002904485
209	0xbe2ba5c7	-0.16762458
210	0xbe5d1f3a	-0.21593943
211	0x3f834d4f	1.0257968
212	0x3d91bc5a	0.07116003
213	0xbe73b566	-0.23799667
214	0x3cc66cf8	0.024221882
215	0x3ea06cc6	0.31332988
216	0x3afc5ae3	0.001925316
217	0x3f0cc569	0.54988724
218	0xbe891e73	-0.26781043
219	0x3c80a9b5	0.015705923
220	0x3b87d40e	0.004145152
221	0xbe5452ce	-0.20734712
222	0xbe7d99d3	-0.2476571
223	0x3cae8acf	0.021306423
224	0xbdcde0eb	-0.10052665
225	0xbe51871f	-0.20461701
226	0x3b9e68ce	0.004834271
227	0xbcf51525	-0.029917309
228	0xbe64dcd9	-0.22349872
229	0x3edd4a05	0.43220535
230	0xbcdc1fec	-0.02687069
231	0xbe59faa1	-0.21287014
232	0x3a9854f8	0.0011622002
233	0x3c189b33	0.009314346
234	0xbe7ed07a	-0.24884215
235	0x3c94b6be	0.018153545
236	0xbe860796	-0.26177663
237	0xbf0cbe06	-0.5497745
238	0x3d5bba5e	0.05364453
239	0xbe830273	-0.25587806
240	0x3c45433a	0.012039954
241	0x3c441a87	0.011969215
242	0xbff308ef	-1.8987101
243	0xbc5ddb87	-0.013541109
244	0x3e274c10	0.1633761
245	0x39610dda	0.00021462832
246	0xbe7531e5	-0.23944815
247	0x3b819e57	0.003955643
248	0x3c0c8bc5	0.0085782455
249	0xbe77dedb	-0.24206106
250	0xbe74aefe	-0.23894879
251	0xbbd09c7c	-0.0063663106
252	0xbe572e0f	-0.21013664
253	0x3cf27b3f	0.029599784
254	0xbe4c3b49	-0.1994449
255	0x3e30f73f	0.17281817
