TD3/preTrained/TD3_BipedalWalker-v3_0_crtic_1_ep200.pth (torch_old, 529774 bytes, 5 tensors)

l1.weight f4 [400, 28]
00000000: 0c5a 003f 9d25 ef3e daf5 ebbd 7d33 21bf
00000010: bf04 203e f9f1 5c3e 8507 47bd 2eff 283d
00000020: 04ce ebbe 8803 3d3e c48d c1bd 74ae 47be
00000030: 29e0 533e 7db3 613e b018 8bbe b572 94be
00000040: 295b 39be f9f8 01bf 3d8b 96be 353b 67be
00000050: b357 89be e3b0 80be a709 f9be 1c2b 633d
00000060: 9d3a d4bd 8fff b2be d4c5 1f3d ccfb 413e
00000070: b8cf 8e3e f217 833f 4a8a d7be 5944 513e
00000080: faf4 9abb 84a5 713e acb2 b13d 191b 9e3d
00000090: 456e 73be c31a 4a3e 9fc6 55bd 6c2c 5abc
000000a0: 2ba6 3ebe 2c28 06bd 5106 983e a41b 843e
000000b0: f7ab 2b3d 018f 183e f781 d53d ede2 453e
000000c0: 88fd 423e 95f3 673e 64f1 f13d 71a0 6f3e
000000d0: 1886 393e 1bef 5e3c 95b9 dabd 20cc 0dbc
000000e0: a088 613f c375 833f 705f 843d 79f6 28bf
000000f0: 4c85 7e3e e72e 12bc 2c95 4a3e 8f52 8fbd
00000100: 68bf 61be cb43 b83d d2e4 e23c ca0f edbd
00000110: 9003 9cbc 487d 553d bbcd 9fbe fe03 cebe
00000120: ebf5 19be 55b7 f3bd 2d8d 26be f500 acbe
00000130: 6244 dcbe 616a 57be 775b b4be f6b6 253e
00000140: 15fb e33c 7dfa 03be db48 663d c90f df3c
00000150: ffc9 7bbe 0a16 1d3e ebed 503c 3437 9fbe
00000160: 176a 48be 048f d1be 1f59 c4bd 3269 183e
00000170: 790b 773e 7a18 06bf 205a 36bd 587a cebc
00000180: c400 bd3e 2f40 3a3d 0d08 e2be 7b56 bcbe
00000190: 4d97 c6be ffe4 bcbe 1bf0 8bbe ed56 79be
000001a0: ab24 b2be d6bd babe b76b 7fbe 1672 a2be
000001b0: fe0d 61bd 16e6 5fbe e613 0f3e fbe1 77bd
000001c0: 10d0 e63c 1678 8e3e 8d85 5d3f 8a57 c3be
000001d0: 7536 82be dc87 983e fe3d 94be 70aa edbe
000001e0: 2391 27bf 2be8 35be bb51 b53e 4cd5 bbbe
000001f0: eb91 dabe aca0 dfbe 270c 94be 9d91 d9be
00000200: 0493 08bf ce1e 14bf 3bb0 e2be 87bc 20bf
00000210: e440 afbe d904 14bf 590c a5be 069d 453d
00000220: fcfc 363e ee8f 8abb 69b9 013e d529 293c
00000230: 181c 123e 8d84 043f edf2 683e 1dfc 0abf
00000240: 7f3c 6e3e fb30 893d f54a 823e 0e74 133f
00000250: faa2 26bf db22 07be 1420 b5bd d29a 3b3e
00000260: 676d bd3e 113a 83be 2e52 d8be 66ca 51be
00000270: 5681 26be 5525 16be 46bf 38be 4002 b9be
00000280: a6e9 b6be 4ab8 a3be 04e3 f9bd b2e5 90bb
00000290: bdf0 bf3e d2d1 0e3e 55be a93e 8b9d a0bb
000002a0: 190f 823e 3868 21bf 8f64 5d3e 2783 4dbe
000002b0: 088d 6abe 6031 6a3e 7a06 f43d 8dfa 37be
000002c0: d393 7dbe 8dea 5a3d d535 163d 3dde ac3d
000002d0: 3f8b 21be 13af 973d f831 0d3e 818a cf3d
000002e0: 57d6 7f3c efc7 933e 4d76 823e cd81 753e
000002f0: d5f4 653e 29d5 2b3d b158 ce3d a00a ff3b
00000300: 6c74 0b3e 6f6c 57be f7e1 1e3d 0e1c 87bd
00000310: f084 febd 6df1 a6bf 270c bd3f dc19 f6bd
00000320: ef95 f0bc 8f2a 93bc d3cf 91bd 7999 20bd
00000330: 2d3f 3ebd fc04 06bd 4bd9 743e 2aa2 0fbe
00000340: b7c1 a0be 6d5b 0b3e 43f1 883d fe74 44be
00000350: 0282 e8bc c2ff ce3d 4900 48be 104a f5bd
00000360: 3861 56be e9a4 183e 28c0 e73d 51a1 8bbd
00000370: fd03 053e 5ec0 993e 50e2 1cbe f159 4dbe
00000380: 260e 063e bae9 d8be 6a09 6b3f 323d 69be
00000390: 2d84 afbe 8aa3 0b3e 41a6 71bd ab98 4f3d
000003a0: 2983 dabd a61e 8a3e 6868 febe 2a22 983e
000003b0: 51c2 f83e 31fc 00bf a30c 5ebe dbbc 95bd
000003c0: 818d aebe ada3 04be a5ed 8cbe 9e11 d9be
000003d0: ebcf 15be 5b95 b4be 06b2 62bd 27b4 db3c
000003e0: d017 9d3e a917 16bd 525d 8b3c e83d c93d
000003f0: c657 6b3e d2d4 2f3e f2f8 113f 362d 65be
0.501374 0.46708384 -0.11521502 -0.6296919 0.1562681 0.2157668 -0.048591156 0.041258983
-0.46055615 0.18458378 -0.09450868 -0.19500142 0.20690979 0.22041126 -0.27167273 -0.28993765
-0.18101181 -0.5077053 -0.29403105 -0.2258118 -0.26824722 -0.25134954 -0.48640177 0.055461034
-0.10362742 -0.349606 0.039007023 0.18943709 0.27892852 1.0241683 -0.42097694 0.20436229
-0.0047289105 0.23598295 0.08676657 0.07720012 -0.23772533 0.19736771 -0.052191373 -0.013316255
-0.18618076 -0.032753155 0.2969232 0.25802338 0.041912045 0.14898302 0.104251795 0.19324847
0.19042027 0.22651513 0.1181362 0.23401047 0.18117559 0.013606812 -0.10679928 -0.008654624
0.880991 1.0270313 0.06463516 -0.6600109 0.24855536 -0.008922315 0.19783467 -0.06998169
-0.22045672 0.089973055 0.027697 -0.11575277 -0.019044667 0.05212143 -0.31211647 -0.4023742
-0.15035217 -0.11900202 -0.16264792 -0.3359448 -0.43020922 -0.21036674 -0.35226032 0.16183075
0.027829686 -0.12888522 0.056221824 0.027229207 -0.24588774 0.15340438 0.012752037 -0.31096804
-0.1957172 -0.40929425 -0.09587311 0.14883879 0.2412547 -0.523811 -0.044519544 -0.025204822
0.36914647 0.045471366 -0.44146767 -0.3678473 -0.38787308 -0.3689346 -0.27331623 -0.24349566
-0.347936 -0.36472958 -0.24943434 -0.31727666 -0.054944985 -0.21865115 0.13972434 -0.060518246
0.028175384 0.27825993 0.8653191 -0.38152725 -0.25432172 0.29791152 -0.28953546 -0.46419096
-0.65455836 -0.17764346 0.35413918 -0.3668617 -0.42689452 -0.4367727 -0.28915522 -0.42493907
-0.5334933 -0.57859504 -0.44275078 -0.6278767 -0.34229195 -0.57819897 -0.32235983 0.048245452
0.17869943 -0.0042285835 0.12668385 0.010324915 0.1426853 0.51764756 0.22748919 -0.54290944
0.23265265 0.066987954 0.25447813 0.5759896 -0.6509243 -0.1319689 -0.08844009 0.18320778
0.3699753 -0.2563024 -0.42250198 -0.20487365 -0.16260275 -0.14662679 -0.18041715 -0.3613453
-0.35725135 -0.3197654 -0.12201503 -0.004421913 0.37488356 0.13947228 0.33153024 -0.004901593
0.25402144 -0.6304965 0.21620391 -0.20069562 -0.22905362 0.22870398 0.11915298 -0.17966671
-0.24763422 0.05344634 0.036672432 0.08440826 -0.15775774 0.0740644 0.13788593 0.101338394
0.015615067 0.28863475 0.2548088 0.23975296 0.22456677 0.041951332 0.1007551 0.007783249
0.1361863 -0.21037458 0.038789716 -0.06597148 -0.124276996 -1.3042427 1.4769334 -0.12016651
-0.029368369 -0.01796463 -0.071197174 -0.039208863 -0.046446968 -0.032719597 0.23911016 -0.14026704
-0.31397793 0.13609095 0.06686642 -0.19185254 -0.028382305 0.10107376 -0.19531359 -0.11977017
-0.20935524 0.14906658 0.11315948 -0.06817878 0.12989803 0.30029577 -0.15320706 -0.20053841
0.13091335 -0.4236582 0.9181124 -0.2277725 -0.3428053 0.13636604 -0.058996443 0.050682705
-0.10669548 0.26976508 -0.4968903 0.29713565 0.48585752 -0.50384814 -0.21684508 -0.07311412
-0.34092334 -0.12953062 -0.27525058 -0.42396253 -0.14630096 -0.352702 -0.055345558 0.026819302
0.3068223 -0.036643658 0.017012272 0.09826261 0.22982702 0.17171028 0.57020485 -0.22380528

l1.bias f4 [400]
00000000: 74d8 863d 6876 85be 8b2d 293e c68a 683e
00000010: 1cdb 4e3d 6ea7 363e b56e 223e 6158 943e
00000020: 892e c63d 2f59 79be 6f0b 193c 736c 8f3d
00000030: 2b1d 6c3e 8e53 75be a105 54be 259d 663e
00000040: 4d7b 12bd eb01 153c 05f8 4cbd 147b b63e
00000050: 1316 23be 2a29 6ebe eb1f 183d 16b6 05be
00000060: 54c8 a2bd 0d55 48bd 32a5 49be ea12 7c3e
00000070: dc54 69be 7f92 863d 0459 313e b214 5fbe
00000080: 8f5b dabd 1082 953d 0374 2ebe bea8 f2bd
00000090: bc89 c93d 905a 95be 3e0e 993e 9d46 763e
000000a0: 4ce8 bb3e bf1a ab3e 15e6 bcbd 1e1a 8bbe
000000b0: 0628 f03d c84e 01be 5e38 abbe 0269 79bb
000000c0: f3b7 de3d 99f7 1bbd ad07 16bb 12ef 0f3e
000000d0: 076f ef3e 7904 4d3e e15a a5be dc30 ecbd
000000e0: 6311 17be 0050 3ebd 6c72 6cbd 93cd 843e
000000f0: b770 b13d a6cc a23e 0a67 ef3e 0928 813e
00000100: 9842 b4bd b147 293e bbef 63be ac35 6fbe
00000110: dc5e b6bd 6ac2 6c3e ff51 96be 9e00 24be
00000120: 8854 6d3d a5b2 9f3e 7a9e 20be 6034 493e
00000130: bc9c 81be 9ec1 0cbe 396e 9ebd 7828 03be
00000140: f3e0 283c c66c 50be 19fe a93e 06a0 e83a
00000150: 651a 843e a4d3 bc3e 66db ca3c 0675 5cbe
00000160: 98be 1ebe 4763 483d 32d1 2bbd e5b3 983e
00000170: d406 af3e 017a b73e 19ba 1a3e c3da 6ebe
00000180: 0168 5cbd f5ea 12be f63f a93e 7b73 923d
00000190: ae9d c43e bdf8 33be ba90 e6bd 84ae 14bd
000001a0: 3ee0 c4bd 73bf 7e3d 58f7 563e a546 143e
000001b0: d06a ffbd b5de eabd 3b55 4c3e a707 f4bd
000001c0: 64f9 0d3d 4a83 db3e 1877 d9bc bdcd 9a3d
000001d0: 78a0 913e a0b0 80bd d064 db3d 9ce3 b53e
000001e0: 9a5c 0ebe 9f1f 10be 8496 823d 968f 063d
000001f0: a39d 27be 471e d83d e9db af3d 8e60 f23d
00000200: c192 ad3e e484 403e d956 4bbe 7457 bcbc
00000210: 0ed4 603d aa8b 113e 1678 123e 82b1 803d
00000220: c3a2 e9bd 6830 7f3e d580 d5bd ac49 91be
00000230: 9428 84be 4ff8 a43e eb53 63be 1379 20be
00000240: 1952 7abe e4a5 03be bdf6 30bd fc65 acbe
00000250: 2de8 ec3e 4666 2cbe 0709 4b3e f50c d93e
00000260: e689 403e 4105 493e d430 d73c d103 c1be
00000270: ae50 2dbd 9c15 5cbe 110e e5bb 8970 e63d
00000280: 82f9 88bd 78ae 3fbe a82a 5abe 9dcc 2bbe
00000290: 8a9e 213e 795c b53e 2b1f 3e3e c630 e33c
000002a0: f0d3 123e 3050 efbd a58e ed3d 70ad 7dbe
000002b0: c2d8 d8bd 5ded ba3d cbc5 a53e 50ee 883e
000002c0: d6be ff38 5aa5 df3d f528 d93d 43e9 ed3d
000002d0: 38dd e8bd 3699 8c3e 64fa 62be 464e d43e
000002e0: e657 60bc 58ab c53d 46fa 3abd 00ee 59be
000002f0: e135 39be f587 143e 32fd 683e 5e44 523e
00000300: c254 52be 446e 8dbe eb23 4cbe ade1 0cbe
00000310: 3a76 fbbd 7dcb c9bb 87f9 b33e 5a7f 11be
00000320: a8ed b33c 2218 3bbd d55b d4bc 2204 e23e
00000330: 59c6 f9bd f146 ad3d da9b fe3d 613e a1be
00000340: a685 adbd f183 553e 087a c3bd f096 6a3e
00000350: 211e 3a3e 63d2 18be f1f7 2ebd 25d8 b03e
00000360: b339 473d 9689 4b3e 160a 1cbe 6362 1dbe
00000370: 34a9 31bd c5e4 d83e 3efd 4dbe 00cb 113e
00000380: 9990 e639 4d84 b63e e3be 4bbe d3ad 49be
00000390: 16eb 77bb db61 00be edc4 423d b311 74bd
000003a0: 9e76 553e 7df7 68be 37d1 663b a568 babe
000003b0: 2a60 f03d 7859 783c 75e4 8cbe 2957 833d
000003c0: 38ca 26be 79b1 483e 400a 6ebd 07bf 833e
000003d0: 60e9 b43c f08b 633d 6182 ac3d 435e 073e
000003e0: 9332 6ebe a616 2fbe 2b24 d73d 35fc 1cbc
000003f0: b0c2 cb3d ae57 5cbe 48f2 debd 3e0e a4bb
0.06584254 -0.260669 0.1652128 0.22709188 0.050501928 0.17837307 0.15862544 0.28973678
0.096768446 -0.24350427 0.009341105 0.07003107 0.23058002 -0.23957655 -0.20705272 0.22520883
-0.03576212 0.009094696 -0.050041217 0.35640776 -0.1592639 -0.2325789 0.037139814 -0.13057742
-0.07948366 -0.048909236 -0.19691923 0.2461659 -0.22786278 0.06570911 0.17319113 -0.21785238
-0.10661995 0.07300198 -0.17036442 -0.11848591 0.09840724 -0.29170656 0.29893678 0.24050374
0.36700666 0.33418843 -0.09223572 -0.27168363 0.11726384 -0.12627709 -0.33441442 -0.0038056974
0.10874929 -0.038077924 -0.0022892759 0.14056042 0.46764395 0.20021237 -0.32295898 -0.11532757
-0.14752726 -0.046463013 -0.05772631 0.2593809 0.08664077 0.3179676 0.467583 0.25225857
-0.08801764 0.16531254 -0.22259419 -0.23360318 -0.08904812 0.23121038 -0.29359433 -0.1601586
0.057941943 0.31190982 -0.15685454 0.19648886 -0.2531489 -0.13745734 -0.07735867 -0.12808406
0.010307538 -0.20353994 0.33201674 0.0017747886 0.25801387 0.3688022 0.02476282 -0.21529016
-0.15502393 0.048922803 -0.04194755 0.2982475 0.34184897 0.3583527 0.15110053 -0.23325638
-0.053810123 -0.14347441 0.3305661 0.071509324 0.3840155 -0.17575355 -0.11258073 -0.036299244
-0.09613083 0.0621943 0.20992792 0.14480074 -0.12471545 -0.11468259 0.19954388 -0.11915522
0.034661666 0.42873603 -0.026546046 0.07558773 0.2844274 -0.062836885 0.10712588 0.35525215
-0.13902512 -0.14074562 0.06376365 0.032851778 -0.16368727 0.1055265 0.085868664 0.118348226
0.33901027 0.18800694 -0.19857349 -0.02299092 0.05488973 0.14213434 0.14303622 0.06283857
-0.114079975 0.2492081 -0.104249634 -0.2837652 -0.2581221 0.32220694 -0.22199981 -0.15671186
-0.2444538 -0.12856251 -0.043204058 -0.33671558 0.46270886 -0.16835889 0.19827662 0.42392698
0.18802604 0.1963091 0.0262684 -0.37698224 -0.04231327 -0.21492618 -0.0069902022 0.11251933
-0.06688215 -0.18718898 -0.21305335 -0.16777273 0.15783134 0.35422114 0.18566577 0.027733218
0.1433866 -0.116852164 0.11599473 -0.24773192 -0.10588218 0.09127305 0.32377467 0.26744318
0.000121948935 0.1092021 0.10603515 0.11616757 -0.11370319 0.2746064 -0.22165829 0.41465968
-0.013692832 0.09651822 -0.045648836 -0.21282196 -0.1808696 0.14504988 0.22752836 0.20533893
-0.20540145 -0.27623188 -0.19935577 -0.13757963 -0.12278409 -0.006158291 0.35151312 -0.14208737
0.02196391 -0.04567731 -0.025922695 0.44143778 -0.12196035 0.084607966 0.1243207 -0.31492904
-0.08472757 0.20851113 -0.0954476 0.2290914 0.18175556 -0.14924006 -0.042716924 0.34539905
0.04863901 0.19876704 -0.15238222 -0.15369563 -0.043374255 0.42362037 -0.20116135 0.14237595
0.00043976752 0.35647812 -0.19897036 -0.19695215 -0.003782933 -0.12537329 0.047551084 -0.05958719
0.2084603 -0.2275066 0.0035219917 -0.36407962 0.11737092 0.01515805 -0.2751805 0.06413109
-0.16288078 0.1959895 -0.058115244 0.2573168 0.022083938 0.055553377 0.08423305 0.13219552
-0.2326148 -0.17098483 0.10504945 -0.009581615 0.09949243 -0.21517822 -0.10886055 -0.0050065806

l2.weight f4 [300, 400]
00000000: 4e52 29bd 3f51 fe3c 7200 33bd f320 4a3c
00000010: 5644 da3b 4254 4cbd d8a3 64ba a505 353c
00000020: df0e c53c 2324 443c c03c 78bc e7a8 62bd
00000030: 6edd 163d 28dd fabb 0bb9 44bd 3c5b 5a3d
00000040: 5bd8 45bd 46e6 89bc 6ef0 523c 10c4 4dbb
00000050: 229f 803c 707b bfbb 5234 5cbd 548a 01bd
00000060: c01b 82bd 794e 2cbd 9829 753c b9eb 34bd
00000070: 11ec 403d 90d2 47bd 9032 c03b e057 34bb
00000080: 28d0 823c ad1b 1a3d 6a30 16bd 4b2f 2cbd
00000090: eb48 fd3b 7cea 933c 4409 17bd 47a9 e7bc
000000a0: 61d0 aebc 542f 263c 9698 eabb 3dca 213d
000000b0: df66 233d d0b7 58bd 97cf 46bd 28ba 43bc
000000c0: 0d7b 58bc d77a e93c d898 5b3c 2d33 df3c
000000d0: 2ce0 32bd b253 81bd 82f8 53bd d17f 393d
000000e0: aab5 953c e50e 4dbd d0a9 ec3c b479 16bd
000000f0: 1071 36bc f161 d33c b482 30bc 6985 57bd
00000100: f186 84bb 08c5 1dbc 526c f43c c88e 90bc
00000110: 6ede 08bd abd7 893c 2981 873d b201 7ebc
00000120: 3605 4abc 0436 10bd dfcb 80bc 4195 1ebd
00000130: 5cc1 4abd b4d2 aabc 3f58 4bbd e50e 9e3c
00000140: ef03 20bc 50a8 5c3b 56f2 ecbc 3ba7 6abd
00000150: 7e9c a13c a59a 4fbd a2c1 39bd 03a7 44bd
00000160: 58c8 c5bc 9c7c 2bbc 8636 903c 80da d73b
00000170: 2002 c53a 517a 093d 4e3f 913c b0be b53b
00000180: 16c1 2abd 70a5 d2bb 4bf1 37bd cea7 8abb
00000190: 49bc 593c e7bb 61bc 7f79 b23c 9554 063d
000001a0: b5da 8cbd 775f e3bc f5bf 2bbd adad 29bd
000001b0: 3e9d 113a 4480 c3bc ab64 4ebd b94e 24bd
000001c0: 6867 473c 7d21 3dbd b1ca 68bd 90ee b83b
000001d0: eff1 2bbd 30b7 3e3c 620d 82bd bad9 373b
000001e0: 12f1 4ebc e186 19bd 20e5 82bd 2b30 d93c
000001f0: ce41 29bd 4db7 d9bb cf17 193d 0191 87bd
00000200: 99a7 29bd c3bb 7dbd d282 34bd fbf7 06bc
00000210: e709 853d 9629 2dbc 6e78 19bd 982b d33c
00000220: 2f68 22bd d4df 1b3c 06b9 b5bc 9501 d93c
00000230: c76a 263c e147 b33c 51e1 07bd 9b3d 023c
00000240: 7aa9 0c3a 2e97 dd3c f19e 153c c2e8 38bd
00000250: 2e9e ecbc 9a41 5dbc 04ce cabc a2a3 73bd
00000260: 40b3 06bc d738 20bd 0135 4abd 425c 173c
00000270: 0538 da3b 3b8f ff3c c3a8 c8bc f92a 21bd
00000280: a06c 24bd 5cec 94bc b827 71bd e040 8cbd
00000290: f0d4 f5bb 589b 79bd 301e 78bd 4ad1 4bbd
000002a0: 6bbb 49bd 567e 68bd 793e 80bd 0ac9 9e3c
000002b0: 662f cb3c 316a b03c 5692 35bd fcf8 b9bb
000002c0: 0185 c0bc 36c6 24bd 0444 28bd c639 2b3d
000002d0: ad0b 77bd 2ff2 04bc d616 96bc c10d 7c3c
000002e0: 5cf6 45bd 0c89 0fbd 726b 23bd f710 4f3c
000002f0: 2e04 f6ba 591c 82bc 9d6c 2abd 388c ec3c
00000300: 3b81 2f3c 1173 acbb 1b80 e939 b8fc 2bbc
00000310: 4974 efbb 516e 1ebd 3a15 d9bb a42b 49bd
00000320: 6636 f7bb 8755 a5bc c940 04bc 6199 91bc
00000330: 5bca 233c 515b a2bc 6adf 883c 18e8 db3c
00000340: e08e 183d 8000 543d 0dd4 053d 5c71 72bd
00000350: c2ea 34bd 2060 363c 17f8 a4bc 5c07 b03b
00000360: 0de2 ecbc e342 4cbd 96ee 3abd 7ace e73c
00000370: ca4a 12bd 63bb 443c bfd3 d03c 0f9d fa3b
00000380: b534 383c b854 943b 762e 3cbc b101 14bd
00000390: 7842 05bd ef85 02bd 750a aaba a23d ef3c
000003a0: 8c67 293d 7028 bebc e245 f83c 69b8 4a3d
000003b0: 2152 bb3c 3e11 6fbc cb07 cbbc b546 89bc
000003c0: 42cd 87bc 0513 bb3c 637b 8cbd fa4b c93b
000003d0: 721a 5cbc 9e58 153d ac97 383a 2c48 29bc
000003e0: 7d9c 27bd d699 72bd a90f d73c e906 fabc
000003f0: eed5 52bd b179 67bd cf58 60bd 6fff 28bd
-0.041338257 0.0310446 -0.043701597 0.012336957 0.0066609783 -0.049885042 -0.00087219244 0.011048709
0.024054943 0.011971506 -0.015151203 -0.05533686 0.036832266 -0.0076557584 -0.048028033 0.053309664
-0.048302036 -0.016833436 0.012874706 -0.003139738 0.01570088 -0.0058435723 -0.053760834 -0.03162606
-0.06352949 -0.042067025 0.01496353 -0.044170115 0.04710013 -0.048784792 0.0058654025 -0.0027518198
0.015968397 0.03762405 -0.036667265 -0.04203729 0.0077296398 0.018056147 -0.03687407 -0.02827896
-0.021339597 0.01014312 -0.007159303 0.03949951 0.039893027 -0.052909672 -0.048537817 -0.011946239
-0.013212931 0.028500957 0.01340314 0.027246082 -0.04367082 -0.06314792 -0.051750667 0.04528791
0.0182751 -0.050063033 0.028889567 -0.03673716 -0.011135355 0.025803538 -0.01077335 -0.052617464
-0.0040444066 -0.009629495 0.029836807 -0.017646208 -0.03341525 0.016826471 0.06616432 -0.015503334
-0.012330344 -0.035207763 -0.015722213 -0.03871656 -0.049500808 -0.020852424 -0.049644705 0.019294212
-0.009766563 0.0033669658 -0.028924149 -0.05728839 0.019727942 -0.05068459 -0.04535068 -0.048010837
-0.024143383 -0.010466721 0.017604124 0.0065873265 0.001503054 0.033563916 0.017730381 0.0055464134
-0.041688047 -0.006428413 -0.04490785 -0.0042314297 0.01328952 -0.01377771 0.02178645 0.032795507
-0.068776526 -0.027755482 -0.04193111 -0.041425396 0.0005554742 -0.023864873 -0.050388973 -0.04011414
0.01217065 -0.046174515 -0.056833927 0.0056436732 -0.041978773 0.011640355 -0.06350209 0.002805336
-0.012630718 -0.037482146 -0.063913584 0.026512226 -0.041322522 -0.0066441656 0.03737622 -0.06619454
-0.0414196 -0.06194664 -0.044070072 -0.008237834 0.06496029 -0.010568997 -0.037468366 0.025777623
-0.03965014 0.009513814 -0.022182953 0.026490012 0.010157294 0.02188486 -0.033173863 0.007949258
0.000536583 0.027049627 0.009132133 -0.04514385 -0.02888402 -0.01350441 -0.024756439 -0.059482224
-0.0082214475 -0.039116707 -0.049366955 0.009238305 0.00665951 0.031196227 -0.024494534 -0.039347623
-0.040142655 -0.018179111 -0.05887577 -0.068483114 -0.007502191 -0.060939163 -0.060575664 -0.04976014
-0.049251 -0.05676111 -0.06261916 0.019382972 0.024802875 0.021535011 -0.04432901 -0.005675433
-0.023500921 -0.04022809 -0.04108049 0.041803144 -0.06031387 -0.008114382 -0.018321436 0.015384139
-0.04833065 -0.035042807 -0.03989739 0.012638322 -0.0018769556 -0.015882658 -0.041607488 0.028875455
0.010711963 -0.0052627404 0.0004453667 -0.010497265 -0.0073075634 -0.038679425 -0.006624845 -0.049113885
-0.0075443266 -0.020182384 -0.008072087 -0.017773332 0.009996976 -0.019818934 0.016708095 0.02684407
0.03724563 0.05175829 0.03267293 -0.05919014 -0.044169195 0.011131316 -0.02013783 0.005371971
-0.028916383 -0.049868476 -0.04563769 0.028296698 -0.035715856 0.012007567 0.025491593 0.0076481174
0.011243035 0.004526701 -0.0114856865 -0.036134426 -0.032534093 -0.03186601 -0.0012973087 0.029204194
0.041358516 -0.023212641 0.03030676 0.049492273 0.02286631 -0.014591513 -0.02478399 -0.016757349
-0.016577367 0.022836218 -0.06859472 0.0061430903 -0.013434039 0.036461465 0.0007041644 -0.0103321485
-0.040920723 -0.05922874 0.026252585 -0.030520873 -0.05147355 -0.05651254 -0.054772194 -0.041259225

l2.bias f4 [300]
00000000: de17 6abd b90e 3cbd d9ca 313d b81a cebc
00000010: 5ea2 91bd 0ca1 d1bd 6cb1 fbbc a32e dfbc
00000020: 3b1c e4bc 5781 bfbc de89 62bd 6455 b03c
00000030: c00c c23c d73a 013e 5ece 4fbb 5168 95bc
00000040: be46 40bd b917 2d3d eb89 64bd c6ea 353d
00000050: d805 3bbd 9c82 0fbd 7b78 503d 92c4 16bd
00000060: 1670 d9bc 956f 57bd 551c eabb 1609 41bd
00000070: 4654 ab3e 9e1b ba3c 9f12 5e3d bd22 133e
00000080: d4b2 31bd 764e 29bd 26c3 b2bd 86f7 fe3c
00000090: d57b 143e 341c b03d 310c b7bc a4b4 aa3d
000000a0: bf0b b13a b3e3 38bd 1f85 a23c bea9 a83d
000000b0: 0824 70bd 2c5e 973d f13a be3d bd1b d2bc
000000c0: 50b1 b3bc 7278 dabc b26e 12bd 3d60 4d3d
000000d0: f074 58bd b77c 0fbd e0ef dabc 7f7f d43c
000000e0: 24d5 593d 23b9 b4bc 49c6 7f3d 1d8f 39bd
000000f0: 0686 783e b5d5 f6bc 3f1d 7fbd c57e ab3e
00000100: b3a3 d1bb c7cb 45bc 1039 8ebc 757e 483d
00000110: eef3 c7bd 8be0 9dbc 79f3 843c 1d67 a33c
00000120: 6549 0dbd 21bb 80be 07bf 44bd b48f 4cbd
00000130: e9ba 073d 2da3 493c dd43 a2bd e778 82bd
00000140: d404 1ebc 4d9d 7fbd 697f a9bd 32ae a2bd
00000150: f5bf 45bd 740b f7bc dc4a 6dbd eb65 34bc
00000160: a1dc 05be 5a83 933d 2ad6 99bd 01d0 93bc
00000170: 20ac 9bbd 8a92 44bd cb30 abbd 29ec 153c
00000180: e0d7 f3bd c5d6 bb3d 84b0 fd3d 8a59 b9bd
00000190: e282 6ebc b322 1bbc 6aca 47bd ddbd 353d
000001a0: 263a d83b 883c 74bd 257a e33d 4a42 093e
000001b0: 343a a93d 36f6 74bd d840 973e eebb a53e
000001c0: 1ad3 e6bc 46c3 8ebd edcf d9bc 902d 243b
000001d0: f8e5 673d efea 6fbe 6428 8cbd 30d2 143e
000001e0: 99a1 30bd 8dac 843d 93c5 58bc e8d2 bbbb
000001f0: da3f 68bd 3569 3c3d 2882 0b3d bb79 adbd
00000200: 4267 bf3d e067 0dbc 84de 45bd ee0c a43c
00000210: 4f89 f53b a314 9d3c 0e5f 19bd cd46 7dbd
00000220: e0b9 983e d01f 82bd 999c 2dbd bbdc cc3b
00000230: 2f8e 51bd adb4 52bd b54a 20bd 8c2f 4cbc
00000240: e306 253d 1894 b0bd c87c 283d 77a9 7f3c
00000250: f199 51bb 2bab 0dbd 6661 36bd a1f1 983e
00000260: 8d82 53bd e3cf 18bc b051 bb3c 8dac a53d
00000270: e6df 15bd 3069 93bc 0121 1a3e 59b3 05bd
00000280: 0c2a aabd eb80 b9bc d386 e5b9 00dc 2fbd
00000290: 7e58 b1bd 6b73 93bd 4604 023e c51a 6cbd
000002a0: 235f 07be 2a32 1b3c 08a8 163d 8a18 cabd
000002b0: 62cd 263d de7e 46bd 6e54 933d 6ca2 b73c
000002c0: a029 83bd c60b c23d 6229 013e 25e2 ae3d
000002d0: e236 0cbd 584d 9dbd 952e 0f3e b893 39bc
000002e0: 5de9 24bd 884d 9a3e eebf fb3b b207 a6bc
000002f0: 3d27 3ebd 3fdc 08bd d42f fb3d 41f7 34bd
00000300: a9ab de3d 3316 96bd ae02 ff3a f57d 0cbc
00000310: de49 823d 7c1f 24bc 0e8d eebc f7ed 143d
00000320: 63e2 9fbd c26e 39bd bd39 083d a770 49bd
00000330: 1d7a 4cbd 8ec2 08bc 9a61 9a3d bb12 adbd
00000340: a877 99bc dbbe 07bd 2ab4 7e3d c38f 1ebe
00000350: f014 40bc 0ed7 503d 52b7 8abd e4cb c83d
00000360: c0ac 13bc 48b8 9dbe 8ae8 7e3d f5a2 84bb
00000370: 1027 14bd e8fd 923e 2d4f 083d 7426 12bd
00000380: 66b1 99bc 70bd d13c e517 b5bb b291 04bd
00000390: 9262 003e aec5 acbd 2771 aebd 7367 9e3e
000003a0: c437 a5bd e4c2 9d3d e9c0 503d 3580 87bd
000003b0: 8bef f13c cb26 3a3e d194 4abc 6de4 a33e
000003c0: 4b4c 6abd 1004 11bd 93a7 033f 2b22 10bd
000003d0: bd2e 2dbd 555f abbd cc14 b13d 4627 07bd
000003e0: b6ce 8abc 6553 a23e 70d5 c33d a10c 803c
000003f0: 154f 6e3c 06e1 d6bb 0de5 873d 18a9 6bbd
-0.057151668 -0.045912478 0.04340634 -0.025159225 -0.07111047 -0.102357954 -0.03072425 -0.027243918
-0.027845493 -0.023377104 -0.05530726 0.021525092 0.02368772 0.12620102 -0.0031708698 -0.018238219
-0.046942465 0.04225895 -0.05579559 0.04441335 -0.04565987 -0.03503667 0.05089615 -0.036808558
-0.026542705 -0.052596647 -0.0071444907 -0.047127806 0.33462733 0.022718247 0.054216977 0.1436872
-0.043383434 -0.04133459 -0.08728628 0.031123888 0.14500363 0.08599129 -0.02234468 0.08335236
0.0013507529 -0.045139026 0.019838868 0.08235501 -0.058628112 0.07391009 0.09288586 -0.025647992
-0.021935135 -0.02666876 -0.0357501 0.050140608 -0.052845895 -0.035031047 -0.02672571 0.025939701
0.053181782 -0.022060936 0.06244496 -0.0453025 0.24269876 -0.0301312 -0.06228375 0.33495155
-0.0063976883 -0.01207251 -0.017361194 0.048948724 -0.09763323 -0.01927211 0.016229378 0.01994663
-0.034493823 -0.25142768 -0.04803374 -0.049941733 0.033137236 0.012306971 -0.079231 -0.063707165
-0.009644706 -0.062405873 -0.08276255 -0.07943381 -0.048278768 -0.030156828 -0.05793272 -0.011010627
-0.13072444 0.07202788 -0.07511552 -0.01804352 -0.076011896 -0.047991313 -0.08358916 0.009150543
-0.11906409 0.091718234 0.12387183 -0.09050281 -0.014557572 -0.009468722 -0.04877702 0.04437052
0.0065987287 -0.05962804 0.111072816 0.13404194 0.082630545 -0.059805118 0.2954166 0.3236994
-0.028176833 -0.06970839 -0.026588405 0.0025051571 0.0566158 -0.23429464 -0.068436414 0.14533305
-0.04312286 0.06478224 -0.013230699 -0.005731929 -0.05670152 0.04599877 0.034059674 -0.08470484
0.09345867 -0.008630723 -0.04830791 0.020025697 0.007493175 0.01917488 -0.037444167 -0.0618351
0.2982931 -0.06353724 -0.04238567 0.006251899 -0.051160987 -0.051441837 -0.039133746 -0.012462508
0.04028977 -0.08621997 0.041134626 0.015604368 -0.0031982625 -0.034587067 -0.04452648 0.29871848
-0.051638175 -0.009326908 0.0228661 0.08089552 -0.03659048 -0.017994493 0.15051652 -0.032641742
-0.08308801 -0.02264448 -0.00043778736 -0.042934418 -0.08659457 -0.071997486 0.12696943 -0.057642717
-0.13219886 0.009472409 0.03678134 -0.09867962 0.040723212 -0.048460834 0.07193838 0.022416316
-0.06404424 0.09474902 0.12613443 0.085392274 -0.034232028 -0.07680768 0.13982613 -0.011326723
-0.040261615 0.30137277 0.007682792 -0.020267341 -0.04642414 -0.033413168 0.12264982 -0.044181112
0.10872585 -0.07328453 0.0019455755 -0.008574952 0.06361745 -0.010017272 -0.029119994 0.036359753
-0.07806852 -0.045271643 0.03325819 -0.0491797 -0.049921144 -0.008347167 0.07538147 -0.08450838
-0.018733814 -0.033141 0.062183537 -0.15484528 -0.011723742 0.050986342 -0.06773247 0.09804514
-0.009013355 -0.30804658 0.062233485 -0.0040477463 -0.036170065 0.2870934 0.033278633 -0.035681203
-0.018761348 0.025603026 -0.00552653 -0.03236551 0.12537602 -0.08436142 -0.08517676 0.309383
-0.08067277 0.07703188 0.050965223 -0.066162504 0.029533168 0.18178861 -0.012364582 0.32010213
-0.057201665 -0.035404265 0.5142757 -0.035188835 -0.0422809 -0.083677925 0.08646545 -0.03299644
-0.01694427 0.3170425 0.09562194 0.015631022 0.014545222 -0.0065575866 0.06635485 -0.057534307

l3.weight f4 [1, 300]
00000000: d6ca 81bc f7cd 41bd 5287 70be 177e 87bc
00000010: 7d98 48bb 93bd ff3c 8dfc 3a3d 6c70 9c3e
00000020: e375 c73b 0e67 e1bc c21f c0bc 5bfb 12bb
00000030: f6b4 8c3e b6f7 a5be b33c a23e 098b 8a3b
00000040: 1087 fb3b b470 383d 5c50 f8bb 7820 54be
00000050: 2a9d c5bc 1d34 813c 7eb0 66be 7056 3ebd
00000060: cf60 02bd b5e8 59bb 21df 183d f492 f63c
00000070: a6c7 c5be 9564 85bc bc62 73be c0ed d6be
00000080: e1fe b6bb 043d 963c 4c57 a0bb b9ca 76be
00000090: 5924 6dbe 314a 85be 6c9b 8db9 6eda 5fbe
000000a0: 37b6 3f3d 0c57 acbc 41e3 0a3d dce1 42be
000000b0: 2346 b2b9 1e17 acbe 8ea3 71be c2ab bcbc
000000c0: 08a3 5fbc 70b3 c73c 49b2 0cba dbb7 87be
000000d0: f2d3 d83e dd4f 1abd c0fb 8a3c 4954 ae3c
000000e0: dfc9 7dbd 04c1 7bbc 6fea a73e 1ebb 1c3c
000000f0: 5456 9fbe d245 38bd 98f1 103c 6215 aebe
00000100: f83d d03c c4c2 4b3d 8321 09bd 2ae8 90be
00000110: b648 3c3d 3222 ed3d 61e5 d63c 60f2 e13c
00000120: c8e7 433c 94d8 e23e 7d1c 19bd ea5c 29bd
00000130: a0f0 183d 03e2 193c 517d 173d 7e3a e7bc
00000140: b576 6f3d bea0 923c 143d 5c3b 5b42 953c
00000150: f5de b0bb f6bc 8a3c e322 c53d 5998 81bb
00000160: 16dd 353f 4a62 4fbe bad4 f4bc 9f79 c03e
00000170: 56fc a13e 17bb 09ba 8449 1f3d dddd bf3c
00000180: 9503 963f 68fb 5abe f77f f7be fbb4 5d39
00000190: 40af e43c a8bd 42bd 8570 173d 14fe 43be
000001a0: bf0c ef3e 6cbf f63c e5b2 96be 3085 bcbe
000001b0: eb92 86be 6e45 70bc 7045 cebe 5e39 babe
000001c0: 6970 2fbd 6a8d a8bc fbab a23c cc30 50bd
000001d0: 8e2a c5be 6aff d83e 718c adbc 767c bdbe
000001e0: fe2d 043d e358 5ebe 1517 95bc 02e6 9d3b
000001f0: 9b0d 74bc b1be 89be b155 7cbe a6dc 283c
00000200: f6a5 8cbe 043a 0b3c 9a21 2bbb 5d4c b0bc
00000210: 5515 bc3e e7c4 5d3a e618 c23e ac08 babc
00000220: 81d5 acbe caf2 eb3b 3b2f 873c 228c 35bd
00000230: 8f69 d43c 98f3 703b b5d1 4d3d 45ee 003d
00000240: 7254 163d eca7 14bc 3c7a 82be 388e ab3c
00000250: 27a4 8cbe f07a 95bc 80b4 6a3c 4924 d6be
00000260: 6202 d4bc 1bdb a33b db64 f3bc 5369 42be
00000270: 3f33 4bbd 93ba d43b 2de5 86be b796 bf3c
00000280: 0da1 763d c22a 5bbb 8aaa e8bc 5fbe cc3c
00000290: 3eb1 c93c 1346 3dbc 3935 a4be 9f8a 4b3b
000002a0: f5e0 3c3f 0733 0f3d 2821 b7ba 93c0 693f
000002b0: ca4a 55be 644a 8cbc 23ee 6ebe c59b 243d
000002c0: 61cf dabc ad29 813e 4702 98be e28f 55be
000002d0: be51 423d 5f9e 4d3d d9ce b7be fb44 a1bc
000002e0: 0eea ffbc 4ef8 33bf 9466 313d c6ac dbbc
000002f0: 580f ce3e e1e9 48bd 7984 bfbe bb88 e2bc
00000300: d63b 73be 473c 473c 690b 09bf ee6f 54bc
00000310: 9d29 94bd a58a 2c3d ec80 1cbd 83a8 83be
00000320: f671 5b3d 9e63 d43c 9719 023d 3ff2 be3e
00000330: 5862 203b a2a6 a4bb 765c 5abe 03d9 6d3c
00000340: 1d1d c8bb 1b28 4cbe 3a1f 5dbe 5a31 4b3f
00000350: 8ea8 d23d 66b5 73be f86c c63c 28f9 533e
00000360: 4746 dc3c ca91 373f 731e 89be 55f5 82bc
00000370: 3520 dabc f96a d0be d399 7dbe 9548 3f3c
00000380: ebe0 cdbd 1f87 51be ce68 9e3b f78c ed3a
00000390: d637 a3be 9b1b 913e ec1f dcbc 98b9 cabe
000003a0: f854 983a 428e 933e 7ad0 7ebe b198 303d
000003b0: 9607 86be 73b3 84be 1ef7 923d 13d7 e0be
000003c0: 3a43 453c 871a 443c 9272 86bf b7c8 943c
000003d0: bfb9 9b3e 1c33 f33c e531 75be 579e 813b
000003e0: 1814 253d 86b6 d6be feae 74be 4a14 b33c
000003f0: 0f2e 57be 3f7b f23c 493b 4cbe 22ec b63e
-0.01584379 -0.047315564 -0.2348912 -0.016539617 -0.0030608468 0.031218326 0.045651007 0.3055452
0.0060870512 -0.02751496 -0.023452643 -0.0022427652 0.27481812 -0.3241555 0.31686935 0.004228
0.007676013 0.045029357 -0.007577939 -0.20715511 -0.024122793 0.01577192 -0.22528264 -0.046469152
-0.031830605 -0.0033250276 0.037322167 0.03009937 -0.38628882 -0.016283313 -0.23768133 -0.41978264
-0.005584583 0.018339641 -0.004893219 -0.2410077 -0.23158397 -0.26033166 -0.00027009414 -0.21860668
0.046804633 -0.021037601 0.033908132 -0.19031471 -0.00034003062 -0.33611387 -0.23597547 -0.02303112
-0.0136497095 0.024377555 -0.0005367143 -0.26507458 0.423492 -0.03767382 0.016965747 0.021280425
-0.061960097 -0.015365843 0.32796046 0.009566097 -0.3112055 -0.04498846 0.008846663 -0.3400069
0.025420174 0.04974629 -0.033479225 -0.28302127 0.04596778 0.11578788 0.026232423 0.027581394
0.011957116 0.4430586 -0.037380684 -0.041348375 0.037338853 0.009392264 0.036984745 -0.028226133
0.058462817 0.017898913 0.0033605741 0.018220117 -0.0053976723 0.016935807 0.09625795 -0.003954929
0.71040475 -0.20252338 -0.029886592 0.3759279 0.3163783 -0.0005254014 0.03888847 0.023421222
1.1719843 -0.21384966 -0.48339817 0.00021143623 0.027915597 -0.04754415 0.03697254 -0.19139892
0.46689412 0.030120574 -0.2943336 -0.36820364 -0.26283965 -0.014664991 -0.40287352 -0.36371893
-0.042831812 -0.020575244 0.019857397 -0.050827786 -0.3850903 0.42382365 -0.021185132 -0.3700902
0.032270424 -0.21713595 -0.018199483 0.004818679 -0.014895822 -0.26903298 -0.24642064 0.010306513
-0.27470368 0.008497719 -0.0026112557 -0.021520788 0.36735025 0.00084598217 0.3790962 -0.022709213
-0.3375664 0.0072005736 0.016502013 -0.044323094 0.02592924 0.0036766287 0.05024882 0.03147723
0.036701627 -0.009073239 -0.25483882 0.020941839 -0.27468988 -0.018247098 0.014325261 -0.41824558
-0.025880042 0.0050004846 -0.029711178 -0.1898549 -0.04960942 0.006491968 -0.26346722 0.023387296
0.060212184 -0.0033442234 -0.028401632 0.02499312 0.024620648 -0.0115523515 -0.32071856 0.0031057966
0.7378076 0.034960773 -0.0013971673 0.9130947 -0.20829311 -0.017125316 -0.2333303 0.040187616
-0.026710214 0.2522711 -0.29689237 -0.20855668 0.047441237 0.050199863 -0.359 -0.019686213
-0.031239536 -0.7030076 0.043310717 -0.026815783 0.4024608 -0.04905117 -0.37405756 -0.027653089
-0.23753294 0.012160367 -0.53533036 -0.012966139 -0.072344996 0.04212441 -0.038208887 -0.25714502
0.05357548 0.025926407 0.031762686 0.37294194 0.002447268 -0.005024747 -0.21324334 0.014517072
-0.006106986 -0.19937174 -0.21593943 0.7937218 0.102860555 -0.23799667 0.024221882 0.20700514
0.02688898 0.7170683 -0.26781043 -0.015986124 -0.026626686 -0.40706614 -0.2476571 0.01167502
-0.10052665 -0.20461701 0.004834271 0.0018123676 -0.31878537 0.28341374 -0.02687069 -0.39594722
0.0011622002 0.28819472 -0.24884215 0.043114368 -0.26177663 -0.2591816 0.0717604 -0.4391409
0.012039954 0.011969215 -1.0503714 0.018162115 0.3041515 0.029687457 -0.23944815 0.003955643
0.040302366 -0.4193613 -0.23894879 0.02186026 -0.21013664 0.029599784 -0.1994449 0.3572703
