TD3/preTrained/TD3_BipedalWalker-v3_0_crtic_1_ep600.pth (torch_old, 529774 bytes, 5 tensors)

l1.weight f4 [400, 28]
000000 6d 74 bd 3e f7 41 90 3f 99 11 51 bf 6e 81 58 c0
       0.37002888 1.1270131 -0.81667477 -3.3828998
000010 ea 70 8c 3e 89 1e d7 be 14 c7 5d bf e1 fd 1c 3d
       0.27429897 -0.42015484 -0.86631894 0.038328055
000020 a5 f5 c5 bf 59 df 89 3f e6 f1 19 bf 14 b8 78 bf
       -1.546559 1.0771285 -0.6013473 -0.9715588
000030 57 8c b0 be c8 87 14 3f 76 9f 57 bf 38 e1 5a bf
       -0.3448207 0.58019686 -0.84227693 -0.85499907
000040 5f b4 3b bf 78 a6 85 bf a2 ca 4e bf e4 a9 36 bf
       -0.733221 -1.0441427 -0.80777943 -0.7135298
000050 e4 a9 3c bf 0d e2 33 bf 01 ec 73 bf da a2 e6 be
       -0.7369673 -0.702668 -0.9528199 -0.4504612
000060 7c af 16 be e4 df 11 bf 10 b9 56 be fc bb a9 3e
       -0.1471538 -0.56982255 -0.20969033 0.33151233
000070 65 98 33 bf 18 51 8b bf 73 5b b1 c0 83 ed 64 40
       -0.7015441 -1.0884123 -5.542413 3.5769966
000080 ad 44 2c bf 8d d3 cc bd 6b 1a 09 bd c2 63 3c bc
       -0.6729229 -0.100012876 -0.03347246 -0.0114983935
000090 df 4b d7 bd 62 dd 71 3e db 3f 9f bd f7 c6 a9 be
       -0.10512518 0.23619607 -0.07775851 -0.3315961
0000a0 2d 78 a5 bd 3d c1 aa bd 75 54 62 3e a6 4d 2e 3e
       -0.08079562 -0.083376385 0.2210253 0.17021808
0000b0 83 ef 85 bd 4a 79 7d 3c 32 43 27 bd 3e eb 52 3d
       -0.06539824 0.015470812 -0.040835567 0.051493876
0000c0 db e0 d3 3d 1f 0c 6c 3e 0e 27 01 bd eb ff b0 be
       0.10345622 0.23051499 -0.031531386 -0.3457025
0000d0 f5 72 a3 bc 50 f9 c2 bb fd 36 91 3c 9a 52 df bb
       -0.019952277 -0.0059501305 0.017726416 -0.006815267
0000e0 c4 c6 c4 3f a7 60 44 40 8d 8e 35 c0 1c d0 e8 bf
       1.5373158 3.0683992 -2.8368256 -1.818851
0000f0 79 a8 0c bf bc 77 1c bd 27 41 04 bf de 91 a0 be
       -0.5494457 -0.038200125 -0.51661915 -0.31361288
000100 16 89 77 3e 41 9f cf be dc 78 5e be fb 4a c2 be
       0.24173388 -0.4055119 -0.21725792 -0.3794783
000110 b1 d2 d8 3c de 77 0a 3f f2 99 17 bf c4 93 2e bf
       0.026467653 0.5408915 -0.59219277 -0.6819422
000120 14 e8 db be ca 94 cb be 04 88 e3 be ab 41 20 bf
       -0.429505 -0.39761955 -0.4443971 -0.626002
000130 f8 81 3a bf 83 d7 03 bf 83 14 3a bf 07 19 03 bf
       -0.72854567 -0.5150072 -0.7268755 -0.51210064
000140 a3 8b 13 bf 61 8b 7c bd e8 67 c4 be f0 89 99 bd
       -0.57634944 -0.06165636 -0.38360524 -0.074970126
000150 6c cd 42 be a6 a6 18 bf 96 9a 52 bf 9b 4a d5 3e
       -0.19023675 -0.59629285 -0.8226713 0.41658482
000160 50 5a 53 3f 6d 24 03 bf 4b a0 5f bf d0 01 4a 3f
       0.8255968 -0.51227456 -0.8735396 0.78909016
000170 4b cb 17 bf f1 1e 01 bf 97 ba db be 3a 6c 88 3d
       -0.59294575 -0.5043784 -0.42915794 0.066612676
000180 7f 75 6c 3f 0d 48 41 be 72 b7 36 bf ab 0c 1c bf
       0.92366785 -0.18875141 -0.71373665 -0.6095683
000190 ea d0 15 bf 9b 01 04 bf 6c db c1 be 74 2f 87 be
       -0.585219 -0.5156495 -0.37862718 -0.2640339
0001a0 78 e3 98 be c4 5a 9e be 29 ac 32 bd 91 61 90 be
       -0.29861045 -0.30928624 -0.043621216 -0.28199437
0001b0 8c 7f be be 4e de 7a 3e 99 7e 44 3f 25 90 08 bf
       -0.37206686 0.24498865 0.7675567 -0.5334495
0001c0 90 96 28 3e c1 c6 30 3f e9 95 69 3f 68 2d d2 bf
       0.16463685 0.69053274 0.9124437 -1.6420107
0001d0 b7 d0 be 3d 31 0e 03 be 53 70 8a bf 63 bf 14 bf
       0.09317153 -0.12798382 -1.0815529 -0.5810453
0001e0 74 7f d6 bf ac c8 ee be 37 ec c7 3d 4a c8 78 bf
       -1.6757646 -0.46637475 0.09761851 -0.97180617
0001f0 a3 7e 2c be 81 b1 ab bd af 4b 3c bf 45 07 5f bf
       -0.16845183 -0.083834656 -0.73552984 -0.8712047
000200 fd 68 7a bf 24 20 83 bf 7c a7 64 bf 69 9f 8a bf
       -0.9781645 -1.0244184 -0.8931806 -1.0829898
000210 68 9a 4c bf 4b 80 83 bf dc 55 46 bf 09 a7 7c be
       -0.79923105 -1.0273527 -0.7747476 -0.24673094
000220 49 2f 35 bd a0 d3 35 3f 4c 7a 93 be e6 69 12 3f
       -0.044234548 0.7102604 -0.28804243 0.5719284
000230 40 86 ac 3e 8b ea f4 3f 79 27 bc be 1b 6e 9a 3e
       0.33696175 1.9134077 -0.36748865 0.3016213
000240 fb 4e c5 3e 5f 8b 60 3f bb fb 24 3f 07 e9 9b 3e
       0.3853682 0.87712663 0.6444661 0.30451223
000250 f9 88 84 bf 68 44 4a bf bc 9c 15 bf c9 aa 30 bf
       -1.0354301 -0.7901063 -0.5844228 -0.690106
000260 01 fd 2e 3f 99 70 1d 3f d7 d3 5d bf 7c fa 25 bf
       0.68354803 0.61499935 -0.86651367 -0.64835334
000270 77 18 1b bf a0 e9 16 bf 99 b8 1f bf 0d 0d 4e bf
       -0.60584205 -0.58950233 -0.6239105 -0.80488664
000280 6b f2 4c bf 36 ab 43 bf aa b3 4b bf 30 cf 3c bf
       -0.800574 -0.7643312 -0.7957102 -0.73753643
000290 f4 1d f0 3e 93 33 60 3f ed f7 00 3f 6a aa 84 3f
       0.46897852 0.87578696 0.50378305 1.0364506
0002a0 dc 25 ad 3f 75 6e 19 c0 42 b8 cc bf a3 44 2b 40
       1.3527179 -2.3973668 -1.5993731 2.6760643
0002b0 05 7f 56 bf dc 64 0b 3e e5 48 d6 be a9 b8 0f be
       -0.83787566 0.13612694 -0.4185249 -0.14035286
0002c0 b5 fd a2 bf 6a db 18 bf 23 29 08 bf c5 45 98 3e
       -1.2733675 -0.597098 -0.5318777 0.2974073
0002d0 4d 3f ac 3c a4 f4 dd bd 41 d1 c3 be d7 18 d4 be
       0.021026278 -0.10837677 -0.38245586 -0.414252
0002e0 fe ba fc be 99 df 5c be fd 93 79 be 85 bb 79 be
       -0.49361414 -0.2156967 -0.2437286 -0.2438794
0002f0 f3 25 77 be 3d 11 d4 be 10 53 e6 bd dd 13 b4 be
       -0.2413557 -0.41419402 -0.11246312 -0.35171404
000300 41 80 a0 3b 79 57 7a 3d 02 35 e1 be 70 12 38 3d
       0.0048981016 0.061118577 -0.43985754 0.04493946
000310 4d 4d 80 be da 2a 21 c0 8b 6b 16 40 16 a7 bf bf
       -0.25058976 -2.5182405 2.350314 -1.4972866
000320 48 65 87 bd 93 17 3c 3b d3 02 04 bc b2 db 8e 3c
       -0.06611115 0.0028700575 -0.008057314 0.017438743
000330 c4 7a c8 3d f3 68 ab bd d8 67 8b 3e 06 2f 9c bf
       0.09789041 -0.08369627 0.27227664 -1.220185
000340 b4 a9 88 be c3 15 8f bd d2 96 b8 be 9a c7 2a bf
       -0.26691973 -0.069865726 -0.36052567 -0.6671082
000350 76 ae 09 bf f5 3c e1 be ab af 45 bf 0a fd 2e bf
       -0.5378183 -0.4399182 -0.77221173 -0.68354857
000360 65 fd 46 bf f1 4e d3 be e5 a2 aa 3d 88 55 da 3e
       -0.777304 -0.41271165 0.08331851 0.4264338
000370 a3 a0 74 3d 03 08 33 3e 6c 7b 24 be 7c 55 3c be
       0.059723508 0.17483525 -0.16062707 -0.18391985
000380 19 70 fc 3e 6d 56 e5 3f d0 99 d3 be 76 1c c6 bf
       0.49304274 1.7917 -0.41328287 -1.5477436
000390 f1 a5 41 bf 8e fa 6c bf 72 0d 1e be 64 8e dd bc
       -0.7564383 -0.92569816 -0.15434816 -0.027045436
0003a0 c3 02 a6 3e 23 e1 94 be da b2 06 bf 2b 60 6e bf
       0.32423982 -0.29078016 -0.52616656 -0.9311549
0003b0 85 da a0 be 80 69 cd be 1d a8 cb be 46 4c 7b be
       -0.31416717 -0.40119553 -0.39776698 -0.24540815
0003c0 11 cb 00 bf fa 63 91 be 39 7e d4 be d8 6b 0d bf
       -0.50309855 -0.2839659 -0.4150255 -0.5524268
0003d0 7d 89 88 be d3 bc e9 be f9 f5 2e be 2d 96 21 bf
       -0.26667395 -0.45651874 -0.17086019 -0.63119775
0003e0 b2 42 b6 3f 07 67 d4 3e 8a 57 8f be a7 46 ae be
       1.4239104 0.41484854 -0.27996475 -0.34038278
0003f0 68 3f 24 3e 82 1f 15 3e 31 fa 70 3f ec 3b 54 be
       0.16039813 0.145628 0.9413176 -0.20725983

l1.bias f4 [400]
000000 6b 26 0a bf be 13 5f bf 6b 22 02 bf 8a 51 e7 3e
       -0.5396487 -0.871395 -0.5083377 0.45179397
000010 95 a4 90 3e e7 12 11 bf b9 05 9f be 7c f0 79 3f
       0.28250566 -0.5666947 -0.31059054 0.97632575
000020 3e d2 37 bf 74 15 ab be 02 72 d0 be 43 f9 5d bd
       -0.7180518 -0.33414805 -0.4071198 -0.054192793
000030 dd 15 85 be da 7b 97 be b6 1d 5d bf 6c 77 39 bf
       -0.25993243 -0.2958668 -0.8637346 -0.7244785
000040 84 ae 9e 3c fe 8b 3c bf 4e ad 25 be 5f b7 6c be
       0.019370325 -0.7365111 -0.16179392 -0.23116826
000050 03 00 82 be 16 9b 97 be 80 5a 2e bf bd 28 e3 be
       -0.25390634 -0.2961051 -0.6810684 -0.44367018
000060 fe 3c 48 bf 21 d1 93 bf 2f 7c 87 bf f4 83 20 3e
       -0.78218067 -1.1548196 -1.0584773 0.15675336
000070 dc 54 69 be f4 e4 b5 be 8b 06 e3 be 16 fd 24 bf
       -0.22786278 -0.3552624 -0.4434093 -0.6444868
000080 cd 8d 03 bf 3b 98 aa be 83 15 0b be 32 99 13 bf
       -0.51388246 -0.33319268 -0.13582425 -0.5765563
000090 37 21 77 bf 27 5c 31 bf 2a bf ca 3e 9f 38 1c 3e
       -0.96535057 -0.6928124 0.39598972 0.15255974
0000a0 a1 e6 19 3f 17 91 8e 3f 2e 40 75 bf be e2 27 bf
       0.60117537 1.1138028 -0.95801055 -0.65580356
0000b0 50 8d 97 be af 2f 67 bf ea 7b bb be f0 8e 29 bf
       -0.296 -0.90307134 -0.36617976 -0.6623373
0000c0 02 4c 15 be 0d d4 07 bf 87 de b5 be 05 ec 86 bf
       -0.14579776 -0.5305794 -0.35521337 -1.0540777
0000d0 42 bd 3d 3f 96 35 3e bd b1 ac 11 bf 84 8e 2e be
       0.7411691 -0.046437822 -0.5690413 -0.17046553
0000e0 6e 20 ab be 32 1a f0 be 4f bc c0 be 2f 7f 3f bf
       -0.3342318 -0.46894985 -0.37643668 -0.7480344
0000f0 b2 52 42 bf 67 0b 51 3e c5 3a 4c 3e bf 76 ee be
       -0.75907433 0.20414506 0.19944294 -0.4657497
000100 10 61 02 be 6a 53 c2 be f0 34 13 bf e2 fa 46 bf
       -0.12732339 -0.37954265 -0.5750265 -0.77726567
000110 f0 04 55 bf 07 cf 51 3f 23 c5 82 bf e5 7d e1 be
       -0.8321066 0.81956524 -1.0216411 -0.44041362
000120 8c 16 57 bf 75 b7 22 bf ba 21 48 bf 54 67 91 3e
       -0.8401878 -0.63561183 -0.7817646 0.28399146
000130 24 99 95 bf 18 9c dc be 8d 7c df bd c7 3c 0a bf
       -1.168736 -0.4308784 -0.10912428 -0.5399899
000140 53 a1 c5 be e9 f3 70 be 0e de 0c bf f1 8d 81 be
       -0.38599643 -0.23530544 -0.5502633 -0.25303605
000150 ac 94 8e 3e 4f fd 2c 3f 9d 3b 5b bd 06 75 5c be
       0.27847803 0.6757402 -0.05352365 -0.21529016
000160 56 84 9d be 40 a9 54 be a1 ef 52 bf 1e a6 68 bc
       -0.30765027 -0.20767689 -0.82396895 -0.014199762
000170 15 39 02 3f 96 71 6e 3f e7 ee 2b 3f 2c 22 66 be
       0.5086835 0.9314207 0.6716141 -0.22473973
000180 d4 7d 12 be f5 ea 12 be 58 ce 55 3f 9f aa e4 3d
       -0.14305812 -0.14347441 0.8351798 0.11165356
000190 c6 a0 b0 3f ed 7e 91 bf eb 95 ba be af 5d ba be
       1.3799064 -1.136686 -0.36442503 -0.363996
0001a0 22 ec 57 be fd 6b a1 bc b4 37 93 bd 63 39 df 3e
       -0.21086171 -0.019704813 -0.07188359 0.4359847
0001b0 5a b0 2d bf 96 74 65 bf c3 5f 8a 3d bb ab 0c bf
       -0.67847216 -0.8963102 0.06756546 -0.5494954
0001c0 81 a6 69 bc ca f7 35 3f 76 ae 3f be 51 dc 3b be
       -0.014260889 0.7108122 -0.18718895 -0.18345763
0001d0 38 03 66 bd 8f 91 17 be 8a 83 f3 3e 6b 22 3f 3d
       -0.056155413 -0.1480162 0.47561294 0.046663683
0001e0 17 72 b9 be 5a 35 35 be f1 22 28 be f1 4d 8d be
       -0.36219856 -0.17696133 -0.16419579 -0.27598527
0001f0 5d a7 33 bf 68 fa a1 3d f8 be 8e be 82 95 b2 be
       -0.7017725 0.07909089 -0.27880073 -0.3487969
000200 53 71 66 3f 5c 4e 50 3e 41 e8 21 bf 3d 60 23 bf
       0.9001667 0.20342392 -0.63245016 -0.6381872
000210 40 63 c7 3c 8a 91 19 bf 7b b4 dd bc 29 ef 25 bf
       0.024339318 -0.599877 -0.027063599 -0.64818054
000220 ed cd 2a bf a8 31 70 3f 2c 20 0a bf 76 f6 3e bf
       -0.6672047 0.9382577 -0.5395534 -0.7459482
000230 6b 9d 9a bf 80 bc 84 3f 7f 59 4c bf 03 70 54 bf
       -1.207929 1.0370026 -0.7982406 -0.82983416
000240 00 bf 46 bf 69 cd ef be fa 7e 15 3e 82 5a d0 be
       -0.7763519 -0.46836403 0.14599219 -0.40694052
000250 c2 0e 62 3f 0d e0 c7 be 9f 33 ee 3b 4d fe 6b 3f
       0.8830377 -0.39038125 0.0072693373 0.9218491
000260 6c a8 c3 be a4 75 2f 3f fa 18 4f be 8b 61 5d bf
       -0.38214433 0.6853888 -0.20224372 -0.86476964
000270 73 ba b5 be b5 c7 85 bf a5 42 d9 bd 26 86 1c bf
       -0.35493812 -1.0451571 -0.106084146 -0.61142194
000280 da 07 ca bd 09 35 60 be 82 ca 9d be 3b 48 11 bf
       -0.09864779 -0.21895231 -0.30818564 -0.5675084
000290 e1 a7 89 be c9 95 b4 3f 2d 56 46 be 26 e6 55 bf
       -0.26885894 1.4108211 -0.19368811 -0.83554304
0002a0 c1 d4 19 3e 45 3b 6b bf 0a f5 94 be 19 78 81 bf
       0.15022565 -0.91887313 -0.290932 -1.0114776
0002b0 3c da 1a bf 88 c8 31 bf d7 77 8b be 75 fa de 3d
       -0.6048925 -0.6944661 -0.27239868 0.10887615
0002c0 fd f7 d5 3e 84 39 23 bf aa 83 69 3d 23 66 ed be
       0.41790763 -0.63759637 0.05701033 -0.46366987
0002d0 e6 32 85 bf 81 d9 20 3f 54 9d 93 bf 4f 57 9a 3f
       -1.0406158 0.62831885 -1.1532388 1.2057894
0002e0 00 ed 6a be 42 4b 83 bd e0 a4 05 bf 45 20 9c be
       -0.22941971 -0.06410839 -0.52204704 -0.3049337
0002f0 e0 3d 19 bf 95 98 99 be 54 2d 7a bf 8e 0a 73 be
       -0.5986004 -0.29999223 -0.97725415 -0.23734495
000300 5b b0 36 bf 21 d8 b3 be d1 62 33 bf f1 ae 7e bf
       -0.7136285 -0.3512583 -0.70072657 -0.9948569
000310 13 dd 45 bf df 76 58 3e 58 65 54 3f 85 fe 07 bf
       -0.7729046 0.21139096 0.8296714 -0.5312274
000320 f9 5b 82 bf 26 4f 2f bf c5 fa 19 bf 04 3a dd 3f
       -1.0184318 -0.68480146 -0.6014827 1.728333
000330 6f 6b 5b bf e7 54 2c 3d 42 03 f4 be a8 e8 16 bf
       -0.85710806 0.042073157 -0.47658736 -0.58948755
000340 a3 8a 87 bf 30 c5 92 3d dc cb 5c be c0 f3 86 3f
       -1.0589184 0.07166517 -0.21562141 1.0543137
000350 88 29 00 be db 3b 94 be 1a c3 8e bf 8b a8 12 3d
       -0.12515843 -0.28951916 -1.115329 0.035805266
000360 88 80 11 bf 81 6b 0a bf 1a 31 07 bf fc 73 31 bf
       -0.5683675 -0.5407029 -0.528093 -0.69317603
000370 24 dd 0b bf 03 6b 00 3f b5 70 2c bf e3 04 0e bf
       -0.5463431 0.50163287 -0.6735948 -0.55476207
000380 c8 15 8c bf e3 53 74 3f 6c 79 32 bf d3 ad 49 be
       -1.0944147 0.954405 -0.69716525 -0.19695215
000390 60 3f d5 be 74 38 b1 be 29 3d 08 bf 74 01 02 bf
       -0.41649914 -0.34613383 -0.53218323 -0.5078347
0003a0 ff c0 d0 be 7d f7 68 be cf 54 7f be 6a 92 66 bf
       -0.40772244 -0.2275066 -0.24934696 -0.9006716
0003b0 da 03 5d bd 3a 7c de be d4 74 b7 be 9f 13 1e be
       -0.05395875 -0.43454152 -0.3583132 -0.15437172
0003c0 1f 58 aa be 02 09 32 3d 64 60 47 bf ca dd f7 3e
       -0.33270356 0.04346562 -0.77881455 0.484114
0003d0 0c 9d 37 bf 37 9d fd be 79 21 92 bf 9e d1 a6 bd
       -0.7172401 -0.49534008 -1.1416465 -0.0814545
0003e0 9c c2 b1 bf ea ab 30 bf cf 4b cc 3c 6c 58 5d bf
       -1.3887515 -0.6901232 0.024938492 -0.86463046
0003f0 81 e7 bb be 14 0c 80 bf 29 3a 2b bf 82 cb 99 be
       -0.3670006 -1.0003686 -0.6688562 -0.30038077

l2.weight f4 [300, 400]
000000 4e 52 29 bd 3f 51 fe 3c 72 00 33 bd f3 20 4a 3c
       -0.041338257 0.0310446 -0.043701597 0.012336957
000010 56 44 da 3b 42 54 4c bd d8 a3 64 ba 01 41 a6 bc
       0.0066609783 -0.049885042 -0.00087219244 -0.020294668
000020 df 0e c5 3c 23 24 44 3c c0 3c 78 bc e7 a8 62 bd
       0.024054943 0.011971506 -0.015151203 -0.05533686
000030 6e dd 16 3d 28 dd fa bb 0b b9 44 bd 3c 5b 5a 3d
       0.036832266 -0.0076557584 -0.048028033 0.053309664
000040 5b d8 45 bd 46 e6 89 bc 3e 5f 99 bc 10 c4 4d bb
       -0.048302036 -0.016833436 -0.018722173 -0.003139738
000050 22 9f 80 3c 70 7b bf bb 52 34 5c bd 54 8a 01 bd
       0.01570088 -0.0058435723 -0.053760834 -0.03162606
000060 c0 1b 82 bd 79 4e 2c bd 37 41 88 bc b9 eb 34 bd
       -0.06352949 -0.042067025 -0.01663266 -0.044170115
000070 11 ec 40 3d 7c eb a4 bd 90 32 c0 3b e0 57 34 bb
       0.04710013 -0.080527276 0.0058654025 -0.0027518198
000080 28 d0 82 3c 54 b1 c0 3b 6a 30 16 bd 4b 2f 2c bd
       0.015968397 0.005880514 -0.036667265 -0.04203729
000090 eb 48 fd 3b 61 04 60 bc 44 09 17 bd 5e 84 75 bd
       0.0077296398 -0.013672919 -0.03687407 -0.05994069
0000a0 61 d0 ae bc 54 2f 26 3c 96 98 ea bb 3d ca 21 3d
       -0.021339597 0.01014312 -0.007159303 0.03949951
0000b0 1c 7b 05 3c d0 b7 58 bd 97 cf 46 bd 28 ba 43 bc
       0.008147027 -0.052909672 -0.048537817 -0.011946239
0000c0 0d 7b 58 bc d7 7a e9 3c d8 98 5b 3c 2d 33 df 3c
       -0.013212931 0.028500957 0.01340314 0.027246082
0000d0 2c e0 32 bd b2 53 81 bd 97 6a 9c bd e3 1f 68 3c
       -0.04367082 -0.06314792 -0.07637518 0.014167759
0000e0 aa b5 95 3c e5 0e 4d bd d0 a9 ec 3c b4 79 16 bd
       0.0182751 -0.050063033 0.028889567 -0.03673716
0000f0 10 71 36 bc f1 61 d3 3c b4 82 30 bc 69 85 57 bd
       -0.011135355 0.025803538 -0.01077335 -0.052617464
000100 f1 86 84 bb 08 c5 1d bc 52 6c f4 3c c8 8e 90 bc
       -0.0040444066 -0.009629495 0.029836807 -0.017646208
000110 6e de 08 bd 24 94 74 bc 29 81 87 3d 06 50 41 bd
       -0.03341525 -0.014927898 0.06616432 -0.047195457
000120 36 05 4a bc 04 36 10 bd df cb 80 bc 41 95 1e bd
       -0.012330344 -0.035207763 -0.015722213 -0.03871656
000130 5c c1 4a bd b0 0d 56 bd 3f 58 4b bd 56 60 3b bc
       -0.049500808 -0.052259147 -0.049644705 -0.0114365425
000140 ef 03 20 bc 50 a8 5c 3b 56 f2 ec bc 3b a7 6a bd
       -0.009766563 0.0033669658 -0.028924149 -0.05728839
000150 7e 9c a1 3c a5 9a 4f bd a2 c1 39 bd 03 a7 44 bd
       0.019727942 -0.05068459 -0.04535068 -0.048010837
000160 08 9a 64 bd 9c 7c 2b bc 86 36 90 3c 80 da d7 3b
       -0.05581096 -0.010466721 0.017604124 0.0065873265
000170 2e bc f7 bc 51 7a 09 3d c2 b4 65 bc b0 be b5 3b
       -0.030241098 0.033563916 -0.014020147 0.0055464134
000180 a3 f4 95 bd 70 a5 d2 bb 4b f1 37 bd ce a7 8a bb
       -0.073220514 -0.006428413 -0.04490785 -0.0042314297
000190 49 bc 59 3c e7 bb 61 bc 7f 79 b2 3c 95 54 06 3d
       0.01328952 -0.01377771 0.02178645 0.032795507
0001a0 b5 da 8c bd 77 5f e3 bc f5 bf 2b bd ad ad 29 bd
       -0.068776526 -0.027755482 -0.04193111 -0.041425396
0001b0 3e 9d 11 3a 44 80 c3 bc 11 fb a7 bd b9 4e 24 bd
       0.0005554742 -0.023864873 -0.08202184 -0.04011414
0001c0 68 67 47 3c 7d 21 3d bd b1 ca 68 bd bb b0 d4 bc
       0.01217065 -0.046174515 -0.056833927 -0.025963178
0001d0 ef f1 2b bd 30 b7 3e 3c 5d dd c2 bd ba d9 37 3b
       -0.041978773 0.011640355 -0.09514878 0.002805336
0001e0 12 f1 4e bc e1 86 19 bd 20 e5 82 bd 2b 30 d9 3c
       -0.012630718 -0.037482146 -0.063913584 0.026512226
0001f0 ce 41 29 bd 4d b7 d9 bb cf 17 19 3d 01 91 87 bd
       -0.041322522 -0.0066441656 0.03737622 -0.06619454
000200 5e a8 93 bd c3 bb 7d bd 5f 1a 9b bd fb f7 06 bc
       -0.07209848 -0.06194664 -0.07573389 -0.008237834
000210 e7 09 85 3d 96 29 2d bc 6e 78 19 bd 98 2b d3 3c
       0.06496029 -0.010568997 -0.037468366 0.025777623
000220 2f 68 22 bd d4 df 1b 3c 06 b9 b5 bc 95 01 d9 3c
       -0.03965014 0.009513814 -0.022182953 0.026490012
000230 26 aa b0 bc e1 47 b3 3c 51 e1 07 bd dd c5 c2 bc
       -0.021565508 0.02188486 -0.033173863 -0.02377599
000240 7a a9 0c 3a 01 2c 5e bb f1 9e 15 3c c2 e8 38 bd
       0.000536583 -0.003390074 0.009132133 -0.04514385
000250 2e 9e ec bc 9a 41 5d bc 04 ce ca bc fd 56 ba bd
       -0.02888402 -0.01350441 -0.024756439 -0.09098623
000260 40 b3 06 bc d7 38 20 bd 01 35 4a bd 42 5c 17 3c
       -0.0082214475 -0.039116707 -0.049366955 0.009238305
000270 05 38 da 3b 3b 8f ff 3c c3 a8 c8 bc 88 70 91 bd
       0.00665951 0.031196227 -0.024494534 -0.07101542
000280 a0 6c 24 bd 5c ec 94 bc b8 27 71 bd e0 40 8c bd
       -0.040142655 -0.018179111 -0.05887577 -0.068483114
000290 72 b4 20 bd 58 9b 79 bd 30 1e 78 bd 4a d1 4b bd
       -0.039234586 -0.060939163 -0.060575664 -0.04976014
0002a0 6b bb 49 bd 56 7e 68 bd 79 3e 80 bd 0a c9 9e 3c
       -0.049251 -0.05676111 -0.06261916 0.019382972
0002b0 25 3e e3 bb 31 6a b0 3c 56 92 35 bd fc f8 b9 bb
       -0.0069348984 0.021535011 -0.04432901 -0.005675433
0002c0 01 85 c0 bc 36 c6 24 bd 78 09 95 bd c6 39 2b 3d
       -0.023500921 -0.04022809 -0.07277197 0.041803144
0002d0 ad 0b 77 bd 9e 46 23 bd d6 16 96 bc c1 0d 7c 3c
       -0.06031387 -0.039862268 -0.018321436 0.015384139
0002e0 5c f6 45 bd 0c 89 0f bd 72 6b 23 bd f7 10 4f 3c
       -0.04833065 -0.035042807 -0.03989739 0.012638322
0002f0 2e 04 f6 ba f9 47 42 bd 9d 6c 2a bd 38 8c ec 3c
       -0.0018769556 -0.04743192 -0.041607488 0.028875455
000300 4e c7 ab bc 11 73 ac bb 1b 80 e9 39 b8 fc 2b bc
       -0.02096906 -0.0052627404 0.0004453667 -0.010497265
000310 49 74 ef bb 51 6e 1e bd 3a 15 d9 bb a4 2b 49 bd
       -0.0073075634 -0.038679425 -0.006624845 -0.049113885
000320 66 36 f7 bb 87 55 a5 bc c9 40 04 bc b8 da 4a bd
       -0.0075443266 -0.020182384 -0.008072087 -0.049524993
000330 71 25 b2 bc 51 5b a2 bc 45 44 75 bc 18 e8 db 3c
       -0.02174637 -0.019818934 -0.01496989 0.02684407
000340 e0 8e 18 3d c5 f5 a3 3c 0d d4 05 3d 38 3d ba bd
       0.03724563 0.020014653 0.03267293 -0.09093708
000350 c2 ea 34 bd 20 60 36 3c 17 f8 a4 bc 5c 07 b0 3b
       -0.044169195 0.011131316 -0.02013783 0.005371971
000360 0d e2 ec bc e3 42 4c bd 96 ee 3a bd e9 73 60 bb
       -0.028916383 -0.049868476 -0.04563769 -0.0034248775
000370 ca 4a 12 bd 63 bb 44 3c ce 21 cd bb 0f 9d fa 3b
       -0.035715856 0.012007567 -0.0062601333 0.0076481174
000380 b5 34 38 3c cb ea de bc 76 2e 3c bc b1 01 14 bd
       0.011243035 -0.027211567 -0.0114856865 -0.036134426
000390 78 42 05 bd ef 85 02 bd 75 0a aa ba a2 3d ef 3c
       -0.032534093 -0.03186601 -0.0012973087 0.029204194
0003a0 8c 67 29 3d 70 28 be bc e2 45 f8 3c 69 b8 4a 3d
       0.041358516 -0.023212641 0.03030676 0.049492273
0003b0 21 52 bb 3c 3e 11 6f bc cb 07 cb bc b5 46 89 bc
       0.02286631 -0.014591513 -0.02478399 -0.016757349
0003c0 42 cd 87 bc 05 13 bb 3c 63 7b 8c bd 34 7f d1 bc
       -0.016577367 0.022836218 -0.06859472 -0.02557335
0003d0 72 1a 5c bc 1a 28 9d 3b ac 97 38 3a 2c 48 29 bc
       -0.013434039 0.0047960402 0.0007041644 -0.0103321485
0003e0 7d 9c 27 bd d6 99 72 bd a9 0f d7 3c e9 06 fa bc
       -0.040920723 -0.05922874 0.026252585 -0.030520873
0003f0 ee d5 52 bd b1 79 67 bd da 33 b0 bd 6f ff 28 bd
       -0.05147355 -0.05651254 -0.0860364 -0.041259225

l2.bias f4 [300]
000000 09 0a b6 bd da 0f 9f bd d9 ca 31 3d dc e6 68 bd
       -0.08888633 -0.07766695 0.04340634 -0.05686079
000010 2c a5 d2 bd 0c a1 d1 bd 5e 40 a3 bd e8 33 57 be
       -0.1028541 -0.102357954 -0.079712614 -0.21015894
000020 3b 1c e4 bc 09 66 61 bd de 89 62 bd b8 74 d1 3b
       -0.027845493 -0.05502895 -0.05530726 0.006392088
000030 34 cc 87 3e 3c b2 bc 3d e6 1a bf be 8d 54 4b bd
       0.26522982 0.09213683 -0.3732521 -0.04964118
000040 c6 f6 a0 bd 19 fe 2b 3c fe f2 a5 bd 34 12 a9 bb
       -0.07859568 0.010497593 -0.08102988 -0.0051596407
000050 b3 86 9e bd 89 ad 3f bd 7b 78 50 3d 65 6f 8c bd
       -0.077405356 -0.046796355 0.05089615 -0.06857184
000060 d6 ca 6e bd 5e 4c de bd 55 1c ea bb 16 09 41 bd
       -0.05829891 -0.1085441 -0.0071444907 -0.047127806
000070 e5 5d 41 3f d1 45 c5 bc 9f 12 5e 3d 63 3b 4d 3e
       0.75533897 -0.024081143 0.054216977 0.20042185
000080 aa fb e6 bd e9 82 8c bd 26 c3 b2 bd 86 f7 fe 3c
       -0.1127847 -0.06860907 -0.08728628 0.031123888
000090 d5 7b 14 3e 34 1c b0 3d 31 0c b7 bc a4 b4 aa 3d
       0.14500363 0.08599129 -0.02234468 0.08335236
0000a0 bf 0b b1 3a 07 92 af bd 71 da f9 bb be a9 a8 3d
       0.0013507529 -0.085727744 -0.007624917 0.08235501
0000b0 08 24 70 bd 2c 5e 97 3d f1 3a be 3d 47 15 6b bd
       -0.058628112 0.07391009 0.09288586 -0.05739334
0000c0 50 b1 b3 bc 72 78 da bc 82 18 97 bd 3d 60 4d 3d
       -0.021935135 -0.02666876 -0.07377721 0.050140608
0000d0 b1 e5 75 3e b7 7c 0f bd e0 ef da bc d4 2f 30 3c
       0.24013402 -0.035031047 -0.02672571 0.010753591
0000e0 24 d5 59 3d d8 1b aa bd a4 25 7a 3d 89 e2 8b bd
       0.053181782 -0.08306092 0.061071053 -0.068303175
0000f0 57 4f 19 3f c5 02 3c bd 05 c3 b6 bd 95 2d 33 3f
       0.5988669 -0.04590108 -0.08923916 0.6999143
000100 11 3f 4e bd d2 c2 89 bd 8a d9 64 bd 75 7e 48 3d
       -0.050353114 -0.06726612 -0.055871524 0.048948724
000110 ee f3 c7 bd 3a 05 a2 bf be b3 c4 bc 97 f3 82 bc
       -0.09763323 -1.2657845 -0.024011489 -0.015985293
000120 0d af 87 bd 0d c2 1e c0 8f 41 3b be f9 45 90 bd
       -0.06625185 -2.480594 -0.18286727 -0.07044596
000130 b2 a7 19 be 2d a3 49 3c dd 43 a2 bd e7 78 82 bd
       -0.15005377 0.012306971 -0.079231 -0.063707165
000140 96 98 29 bd 4d 9d 7f bd 69 7f a9 bd 32 ae a2 bd
       -0.041405283 -0.062405873 -0.08276255 -0.07943381
000150 f5 bf 45 bd bd 00 92 bd dc 4a 6d bd 09 86 04 bd
       -0.048278768 -0.07129047 -0.05793272 -0.03235439
000160 9f 21 ff bf 5a 83 93 3d 2a d6 99 bd 11 d0 58 3e
       -1.9932135 0.07202788 -0.07511552 0.21173121
000170 8b dc aa bf 99 10 94 bd cb 30 ab bd 99 05 b9 bc
       -1.3348554 -0.07229728 -0.08358916 -0.022585677
000180 7c 23 b6 be c5 d6 bb 3d da 19 9d 3d 8a 59 b9 bd
       -0.35573947 0.091718234 0.076709464 -0.09050281
000190 e2 82 6e bc b3 22 1b bc 6a ca 47 bd 60 88 4e 3c
       -0.014557572 -0.009468722 -0.04877702 0.0126057565
0001a0 45 e8 8d 3e 30 2b 99 bd 25 7a e3 3d 96 ae a2 3e
       0.2771627 -0.074789405 0.111072816 0.31773823
0001b0 34 3a a9 3d fb 84 bb bd 5d 6f 3d 3f f7 92 3c 3f
       0.082630545 -0.091562234 0.7399805 0.7366175
0001c0 9e 46 75 bd 46 c3 8e bd 3d cb c4 bd 0f 7c d4 bd
       -0.0598818 -0.06970839 -0.09609077 -0.10375225
0001d0 9c 2b ed bc 9e 9d c8 bf 64 28 8c bd 37 2b 13 3d
       -0.028951459 -1.5673101 -0.068436414 0.035929885
0001e0 99 a1 30 bd 8d ac 84 3d 93 c5 58 bc 09 1f 82 bd
       -0.04312286 0.06478224 -0.013230699 -0.06353576
0001f0 b3 31 d5 bd 35 69 3c 3d 28 82 0b 3d bb 79 ad bd
       -0.1040987 0.04599877 0.034059674 -0.08470484
000200 67 2c f5 3c 60 a4 22 bd bf 50 cb bd 3e fc 3f bc
       0.0299284 -0.03970754 -0.099275105 -0.011717854
000210 a8 8f 75 3e 61 a2 e7 bc d2 1d 9b 3e 95 7f fc bd
       0.23980582 -0.02827567 0.3029619 -0.12329022
000220 fb 6d 12 3f d0 1f 82 bd 99 9c 2d bd 6d f7 d0 bc
       0.57199067 -0.06353724 -0.04238567 -0.025508607
000230 2f 8e 51 bd 18 77 9e bd 30 cd 94 bd 99 c1 a6 bc
       -0.051160987 -0.07737559 -0.07265699 -0.020355986
000240 15 9e 0f 3c e6 da 04 be c8 7c 28 3d 51 a3 1c bd
       0.008765717 -0.12974128 0.041134626 -0.03824169
000250 f1 99 51 bb 2b ab 0d bd 0d 3a 9c bd fb cb 43 3f
       -0.0031982625 -0.034587067 -0.0762826 0.76483124
000260 bf c9 aa bd cc 95 36 bd ea 1a 11 bc 8d ac a5 3d
       -0.08339261 -0.04457645 -0.0088565145 0.08089552
000270 6c a0 8b bd 4a bc 4b bd 2b 31 62 3d 5d e5 83 bd
       -0.068177074 -0.049740113 0.05522267 -0.06440232
000280 58 37 eb bd a0 82 a1 bd 96 8e 29 3c c7 ad 77 bd
       -0.11485165 -0.07886243 0.010348937 -0.06046846
000290 78 97 0e be 6b 73 93 bd 70 43 85 3e c5 1a 6c bd
       -0.13924968 -0.071997486 0.26028013 -0.057642717
0002a0 19 85 06 c0 18 69 d0 bc cd 95 1f bc 21 01 0a bf
       -2.1018736 -0.025440738 -0.009740305 -0.5390797
0002b0 62 cd 26 3d 2e b1 d0 bd 6e 54 93 3d 06 90 51 bd
       0.040723212 -0.10190044 0.07193838 -0.051162742
0002c0 a0 29 83 bd 99 33 f8 be 82 d0 6d 3d 25 e2 ae 3d
       -0.06404424 -0.48476866 0.058060177 0.085392274
0002d0 d5 17 ae bd 58 4d 9d bd 57 65 36 3d 3b 30 2f bd
       -0.08500639 -0.07680768 0.04453024 -0.042770606
0002e0 5d e9 24 bd 20 86 05 40 d5 1b 27 bd b2 07 a6 bc
       -0.040261615 2.0863113 -0.040798027 -0.020267341
0002f0 7a c2 77 3e 7b c6 12 be 0c 38 43 bd e9 86 9b bd
       0.2419528 -0.14333527 -0.047660872 -0.075940914
000300 a9 ab de 3d d7 50 99 bd 23 b1 7b bd eb f4 03 bd
       0.10872585 -0.07486122 -0.061448228 -0.032215994
000310 de 49 82 3d 60 28 16 bd 0e 8d ee bc f7 ed 14 3d
       0.06361745 -0.0366596 -0.029119994 0.036359753
000320 21 f0 e0 bd 17 37 9f bd d1 81 c7 3a 48 8e 66 3e
       -0.10983301 -0.077741794 0.0015221183 0.22515213
000330 06 81 c9 bd 8e c2 08 bc 9a 61 9a 3d bb 12 ad bd
       -0.098390624 -0.008347167 0.07538147 -0.08450838
000340 82 0e 5d bd 86 eb 84 bd 2a b4 7e 3d a4 b4 05 c0
       -0.053968914 -0.06490235 0.062183537 -2.0891504
000350 f4 1f 32 bd 0e d7 50 3d 52 b7 8a bd 2e 91 a1 3e
       -0.043487504 0.050986342 -0.06773247 0.31556076
000360 ce eb f0 bc 15 7c 20 c0 8a e8 7e 3d 97 94 12 bd
       -0.029409315 -2.5075734 0.062233485 -0.035786238
000370 ab 19 8b bd 05 40 3a 3f 2d 4f 08 3d 47 8a 91 bd
       -0.06792005 0.72753936 0.033278633 -0.071064524
000380 66 b1 99 bc 70 bd d1 3c ee 9e e8 bc bb 6d 82 bd
       -0.018761348 0.025603026 -0.028396096 -0.06368586
000390 a5 6c f6 3c da 94 78 be 27 71 ae bd a0 5c 40 3f
       0.030081103 -0.24275532 -0.08517676 0.75141335
0003a0 c4 37 a5 bd f7 20 be 3d e9 c0 50 3d dc cd af bd
       -0.08067277 0.09283631 0.050965223 -0.085841864
0003b0 8b ef f1 3c 5b 6a 55 3e ac b3 51 bd 6e 86 4d 3f
       0.029533168 0.20841353 -0.05119674 0.8028325
0003c0 4b 4c 6a bd 10 04 11 bd 6a 14 16 40 1c 0d 89 bd
       -0.057201665 -0.035404265 2.344996 -0.066919535
0003d0 ad ec e8 3d a9 6b 2e be cc 14 b1 3d 12 ed 82 bd
       0.11373267 -0.17033257 0.08646545 -0.06392874
0003e0 eb 7c 47 bd aa 35 49 3f 70 d5 c3 3d b6 18 83 bc
       -0.048703115 0.7859751 0.09562194 -0.016002994
0003f0 15 4f 6e 3c 06 e1 d6 bb 0d e5 87 3d e6 85 48 3e
       0.014545222 -0.0065575866 0.06635485 0.19582328

l3.weight f4 [1, 300]
000000 b1 01 73 3c 5c 37 7f bc 52 87 70 be 55 34 78 3c
       0.014831946 -0.015577164 -0.2348912 0.015149196
000010 48 01 eb 3c 93 bd ff 3c 69 b8 81 3b f3 88 b4 3e
       0.028687134 0.031218326 0.003958751 0.35260734
000020 e3 75 c7 3b 1c 17 6d 3b c2 1f c0 bc 7b 5e a4 3b
       0.0060870512 0.0036177104 -0.023452643 0.0050161458
000030 f5 69 2a 3e 68 ee 8b be 90 93 cf be db f3 df bc
       0.16641982 -0.27330327 -0.4054227 -0.027337959
000040 5b f1 2b bc d8 ce 5e 3c c8 18 df 3c 61 46 f1 bd
       -0.010494555 0.01359912 0.027233496 -0.11781002
000050 90 a4 ef 3b ab 1a d4 3b 7e b0 66 be 5f 65 71 bc
       0.0073133186 0.0064729056 -0.22528264 -0.014733641
000060 1f d8 c1 b8 17 cc 9a bc 21 df 18 3d f4 92 f6 3c
       -9.243213e-05 -0.018896146 0.037322167 0.03009937
000070 c2 4c 1e be 3c fa ca 3b bc 62 73 be 92 11 4f bf
       -0.15458968 0.006194381 -0.23768133 -0.80886185
000080 89 7a 88 bc 33 5c 2b bc 4c 57 a0 bb b9 ca 76 be
       -0.016659992 -0.010458994 -0.004893219 -0.2410077
000090 59 24 6d be 31 4a 85 be 6c 9b 8d b9 6e da 5f be
       -0.23158397 -0.26033166 -0.00027009414 -0.21860668
0000a0 37 b6 3f 3d 3f 85 dd bb 7c 72 f1 3b dc e1 42 be
       0.046804633 -0.006760269 0.007368384 -0.19031471
0000b0 23 46 b2 b9 1e 17 ac be 8e a3 71 be 6e 7f 0e 3c
       -0.00034003062 -0.33611387 -0.23597547 0.008697374
0000c0 08 a3 5f bc 70 b3 c7 3c 8b d6 34 bc db b7 87 be
       -0.0136497095 0.024377555 -0.011037479 -0.26507458
0000d0 f8 5c 21 3e dd 4f 1a bd c0 fb 8a 3c 4d d9 db bb
       0.15758121 -0.03767382 0.016965747 -0.006709254
0000e0 df c9 7d bd aa 4a b1 3c c7 c8 b6 be f9 fc c1 bc
       -0.061960097 0.021642048 -0.35700056 -0.023680197
0000f0 33 e6 88 bf 0d f1 86 bc d7 56 a1 bc 77 db ce bd
       -1.0695251 -0.016472364 -0.019694729 -0.10100453
000100 e3 06 01 bd 81 36 68 bc 76 3c 3c bd 2a e8 90 be
       -0.03150071 -0.014173151 -0.045956098 -0.28302127
000110 b6 48 3c 3d 85 c2 c6 3e b8 d1 b0 3c dd 3a ea bb
       0.04596778 0.38820282 0.021584377 -0.0071481303
000120 41 3b a2 bc f2 2e ec 3e 87 e1 84 bf de d4 5b bc
       -0.019803645 0.46129566 -1.0381325 -0.013417451
000130 65 bb 11 bf 03 e2 19 3c 51 7d 17 3d 7e 3a e7 bc
       -0.56926566 0.009392264 0.036984745 -0.028226133
000140 60 c5 da 3c be a0 92 3c 14 3d 5c 3b 5b 42 95 3c
       0.026705444 0.017898913 0.0033605741 0.018220117
000150 f5 de b0 bb b0 85 db 3c e3 22 c5 3d f1 44 c4 3c
       -0.0053976723 0.026797146 0.09625795 0.023958655
000160 8a 14 79 3f 4a 62 4f be ba d4 f4 bc 49 9c b2 3d
       0.97296965 -0.20252338 -0.029886592 0.08721215
000170 21 02 29 3f 9d 71 8c 3c 84 49 1f 3d de 14 08 bc
       0.66018873 0.017144019 0.03888847 -0.008305756
000180 b2 2f 12 40 68 fb 5a be dd 9c 4b bf 68 ba 5d 39
       2.284161 -0.21384966 -0.7953623 0.00021145644
000190 40 af e4 3c a8 bd 42 bd 85 70 17 3d 69 78 23 be
       0.027915597 -0.04754415 0.03697254 -0.15963902
0001a0 3e fa 9f 3f 86 cc a1 3c e5 b2 96 be 7a ef 2e bf
       1.2498243 0.019750845 -0.2943336 -0.6833416
0001b0 eb 92 86 be e7 06 8c 3c 25 bb 3e be 51 f7 18 be
       -0.26283965 0.017093135 -0.18626077 -0.14938094
0001c0 44 9c 38 bc 6a 8d a8 bc 66 88 d3 3a 4d 71 79 be
       -0.011267725 -0.020575244 0.0016138672 -0.24359627
0001d0 f1 de 7a bd 32 e1 3f 3e 71 8c ad bc 3f 0f 28 be
       -0.06124777 0.18738249 -0.021185132 -0.16412066
0001e0 fe 2d 04 3d e3 58 5e be 15 17 95 bc 2e 0b b4 3a
       0.032270424 -0.21713595 -0.018199483 0.0013736242
0001f0 2e 05 71 3c b1 be 89 be b1 55 7c be a6 dc 28 3c
       0.014710708 -0.26903298 -0.24642064 0.010306513
000200 55 40 58 be c7 2b b9 bc 32 e4 ad bc 8c 40 27 3c
       -0.2111829 -0.022603882 -0.021226976 0.01020826
000210 cc de 92 3e 7d a7 b2 3c 77 d6 66 3e d6 c7 7f 3c
       0.28685606 0.02180838 0.2254275 0.015611609
000220 a4 3e 8b bd ca f2 eb 3b 3b 2f 87 3c 2d df 4d bc
       -0.06799057 0.0072005736 0.016502013 -0.012565416
000230 8f 69 d4 3c 08 2e 35 3d ef f5 fd 3c 8a 8b 13 3b
       0.02592924 0.044233352 0.03100106 0.0022513592
000240 72 59 b0 3b 76 54 c4 bc 3c 7a 82 be ee c6 d1 bb
       0.0053817565 -0.023966055 -0.25483882 -0.006401888
000250 27 a4 8c be f0 7a 95 bc 38 5d 8e bc 8b 18 56 be
       -0.27468988 -0.018247098 -0.017378435 -0.209078
000260 87 65 b1 3b 8a 54 fb 3c fc 0a ea 3a 53 69 42 be
       0.0054137143 0.03067996 0.0017856057 -0.1898549
000270 b3 00 97 bc 5a ee ce bc 53 3f 2c be 9a 07 09 bc
       -0.01843295 -0.02526014 -0.16821031 -0.008363629
000280 6b 37 e9 3c b3 99 be ba 8f a1 7c be a1 38 5e bb
       0.028468808 -0.0014541656 -0.24671005 -0.0033908265
000290 1a 35 85 bc 13 46 3d bc 8b 48 90 be 9f 8a 4b 3b
       -0.016260672 -0.0115523515 -0.28180346 0.0031057966
0002a0 02 b3 2e 3f c1 2f d4 bc dd 57 a2 bc ad c6 b4 3f
       0.68241894 -0.025901677 -0.019817287 1.4123131
0002b0 ca 4a 55 be 1b 79 f4 bc 23 ee 6e be 03 f8 e4 3c
       -0.20829311 -0.029842904 -0.2333303 0.027950292
0002c0 61 cf da bc ee cf 20 3e 09 61 a4 be e2 8f 55 be
       -0.026710214 0.15704319 -0.32105282 -0.20855668
0002d0 63 8b e9 bb 5f 9e 4d 3d 73 06 87 be e0 c9 36 bc
       -0.007127212 0.050199863 -0.26372108 -0.011156529
0002e0 0e ea ff bc 07 72 de bf 36 53 44 3c c6 ac db bc
       -0.031239536 -1.7378548 0.01198273 -0.026815783
0002f0 3a ec 6c 3e db aa 41 bb 2d c0 5b bf 9f 68 86 3b
       0.23136988 -0.00295513 -0.8584011 0.0041018273
000300 d6 3b 73 be 2a 52 7d bc 62 e6 f8 be 6d 4d 93 3b
       -0.23753294 -0.015461484 -0.48613268 0.004495314
000310 9d 29 94 bd 41 79 4b 3c ec 80 1c bd 83 a8 83 be
       -0.072344996 0.012419046 -0.038208887 -0.25714502
000320 b3 ae b2 3c 77 90 f6 3c b6 a2 44 39 26 e0 58 3e
       0.021811819 0.030098183 0.00018752631 0.21179256
000330 6b 2c aa bc a2 a6 a4 bb 76 5c 5a be 03 d9 6d 3c
       -0.020773133 -0.005024747 -0.21324334 0.014517072
000340 2c 59 3e bb c7 a5 2b be 3a 1f 5d be d5 81 81 3f
       -0.002904485 -0.16762458 -0.21593943 1.0117747
000350 5a bc 91 3d 66 b5 73 be f8 6c c6 3c 11 28 81 3e
       0.07116003 -0.23799667 0.024221882 0.2522588
000360 e3 5a fc 3a 93 fb f4 3e 73 1e 89 be b5 a9 80 3c
       0.001925316 0.47848186 -0.26781043 0.015705923
000370 0e d4 87 3b 70 1c 33 be d3 99 7d be cf 8a ae 3c
       0.004145152 -0.17491317 -0.2476571 0.021306423
000380 eb e0 cd bd 1f 87 51 be d5 dd de ba 25 15 f5 bc
       -0.10052665 -0.20461701 -0.0017003367 -0.029917309
000390 d9 dc 64 be 36 33 40 3e ec 1f dc bc 7a f6 3d be
       -0.22349872 0.18769535 -0.02687069 -0.18551055
0003a0 f8 54 98 3a 7e d6 55 3e 7a d0 7e be be b6 94 3c
       0.0011622002 0.20882604 -0.24884215 0.018153545
0003b0 96 07 86 be 06 be 0c bf 5e ba 5b 3d b7 ec 70 be
       -0.26177663 -0.5497745 0.05364453 -0.235278
0003c0 3a 43 45 3c 87 1a 44 3c 95 6b ee bf 87 db 5d bc
       0.012039954 0.011969215 -1.8626581 -0.013541109
0003d0 1e 41 82 3d da 0d 61 39 e5 31 75 be 4f d3 aa bc
       0.06360076 0.00021462832 -0.23944815 -0.020852713
0003e0 c5 8b 0c 3c b0 2f 61 be fe ae 74 be 7c 9c d0 bb
       0.0085782455 -0.21990848 -0.23894879 -0.0063663106
0003f0 0f 2e 57 be 3f 7b f2 3c 49 3b 4c be fe f1 f8 3d
       -0.21013664 0.029599784 -0.1994449 0.12155531
