TD3/preTrained/TD3_BipedalWalker-v3_0_critic_1_target_ep300.pth (torch_old, 529768 bytes, 5 tensors)

l1.weight f4 [400, 28]
0	0x3e2c5b9e	0.16831824
1	0x3f9aabaa	1.2083638
2	0xbeee0274	-0.46486247
3	0xc0194fb2	-2.3954892
4	0x3eb317dc	0.3497914
5	0xbe9aa17c	-0.30201328
6	0xbedb12be	-0.42787737
7	0xbdeb283c	-0.114822835
8	0xbf54fadc	-0.8319528
9	0x3ec7fb84	0.3905908
10	0xbec147dd	-0.3775014
11	0xbf08c6ed	-0.53428537
12	0x3d868597	0.06568449
13	0x3eed7fed	0.46386662
14	0xbebef330	-0.37294912
15	0xbec7b5b9	-0.3900583
16	0xbe8ccd3b	-0.27500328
17	0xbf182c24	-0.59442353
18	0xbebc2a4f	-0.3675103
19	0xbe9165a3	-0.28397855
20	0xbea35d35	-0.3190705
21	0xbe997025	-0.29968372
22	0xbf102549	-0.5630689
23	0xbe4ea813	-0.20181303
24	0xbe141335	-0.14460452
25	0x3dd00b8c	0.101584524
26	0xbef3c4ef	-0.47611186
27	0x3ea50e0c	0.3223728
28	0xbf03be2e	-0.51462066
29	0x3f16f17c	0.58962226
30	0xc0330bd5	-2.7975972
31	0x3fed4193	1.8535637
32	0xbe16dd38	-0.14732826
33	0x3deebcff	0.11657142
34	0xbbe25d38	-0.006908085
35	0x3d07b841	0.033134703
36	0xbe2841de	-0.16431376
37	0x3e7b374f	0.24532817
38	0xbd8fdd4a	-0.070246294
39	0xbef2f2cf	-0.47450873
40	0xbd65ab3f	-0.056071516
41	0x3b88d035	0.004175211
42	0x3e051a62	0.12998345
43	0x3daf6091	0.085633405
44	0xbe0d5573	-0.13802128
45	0xbd198e81	-0.037489418
46	0xbdb61b06	-0.08891873
47	0xbc5c6d32	-0.013453769
48	0xbccf4069	-0.025299268
49	0x3ccc4954	0.02493731
50	0xbd7896b0	-0.06069058
51	0xb9963e7c	-0.00028656784
52	0x3d1c2530	0.038121402
53	0x3cb175f0	0.021662682
54	0x3d171040	0.03688073
55	0x3d9b1343	0.07572033
56	0x3f9c3e25	1.2206465
57	0x3f78add0	0.97140217
58	0xbfd6a71d	-1.6769749
59	0xbf44580a	-0.76696837
60	0xbee35d00	-0.4440689
61	0xbdb28e52	-0.08718552
62	0xbe39937a	-0.18122664
63	0xbe2b5708	-0.16732419
64	0xbccefea5	-0.025267908
65	0xbe99d90c	-0.30048406
66	0x3e18e6f9	0.14931859
67	0xbe8d7857	-0.27630875
68	0xbda291b7	-0.07937949
69	0x3e4a4625	0.1975332
70	0xbedb74e7	-0.42862627
71	0xbf049cb2	-0.518016
72	0xbe87cd96	-0.26524037
73	0xbe6e874e	-0.23293802
74	0xbe8e86e2	-0.27837282
75	0xbeea803e	-0.45800966
76	0xbf0f2c9f	-0.5592746
77	0xbeb04778	-0.34429526
78	0xbf06f0a5	-0.52710944
79	0xbe9744fa	-0.29544812
80	0xbe1a1365	-0.15046461
81	0xbc067df3	-0.00820874
82	0xbda3c568	-0.07996637
83	0x3ba082e0	0.004898414
84	0xbe744320	-0.23853731
85	0x3e966d2e	0.29380172
86	0xbe58ff43	-0.21191125
87	0xbe73f8cf	-0.23825382
88	0x3f0a0c5f	0.53925127
89	0xbf4262db	-0.7593209
90	0xbea13b6f	-0.31490657
91	0x3f23aa33	0.6393158
92	0x3ced3279	0.028954731
93	0xbec6d4c6	-0.38834208
94	0x3e067d34	0.13133699
95	0xbbc4ebb7	-0.0060095447
96	0x3f325be6	0.69671476
97	0xbe65667e	-0.22402379
98	0xbeb1c62e	-0.34721512
99	0xbe8b39ea	-0.27192622
100	0xbe94edcf	-0.29087684
101	0xbe8ad5db	-0.27116284
102	0xbe33d215	-0.17560609
103	0xbe15c90e	-0.14627478
104	0xbe8084bf	-0.25101277
105	0xbe891ce9	-0.2677987
106	0xbdddc794	-0.10829082
107	0xbeb25a7a	-0.34834653
108	0x3ca476b5	0.020076135
109	0x3ec04160	0.37549877
110	0x3eb4ef7a	0.35338956
111	0xbe9f09df	-0.3106222
112	0xbdc80d67	-0.09768181
113	0x3d8c14f1	0.06839932
114	0x3f73c8f0	0.9522848
115	0xbf9a28f5	-1.2043749
116	0xbd85a417	-0.06525438
117	0x3e22e94c	0.15909308
118	0xbee36c7f	-0.44418713
119	0xbf397740	-0.72447586
120	0xbfa93b22	-1.3221171
121	0xbec768ab	-0.38947043
122	0x3ed1ec79	0.41000727
123	0xbf34c936	-0.70619524
124	0xbecd9542	-0.40152937
125	0x3cb3afe3	0.021934455
126	0xbf07914b	-0.52956074
127	0xbf2a4de9	-0.6652513
128	0xbf460d1a	-0.7736374
129	0xbf51a67d	-0.81894666
130	0xbf2ef205	-0.6833804
131	0xbf5e48ab	-0.8682963
132	0xbf14f494	-0.58185697
133	0xbf50d18c	-0.81569743
134	0xbf103cc1	-0.56342703
135	0xbde3ebeb	-0.11128982
136	0x3e1bb414	0.15205413
137	0x3dc58932	0.096453086
138	0xbd1c643f	-0.03818154
139	0xbda0d384	-0.078528434
140	0x3e978d4b	0.29599985
141	0x4012db94	2.294652
142	0x3f783558	0.96956396
143	0x3eaca7c9	0.3372176
144	0x3efd3111	0.49451497
145	0x3f3773b7	0.7166094
146	0x3eacbf88	0.33739877
147	0x3e468d2b	0.19389789
148	0xbf39c3e7	-0.7256455
149	0xbe4a0f41	-0.19732381
150	0xbeba33ba	-0.3636759
151	0x3f16102d	0.5861843
152	0xbd024c98	-0.031811327
153	0xbb8a2fba	-0.004217115
154	0xbf097d4b	-0.53706807
155	0xbea3115d	-0.31849185
156	0xbe8d3d13	-0.27585658
157	0xbe84fb46	-0.25972956
158	0xbe96bc69	-0.2944062
159	0xbef3b74d	-0.47600785
160	0xbef162a0	-0.47145557
161	0xbedeb269	-0.4349549
162	0xbf00489a	-0.5011078
163	0xbf041170	-0.5158911
164	0x3e94e323	0.29079542
165	0x3ee64124	0.44971573
166	0xbe910e6c	-0.28331316
167	0x3de503e1	0.111823805
168	0x3f0cafb5	0.5495561
169	0xbfe04289	-1.7520305
170	0xbdbcb4f3	-0.09214201
171	0x3f8ab716	1.0837123
172	0xbf26163c	-0.64877677
173	0x3dfc0520	0.12305665
174	0x3eed0e44	0.46299946
175	0x3e3f4ecb	0.18682401
176	0xbe9daf7b	-0.30797943
177	0xbe4d30a6	-0.20038089
178	0x3d9ba866	0.07600479
179	0xbea6aaa8	-0.32552075
180	0x3e592d13	0.212086
181	0x3d91f2e7	0.07126408
182	0xbe28e927	-0.1649519
183	0xbe49d9aa	-0.19711939
184	0xbe8ec296	-0.27882832
185	0x3a144ea4	0.00056574703
186	0xbcd10a3f	-0.025517581
187	0xbcdaee48	-0.02672495
188	0xbce64631	-0.028109642
189	0xbe55a81b	-0.20864908
190	0xbdc6d9aa	-0.09709485
191	0xbe979c62	-0.29611498
192	0x3d97f2da	0.07419367
193	0xbe4cdcb4	-0.20006067
194	0xbe2406ad	-0.16018172
195	0xbb5dd7ce	-0.0033850553
196	0xbeafe1a4	-0.34351838
197	0xc02ccc68	-2.699976
198	0x3feb8630	1.8400326
199	0xbf86e4c2	-1.0538561
200	0xbecd30e1	-0.40076354
201	0x3c671735	0.014104654
202	0xbd46a539	-0.048497412
203	0x3e3a2782	0.18179134
204	0xbd6c3323	-0.057665955
205	0x3ca41968	0.020031646
206	0x3eb9c4e5	0.3628303
207	0xbee3680e	-0.44415325
208	0xbe1aa98b	-0.15103738
209	0x3dcf62ba	0.101262525
210	0xbd6457cc	-0.055747792
211	0xbe9fc899	-0.3120773
212	0xbe15e95f	-0.14639805
213	0xbc5c049e	-0.013428835
214	0xbe9d8f40	-0.30773354
215	0xbe64f0f9	-0.22357549
216	0xbe9dfceb	-0.30857024
217	0x3d3b8e6c	0.04579012
218	0x3e257802	0.1615906
219	0x3d4ad097	0.049515333
220	0x3de63e84	0.11242393
221	0x3e5a2924	0.21304756
222	0xbddcfa15	-0.10789887
223	0xbe6ff949	-0.23434938
224	0x3cc65273	0.024209237
225	0xbf0937e7	-0.53600925
226	0x3ed59b13	0.41719875
227	0xbf787f96	-0.9706968
228	0xbec58460	-0.38577557
229	0x3ed7a969	0.42121437
230	0x3de97a8d	0.11400328
231	0x3ec4937e	0.38393778
232	0xbd3bbcb2	-0.04583425
233	0xbe3164ca	-0.17323604
234	0xbf109ae0	-0.5648632
235	0xbe396ea2	-0.1810861
236	0x3e52bd5b	0.20580046
237	0x3be67434	0.0070328955
238	0xbe6c229d	-0.23060079
239	0xbda98cab	-0.082787834
240	0xbeb1a2ff	-0.3469467
241	0xbe08ba90	-0.13352418
242	0xbe8d2e1b	-0.27574238
243	0xbedaeb40	-0.42757607
244	0xbe1eba97	-0.15500866
245	0xbeb907c0	-0.36138725
246	0xbdb55474	-0.08853999
247	0xbe42d280	-0.19025612
248	0x3f46133f	0.7737312
249	0x3e9be2e9	0.30446556
250	0xbee78fbf	-0.45226857
251	0xbda79748	-0.081831515
252	0x3e244016	0.16040072
253	0x3e152035	0.14563067
254	0x3f70fa4b	0.94131917
255	0xbe543c79	-0.20726193

l1.bias f4 [400]
0	0xbe47a267	-0.19495545
1	0xbeec86b2	-0.46196514
2	0xbe8a07c6	-0.26959056
3	0x3ea6060c	0.32426488
4	0x3e519dba	0.20470324
5	0xbe84607d	-0.25854865
6	0xbe668c4b	-0.22514455
7	0x3efd0c32	0.49423367
8	0xbe64c5f9	-0.22341146
9	0xbeab154f	-0.33414695
10	0xbd40fa77	-0.047113862
11	0x3d34d61a	0.044149496
12	0xbd22de57	-0.03976282
13	0xbe977b56	-0.29586285
14	0xbef9e8e8	-0.48810506
15	0xbe462649	-0.19350542
16	0x3b877ab3	0.0041345
17	0xbda81a11	-0.08208097
18	0xbbc2cf15	-0.0059450963
19	0x3e496994	0.19669181
20	0xbe7f92a7	-0.24958287
21	0xbe96fe2c	-0.29490793
22	0xbd76cbc5	-0.060252924
23	0xbe8139e1	-0.2523947
24	0xbe8b8065	-0.27246395
25	0xbf289dd2	-0.65865815
26	0xbef2ef6d	-0.47448292
27	0x3e8ed906	0.2789995
28	0xbe69547b	-0.22786133
29	0x3cf37e98	0.02972345
30	0xbd9f6d36	-0.07784502
31	0xbee74ec3	-0.45177278
32	0xbe997443	-0.29971513
33	0x3cd42fce	0.025901701
34	0xbec55855	-0.38543954
35	0xbe8908cd	-0.26764527
36	0xbf229113	-0.63502616
37	0xbed82702	-0.4221726
38	0x3ed1ce08	0.40977502
39	0x3eb377ce	0.3505234
40	0x3ebead49	0.3724158
41	0x3f13f439	0.5779453
42	0xbeb2f5f0	-0.3495326
43	0xbefbc3b0	-0.49172735
44	0x3df632de	0.12021421
45	0xbeccc93f	-0.3999729
46	0xbebadf4c	-0.36498487
47	0xbee2cce7	-0.44296953
48	0xbdd50610	-0.10401547
49	0xbe54d4b9	-0.20784272
50	0xbe589fef	-0.2115476
51	0xbf16ec8f	-0.5895471
52	0x3eee30a4	0.46521485
53	0x3e693d0b	0.22777192
54	0xbee35c6c	-0.4440645
55	0xbafc7f34	-0.0019263984
56	0xbeb8616a	-0.3601182
57	0xbea80bf9	-0.32821634
58	0xbdf9cf3f	-0.12197732
59	0xbe2a3ed5	-0.16625531
60	0xbe9f59fe	-0.31123346
61	0x3ece5db6	0.4030587
62	0x3f0e3a72	0.5555793
63	0xbd7ea387	-0.06216767
64	0xbe0cba35	-0.13742907
65	0xbc018b9b	-0.00790682
66	0xbe09ac53	-0.13444643
67	0xbeb7f63f	-0.35930058
68	0xbea4e457	-0.3220546
69	0x3f07469b	0.5284211
70	0xbf39c7fa	-0.72570765
71	0xbe72ba02	-0.23703769
72	0xbd83b8df	-0.06431746
73	0xbdc6f2b7	-0.09714263
74	0xbeac8568	-0.3369553
75	0x3e556253	0.20838289
76	0xbf0776e1	-0.5291577
77	0xbe0e83ea	-0.13917509
78	0xbd9e6e3e	-0.07735871
79	0xbe8d9db1	-0.27659371
80	0xbd65bd18	-0.056088537
81	0xbe70f344	-0.23530298
82	0x3d87c398	0.066291034
83	0xbe69fc04	-0.22850043
84	0x3e92d864	0.28680718
85	0x3f01f865	0.50769645
86	0x3ccadbb0	0.024762958
87	0xbe5c7462	-0.21528772
88	0xbe43711e	-0.1908612
89	0xbba6c49e	-0.0050893566
90	0xbe96ac4b	-0.29428324
91	0x3e13b5e9	0.14424862
92	0x3f28cfeb	0.6594226
93	0x3ed6e8a2	0.4197436
94	0x3e908a22	0.28230387
95	0xbe19b691	-0.1501105
96	0x3e28ab0b	0.16471498
97	0xbe12ea96	-0.143473
98	0x3edc0d76	0.4297902
99	0x3c89cb90	0.016820699
100	0x3f4191c6	0.7561306
101	0xbf1568d2	-0.5836307
102	0xbe2ae435	-0.16688617
103	0xbdd60711	-0.104505666
104	0xbdd9ff7a	-0.106444314
105	0x3c407a08	0.0117478445
106	0x3e3ba704	0.1832543
107	0x3ec10af4	0.3770367
108	0xbe868857	-0.26275894
109	0xbee8759e	-0.45402235
110	0x3e8f6abb	0.28011116
111	0xbe749fd4	-0.23889095
112	0x3d606219	0.054781053
113	0x3f094da7	0.53634113
114	0xbe8eb47d	-0.27872077
115	0xbc994450	-0.018709332
116	0x3d85c1bd	0.06531093
117	0xbdee141b	-0.116249286
118	0x3e91c0ad	0.28467312
119	0x3e56f5f6	0.20992264
120	0xbe5d57a2	-0.2161546
121	0xbe101ef6	-0.1407431
122	0x3d29890f	0.041390475
123	0xbb0dce01	-0.002163768
124	0xbe8afb98	-0.27145076
125	0x3dd81f01	0.105527885
126	0xbdffb35f	-0.12485384
127	0xbe137fb4	-0.14404184
128	0x3ee535fb	0.44767746
129	0x3e51a0c1	0.20471479
130	0xbe82f582	-0.25577933
131	0xbe7c0d72	-0.24614504
132	0x3d8b6f4a	0.06808336
133	0xbe1db681	-0.15401651
134	0x3e0a6f70	0.13519073
135	0xbe656742	-0.22402671
136	0xbec56c0d	-0.38559
137	0x3ef81f8c	0.48461568
138	0xbe885876	-0.2662999
139	0xbea6eb77	-0.3260152
140	0xbece87d5	-0.40338007
141	0x3f051e76	0.51999605
142	0xbedb78ea	-0.42865688
143	0xbea8be32	-0.32957608
144	0xbeedcaa9	-0.4644368
145	0xbe9438ed	-0.2894968
146	0xbae80666	-0.0017702102
147	0xbeb5364b	-0.35392985
148	0x3ef97aad	0.48726407
149	0xbe9680e3	-0.29395208
150	0x3e727d6a	0.23680654
151	0x3f131142	0.5744821
152	0x3d3901c3	0.045167696
153	0x3ed63ad5	0.4184176
154	0xbdaac067	-0.08337479
155	0xbf0484db	-0.5176522
156	0xbe68b9b8	-0.22727096
157	0xbf11c029	-0.5693384
158	0xbd1eb5c6	-0.03874757
159	0x3e1fc5e3	0.15602832
160	0xbdca0731	-0.09864653
161	0xbe3fadf8	-0.18718708
162	0xbe9d2d1c	-0.30698478
163	0xbe9c108c	-0.30481374
164	0x3d8be5a3	0.06830909
165	0x3f119e8b	0.5688254
166	0x3c6e8a9e	0.014559416
167	0xbe745177	-0.23859201
168	0x3cca3a91	0.02468613
169	0xbeed6639	-0.46367052
170	0xbd23bddd	-0.03997599
171	0xbf07cd5d	-0.53047734
172	0xbea40f26	-0.32042807
173	0xbf0952a5	-0.5364173
174	0x3e15cd3d	0.14629073
175	0x3e852701	0.2600632
176	0x3e1631a0	0.14667368
177	0xbe837230	-0.25673056
178	0x3eb3f5d0	0.35148478
179	0x3e0e5fb4	0.13903695
180	0xbed3129a	-0.4122513
181	0x3ef566ee	0.47930092
182	0xbf0e2471	-0.55524355
183	0x3f483dcd	0.782193
184	0x3ba7bbd2	0.0051188255
185	0x3da1662e	0.07880817
186	0xbe912097	-0.28345177
187	0xbe96df47	-0.29467222
188	0xbef38979	-0.4756582
189	0xbd97a3fc	-0.074043244
190	0xbe720364	-0.23634106
191	0x3e294dcb	0.16533582
192	0xbeae1b2f	-0.34005114
193	0xbe9db066	-0.30798644
194	0xbe877cc5	-0.2646238
195	0xbef2602f	-0.47339007
196	0xbf0a4490	-0.5401087
197	0xbc216207	-0.009850032
198	0x3f19b26b	0.6003787
199	0xbe7c3b43	-0.24631982
200	0xbec2c599	-0.3804138
201	0xbe646381	-0.22303583
202	0xbe8f6def	-0.2801356
203	0x3f59975a	0.8499657
204	0xbeca3a6d	-0.394977
205	0x3e24e41e	0.16102645
206	0xbcc3bb65	-0.023893068
207	0xbedacf52	-0.42736298
208	0xbeafe84c	-0.34356916
209	0x3eb5f44e	0.35537952
210	0x3c9c7322	0.019097868
211	0x3f16ea29	0.5895105
212	0x3ce8409e	0.028351124
213	0xbe01d087	-0.12677203
214	0xbeb8ff58	-0.36132312
215	0x3e848cce	0.25888675
216	0xbdeac579	-0.11463446
217	0x3c9fa692	0.019488607
218	0xbeac7a08	-0.33686852
219	0xbeb78ffe	-0.35852045
220	0xbe82ecf6	-0.25571412
221	0x3ea2a712	0.3176809
222	0xbeabdc26	-0.33566397
223	0x3db0bb2f	0.086294524
224	0xbec239bf	-0.37934682
225	0x3f0c0f0f	0.5471048
226	0xbed797f5	-0.42108122
227	0xbe49ad59	-0.19695033
228	0xbd8b6d3d	-0.06807945
229	0xbe43325f	-0.19062184
230	0xbd7221c8	-0.059114248
231	0xbe973981	-0.2953606
232	0xbe585519	-0.21126212
233	0xbe68f783	-0.22750668
234	0xbe61cf11	-0.22051646
235	0xbf065f5e	-0.5248927
236	0x3db387fc	0.08766171
237	0xbe8f3048	-0.27966523
238	0xbe95ed5f	-0.29282662
239	0xbd85beb5	-0.06530515
240	0xbe23c313	-0.15992384
241	0x3e53922d	0.2066123
242	0xbe55129a	-0.20807877
243	0x3ed128d1	0.40851453
244	0xbec02333	-0.37526855
245	0xbc418883	-0.011812332
246	0xbf034247	-0.51273006
247	0xbd869868	-0.06572038
248	0xbf471040	-0.7775917
249	0xbeb9340e	-0.36172527
250	0x3d68430a	0.05670456
251	0xbea8c32c	-0.32961404
252	0xbce40701	-0.027835371
253	0xbf284b86	-0.6574024
254	0xbe8a80d1	-0.27051404
255	0xbe27380f	-0.16329978

l2.weight f4 [300, 400]
0	0xbd2951bf	-0.041337725
1	0x3cfe5124	0.03104455
2	0xbd32ffe0	-0.043701053
3	0x3c4a21c0	0.012337148
4	0x3bda4501	0.006661058
5	0xbd4c5441	-0.04988504
6	0xba64a3b3	-0.0008721903
7	0xbca64097	-0.02029447
8	0x3cc50f50	0.024055153
9	0x3c4424f0	0.011971697
10	0xbc783cc0	-0.015151203
11	0xbd62a8ab	-0.055336636
12	0x3d16dd85	0.03683235
13	0xbbfadd28	-0.0076557584
14	0xbd44b899	-0.04802761
15	0x3d5a5ae2	0.05330933
16	0xbd45d819	-0.04830179
17	0xbc89e5fd	-0.0168333
18	0xbc995eee	-0.018722024
19	0xbb4dc371	-0.003139701
20	0x3c809f22	0.01570088
21	0xbbbf7b70	-0.0058435723
22	0xbd5c3452	-0.053760834
23	0xbd018a25	-0.031625886
24	0xbd821b75	-0.06352893
25	0xbd2c4dcf	-0.04206639
26	0xbc8840e5	-0.016632507
27	0xbd34eb48	-0.044169694
28	0x3d40ec11	0.04710013
29	0xbda4eb2f	-0.0805267
30	0x3bc032c8	0.0058654286
31	0xbb3457e0	-0.0027518198
32	0x3c82cfed	0.015968287
33	0x3bc0b220	0.005880609
34	0xbd163016	-0.036666952
35	0xbd2c2e8f	-0.04203659
36	0x3bfd4913	0.0077296584
37	0xbc60041b	-0.013672854
38	0xbd170946	-0.03687408
39	0xbd758404	-0.059940353
40	0xbcaecfff	-0.021339415
41	0x3c262f66	0.010143137
42	0xbbea97eb	-0.0071592233
43	0x3d21c99f	0.03949892
44	0x3c057b84	0.008147124
45	0xbd58b75a	-0.052909233
46	0xbd46cef9	-0.04853723
47	0xbc43ba28	-0.011946239
48	0xbc587a6a	-0.01321278
49	0x3ce97b8a	0.02850129
50	0x3c5b99a1	0.013403327
51	0x3cdf3381	0.027246239
52	0xbd32dfd8	-0.043670505
53	0xbd815375	-0.06314746
54	0xbd9c6a9e	-0.07637523
55	0x3c6820aa	0.014167944
56	0x3c95b635	0.01827536
57	0xbd4d0e31	-0.050062362
58	0x3cecaa62	0.028889839
59	0xbd167986	-0.036736988
60	0xbc367058	-0.011135183
61	0x3cd36281	0.025803806
62	0xbc308260	-0.010773271
63	0xbd57851a	-0.05261717
64	0xbb848635	-0.004044319
65	0xbc1dc4b6	-0.009629419
66	0x3cf46c54	0.029836811
67	0xbc908eae	-0.01764616
68	0xbd08dded	-0.03341477
69	0xbc74942c	-0.014927905
70	0x3d8780b5	0.06616346
71	0xbd414ff1	-0.04719538
72	0xbc4a04d9	-0.012330257
73	0xbd10359e	-0.035207383
74	0xbc80cb85	-0.015722046
75	0xbd1e9486	-0.03871586
76	0xbd4ac121	-0.04950059
77	0xbd560d52	-0.052258797
78	0xbd4b57e9	-0.049644385
79	0xbc3b5fa0	-0.011436373
80	0xbc2003b7	-0.009766511
81	0x3b5ca850	0.0033669658
82	0xbcecf243	-0.028924113
83	0xbd6aa6c3	-0.057287943
84	0x3ca19d16	0.019728225
85	0xbd4f9a89	-0.050684486
86	0xbd39c190	-0.04535061
87	0xbd44a703	-0.048010837
88	0xbd64998b	-0.055810492
89	0xbc2b7c6f	-0.010466679
90	0x3c90372d	0.017604435
91	0x3bd7db09	0.0065873903
92	0xbcf7bbfc	-0.030241005
93	0x3d097af4	0.033564523
94	0xbc65b45b	-0.014020051
95	0x3bb5beb0	0.0055464134
96	0xbd95f3ee	-0.073219165
97	0xbbd2a572	-0.006428414
98	0xbd37f0b8	-0.0449073
99	0xbb8aa7bd	-0.0042314217
100	0x3c59bd11	0.013289706
101	0xbc61bbf3	-0.013777721
102	0x3cb27a47	0.021786822
103	0x3d0654b4	0.032795623
104	0xbd8cda3d	-0.06877563
105	0xbce35f7b	-0.02775549
106	0xbd2bbf9f	-0.04193079
107	0xbd29ad27	-0.041424897
108	0x3a119dc5	0.00055548205
109	0xbcc38019	-0.023864793
110	0xbda7fac7	-0.08202129
111	0xbd244e27	-0.040113594
112	0x3c476768	0.01217065
113	0xbd3d20d8	-0.0461739
114	0xbd68ca33	-0.056833457
115	0xbcd4b01a	-0.025962878
116	0xbd2bf19f	-0.041978475
117	0x3c3eb7df	0.011640518
118	0xbdc2dcd1	-0.09514774
119	0x3b37da0f	0.0028053557
120	0xbc4ef101	-0.012630702
121	0xbd1986c6	-0.037482046
122	0xbd82e505	-0.06391338
123	0x3cd93071	0.026512356
124	0xbd294157	-0.04132208
125	0xbbd9b6d2	-0.0066441083
126	0x3d19189d	0.03737699
127	0xbd879055	-0.06619326
128	0xbd93a7a6	-0.07209711
129	0xbd7dbb24	-0.06194605
130	0xbd9b19e6	-0.07573299
131	0xbc06f7fd	-0.008237836
132	0x3d850975	0.064959444
133	0xbc2d2957	-0.010568938
134	0xbd1977ee	-0.03746789
135	0x3cd32bd1	0.02577773
136	0xbd226837	-0.03965017
137	0x3c1be055	0.009513934
138	0xbcb5b8c0	-0.022182822
139	0x3cd90259	0.026490377
140	0xbcb0a970	-0.02156517
141	0x3cb34887	0.02188517
142	0xbd07e0cd	-0.03317337
143	0xbcc2c561	-0.023775758
144	0x3a0ca9cc	0.0005365878
145	0xbb5e2b72	-0.0033900407
146	0x3c159f8d	0.009132278
147	0xbd38e860	-0.045143485
148	0xbcec9de3	-0.02888388
149	0xbc5d4112	-0.0135042835
150	0xbccacda1	-0.024756255
151	0xbdba56c8	-0.090985835
152	0xbc06b340	-0.0082214475
153	0xbd2038d7	-0.039116707
154	0xbd4a3481	-0.049366478
155	0x3c175cdd	0.009238449
156	0x3bda3881	0.006659568
157	0x3cff8fe3	0.03119654
158	0xbcc8a869	-0.024494367
159	0xbd917076	-0.07101528
160	0xbd246c9f	-0.04014265
161	0xbc94ec5c	-0.018179111
162	0xbd71279c	-0.058875665
163	0xbd8c4055	-0.06848208
164	0xbd20b447	-0.039234426
165	0xbd799ae4	-0.06093873
166	0xbd781da4	-0.060575143
167	0xbd4bd14a	-0.04976014
168	0xbd49bb69	-0.049250994
169	0xbd687da3	-0.05676044
170	0xbd803e4f	-0.062618844
171	0x3c9ec9a5	0.019383261
172	0xbbe33de3	-0.0069348677
173	0x3cb06aef	0.021535365
174	0xbd3591b0	-0.04432839
175	0xbbb9f840	-0.0056753457
176	0xbcc084d1	-0.023500832
177	0xbd24c5af	-0.04022759
178	0xbd9508c6	-0.07277064
179	0x3d2b393f	0.04180264
180	0xbd770b6c	-0.060313627
181	0xbd234617	-0.039861765
182	0xbc9616d6	-0.018321436
183	0x3c7c0e3b	0.015384252
184	0xbd45f5c9	-0.048330102
185	0xbd0f88f5	-0.03504272
186	0xbd236acf	-0.039896782
187	0x3c4f1108	0.012638338
188	0xbaf60424	-0.0018769545
189	0xbd424799	-0.047431562
190	0xbd2a6c8f	-0.041607436
191	0x3cec8beb	0.028875312
192	0xbcabc6a7	-0.020968748
193	0xbbac7287	-0.005262676
194	0x39e9803a	0.0004453676
195	0xbc2bfc8f	-0.010497226
196	0xbbef73ab	-0.00730749
197	0xbd1e6e3e	-0.038679354
198	0xbbd9151a	-0.00662483
199	0xbd492ba9	-0.049113903
200	0xbbf73664	-0.0075443257
201	0xbca5556f	-0.02018234
202	0xbc0440ad	-0.0080720605
203	0xbd4ada21	-0.04952443
204	0xbcb22520	-0.021746218
205	0xbca25aef	-0.019818751
206	0xbc7543f4	-0.014969815
207	0x3cdbe889	0.02684428
208	0x3d188f1d	0.03724586
209	0x3ca3f5de	0.0200147
210	0x3d05d40d	0.03267293
211	0xbdba3d00	-0.09093666
212	0xbd34ea80	-0.04416895
213	0x3c3660b7	0.011131457
214	0xbca4f817	-0.02013783
215	0x3bb007b7	0.0053720134
216	0xbcece20d	-0.028916383
217	0xbd4c4249	-0.049867902
218	0xbd3aee58	-0.04563746
219	0xbb6073d3	-0.0034248724
220	0xbd124a6e	-0.035715513
221	0x3c44bbb8	0.012007646
222	0xbbcd21b9	-0.0062601236
223	0x3bfa9d7b	0.0076481677
224	0x3c383577	0.011243216
225	0xbcdeea12	-0.027211223
226	0xbc3c2de0	-0.011485547
227	0xbd14017e	-0.036134236
228	0xbd05427d	-0.03253411
229	0xbd0285b5	-0.031865794
230	0xbaaa0a1f	-0.0012972987
231	0x3cef3dc2	0.029204253
232	0x3d29679e	0.041358583
233	0xbcbe2870	-0.023212641
234	0x3cf84643	0.03030694
235	0x3d4ab7c1	0.049491648
236	0x3cbb5257	0.022866411
237	0xbc6f113b	-0.01459151
238	0xbccb0771	-0.024783822
239	0xbc89469d	-0.016757304
240	0xbc87cd45	-0.016577372
241	0x3cbb13d7	0.022836609
242	0xbd8c7aed	-0.06859384
243	0xbcd17eea	-0.025573213
244	0xbc5c19c2	-0.0134338755
245	0x3b9d2875	0.0047960826
246	0x3a3897e7	0.0007041678
247	0xbc294797	-0.01033201
248	0xbd279c7d	-0.040920723
249	0xbd729924	-0.059228078
250	0x3cd70fe9	0.026252704
251	0xbcfa06b4	-0.030520774
252	0xbd52d5e2	-0.051473506
253	0xbd67797b	-0.056512337
254	0xbdb03378	-0.08603567
255	0xbd28feef	-0.04125875

l2.bias f4 [300]
0	0xbdb60a00	-0.08888626
1	0xbd9f0f2e	-0.07766567
2	0x3d31cb47	0.04340675
3	0xbd68e653	-0.05686028
4	0xbdd2a4aa	-0.102853134
5	0xbdd1a082	-0.102356926
6	0xbda33fd7	-0.07971161
7	0x3cb49498	0.022043511
8	0xbce41bc3	-0.02784527
9	0xbcbf80a8	-0.023376778
10	0xbd62896b	-0.055306833
11	0x3bd17589	0.006392185
12	0x3dea8a80	0.11452198
13	0x3e013b3c	0.12620252
14	0x3d184a70	0.037180364
15	0xbc956816	-0.018238109
16	0xbd404651	-0.04694206
17	0x3c2bfee6	0.010497784
18	0xbda5f277	-0.08102887
19	0x3d35eb87	0.04441407
20	0xbd9e8676	-0.0774049
21	0xbd32817d	-0.04358052
22	0x3d507931	0.050896827
23	0xbd16c486	-0.036808513
24	0xbd6eca23	-0.05829824
25	0xbd576f3a	-0.05259631
26	0xbbea1bb3	-0.0071444153
27	0xbd4108d9	-0.04712758
28	0x3f09265d	0.5357416
29	0xbcc54539	-0.02408086
30	0x3d5e1339	0.05421755
31	0x3e793133	0.24335174
32	0xbd31b248	-0.043382913
33	0xbd8c82bd	-0.06860874
34	0xbdb2c2f0	-0.087285876
35	0x3cfef853	0.03112427
36	0x3e147c25	0.14500482
37	0x3db01ccf	0.08599245
38	0xbcb70bd0	-0.0223445
39	0x3daab536	0.083353445
40	0x3ab10bdf	0.0013507566
41	0xbd38e3b0	-0.045139015
42	0xbbf9da2c	-0.007624885
43	0x3da8aa8e	0.08235656
44	0xbd702374	-0.05862756
45	0x3d975e6d	0.07391057
46	0x3dbe3ba7	0.092887215
47	0xbd6b14eb	-0.057392996
48	0xbcb3b138	-0.02193509
49	0xbcda77ca	-0.026668448
50	0xbd97181e	-0.07377647
51	0x3d4d6100	0.050141335
52	0x3d1c9d52	0.03823597
53	0xbd0f7c75	-0.0350308
54	0xbcdaef52	-0.026725445
55	0x3c303057	0.010753713
56	0x3d59d549	0.05318192
57	0xbd525112	-0.051346846
58	0x3de2e106	0.11078076
59	0xbd8be1cd	-0.068301775
60	0x3edaafbe	0.42712206
61	0xbd3c0220	-0.045900464
62	0xbdb6c260	-0.08923793
63	0x3f07dd89	0.5307241
64	0xbd4e3ee1	-0.050352935
65	0xbd89c2d5	-0.067266144
66	0xbc8e3905	-0.017361173
67	0x3d487f00	0.04894924
68	0xbdc7f3f1	-0.09763325
69	0xbe80931d	-0.2511224
70	0x3c84f394	0.016229428
71	0x3ca367ae	0.0199469
72	0xbd0d492d	-0.034493614
73	0xbf953347	-1.1656274
74	0xbe2c297e	-0.16812703
75	0xbd90453e	-0.07044457
76	0x3d07bb4c	0.033137605
77	0x3c49a3f8	0.01230716
78	0xbda2437f	-0.0792303
79	0xbd82786d	-0.06370626
80	0xbc1e04c6	-0.009644693
81	0xbd7f9d2c	-0.06240575
82	0xbda97f0f	-0.08276188
83	0xbda2adbf	-0.07943296
84	0xbd45bfe1	-0.048278693
85	0xbcf70b6c	-0.030156814
86	0xbd6d4a8b	-0.057932418
87	0xbd04856d	-0.032353807
88	0xbf375e0e	-0.7162789
89	0x3d9383b5	0.072028555
90	0xbd99d5ae	-0.07511459
91	0x3d577192	0.052598543
92	0xbec0be49	-0.37645176
93	0xbd941056	-0.07229678
94	0xbdab30a7	-0.08358889
95	0x3c15ece5	0.009150718
96	0xbd53591c	-0.051598653
97	0x3dbbd727	0.091718964
98	0x3dc4f330	0.09616697
99	0xbdb958e0	-0.09050155
100	0xbc6e8243	-0.014557424
101	0xbc1b227e	-0.009468673
102	0xbd47c9c1	-0.048776392
103	0x3d35be37	0.044370856
104	0xbdae321c	-0.08505651
105	0xbd743be4	-0.05962743
106	0x3de37ad2	0.111074105
107	0x3e3896cf	0.18026279
108	0x3da93a4e	0.08263074
109	0xbd74f5d4	-0.059804752
110	0x3eff3c75	0.49850813
111	0x3f05e756	0.52306116
112	0xbd75464c	-0.059881493
113	0xbd8ec34d	-0.069708444
114	0xbd83c605	-0.064342536
115	0xbdd47bc2	-0.103751674
116	0x3d507716	0.05089482
117	0xbf64b4f1	-0.89338595
118	0xbd8c281d	-0.068435885
119	0x3df113be	0.11771344
120	0xbd30a1a0	-0.043122888
121	0x3d84ad44	0.0647836
122	0xbc58c56a	-0.013230661
123	0xbd821e95	-0.06353489
124	0xbd683f23	-0.056700837
125	0x3d3c6a07	0.045999553
126	0x3d0b827c	0.034059986
127	0xbdad7907	-0.0847035
128	0x3dbf67a7	0.09345942
129	0xbd22a45f	-0.039707538
130	0xbd45de59	-0.04830775
131	0xbc3ffc18	-0.011717819
132	0x3d9b08f2	0.075700656
133	0x3b5ab7d9	0.0033373742
134	0x3d240f9f	0.04005396
135	0xbdbb7260	-0.09152675
136	0x3efc9b97	0.49337456
137	0xbd821f5d	-0.06353638
138	0xbd2d9c2f	-0.042385276
139	0x3bccdcf8	0.0062519275
140	0xbd518dc2	-0.05116058
141	0xbd52b44a	-0.05144147
142	0xbd94cc9e	-0.0726559
143	0xbc4c2f89	-0.012462505
144	0x3c0f9ed4	0.008765895
145	0xbdb09390	-0.08621895
146	0x3d287d3e	0.041135065
147	0x3c7fa9ab	0.015604417
148	0xbb51997a	-0.0031982348
149	0xbd0daad5	-0.034586746
150	0xbd9c3966	-0.076281354
151	0x3f01329f	0.50467867
152	0xbdaac987	-0.083392195
153	0xbd369510	-0.04457575
154	0xbc111a86	-0.008856421
155	0x3da5acee	0.08089624
156	0xbd8ba02d	-0.068176605
157	0xbd4bbbe9	-0.049739752
158	0x3e1a2175	0.15051825
159	0xbd83e545	-0.06440214
160	0xbdaa295f	-0.08308672
161	0xbcb980b8	-0.022644386
162	0xb9e58643	-0.00043778316
163	0xbd77ad24	-0.060467854
164	0xbdd45962	-0.10368611
165	0xbd93734e	-0.07199727
166	0x3e0204cc	0.12697142
167	0xbd6c1aa3	-0.05764259
168	0xbf572b3b	-0.8405034
169	0xbcd068ca	-0.025440592
170	0x3d16a865	0.036781687
171	0xbebd4db2	-0.3697334
172	0x3d26cdfe	0.040723793
173	0xbd8fee85	-0.07027916
174	0x3d9354d5	0.07193915
175	0x3cb7a297	0.022416396
176	0xbd8328fd	-0.06404302
177	0x3df8bf1e	0.12145828
178	0x3df8344b	0.12119349
179	0x3daee2be	0.085393414
180	0xbd5a236a	-0.05325643
181	0xbd9d4d2e	-0.076807365
182	0x3ddd4f21	0.10806108
183	0xbd2f3017	-0.04277047
184	0xbd24e8d7	-0.040261116
185	0x3f63c988	0.8897939
186	0xbbcbf749	-0.006224547
187	0xbca6078f	-0.020267276
188	0x3bcc82ec	0.006241193
189	0xbd08db95	-0.033412535
190	0x3e054305	0.13013847
191	0xbd9b867e	-0.07594012
192	0x3ddeac59	0.108727165
193	0xbd961586	-0.07328324
194	0xbcf328e4	-0.029682584
195	0xbc0c7d45	-0.008574788
196	0x3d824a54	0.06361833
197	0xbd162846	-0.0366595
198	0xbcee8c6b	-0.02911969
199	0x3d14ee35	0.036359984
200	0xbde0f00b	-0.109832846
201	0xbd9f3706	-0.07774167
202	0x3ac781e0	0.0015221201
203	0x3c70ba7a	0.014692897
204	0xbdb45d18	-0.08806819
205	0xbc08c295	-0.008347173
206	0x3d9a624d	0.07538281
207	0xbdad12af	-0.08450829
208	0xbc997726	-0.018733572
209	0xbd07be6d	-0.03314059
210	0x3d7eb45b	0.06218372
211	0xbf470d6c	-0.77754855
212	0xbd321fa8	-0.04348722
213	0x3d50d7b9	0.05098698
214	0xbd8ab695	-0.06773106
215	0x3de29dea	0.11065276
216	0xbcf0eb74	-0.029409148
217	0xbfa240dc	-1.2676044
218	0x3d7ee8b3	0.062233638
219	0xbd1293de	-0.03578555
220	0xbd8b1905	-0.067918815
221	0x3efb1abb	0.4904383
222	0x3d084fbc	0.033279166
223	0xbd21000f	-0.039306697
224	0xbc99b0f6	-0.01876114
225	0x3cd1be31	0.025603386
226	0xbbb517d0	-0.0055265203
227	0xbd826d7d	-0.063685395
228	0x3dbfb757	0.09361141
229	0xbd0fb59b	-0.0350853
230	0xbdae70af	-0.085175864
231	0x3f03053c	0.5117986
232	0xbda537bf	-0.08067273
233	0x3deb49b3	0.114886664
234	0x3d50c111	0.050965372
235	0xbdaf64a0	-0.085641146
236	0x3cf1ef9b	0.029533198
237	0x3e949760	0.2902174
238	0xbd51b342	-0.051196344
239	0x3f0715c0	0.5276756
240	0xbd6a4c23	-0.057201516
241	0xbd1103de	-0.03540408
242	0x3f8ad023	1.0844768
243	0xbd890ccd	-0.06691895
244	0x3b43538b	0.0029804434
245	0xbdab5ebf	-0.08367681
246	0x3db1153f	0.086466305
247	0xbd0726dd	-0.032996047
248	0xbc8ace05	-0.01694394
249	0x3f05bf41	0.52244955
250	0x3dc3d608	0.095623076
251	0xbc831895	-0.016002933
252	0x3c6e4f7a	0.014545316
253	0xbbd6e10a	-0.0065575885
254	0x3d87e57c	0.066355675
255	0xba882e0a	-0.0010389697

l3.weight f4 [1, 300]
0	0x3c73010c	0.014831793
1	0xbc7f379b	-0.015577222
2	0xbe708773	-0.2348917
3	0x3c78344c	0.015149187
4	0x3ceb009b	0.028686812
5	0x3cffbdfb	0.03121852
6	0x3b81b904	0.003958823
7	0x3e82dcd9	0.25559118
8	0x3bc77628	0.0060870834
9	0xbce16792	-0.027515206
10	0xbcc01f41	-0.023452403
11	0x3ba45e8e	0.0050161546
12	0x3e82a166	0.25513762
13	0xbea5f7ee	-0.32415718
14	0x3e80729c	0.2508744
15	0x3b8a8b9c	0.0042280685
16	0x3bfb8714	0.0076760147
17	0x3c5ecf81	0.0135992775
18	0x3cdf182a	0.027233202
19	0xbe542121	-0.20715763
20	0x3befa41b	0.007313264
21	0x3be2ad08	0.0069175996
22	0xbe66b0b2	-0.22528341
23	0xbd3e56ff	-0.046469685
24	0xb8c1d8a8	-9.2433125e-05
25	0xbb59e80a	-0.0033249878
26	0x3d18df95	0.0373226
27	0x3cf6931b	0.030099442
28	0xbe8fa705	-0.28057113
29	0x3bcafa29	0.006194372
30	0xbe73637b	-0.23768418
31	0xbfa51cb6	-1.2899387
32	0xbbb6ff4f	-0.0055846344
33	0xbc2b5b9f	-0.010458856
34	0xbba0574f	-0.0048932205
35	0xbe76cb5b	-0.24101011
36	0xbe6d250a	-0.2315866
37	0xbe854a4c	-0.26033247
38	0xb98d9bfc	-0.00027009833
39	0xbe5fdab1	-0.21860768
40	0x3d3fb68f	0.04680496
41	0xbcac572e	-0.021037664
42	0x3bf1729b	0.0073683984
43	0xbe42e248	-0.19031632
44	0xb9b245f0	-0.00034002913
45	0xbeac17e6	-0.33611983
46	0xbe71a3d3	-0.2359765
47	0x3c0e7f55	0.0086973505
48	0xbc5fa339	-0.013649755
49	0x3cc7b319	0.024377393
50	0xbc34d630	-0.011037394
51	0xbe87b82c	-0.265077
52	0x3eaaa382	0.33327872
53	0xbd1a5055	-0.037674267
54	0x3c8afb55	0.016965548
55	0xbbdbd8ea	-0.006709208
56	0xbd7dc9fb	-0.0619602
57	0xbc25925f	-0.010105698
58	0x3e8bb7d8	0.272887
59	0xbcc1fc99	-0.023680018
60	0xbe38cc54	-0.18046695
61	0xbc86f1bc	-0.01647269
62	0xbca156c7	-0.019694699
63	0xbe8138ef	-0.2523875
64	0xbd0106e5	-0.031500716
65	0xbc68368b	-0.01417316
66	0xbd0921e4	-0.033479586
67	0xbe90e885	-0.28302398
68	0x3d3c4870	0.04596752
69	0x3f08ccde	0.534376
70	0x3cd6e5b9	0.026232587
71	0x3ce1f2a2	0.027581517
72	0x3c43e800	0.011957169
73	0x3f3885b3	0.7207901
74	0xbee759a8	-0.4518559
75	0xbc5bd501	-0.013417483
76	0x3d18f0c5	0.03733899
77	0x3c19e166	0.009392118
78	0x3d177dad	0.03698509
79	0xbce73a33	-0.028225994
80	0x3d6f76ca	0.058462895
81	0x3c92a05e	0.017898735
82	0x3b5c3db1	0.0033606107
83	0x3c954295	0.018220225
84	0xbbb0df57	-0.005397718
85	0x3c8abd9c	0.016936116
86	0x3dc523a0	0.096259356
87	0x3cc444f9	0.02395867
88	0x3f4f0879	0.80872303
89	0xbe4f6310	-0.20252633
90	0xbcf4d43c	-0.029886357
91	0x3e90f38e	0.28310817
92	0x3f311049	0.69165474
93	0x3c8c718d	0.017143989
94	0x3d1f49c5	0.03888871
95	0x3cbfde67	0.02342148
96	0x3ff82ec1	1.9389268
97	0xbe5afbd1	-0.21385123
98	0xbef7692b	-0.48322424
99	0x395dba2a	0.00021145554
100	0x3ce4af6a	0.027915675
101	0xbd42be58	-0.047544807
102	0x3d17712d	0.036973167
103	0xbe43fea8	-0.19140112
104	0x3f7bca6c	0.98355746
105	0x3cf6bfa3	0.030120676
106	0xbe96b355	-0.29433694
107	0xbf00048a	-0.50006926
108	0xbe869334	-0.26284182
109	0xbc70450c	-0.0146649
110	0xbe9722f0	-0.29518843
111	0xbe8b648f	-0.27225158
112	0xbc389c97	-0.011267803
113	0xbca88da6	-0.020575356
114	0xbcf5c34c	-0.030000351
115	0xbe79717b	-0.24359696
116	0xbebf4c01	-0.37362674
117	0x3eb3da18	0.3512733
118	0xbcad8bc7	-0.021184815
119	0xbe4bd794	-0.19906455
120	0x3d042ded	0.03227036
121	0xbe5e5989	-0.21713842
122	0xbc9516d6	-0.018199366
123	0x3ab40b10	0.0013736207
124	0xbc740dcb	-0.014895867
125	0xbe89beec	-0.26903474
126	0xbe7c561b	-0.24642222
127	0x3c28dd56	0.010306677
128	0xbe8ca6ac	-0.2747091
129	0xbcb92b90	-0.02260378
130	0xbb2b2107	-0.0026112215
131	0x3c27400f	0.010208144
132	0x3ecf7d76	0.40525407
133	0xbc1ee436	-0.009697964
134	0x3eaa9bd2	0.33322006
135	0xbc8454fc	-0.016153805
136	0xbe7a3b4a	-0.2443668
137	0x3bebf2cb	0.007200574
138	0x3c872f74	0.01650212
139	0xbd358c37	-0.044323172
140	0x3cd46902	0.025928978
141	0x3b70f344	0.0036766091
142	0x3cfdf683	0.031001335
143	0x3d00eeac	0.031477615
144	0x3bb059bf	0.0053817923
145	0xbc14a7e6	-0.009073233
146	0xbe827ac4	-0.25484288
147	0x3cab8e66	0.020941924
148	0xbe8ca454	-0.27469122
149	0xbc957ad6	-0.01824705
150	0xbc8e5cf5	-0.01737831
151	0xbea34de4	-0.31895363
152	0x3bb164f0	0.005413644
153	0x3cfb544c	0.030679844
154	0x3aea0a83	0.0017855916
155	0xbe4269f8	-0.18985736
156	0xbc970175	-0.018433312
157	0xbcceede1	-0.025259914
158	0xbe86e53c	-0.26346767
159	0xbc090755	-0.0083635645
160	0x3d76a12b	0.060212296
161	0xbb5b2b79	-0.003344266
162	0xbce8aa2b	-0.028401455
163	0xbb5e37f2	-0.0033907858
164	0xbcd5862a	-0.026064951
165	0xbc3d4590	-0.0115522295
166	0xbea435ee	-0.32072395
167	0x3b4b8ab0	0.0031058006
168	0x3f257c55	0.6464284
169	0xbcd42f32	-0.02590141
170	0xbab721af	-0.001397183
171	0x400df22c	2.217906
172	0xbe554b91	-0.20829608
173	0x3afb5c1b	0.001917723
174	0xbe6eeeda	-0.23333302
175	0x3d249c46	0.040188096
176	0xbcdacf4a	-0.026710171
177	0x3e861022	0.26184183
178	0xbebfd2af	-0.37465426
179	0xbe559051	-0.20855834
180	0x3cc9a7e0	0.024616182
181	0x3d4d9eb8	0.050200194
182	0xbea78c9e	-0.3272447
183	0xbc36ca2f	-0.011156603
184	0xbcffe9bc	-0.031239383
185	0xbfad9c83	-1.3563389
186	0x3c70bfb3	0.014694142
187	0xbcdbac62	-0.026815597
188	0x3eb61a64	0.3556701
189	0xbd48ea08	-0.049051315
190	0xbf3fadf9	-0.74874836
191	0x3b86683d	0.0041017816
192	0xbe733c6b	-0.23753516
193	0x3c473c58	0.012160383
194	0xbf04950c	-0.5178993
195	0xbc547009	-0.012966164
196	0xbd942a1d	-0.07234595
197	0x3c4b7980	0.012419105
198	0xbd1c8145	-0.03820922
199	0xbe83a91c	-0.25714958
200	0x3cb2af67	0.021812154
201	0x3cf68ffc	0.030097954
202	0x3944a380	0.00018752925
203	0x3ea622e8	0.32448506
204	0x3c959566	0.018259715
205	0xbba4a66f	-0.0050247232
206	0xbe5a5d39	-0.21324624
207	0x3c6dd982	0.01451719
208	0xbbc81d58	-0.0061070137
209	0xbe4c2880	-0.19937325
210	0xbe5d1f79	-0.21594037
211	0x3f528f38	0.82249784
212	0x3d91bd05	0.07116131
213	0xbe73b583	-0.2379971
214	0x3cc66c89	0.024221675
215	0x3e18484e	0.14871332
216	0x3afc5b93	0.0019253365
217	0x3f35c3c2	0.7100183
218	0xbe891ec4	-0.26781285
219	0x3c80a925	0.015705654
220	0x3b87d385	0.004145088
221	0xbe97043d	-0.2949542
222	0xbe7d9a53	-0.24765901
223	0xbc2b4f1f	-0.010455876
224	0xbdcde120	-0.10052705
225	0xbe518781	-0.20461847
226	0x3b9e68c6	0.0048342673
227	0xbcf51514	-0.029917277
228	0xbe92f4bd	-0.28702345
229	0x3e467b47	0.19382964
230	0xbcdc1f3a	-0.026870359
231	0xbe959b48	-0.29220033
232	0x3a98554d	0.0011622101
233	0x3e8b6f96	0.2723357
234	0xbe7ed143	-0.24884515
235	0x3c96cb5b	0.018407514
236	0xbe860824	-0.26178086
237	0xbf0e8988	-0.55678606
238	0x3d5bba71	0.0536446
239	0xbeab51c9	-0.33460835
240	0x3c4543a8	0.012040056
241	0x3c441ac8	0.011969276
242	0xbfccbb02	-1.599457
243	0xbc5ddafa	-0.013540978
244	0x3e84a8d7	0.25910065
245	0x3cf333d3	0.029687798
246	0xbe7531fb	-0.23944847
247	0x3b819dad	0.003955564
248	0x3d251496	0.040302835
249	0xbea1fa4b	-0.3163627
250	0xbe74af83	-0.23895077
251	0xbbd09c5a	-0.006366295
252	0xbe572e61	-0.21013786
253	0x3cf27b73	0.02959988
254	0xbe4c3c08	-0.19944775
255	0x3e868eef	0.26280925
