TD3/preTrained/TD3_BipedalWalker-v3_0_critic_1_target_ep500.pth (torch_old, 529768 bytes, 5 tensors)

l1.weight f4 [400, 28]
000000 0f 77 6b 3e 56 c0 8d 3f d3 52 7b bf 41 a4 4c c0
       0.22994636 1.1074321 -0.98173255 -3.1975253
000010 c8 1d d2 3d 82 13 e3 be e0 7a fb be 29 0d fc bd
       0.102595866 -0.4435082 -0.49117184 -0.123071976
000020 01 f5 c5 bf e2 be 92 3f c7 f7 b6 be 2e bb 56 bf
       -1.5465394 1.1464503 -0.35735914 -0.83879364
000030 e9 d4 85 be 68 51 06 3f df d9 35 bf f5 59 39 bf
       -0.26139 0.52467966 -0.7103557 -0.7240289
000040 a1 77 1a bf b9 94 6a bf 0b c9 2e bf d4 71 17 bf
       -0.6033879 -0.9163318 -0.6827552 -0.5915806
000050 8f 6f 1e bf b7 50 17 bf 2b 2b 59 bf f6 e8 d5 be
       -0.61888975 -0.59107536 -0.84831494 -0.41779298
000060 42 48 3a be 6a e4 54 be 19 8e ac be cd 84 7c 3e
       -0.18191627 -0.20790258 -0.33702162 0.24660034
000070 96 1f 29 bf 77 e6 3d bf 73 86 91 c0 87 06 49 40
       -0.6606382 -0.74179786 -4.5476623 3.1410234
000080 61 a9 37 bf 5c 15 ab bd 7f c2 82 3d 6c f9 b2 ba
       -0.71742827 -0.08353683 0.063847534 -0.0013654656
000090 e0 25 0f 3d ff df 4e 3e ed 4d d0 3c 02 c5 ff be
       0.03494823 0.20202635 0.025427783 -0.49954993
0000a0 ff 92 18 bd ea 26 fc 3d b6 b8 58 3e 6a 24 2d 3e
       -0.03724956 0.1231211 0.21164212 0.16908422
0000b0 16 b3 68 bd e5 77 02 3d f2 ee a0 bc 51 12 91 3d
       -0.056811415 0.03185262 -0.019645188 0.07083572
0000c0 a0 68 c7 3d 36 96 40 3e eb 32 92 bd ab 45 a4 be
       0.097367525 0.18807301 -0.07138618 -0.32084402
0000d0 9f 03 86 3c 29 33 c1 3c ff 12 5d 3d 66 9a 26 bb
       0.016359149 0.023583965 0.053973194 -0.0025421618
0000e0 e5 50 bd 3f 8a 9b 40 40 23 c6 2e c0 08 15 be bf
       1.4790312 3.0094934 -2.7308433 -1.4850168
0000f0 59 87 0c bf a8 e9 44 3d 82 a2 0f bf c7 32 90 be
       -0.54894024 0.048074394 -0.5610734 -0.2816374
000100 93 1f f5 bd 5b 0d 74 be a5 01 95 be f7 45 4a be
       -0.11968913 -0.2383322 -0.29102817 -0.19753252
000110 a6 4d 20 be 8d b9 82 3e 6b a0 04 bf d4 9a 1b bf
       -0.1565462 0.2553219 -0.5180728 -0.60783124
000120 2f fa b5 be e2 a8 a5 be d8 a2 bd be e1 58 0d bf
       -0.35542437 -0.3235541 -0.37038302 -0.55213743
000130 be a2 27 bf 90 0e e2 be 8e 63 2a bf 9c d2 03 bf
       -0.654827 -0.44151735 -0.6655816 -0.5149324
000140 0e 32 0e bf e9 57 e2 3d 23 46 78 bd 2a f3 d8 bd
       -0.5554513 0.11051924 -0.060613763 -0.10593255
000150 4a d2 89 3d 8e c6 31 be 25 96 43 bf 1f f7 e5 3e
       0.067295626 -0.17360899 -0.7640098 0.449151
000160 78 db 38 3f aa d8 34 bf 02 27 b4 be 29 03 1b 3f
       0.7220988 -0.70643103 -0.3518601 0.60551697
000170 93 d9 95 3d db 6a 46 be 38 e5 54 bd c6 9f 80 bd
       0.073168896 -0.193767 -0.051976413 -0.06280474
000180 e3 2e 25 3f 85 d3 8e be 71 aa 13 bf 6d ee f9 be
       0.6452467 -0.27895752 -0.5768195 -0.48814717
000190 8e c4 fa be ba ec e5 be ce d0 a8 be 38 35 81 be
       -0.48978084 -0.4490717 -0.32971805 -0.25235915
0001a0 4e 73 9a be 47 5b 9b be 38 58 92 bd ac 9a 5f be
       -0.30166095 -0.30343077 -0.07145733 -0.21836346
0001b0 46 e3 83 be f3 6f 94 3e 78 94 1f 3f d9 b2 0d bf
       -0.25759333 0.2899166 0.6233592 -0.55351025
0001c0 ab 30 eb 3d 20 d3 d4 3e 52 76 19 3f e0 dd d1 bf
       0.11483892 0.41567326 0.5994617 -1.6395836
0001d0 6b c1 43 3e 56 d7 26 bc f6 71 60 bf aa 92 23 bf
       0.19116752 -0.010183176 -0.8767389 -0.63895667
0001e0 c1 01 c7 bf 2e 4a d7 be 8f db f0 3e 04 6e 66 bf
       -1.554741 -0.42048782 0.4704251 -0.9001162
0001f0 66 c6 b4 be 3c c3 0c bf 84 f4 26 bf db 8c 49 bf
       -0.35307616 -0.54985404 -0.6521685 -0.78730553
000200 bb 04 65 bf b4 00 71 bf 7b 56 4f bf b0 cb 7f bf
       -0.89460343 -0.941417 -0.80991334 -0.9992018
000210 6a e3 36 bf 76 2a 71 bf ea c9 2f bf 83 3e 3b be
       -0.71440756 -0.94205415 -0.6866747 -0.18285565
000220 f7 94 23 3e 75 df 08 3e 18 9a 2d bd 84 44 fc 3e
       0.15974794 0.13366492 -0.042383283 0.49271023
000230 79 fe 85 3e 11 fd ff 3f b0 f4 1a 3d a0 ef 90 3e
       0.2617071 1.9999105 0.03783101 0.2830782
000240 97 a0 1a 3f 38 4d 64 3f 94 c1 17 3f 0a 41 98 3d
       0.6040129 0.89180326 0.5927975 0.0743428
000250 d2 4b 0b bf b2 ee d0 be f7 2a 06 bf 9f 95 16 bf
       -0.5441257 -0.4080711 -0.5240931 -0.58822054
000260 37 67 df 3e 88 71 27 3f 23 88 54 bf 15 ad 1c bf
       0.43633434 0.6540761 -0.8302023 -0.612016
000270 6d d0 11 bf 83 a8 0d bf 13 85 16 bf 25 e5 44 bf
       -0.5695866 -0.55335253 -0.58796805 -0.76912147
000280 d7 ce 43 bf 1f 84 3a bf 2c f6 41 bf bd 27 2b bf
       -0.7648749 -0.7285785 -0.75766253 -0.6685751
000290 bf c7 8a 3e c2 49 32 3f fe ec 6b 3e c2 c5 77 3f
       0.2710552 0.69643795 0.23039624 0.9678613
0002a0 f9 40 b2 3f 2c 27 25 c0 37 5d e8 bf d1 b6 14 40
       1.3926078 -2.5805159 -1.8153447 2.3236582
0002b0 fb ee c7 be d7 27 e2 3e c6 71 72 bd 5d 1a 14 3e
       -0.39049515 0.4417102 -0.059190534 0.14463182
0002c0 7c 0e 92 bf b9 5a ab be 6a a3 d3 bb 25 e7 b7 3d
       -1.141067 -0.33467653 -0.0064586895 0.08979634
0002d0 e3 d2 6b 3d 97 72 4c bd 3c 54 b0 be 5e 9a c0 be
       0.057574164 -0.04991397 -0.34439266 -0.37617773
0002e0 8e 5f e9 be 62 84 36 be c1 28 53 be c1 03 54 be
       -0.45580715 -0.17823938 -0.20621015 -0.20704557
0002f0 b9 5f 53 be ae 48 c3 be 4e b5 7f bd 17 74 7a be
       -0.20641984 -0.38141388 -0.062428765 -0.24458347
000300 87 ce 40 3d c0 51 da b8 0d a6 54 be a0 d7 88 3d
       0.04707196 -0.00010410277 -0.20766468 0.06681752
000310 d2 b2 76 be a7 0a 0d c0 d6 a5 17 40 26 d2 a5 bf
       -0.24091652 -2.2037752 2.3694968 -1.2954757
000320 c1 bb f5 bd a0 ba 86 3d cd 51 cc bd fb f9 37 3d
       -0.11998702 0.06578565 -0.0997654 0.044916134
000330 2d 5f c7 3d f5 42 ba 3c 5f c0 b0 3e ba f0 7a bf
       0.0973495 0.022737006 0.34521767 -0.9802357
000340 0a cc d0 be dc cc 41 bd ec 66 91 be 42 b3 12 bf
       -0.4078067 -0.04731451 -0.28398836 -0.57304776
000350 8b a5 df be ce 6f aa be 6b 55 26 bf a9 22 11 bf
       -0.43680987 -0.33288425 -0.6497409 -0.5669351
000360 0d 34 28 bf 23 19 97 be 07 53 01 3e c6 e6 b5 3e
       -0.65704423 -0.29511365 0.12629329 0.3552763
000370 58 66 47 3e 2a 1a e4 3d a0 1a 66 3c 0e 60 ba bd
       0.19472635 0.11137803 0.014044434 -0.09100352
000380 a1 b6 bc 3e 70 ed ba 3f 26 04 2e bf 51 d8 b2 bf
       0.36858085 1.460371 -0.6797508 -1.3972265
000390 bf 52 46 bf de 13 04 bf 24 30 c7 bd 26 f5 28 be
       -0.7747001 -0.51592815 -0.09725979 -0.16499767
0003a0 a7 07 49 bc 28 75 71 be 44 b1 2b bf 09 3c 37 bf
       -0.012269891 -0.23579848 -0.6706736 -0.7157598
0003b0 83 70 a0 be 95 98 7d bd a0 71 b2 be e1 1b 4b be
       -0.3133584 -0.06191309 -0.34852314 -0.19834854
0003c0 32 41 eb be 50 40 79 be d2 ad c2 be cc 5c 06 bf
       -0.45948178 -0.2434094 -0.3802324 -0.52485347
0003d0 29 f1 7a be d4 48 e3 be 48 93 26 be be 48 10 bf
       -0.24506058 -0.443915 -0.16267121 -0.56360996
0003e0 68 7f 92 3f e1 2a 10 3f 75 e3 1a be af 6b a7 bd
       1.1445131 0.5631543 -0.1512583 -0.08174836
0003f0 16 40 24 3e 35 20 15 3e 4b fa 70 3f 79 3c 54 be
       0.16040072 0.14563067 0.94131917 -0.20726193

l1.bias f4 [400]
000000 a9 cb f7 be 48 d4 55 bf 68 ed 01 bf 64 33 03 3f
       -0.48397568 -0.8352704 -0.5075288 0.5125029
000010 4b 6d a6 3e 65 bd f6 be af 35 44 be 15 5c 67 3f
       0.3250526 -0.48191372 -0.19161104 0.9037488
000020 7c 77 23 bf 4f 15 ab be 68 dc a5 be 05 8b 12 bb
       -0.63854194 -0.33414695 -0.3239472 -0.0022360694
000030 fb ed 3f be 56 7b 97 be 94 6a 66 bf 55 62 34 bf
       -0.18743126 -0.29586285 -0.90006375 -0.7046254
000040 5e 1e 9d bd af 11 0a bf 17 3e 07 be 13 80 85 be
       -0.07671808 -0.53933233 -0.13207279 -0.26074275
000050 9e 20 9b be 96 9a 97 be ad 3c 04 bf ee 2e f0 be
       -0.30298322 -0.29610127 -0.51655084 -0.46910805
000060 9e f5 46 bf 11 c2 84 bf b9 ce 68 bf 37 a7 3d 3e
       -0.7771853 -1.0371724 -0.90940434 0.18520819
000070 7b 54 69 be bf 8e c2 be a3 d8 b3 be 6b a5 15 bf
       -0.22786133 -0.37999532 -0.35126218 -0.5845553
000080 ec 79 01 bf d8 12 3a be 18 5d 1b be 07 6a f4 be
       -0.50576663 -0.18171251 -0.15172231 -0.47737142
000090 72 14 5d bf 76 60 13 bf dd 3c fb 3e 23 6f e5 3e
       -0.8635932 -0.5756906 0.49069872 0.44811353
0000a0 46 c8 14 3f 4b bb 89 3f 31 b7 4a bf 87 09 28 bf
       0.58118093 1.0760282 -0.7918578 -0.6563954
0000b0 cc 81 43 be 3a 0d 5f bf c0 7b bb be 69 d5 1e bf
       -0.19092482 -0.8712956 -0.3661785 -0.6204439
0000c0 f6 4b 15 be 8f e8 e2 be 94 e3 2f be 5a fd 71 bf
       -0.14579758 -0.44318053 -0.17176658 -0.9452721
0000d0 e7 04 28 3f 05 d8 64 3c a7 f7 10 bf d1 8d 4f be
       0.6563248 0.013967519 -0.5662789 -0.20268942
0000e0 54 0a bb be d5 fc f9 be 7a bd 64 be 95 34 19 bf
       -0.36531317 -0.48825708 -0.22337905 -0.5984586
0000f0 67 3e 31 bf 3f 7a 92 3e 61 0e 90 3e 77 c9 c1 be
       -0.69235843 0.2860889 0.2813597 -0.37849018
000100 fd 60 02 be 27 9b 8b be e8 40 09 bf ab 7a 2e bf
       -0.1273231 -0.2726681 -0.53614664 -0.68155926
000110 63 3c 32 bf c3 ed 2e 3f d0 c7 80 bf ce 2d b9 be
       -0.6962339 0.68331546 -1.0060978 -0.3616776
000120 00 13 17 bf 27 3e 1b bf 5c f1 14 bf 9d a3 ac 3e
       -0.59013367 -0.6064171 -0.58180785 0.33718577
000130 f5 e6 70 bf 7e 8d d3 be ef 54 c7 bd 7d 40 fb be
       -0.9410241 -0.41318887 -0.09732997 -0.49072638
000140 79 01 96 be 44 f3 70 be c5 5e da be 88 1b 9b be
       -0.29298 -0.23530298 -0.42650428 -0.30294442
000150 94 ff bf 3e 38 71 45 3f 58 f9 38 3b 62 74 5c be
       0.37499678 0.77125883 0.0028224792 -0.21528772
000160 d3 eb 88 be 12 a9 54 be b6 8d 63 bf 44 c8 85 bc
       -0.2674242 -0.2076762 -0.8888811 -0.016330846
000170 e9 7c 16 3f f1 6e 5a 3f 2f 97 1c 3f b6 c3 c9 bd
       0.5878435 0.85325533 0.6116819 -0.09851782
000180 e4 40 ff bc 96 ea 12 be b3 d5 3e 3f 44 ae bb 3c
       -0.031158872 -0.143473 0.7454483 0.022910245
000190 c6 a8 a0 3f bc 00 86 bf 1f c5 98 be ff 44 a6 be
       1.2551506 -1.0468974 -0.2983789 -0.32474515
0001a0 06 0f 18 be 20 62 ea 3c 0d 17 81 bd 5e c9 d6 3e
       -0.14849481 0.028611243 -0.06303225 0.41950506
0001b0 e6 1a 1b bf 52 7c 60 bf dc 5f 8a 3d 34 c9 01 bf
       -0.6058792 -0.876897 0.06756565 -0.50697637
0001c0 83 a6 69 bc 6c 36 3c 3f 80 ba 56 be e5 cb 8e be
       -0.014260891 0.7352054 -0.20969582 -0.27889934
0001d0 43 03 66 bd 1b 14 ee bd 5b 88 01 3f 65 f1 be 3d
       -0.056155454 -0.116249286 0.50598687 0.09323386
0001e0 3c 67 7c be f6 1e 10 be 00 4b 94 bd 0c 18 53 be
       -0.24648756 -0.1407431 -0.072408676 -0.20614642
0001f0 e9 9f 18 bf 4f f9 df 3d 17 aa 11 be 7b f2 25 be
       -0.59619004 0.10936224 -0.1422504 -0.1620578
000200 b7 5b 40 3f 0a 41 51 3e 17 e8 21 bf ef bd 18 bf
       0.75139946 0.20434967 -0.63244766 -0.59664816
000210 b7 13 49 3d 3e 42 f9 be 34 10 2b 3d 9f 76 17 bf
       0.049091067 -0.4868335 0.0417635 -0.59165376
000220 75 16 22 bf a4 f3 5b 3f fa d8 fb be b3 93 14 bf
       -0.63315517 0.8591864 -0.49188977 -0.5803787
000230 dc 29 5b bf 26 6a 75 3f 13 c2 46 bf 7c 7d 47 bf
       -0.8561075 0.95865095 -0.77639884 -0.7792585
000240 d6 ef 43 bf 87 66 b5 be b2 aa 58 3e f2 59 d0 be
       -0.76537836 -0.35429785 0.21158865 -0.40693623
000250 b8 96 5f 3f a1 df c7 be 9b 04 49 3d 33 89 5d 3f
       0.87339354 -0.39037803 0.049076658 0.86537474
000260 69 90 7e be ed f0 1b 3f 36 a0 8f be d6 dc 33 bf
       -0.24859776 0.609145 -0.2805192 -0.70258844
000270 fb dc 61 be 5b e8 7d bf af ed ae bd e2 8c f1 be
       -0.22056954 -0.9918267 -0.08541428 -0.47177798
000280 31 07 ca bd 8b 34 60 be 2e ca 9d be d6 47 11 bf
       -0.09864653 -0.21895044 -0.30818313 -0.5675024
000290 b2 a3 2f be 41 54 9f 3f 13 9e 14 bd 0c 64 33 bf
       -0.17152289 1.2447587 -0.036283564 -0.70074534
0002a0 5a 17 1f 3e f3 99 3b bf 38 1d 84 be 72 25 4b bf
       0.15536252 -0.7328178 -0.25803542 -0.7935401
0002b0 d4 a2 03 bf 49 6a 21 bf 40 8a c8 bd 2d 05 10 3e
       -0.5142033 -0.63052803 -0.09791994 0.14064474
0002c0 79 28 86 3e 2e 89 12 bf de c2 64 3e 38 b7 f2 be
       0.26202753 -0.5724057 0.22339961 -0.4740541
0002d0 4c 3c 6e bf 9d 51 21 3f 23 4e 85 bf d4 c0 89 3f
       -0.93060756 0.63015157 -1.041447 1.0761971
0002e0 b9 65 4a be 95 4a 83 bd 25 a4 05 bf 9e 1f 9c be
       -0.19765367 -0.0641071 -0.5220359 -0.30492872
0002f0 29 80 18 bf 9d 5d 82 be e1 3f 3d bf 92 77 cb 3d
       -0.59570557 -0.25462046 -0.73925596 0.099349156
000300 a0 af 36 bf 80 d7 b3 be 02 9a 22 bf 6c 3e 72 bf
       -0.7136173 -0.3512535 -0.6351625 -0.946265
000310 c9 dc 45 bf 95 2a 6a 3e 22 54 45 3f 1f 85 f5 be
       -0.77290016 0.22867806 0.770815 -0.47953126
000320 46 0e 43 bf b1 58 19 bf eb 34 0e bf 84 86 c4 3f
       -0.76193655 -0.5990096 -0.55549496 1.5353551
000330 da 3d 41 bf 39 7d 19 3e ed 17 ad be d1 f9 12 bf
       -0.75485003 0.14989175 -0.33807316 -0.5741244
000340 1c d6 62 bf ae ea 7a 3e fd b0 9c be 16 4e 7f 3f
       -0.88607955 0.24503586 -0.3060378 0.99728525
000350 37 8a e5 bd c4 0a 5c be 85 b4 7b bf 32 0d 1f 3d
       -0.11208003 -0.21488482 -0.98322326 0.038830943
000360 a2 e6 f6 be aa 5d cd be 74 db ed be 3e bf 26 bf
       -0.48222834 -0.40110523 -0.46456492 -0.6513556
000370 61 c4 ba be 58 8f e2 3e dc ff 0e bf 0a 31 4e be
       -0.3647795 0.44249988 -0.5585916 -0.20135894
000380 00 b2 6e bf 58 c0 70 3f 8e 78 35 bf 59 ad 49 be
       -0.93240356 0.94043493 -0.70887077 -0.19695033
000390 38 3b 5a be c5 68 a9 be bd 17 f9 be 62 df 15 bf
       -0.21311653 -0.33087745 -0.48650923 -0.5854398
0003a0 ce 49 d9 be 83 f7 68 be ea f5 48 be 0d 87 5b bf
       -0.4243912 -0.22750668 -0.19625059 -0.85752946
0003b0 ab e2 34 3c 73 7a a4 be 80 74 b7 be b2 bb 7f bd
       0.01104037 -0.3212467 -0.3583107 -0.06243486
0003c0 07 34 d0 bd e0 71 1a 3e cb 7e 24 bf 48 5c c6 3e
       -0.101661734 0.15082502 -0.6425597 0.3874228
0003d0 fc 03 28 bf f0 7f 9d be 1d e3 83 bf 2f 97 16 bd
       -0.6563108 -0.3076167 -1.0303684 -0.036765274
0003e0 c1 6e a5 bf 8f 4e 19 bf 0a 43 68 3d a1 50 52 bf
       -1.2924424 -0.59885496 0.05670456 -0.8215428
0003f0 fb d4 e6 bd 22 1f 76 bf db e4 08 bf 57 4e 96 be
       -0.112710916 -0.96141255 -0.53474206 -0.29356644

l2.weight f4 [300, 400]
000000 bf 51 29 bd 24 51 fe 3c e0 ff 32 bd c0 21 4a 3c
       -0.041337725 0.03104455 -0.043701053 0.012337148
000010 01 45 da 3b 41 54 4c bd b3 a3 64 ba 97 40 a6 bc
       0.006661058 -0.04988504 -0.0008721903 -0.02029447
000020 50 0f c5 3c f0 24 44 3c c0 3c 78 bc ab a8 62 bd
       0.024055153 0.011971697 -0.015151203 -0.055336636
000030 85 dd 16 3d 28 dd fa bb 99 b8 44 bd e2 5a 5a 3d
       0.03683235 -0.0076557584 -0.04802761 0.05330933
000040 19 d8 45 bd fd e5 89 bc ee 5e 99 bc 71 c3 4d bb
       -0.04830179 -0.0168333 -0.018722024 -0.003139701
000050 22 9f 80 3c 70 7b bf bb 52 34 5c bd 25 8a 01 bd
       0.01570088 -0.0058435723 -0.053760834 -0.031625886
000060 75 1b 82 bd cf 4d 2c bd e5 40 88 bc 48 eb 34 bd
       -0.06352893 -0.04206639 -0.016632507 -0.044169694
000070 11 ec 40 3d 2f eb a4 bd c8 32 c0 3b e0 57 34 bb
       0.04710013 -0.0805267 0.0058654286 -0.0027518198
000080 ed cf 82 3c 20 b2 c0 3b 16 30 16 bd 8f 2e 2c bd
       0.015968287 0.005880609 -0.036666952 -0.04203659
000090 13 49 fd 3b 1b 04 60 bc 46 09 17 bd 04 84 75 bd
       0.0077296584 -0.013672854 -0.03687408 -0.059940353
0000a0 ff cf ae bc 66 2f 26 3c eb 97 ea bb 9f c9 21 3d
       -0.021339415 0.010143137 -0.0071592233 0.03949892
0000b0 84 7b 05 3c 5a b7 58 bd f9 ce 46 bd 28 ba 43 bc
       0.008147124 -0.052909233 -0.04853723 -0.011946239
0000c0 6a 7a 58 bc 8a 7b e9 3c a1 99 5b 3c 81 33 df 3c
       -0.01321278 0.02850129 0.013403327 0.027246239
0000d0 d8 df 32 bd 75 53 81 bd 9e 6a 9c bd aa 20 68 3c
       -0.043670505 -0.06314746 -0.07637523 0.014167944
0000e0 35 b6 95 3c 31 0e 4d bd 62 aa ec 3c 86 79 16 bd
       0.01827536 -0.050062362 0.028889839 -0.036736988
0000f0 58 70 36 bc 81 62 d3 3c 60 82 30 bc 1a 85 57 bd
       -0.011135183 0.025803806 -0.010773271 -0.05261717
000100 35 86 84 bb b6 c4 1d bc 54 6c f4 3c ae 8e 90 bc
       -0.004044319 -0.009629419 0.029836811 -0.01764616
000110 ed dd 08 bd 2c 94 74 bc b5 80 87 3d f1 4f 41 bd
       -0.03341477 -0.014927905 0.06616346 -0.04719538
000120 d9 04 4a bc 9e 35 10 bd 85 cb 80 bc 86 94 1e bd
       -0.012330257 -0.035207383 -0.015722046 -0.03871586
000130 21 c1 4a bd 52 0d 56 bd e9 57 4b bd a0 5f 3b bc
       -0.04950059 -0.052258797 -0.049644385 -0.011436373
000140 b7 03 20 bc 50 a8 5c 3b 43 f2 ec bc c3 a6 6a bd
       -0.009766511 0.0033669658 -0.028924113 -0.057287943
000150 16 9d a1 3c 89 9a 4f bd 90 c1 39 bd 03 a7 44 bd
       0.019728225 -0.050684486 -0.04535061 -0.048010837
000160 8b 99 64 bd 6f 7c 2b bc 2d 37 90 3c 09 db d7 3b
       -0.055810492 -0.010466679 0.017604435 0.0065873903
000170 fc bb f7 bc f4 7a 09 3d 5b b4 65 bc b0 be b5 3b
       -0.030241005 0.033564523 -0.014020051 0.0055464134
000180 ee f3 95 bd 72 a5 d2 bb b8 f0 37 bd bd a7 8a bb
       -0.073219165 -0.006428414 -0.0449073 -0.0042314217
000190 11 bd 59 3c f3 bb 61 bc 47 7a b2 3c b4 54 06 3d
       0.013289706 -0.013777721 0.021786822 0.032795623
0001a0 3d da 8c bd 7b 5f e3 bc 9f bf 2b bd 27 ad 29 bd
       -0.06877563 -0.02775549 -0.04193079 -0.041424897
0001b0 c5 9d 11 3a 19 80 c3 bc c7 fa a7 bd 27 4e 24 bd
       0.00055548205 -0.023864793 -0.08202129 -0.040113594
0001c0 68 67 47 3c d8 20 3d bd 33 ca 68 bd 1a b0 d4 bc
       0.01217065 -0.0461739 -0.056833457 -0.025962878
0001d0 9f f1 2b bd df b7 3e 3c d1 dc c2 bd 0f da 37 3b
       -0.041978475 0.011640518 -0.09514774 0.0028053557
0001e0 01 f1 4e bc c6 86 19 bd 05 e5 82 bd 71 30 d9 3c
       -0.012630702 -0.037482046 -0.06391338 0.026512356
0001f0 57 41 29 bd d2 b6 d9 bb 9d 18 19 3d 55 90 87 bd
       -0.04132208 -0.0066441083 0.03737699 -0.06619326
000200 a6 a7 93 bd 24 bb 7d bd e6 19 9b bd fd f7 06 bc
       -0.07209711 -0.06194605 -0.07573299 -0.008237836
000210 75 09 85 3d 57 29 2d bc ee 77 19 bd d1 2b d3 3c
       0.064959444 -0.010568938 -0.03746789 0.02577773
000220 37 68 22 bd 55 e0 1b 3c c0 b8 b5 bc 59 02 d9 3c
       -0.03965017 0.009513934 -0.022182822 0.026490377
000230 70 a9 b0 bc 87 48 b3 3c cd e0 07 bd 61 c5 c2 bc
       -0.02156517 0.02188517 -0.03317337 -0.023775758
000240 cc a9 0c 3a 72 2b 5e bb 8d 9f 15 3c 60 e8 38 bd
       0.0005365878 -0.0033900407 0.009132278 -0.045143485
000250 e3 9d ec bc 12 41 5d bc a1 cd ca bc c8 56 ba bd
       -0.02888388 -0.0135042835 -0.024756255 -0.090985835
000260 40 b3 06 bc d7 38 20 bd 81 34 4a bd dd 5c 17 3c
       -0.0082214475 -0.039116707 -0.049366478 0.009238449
000270 81 38 da 3b e3 8f ff 3c 69 a8 c8 bc 76 70 91 bd
       0.006659568 0.03119654 -0.024494367 -0.07101528
000280 9f 6c 24 bd 5c ec 94 bc 9c 27 71 bd 55 40 8c bd
       -0.04014265 -0.018179111 -0.058875665 -0.06848208
000290 47 b4 20 bd e4 9a 79 bd a4 1d 78 bd 4a d1 4b bd
       -0.039234426 -0.06093873 -0.060575143 -0.04976014
0002a0 69 bb 49 bd a3 7d 68 bd 4f 3e 80 bd a5 c9 9e 3c
       -0.049250994 -0.05676044 -0.062618844 0.019383261
0002b0 e3 3d e3 bb ef 6a b0 3c b0 91 35 bd 40 f8 b9 bb
       -0.0069348677 0.021535365 -0.04432839 -0.0056753457
0002c0 d1 84 c0 bc af c5 24 bd c6 08 95 bd 3f 39 2b 3d
       -0.023500832 -0.04022759 -0.07277064 0.04180264
0002d0 6c 0b 77 bd 17 46 23 bd d6 16 96 bc 3b 0e 7c 3c
       -0.060313627 -0.039861765 -0.018321436 0.015384252
0002e0 c9 f5 45 bd f5 88 0f bd cf 6a 23 bd 08 11 4f 3c
       -0.048330102 -0.03504272 -0.039896782 0.012638338
0002f0 24 04 f6 ba 99 47 42 bd 8f 6c 2a bd eb 8b ec 3c
       -0.0018769545 -0.047431562 -0.041607436 0.028875312
000300 a7 c6 ab bc 87 72 ac bb 3a 80 e9 39 8f fc 2b bc
       -0.020968748 -0.005262676 0.0004453676 -0.010497226
000310 ab 73 ef bb 3e 6e 1e bd 1a 15 d9 bb a9 2b 49 bd
       -0.00730749 -0.038679354 -0.00662483 -0.049113903
000320 64 36 f7 bb 6f 55 a5 bc ad 40 04 bc 21 da 4a bd
       -0.0075443257 -0.02018234 -0.0080720605 -0.04952443
000330 20 25 b2 bc ef 5a a2 bc f4 43 75 bc 89 e8 db 3c
       -0.021746218 -0.019818751 -0.014969815 0.02684428
000340 1d 8f 18 3d de f5 a3 3c 0d d4 05 3d 00 3d ba bd
       0.03724586 0.0200147 0.03267293 -0.09093666
000350 80 ea 34 bd b7 60 36 3c 17 f8 a4 bc b7 07 b0 3b
       -0.04416895 0.011131457 -0.02013783 0.0053720134
000360 0d e2 ec bc 49 42 4c bd 58 ee 3a bd d3 73 60 bb
       -0.028916383 -0.049867902 -0.04563746 -0.0034248724
000370 6e 4a 12 bd b8 bb 44 3c b9 21 cd bb 7b 9d fa 3b
       -0.035715513 0.012007646 -0.0062601236 0.0076481677
000380 77 35 38 3c 12 ea de bc e0 2d 3c bc 7e 01 14 bd
       0.011243216 -0.027211223 -0.011485547 -0.036134236
000390 7d 42 05 bd b5 85 02 bd 1f 0a aa ba c2 3d ef 3c
       -0.03253411 -0.031865794 -0.0012972987 0.029204253
0003a0 9e 67 29 3d 70 28 be bc 43 46 f8 3c c1 b7 4a 3d
       0.041358583 -0.023212641 0.03030694 0.049491648
0003b0 57 52 bb 3c 3b 11 6f bc 71 07 cb bc 9d 46 89 bc
       0.022866411 -0.01459151 -0.024783822 -0.016757304
0003c0 45 cd 87 bc d7 13 bb 3c ed 7a 8c bd ea 7e d1 bc
       -0.016577372 0.022836609 -0.06859384 -0.025573213
0003d0 c2 19 5c bc 75 28 9d 3b e7 97 38 3a 97 47 29 bc
       -0.0134338755 0.0047960826 0.0007041678 -0.01033201
0003e0 7d 9c 27 bd 24 99 72 bd e9 0f d7 3c b4 06 fa bc
       -0.040920723 -0.059228078 0.026252704 -0.030520774
0003f0 e2 d5 52 bd 7b 79 67 bd 78 33 b0 bd ef fe 28 bd
       -0.051473506 -0.056512337 -0.08603567 -0.04125875

l2.bias f4 [300]
000000 00 0a b6 bd 2e 0f 9f bd 47 cb 31 3d 53 e6 68 bd
       -0.08888626 -0.07766567 0.04340675 -0.05686028
000010 aa a4 d2 bd 82 a0 d1 bd d7 3f a3 bd 6a 77 34 be
       -0.102853134 -0.102356926 -0.07971161 -0.17623678
000020 c3 1b e4 bc a8 80 bf bc 6b 89 62 bd 89 75 d1 3b
       -0.02784527 -0.023376778 -0.055306833 0.006392185
000030 56 0a 0a 3e d7 06 39 3d 1f a5 8a bd 01 54 4b bd
       0.13480505 0.04517254 -0.067697756 -0.04964066
000040 af f6 a0 bd e6 fe 2b 3c 77 f2 a5 bd 87 eb 35 3d
       -0.07859551 0.010497784 -0.08102887 0.04441407
000050 76 86 9e bd 30 ad 3f bd 31 79 50 3d 35 6f 8c bd
       -0.0774049 -0.046796024 0.050896827 -0.068571486
000060 23 ca 6e bd 42 4c de bd b3 1b ea bb d9 08 41 bd
       -0.05829824 -0.10854389 -0.0071444153 -0.04712758
000070 b1 03 53 3f 39 45 c5 bc 39 13 5e 3d b0 d3 8d 3e
       0.8242751 -0.02408086 0.05421755 0.27700567
000080 48 b2 31 bd bd 82 8c bd f0 c2 b2 bd 53 f8 fe 3c
       -0.043382913 -0.06860874 -0.087285876 0.03112427
000090 25 7c 14 3e cf 1c b0 3d d0 0b b7 bc 36 b5 aa 3d
       0.14500482 0.08599245 -0.0223445 0.083353445
0000a0 df 0b b1 3a bf 91 af bd 2c da f9 bb 8e aa a8 3d
       0.0013507566 -0.08572721 -0.007624885 0.08235656
0000b0 74 23 70 bd 6d 5e 97 3d a7 3b be 3d eb 14 6b bd
       -0.05862756 0.07391057 0.092887215 -0.057392996
0000c0 38 b1 b3 bc ca 77 da bc 1e 18 97 bd 00 61 4d 3d
       -0.02193509 -0.026668448 -0.07377647 0.050141335
0000d0 82 bd fe 3d 75 7c 0f bd 52 ef da bc 57 30 30 3c
       0.124384895 -0.0350308 -0.026725445 0.010753713
0000e0 49 d5 59 3d 4f 1b aa bd 4f bb ba 3d cd e1 8b bd
       0.05318192 -0.0830599 0.091177575 -0.068301775
0000f0 d2 ad 0c 3f 20 02 3c bd 60 c2 b6 bd 9d 55 4c 3f
       0.5495273 -0.045900464 -0.08923793 0.79818135
000100 e1 3e 4e bd d5 c2 89 bd 05 39 8e bc 00 7f 48 3d
       -0.050352935 -0.067266144 -0.017361173 0.04894924
000110 f1 f3 c7 bd 10 c4 6a bf 21 b3 c4 bc f6 47 9e ba
       -0.09763325 -0.9170542 -0.024011197 -0.0012075889
000120 cd ae 87 bd 9b 6a 09 c0 d0 8f 0b be 3e 45 90 bd
       -0.066251375 -2.1471317 -0.13629079 -0.07044457
000130 51 ab 44 bd f8 a3 49 3c 7f 43 a2 bd 6d 78 82 bd
       -0.048014943 0.01230716 -0.0792303 -0.06370626
000140 c6 04 1e bc 2c 9d 7f bd 0f 7f a9 bd bf ad a2 bd
       -0.009644693 -0.06240575 -0.08276188 -0.07943296
000150 e1 bf 45 bd 6c 0b f7 bc 8b 4a 6d bd 6d 85 04 bd
       -0.048278693 -0.030156814 -0.057932418 -0.032353807
000160 8c d6 d8 bf b5 83 93 3d ae d5 99 bd 23 40 01 3e
       -1.6940475 0.072028555 -0.07511459 0.12622122
000170 a7 47 84 bf 56 10 94 bd a7 30 ab bd e5 ec 15 3c
       -1.0334367 -0.07229678 -0.08358889 0.009150718
000180 d2 11 98 be 27 d7 bb 3d af 0c ae bb e0 58 b9 bd
       -0.29701096 0.091718964 -0.0053115706 -0.09050155
000190 43 82 6e bc 7e 22 1b bc c1 c9 47 bd 37 be 35 3d
       -0.014557424 -0.009468673 -0.048776392 0.044370856
0001a0 8f 81 1c 3d 96 2a 99 bd d2 7a e3 3d fa 0a 64 3e
       0.038209494 -0.07478826 0.111074105 0.22269812
0001b0 4e 3a a9 3d 58 84 bb bd 4d 31 4c 3f 40 f5 4e 3f
       0.08263074 -0.09156102 0.7976273 0.8084297
0001c0 4c 46 75 bd 4d c3 8e bd 05 c6 83 bd c2 7b d4 bd
       -0.059881493 -0.069708444 -0.064342536 -0.103751674
0001d0 4b 2b ed bc 6a 9e b9 bf 1d 28 8c bd 76 82 a7 3d
       -0.028951308 -1.4501469 -0.068435885 0.0817918
0001e0 a0 a1 30 bd 44 ad 84 3d 6a c5 58 bc 95 1e 82 bd
       -0.043122888 0.0647836 -0.013230661 -0.06353489
0001f0 02 31 d5 bd 07 6a 3c 3d 7c 82 0b 3d 07 79 ad bd
       -0.10409738 0.045999553 0.034059986 -0.0847035
000200 4b b2 7c 3d 5f a4 22 bd 59 de 45 bd 18 fc 3f bc
       0.06169347 -0.039707538 -0.04830775 -0.011717819
000210 44 e3 a6 3d d9 b7 5a 3b eb 62 25 3e 84 7f fc bd
       0.08148816 0.0033373742 0.16151015 -0.12329009
000220 d8 6c 3f 3f 5d 1f 82 bd 2f 9c 2d bd f8 dc cc 3b
       0.7477546 -0.06353638 -0.042385276 0.0062519275
000230 c2 8d 51 bd d6 76 9e bd 9e cc 94 bd 7f c1 a6 bc
       -0.05116058 -0.0773751 -0.0726559 -0.020355938
000240 d4 9e 0f 3c 90 93 b0 bd 3e 7d 28 3d de a2 1c bd
       0.008765895 -0.08621895 0.041135065 -0.03824126
000250 7a 99 51 bb d5 aa 0d bd 66 39 9c bd 52 b5 50 3f
       -0.0031982348 -0.034586746 -0.076281354 0.8152667
000260 87 c9 aa bd 10 95 36 bd 86 1a 11 bc ee ac a5 3d
       -0.083392195 -0.04457575 -0.008856421 0.08089624
000270 2d a0 8b bd e9 bb 4b bd af 26 b2 3d 45 e5 83 bd
       -0.068176605 -0.049739752 0.086987846 -0.06440214
000280 4b 37 eb bd 15 51 04 bd 43 86 e5 b9 24 ad 77 bd
       -0.11485156 -0.03230389 -0.00043778316 -0.060467854
000290 c5 96 0e be 4e 73 93 bd 18 05 7d 3e a3 1a 6c bd
       -0.13924702 -0.07199727 0.24708974 -0.05764259
0002a0 5f d3 e7 bf ca 68 d0 bc 2f 78 b3 3c de 56 06 bf
       -1.811138 -0.025440592 0.021907894 -0.524763
0002b0 fe cd 26 3d aa b0 d0 bd d5 54 93 3d 46 24 9f bc
       0.040723793 -0.10189946 0.07193915 -0.019426476
0002c0 fd 28 83 bd d6 c8 df bd 0f c1 b7 3d be e2 ae 3d
       -0.06404302 -0.10926978 0.0897237 0.085393414
0002d0 6a 23 5a bd 2e 4d 9d bd 67 65 36 3d 17 30 2f bd
       -0.05325643 -0.076807365 0.0445303 -0.04277047
0002e0 d7 e8 24 bd ec fe ef 3f 49 f7 cb bb 8f 07 a6 bc
       -0.040261116 1.8749671 -0.006224547 -0.020267276
0002f0 15 85 d1 3d b0 7c 84 bd b3 06 70 3c 7e 86 9b bd
       0.102304615 -0.06469095 0.014650035 -0.07594012
000300 59 ac de 3d de 50 99 bd e4 28 f3 bc e5 f4 03 bd
       0.108727165 -0.07486127 -0.029682584 -0.03221597
000310 54 4a 82 3d 46 28 16 bd 6b 8c ee bc 35 ee 14 3d
       0.06361833 -0.0366595 -0.02911969 0.036359984
000320 0b f0 e0 bd 06 37 9f bd e0 81 c7 3a 32 a6 d6 3d
       -0.109832846 -0.07774167 0.0015221201 0.10480918
000330 d1 80 c9 bd 95 c2 08 bc 4d 62 9a 3d af 12 ad bd
       -0.09839023 -0.008347173 0.07538281 -0.08450829
000340 4a 0e 5d bd fd ea 84 bd 5b b4 7e 3d c2 fc de bf
       -0.053968705 -0.06490133 0.06218372 -1.7420886
000350 a8 1f 32 bd b9 d7 50 3d 95 b6 8a bd 33 30 15 3e
       -0.04348722 0.05098698 -0.06773106 0.14569168
000360 74 eb f0 bc c7 c3 0e c0 b3 e8 7e 3d de 93 12 bd
       -0.029409148 -2.2306993 0.062233638 -0.03578555
000370 05 19 8b bd 6e a6 49 3f bc 4f 08 3d 3e 8a 91 bd
       -0.067918815 0.78769577 0.033279166 -0.07106446
000380 f6 b0 99 bc 31 be d1 3c d0 17 b5 bb 7d 6d 82 bd
       -0.01876114 0.025603386 -0.0055265203 -0.063685395
000390 d3 6c f6 3c 52 54 4e be af 70 ae bd 60 4d 4f 3f
       0.030081188 -0.20149353 -0.085175864 0.8097744
0003a0 bf 37 a5 bd 7b ac 74 3c 11 c1 50 3d 20 cd af bd
       -0.08067273 0.014933701 0.050965372 -0.08584046
0003b0 9b ef f1 3c d1 6a 55 3e 42 b3 51 bd a6 7a 58 3f
       0.029533198 0.20841528 -0.051196344 0.84562147
0003c0 23 4c 6a bd de 03 11 bd bb 6d 03 40 cd 0c 89 bd
       -0.057201516 -0.03540408 2.0535724 -0.06691895
0003d0 f3 2b 4f 3d 37 6b 2e be 3f 15 b1 3d dd 26 07 bd
       0.050579023 -0.17033087 0.086466305 -0.032996047
0003e0 69 7c 47 bd 9c 55 55 3f 08 d6 c3 3d 95 18 83 bc
       -0.04870263 0.83333755 0.095623076 -0.016002933
0003f0 7a 4f 6e 3c 0a e1 d6 bb 7c e5 87 3d e2 36 98 3d
       0.014545316 -0.0065575885 0.066355675 0.07432343

l3.weight f4 [1, 300]
000000 0c 01 73 3c 9b 37 7f bc 73 87 70 be 4c 34 78 3c
       0.014831793 -0.015577222 -0.2348917 0.015149187
000010 9b 00 eb 3c fb bd ff 3c 04 b9 81 3b 28 d5 17 3e
       0.028686812 0.03121852 0.003958823 0.14827406
000020 28 76 c7 3b 92 67 e1 bc 41 1f c0 bc 8e 5e a4 3b
       0.0060870834 -0.027515206 -0.023452403 0.0050161546
000030 00 23 4c 3e 1a 46 6e be 28 27 2e be b2 f3 df bc
       0.19935226 -0.23268929 -0.17007124 -0.027337883
000040 d7 f0 2b bc 81 cf 5e 3c 2a 18 df 3c 21 21 54 be
       -0.010494432 0.0135992775 0.027233202 -0.20715763
000050 1b a4 ef 3b e1 1a d4 3b b2 b0 66 be 1b 66 71 bc
       0.007313264 0.006472931 -0.22528341 -0.0147338165
000060 a8 d8 c1 b8 c6 cb 9a bc 95 df 18 3d 1b 93 f6 3c
       -9.2433125e-05 -0.018895995 0.0373226 0.030099442
000070 9b bf 42 be 29 fa ca 3b 7b 63 73 be 18 f3 59 bf
       -0.19018404 0.006194372 -0.23768418 -0.85136557
000080 4f ff b6 bb 9f 5b 2b bc 4f 57 a0 bb 5b cb 76 be
       -0.0055846344 -0.010458856 -0.0048932205 -0.24101011
000090 0a 25 6d be 4c 4a 85 be fc 9b 8d b9 b1 da 5f be
       -0.2315866 -0.26033247 -0.00027009833 -0.21860768
0000a0 8f b6 3f 3d 0a 85 dd bb 9b 72 f1 3b 48 e2 42 be
       0.04680496 -0.0067602443 0.0073683984 -0.19031632
0000b0 f0 45 b2 b9 e6 17 ac be d3 a3 71 be 55 7f 0e 3c
       -0.00034002913 -0.33611983 -0.2359765 0.0086973505
0000c0 39 a3 5f bc 19 b3 c7 3c 30 d6 34 bc 2c b8 87 be
       -0.013649755 0.024377393 -0.011037394 -0.265077
0000d0 d4 1d 63 3e 55 50 1a bd 55 fb 8a 3c ea d8 db bb
       0.22179347 -0.037674267 0.016965548 -0.006709208
0000e0 fb c9 7d bd 60 4a b1 3c ee a3 1b 3d 99 fc c1 bc
       -0.0619602 0.02164191 0.037998132 -0.023680018
0000f0 fd e2 54 bf bc f1 86 bc c7 56 a1 bc 21 75 1f be
       -0.83158857 -0.01647269 -0.019694699 -0.15572025
000100 e5 06 01 bd 8b 36 68 bc e4 21 09 bd 85 e8 90 be
       -0.031500716 -0.01417316 -0.033479586 -0.28302398
000110 70 48 3c 3d f0 8c c3 3e 48 d1 b0 3c f7 0a bd 3a
       0.04596752 0.38193464 0.021584168 0.0014422823
000120 e7 3a a2 bc dd 25 f9 3e 5a 62 9c bf 01 d5 5b bc
       -0.019803477 0.486617 -1.2217515 -0.013417483
000130 5a c4 87 bd 66 e1 19 3c ad 7d 17 3d 33 3a e7 bc
       -0.06629248 0.009392118 0.03698509 -0.028225994
000140 ca 76 6f 3d 5e a0 92 3c b1 3d 5c 3b 95 42 95 3c
       0.058462895 0.017898735 0.0033606107 0.018220225
000150 57 df b0 bb 9c bd 8a 3c a0 23 c5 3d f9 44 c4 3c
       -0.005397718 0.016936116 0.096259356 0.02395867
000160 8a c7 7c 3f 10 63 4f be 3c d4 f4 bc cc a9 3e 3e
       0.9874197 -0.20252633 -0.029886357 0.1861946
000170 2d ad 41 3f 8d 71 8c 3c c5 49 1f 3d 67 de bf 3c
       0.7565487 0.017143989 0.03888871 0.02342148
000180 2a f6 21 40 d1 fb 5a be 5b 4a ff be 2a ba 5d 39
       2.5306497 -0.21385123 -0.49861416 0.00021145554
000190 6a af e4 3c 58 be 42 bd 2d 71 17 3d a8 fe 43 be
       0.027915675 -0.047544807 0.036973167 -0.19140112
0001a0 9c 96 a4 3f f7 cb a1 3c 55 b3 96 be af 4a c6 be
       1.2858462 0.019750578 -0.29433694 -0.38728854
0001b0 34 93 86 be 85 06 8c 3c 5c 3b 5b be 27 75 3f be
       -0.26284182 0.017092953 -0.21409363 -0.18697034
0001c0 97 9c 38 bc a6 8d a8 bc 4c c3 f5 bc 7b 71 79 be
       -0.011267803 -0.020575356 -0.030000351 -0.24359696
0001d0 1b df 7a bd fb 80 56 3e c7 8b ad bc 0e 21 28 be
       -0.061247926 0.2094764 -0.021184815 -0.1641886
0001e0 ed 2d 04 3d 89 59 5e be d6 16 95 bc 10 0b b4 3a
       0.03227036 -0.21713842 -0.018199366 0.0013736207
0001f0 3c 05 71 3c ec be 89 be 1b 56 7c be 56 dd 28 3c
       0.014710721 -0.26903474 -0.24642222 0.010306677
000200 2b c7 78 be 90 2b b9 bc 07 21 2b bb 0f 40 27 3c
       -0.24294727 -0.02260378 -0.0026112215 0.010208144
000210 6b 83 a9 3e 36 e4 1e bc 37 d3 85 3e 5c c7 7f 3c
       0.33108076 -0.009697964 0.26137707 0.015611496
000220 76 db 08 be cb f2 eb 3b 74 2f 87 3c 37 8c 35 bd
       -0.13364968 0.007200574 0.01650212 -0.044323172
000230 02 69 d4 3c b0 2d 35 3d 83 f6 fd 3c 4d 8c 13 3b
       0.025928978 0.044233024 0.031001335 0.0022514046
000240 bf 59 b0 3b e6 a7 14 bc c4 7a 82 be 91 c7 d1 bb
       0.0053817923 -0.009073233 -0.25484288 -0.006401964
000250 54 a4 8c be d6 7a 95 bc f5 5c 8e bc 26 2a 71 be
       -0.27469122 -0.01824705 -0.01737831 -0.23551235
000260 f0 64 b1 3b 4c 54 fb 3c 83 0a ea 3a f8 69 42 be
       0.005413644 0.030679844 0.0017855916 -0.18985736
000270 75 01 97 bc e1 ed ce bc b8 bd 4c be 55 07 09 bc
       -0.018433312 -0.025259914 -0.19994247 -0.0083635645
000280 92 37 e9 3c d4 23 17 bb 2b aa e8 bc f2 37 5e bb
       0.02846888 -0.0023062127 -0.028401455 -0.0033907858
000290 34 35 85 bc 90 45 3d bc 46 3f 41 be b0 8a 4b 3b
       -0.01626072 -0.0115522295 -0.18871793 0.0031058006
0002a0 29 93 32 3f 32 2f d4 bc 78 23 3b 3c a8 3f c4 3f
       0.697558 -0.02590141 0.011422031 1.5331926
0002b0 91 4b 55 be d4 78 f4 bc da ee 6e be 3c 31 72 3d
       -0.20829608 -0.029842772 -0.23333302 0.059128985
0002c0 4a cf da bc 75 a8 d5 3d ef 6b b4 be 51 90 55 be
       -0.026710171 0.10432521 -0.35238597 -0.20855834
0002d0 e0 a7 c9 3c b8 9e 4d 3d d4 06 87 be 2f ca 36 bc
       0.024616182 0.050200194 -0.26372397 -0.011156603
0002e0 bc e9 ff bc 82 0c e6 bf b3 bf 70 3c 62 ac db bc
       -0.031239383 -1.7972567 0.014694142 -0.026815597
0002f0 21 91 81 3e 92 b4 b4 3b af 09 4b bf 3d 68 86 3b
       0.25306037 0.0055146897 -0.7931165 0.0041017816
000300 6b 3c 73 be 73 52 7d bc 0c 95 04 bf 06 4d 93 3b
       -0.23753516 -0.015461552 -0.5178993 0.004495266
000310 1d 2a 94 bd 80 79 4b 3c 45 81 1c bd 1c a9 83 be
       -0.07234595 0.012419105 -0.03820922 -0.25714958
000320 67 af b2 3c fc 8f f6 3c 80 a3 44 39 c2 0d 68 3e
       0.021812154 0.030097954 0.00018752925 0.22661498
000330 b7 2b aa bc 6f a6 a4 bb 39 5d 5a be 82 d9 6d 3c
       -0.020772798 -0.0050247232 -0.21324624 0.01451719
000340 90 58 3e bb d6 a5 2b be 79 1f 5d be 03 14 83 3f
       -0.0029044487 -0.1676248 -0.21594037 1.0240482
000350 05 bd 91 3d 83 b5 73 be 89 6c c6 3c 90 8d a1 3e
       0.07116131 -0.2379971 0.024221675 0.31553316
000360 93 5b fc 3a c0 68 0c 3f c4 1e 89 be 25 a9 80 3c
       0.0019253365 0.54847336 -0.26781285 0.015705654
000370 85 d3 87 3b 85 e6 52 be 53 9a 7d be 77 8a ae 3c
       0.004145088 -0.20595749 -0.24765901 0.02130626
000380 20 e1 cd bd 81 87 51 be c6 68 9e 3b 14 15 f5 bc
       -0.10052705 -0.20461847 0.0048342673 -0.029917277
000390 82 dd 64 be 86 5a d9 3e 3a 1f dc bc ba a6 58 be
       -0.22350124 0.42451876 -0.026870359 -0.21157351
0003a0 4d 55 98 3a a3 62 ba 3b 43 d1 7e be 85 b7 94 3c
       0.0011622101 0.005688028 -0.24884515 0.018153915
0003b0 24 08 86 be 1c be 0c bf 71 ba 5b 3d 1b 61 82 be
       -0.26178086 -0.54977584 0.0536446 -0.2546471
0003c0 a8 43 45 3c c8 1a 44 3c 26 fc f2 bf fa da 5d bc
       0.012040056 0.011969276 -1.89832 -0.013540978
0003d0 eb 17 28 3e 82 0e 61 39 fb 31 75 be ad 9d 81 3b
       0.16415374 0.00021463077 -0.23944847 0.003955564
0003e0 1c 8c 0c 3c 75 96 76 be 83 af 74 be 5a 9c d0 bb
       0.008578327 -0.24080832 -0.23895077 -0.006366295
0003f0 61 2e 57 be 73 7b f2 3c 08 3c 4c be 13 58 2f 3e
       -0.21013786 0.02959988 -0.19944775 0.17123441
